checkpoint/model_checkpoint_pre.pt (torch, 161014 bytes, 26 tensors)

encoder.cov01.weight f4 [32, 144, 1, 1]
0.2619261 0.01697006 -0.16711558 -0.16360356 0.14255798 -0.0001492204 -0.18448134 0.18263799
-0.18815574 0.15870066 0.040959924 0.089628205 -0.5559585 -0.08850338 -0.28350928 0.087033585
-0.59456295 -0.552082 -0.50832146 -0.19179454 0.2540509 0.10017806 -0.08112929 -0.07366075
-0.23128504 0.010123763 -0.5224726 -0.12592672 -0.18500751 0.0861151 -0.2090153 0.08981285
-0.07924649 0.005915162 -0.26793453 0.052512214 -0.14732899 -0.37337935 -0.14170118 0.15527469
0.16015549 -0.1309744 0.05861988 0.30549434 -0.15780425 0.0025383814 -0.22926746 -0.00037302516
0.26740515 -0.20956294 0.019732758 -0.3361535 -0.25666457 0.1842175 -0.13151959 0.24785061
0.4156369 -0.018644253 0.112069964 -0.09235534 0.17707731 -0.036060218 0.04420002 -0.037931267
-0.25236276 0.1702491 0.43108827 -0.22876446 0.2641085 -0.12828615 0.109513715 0.14962757
-0.4126718 -0.12393154 -0.27621394 -0.70596504 -0.49231482 -0.33629814 0.30163237 -0.0460567
-0.08928695 0.37548885 -0.005356056 -0.37517938 -0.12822682 -0.2804957 -0.28937826 -0.41209328
0.19986512 0.26158735 0.13746452 0.018427685 0.09011928 -0.028410729 -0.11239906 -0.010263139
0.03204928 -0.1936997 0.08614794 -0.2254688 -0.4997464 -0.060861815 -0.11057292 -0.12055008
0.1896504 0.32733613 0.23020966 -0.17419386 0.05318859 -0.00030418634 -0.51669264 0.33657178
-0.30463317 0.13848789 0.48902535 0.15039837 0.017177356 -0.086472034 -0.3963535 -0.088398606
-0.27134877 0.19818725 -0.31871125 -0.07298787 0.2686901 0.016361764 0.19066614 -0.2678011
-0.37005934 0.2216612 -0.25739026 0.030655721 0.28240603 0.11135926 0.16859898 -0.21891585
0.18109879 -0.110334925 -0.45383197 0.12181739 -0.026308088 -0.43568286 -0.048402842 0.18247084
0.371367 0.55315447 -0.07667438 -0.20159763 0.0009065437 -0.32116055 -0.25294322 -0.45284927
-0.011080679 0.43005484 0.21746081 0.34056577 0.2810251 0.1482861 -0.0865924 0.24939607
-0.014096331 -0.36561123 -0.25005415 0.16499549 0.18413974 -0.035640407 -0.12223052 0.1998325
0.19183591 0.0013466186 0.056273583 -0.089830905 0.38835275 0.087725595 0.2676142 -0.13554733
0.19370487 -0.44498608 -0.054547824 -0.4392077 0.4652705 -0.1085788 0.095859334 0.1532275
0.180946 0.34526324 -0.37156737 -0.1365091 0.10744272 0.37966397 -0.35253972 -0.08508987
0.3485586 0.05417343 -0.11895021 -0.14515576 -0.010955106 0.21350868 0.035513487 -0.27116567
0.3169555 0.15048392 0.3120529 0.221357 0.23007077 -0.03068471 -0.1347298 0.53003746
-0.12685664 0.2592035 -0.015080636 -0.14068 -0.17683217 0.17838843 -0.29665688 0.21761039
0.010556384 0.30669412 0.121022135 0.35936 0.5842649 0.015927657 -0.6833342 -0.18715563
0.017326348 -0.121708475 0.2837089 0.039563235 0.20369995 -0.2757767 0.2857901 0.105284736
-0.36852822 0.15877578 -0.16550605 0.36328024 -0.1469085 -0.34234154 0.46441934 0.2646345
-0.14140175 0.34397778 0.41996264 0.11464677 0.13816911 -0.041646365 0.35460117 -0.23684824
0.019825758 0.0029042824 0.025392367 -0.052248534 0.5458414 0.03490489 0.12835515 -0.025815023
00000000: 2e1b 863e cc04 8b3c 5920 2bbe b187 27be
00000010: b8fa 113e 0c78 1cb9 ade8 3cbe 7405 3b3e
00000020: e6ab 40be 6d82 223e 98c5 273d fe8e b73d
00000030: 4c53 0ebf 4341 b5bd 2128 91be aa3e b23d
00000040: 4735 18bf 3f55 0dbf 5b21 02bf ca65 44be
00000050: f612 823e 282a cd3d 1d27 a6bd 73db 96bd
00000060: fcd5 6cbe 24de 253c c4c0 05bf eff2 00be
00000070: 9c72 3dbe 1d5d b03d 1b08 56be cdef b73d
00000080: fc4b a2bd fad3 c13b b72e 89be 0c17 573d
00000090: 69dd 16be 942b bfbe 1d1a 11be 5400 1f3e
000000a0: cdff 233e 271e 06be 661b 703d c169 9c3e
000000b0: 7097 21be f95a 263b 17c5 6abe 9792 c3b9
000000c0: 54e9 883e ab97 56be 98a6 a13c 501c acbe
000000d0: 8a69 83be 83a3 3c3e 12ad 06be 8dcc 7d3e
000000e0: 5cce d43e d5bb 98bc f084 e53d cc24 bdbd
000000f0: c153 353e e1b3 13bd 150b 353d d15d 1bbd
00000100: b135 81be c855 2e3e 9ab7 dc3e 3b41 6abe
00000110: 3b39 873e 725d 03be ba48 e03d f837 193e
00000120: b849 d3be d2cf fdbd ea6b 8dbe 20ba 34bf
00000130: b010 fcbe 452f acbe 8f6f 9a3e f3a5 3cbd
00000140: 14dc b6bd 1340 c03e db81 afbb 8317 c0be
00000150: e44d 03be 229d 8fbe 6329 94be e4fd d2be
00000160: 71a9 4c3e c7ee 853e 80c3 0c3e a8f5 963c
00000170: 7590 b83d 9ebd e8bc 7a31 e6bd ba26 28bc
00000180: 1b46 033d 3759 46be 556e b03d 4be1 66be
00000190: c3de ffbe 3d4a 79bd 0e74 e2bd f6e2 f6bd
000001a0: b733 423e 9a98 a73e 15bc 6b3e e05f 32be
000001b0: 47dc 593d 337b 9fb9 f845 04bf 2353 ac3e
000001c0: e1f8 9bbe c5cf 0d3e 8861 fa3e 0802 1a3e
000001d0: 87b7 8c3c 4018 b1bd d9ee cabe 540a b5bd
000001e0: 3aee 8abe 99f1 4a3e 1f2e a3be aa7a 95bd
000001f0: c091 893e 1b09 863c fc3d 433e 3a1d 89be
00000200: 6b78 bdbe 27fb 623e a8c8 83be b521 fb3c
00000210: 8697 903e 5310 e43d 36a5 2c3e 7a2b 60be
00000220: f671 393e 47f7 e1bd aa5c e8be 657b f93d
00000230: 0f84 d7bc d311 dfbe 0f42 46bd a3d9 3a3e
00000240: d123 be3e 889b 0d3f 7507 9dbd 9c6f 4ebe
00000250: 1ea5 6d3a 286f a4be c681 81be dcdb e7be
00000260: bc8b 35bc 2630 dc3e 0cae 5e3e a35e ae3e
00000270: 86e2 8f3e 50d8 173e 5b57 b1bd af61 7f3e
00000280: 4cf4 66bc 6531 bbbe 1907 80be 94f4 283e
00000290: 218f 3c3e adfb 11bd ff53 fabd e4a0 4c3e
000002a0: a270 443e 0681 b03a 217f 663d 44f9 b7bd
000002b0: 2cd6 c63e 7aa9 b33d ba04 893e ebcc 0abe
000002c0: 925a 463e 37d5 e3be 8a6d 5fbd d5df e0be
000002d0: ef37 ee3e 905e debd e651 c43d abe7 1c3e
000002e0: e949 393e 58c6 b03e 143e bebe 0bc9 0bbe
000002f0: ee0a dc3d 5163 c23e 1680 b4be 9943 aebd
00000300: 4676 b23e f5e4 5d3d 2b9c f3bd b6a3 14be
00000310: 0b7d 33bc 05a2 5a3e 9776 113d 3ad6 8abe
00000320: fe47 a23e 7518 1a3e 66c5 9f3e 69ab 623e
00000330: ac97 6b3e 805e fbbc 9cf6 09be 89b0 073f
00000340: b5e6 01be 52b6 843e c614 77bc 6b0e 10be
00000350: 7e13 35be 75ab 363e 69e3 97be 42d5 5e3e
00000360: aff4 2c3c 0307 9d3e 74da f73d 09fe b73e
00000370: 6292 153f b87a 823c fdee 2ebf baa5 3fbe
00000380: fcef 8d3c 4b42 f9bd 4b42 913e 0f0d 223d
00000390: b896 503e 9b32 8dbe 1453 923e 869f d73d
000003a0: bbaf bcbe 1e96 223e 6b7a 29be deff b93e
000003b0: 2f6f 16be 6447 afbe 5fc8 ed3e 2c7e 873e
000003c0: 9fcb 10be db1d b03e 5805 d73e edcb ea3d
000003d0: 347c 0d3e 6195 2abd 498e b53e 5888 72be
000003e0: a169 a23c c655 3e3b a703 d03c 8f02 56bd
000003f0: 43bc 0b3f 6ef8 0e3d 886f 033e 077a d3bc

encoder.cov01.bias f4 [32]
1.8130739e-05 8.895421e-05 0.000112725356 6.75679e-05 2.4019886e-05 -2.0342786e-05 -0.00014954775 -0.0001968446
0.00015245941 1.4797998e-05 4.1745705e-05 -9.46012e-05 -0.00017624133 1.5293615e-05 -0.00018688504 7.966439e-05
-0.00012320305 -9.031508e-05 4.7058005e-05 -0.00015310464 -7.5707525e-05 -5.7413174e-05 -3.4264016e-05 -0.0001388179
-6.61937e-06 0.00026463906 -0.000213359 9.660793e-06 5.19641e-05 -7.3212825e-05 -0.00010920049 -8.8035325e-05
00000000: 7717 9837 ee8c ba38 f766 ec38 3db3 8d38
00000010: 507e c937 cda5 aab7 ebcf 1cb9 1268 4eb9
00000020: 83dd 1f39 eb44 7837 1c18 2f38 a264 c6b8
00000030: 6ccd 38b9 ca4a 8037 92f6 43b9 7e11 a738
00000040: 1130 01b9 8a67 bdb8 2660 4538 b78a 20b9
00000050: 2bc5 9eb8 edce 70b8 b5b6 0fb8 a58f 11b9
00000060: f51b deb6 41bf 8a39 1fb9 5fb9 ca14 2237
00000070: 07f4 5938 d689 99b8 9102 e5b8 9b9f b8b8

encoder.bn01.weight f4 [32]
1.0191996 1.0244972 1.0128125 1.0278982 0.9694004 1.0126654 0.9649202 0.9987496
1.0323389 0.9744296 1.0846095 0.96696055 1.0055091 0.9829994 1.0089777 1.0072222
1.00466 1.0317404 0.99142355 0.9923561 0.9705058 0.98666406 1.085078 0.9943289
0.972101 0.9910727 0.9851051 0.9880448 0.9885573 1.0041653 0.9568283 0.9597232
00000000: 2275 823f b922 833f d7a3 813f 2b92 833f
00000010: a02a 783f 059f 813f 0305 773f 0eae 7f3f
00000020: ae23 843f 3874 793f 7cd4 8a3f ba8a 773f
00000030: 86b4 803f d9a5 7b3f 2e26 813f a8ec 803f
00000040: b398 803f 1210 843f efcd 7d3f 0d0b 7e3f
00000050: 1173 783f 0496 7c3f d6e3 8a3f 578c 7e3f
00000060: 9cdb 783f f1b6 7d3f d92f 7c3f 81f0 7c3f
00000070: 1712 7d3f 7d88 803f b3f2 743f 6bb0 753f

encoder.bn01.bias f4 [32]
0.046804972 0.040290084 0.036839504 0.025056228 -0.044053715 -0.0033182786 -0.040365156 0.021281527
0.01433795 -0.014747065 0.053733323 -0.031047873 -0.017976157 -0.011560458 0.004630134 -0.05217738
0.0057394197 -0.020688701 0.037263006 -0.035883628 0.031298228 0.018226096 0.08688897 -0.031867374
0.0046333536 -0.005259223 0.015021573 -0.010605907 -0.0057362798 0.0116664795 -0.053183317 0.0024919275
00000000: 92b6 3f3d 3707 253d 05e5 163d b842 cd3c
00000010: ab71 34bd 7a77 59bb ef55 25bd 9956 ae3c
00000020: b9e9 6a3c ac9d 71bc 7917 5c3d 1c58 febc
00000030: bc42 93bc 1368 3dbc 61b8 973b f3b7 55bd
00000040: be11 bc3b 5a7b a9bc 18a1 183d b6fa 12bd
00000050: 9232 003d e54e 953c d8f2 b13d 5d87 02bd
00000060: 63d3 973b 8f55 acbb 0b1d 763c 66c4 2dbc
00000070: 67f7 bbbb c324 3f3c c0d6 59bd 9b4f 233b

encoder.bn01.running_mean f4 [32]
-0.009501481 0.007940812 -0.007424148 -0.009083119 -0.004762452 0.00569403 -0.0012047003 -0.0014228628
0.0052109105 -0.008146142 -0.0060709454 0.00020709232 0.00047439514 0.002866696 -0.006108815 -0.0010972883
-0.0025100852 0.0013299622 -0.0023607763 0.0065564 0.005469256 -0.008070093 0.0036546402 -0.0023144856
-0.0033676492 -0.003689108 -0.00016201459 -0.0026049044 0.007852699 0.0012267496 -0.006627286 -0.0048335786
00000000: 1aac 1bbc 2e1a 023c 4446 f3bb 5dd1 14bc
00000010: 580e 9cbb fc94 ba3b 09e7 9dba 5a7f baba
00000020: 49c0 aa3b 6577 05bc c8ee c6bb ec26 5939
00000030: 3db8 f839 2edf 3b3b 742c c8bb e3d2 8fba
00000040: 3e80 24bb 2052 ae3a 41b7 1abb 12d7 d63b
00000050: 7237 b33b 6c38 04bc b082 6f3b a0ae 17bb
00000060: c7b3 5cbb f6c4 71bb 76e2 29b9 0bb7 2abb
00000070: 9ba8 003c e3ca a03a b429 d9bb ff62 9ebb

encoder.bn01.running_var f4 [32]
43.968494 33.24 24.308367 31.754835 33.367863 15.541322 4.1654806 4.355056
12.890125 21.111328 12.632298 15.307255 11.2484455 23.498383 11.793165 11.566036
4.3034577 11.59464 37.926865 18.135612 20.124964 28.244047 6.5590262 9.847135
5.6241264 5.238323 14.5803995 28.630169 28.30581 7.94668 22.434566 7.503989
00000000: bddf 2f42 c3f5 0442 8977 c241 e709 fe41
00000010: b178 0542 41a9 7841 9e4b 8540 9e5c 8b40
00000020: f43d 4e41 00e4 a841 e51d 4a41 84ea 7441
00000030: a2f9 3341 b0fc bb41 ceb0 3c41 7c0e 3941
00000040: edb5 8940 a583 3941 1cb5 1742 bc15 9141
00000050: edff a041 cff3 e141 8be3 d140 dd8d 1d41
00000060: d8f8 b340 58a0 a740 5149 6941 960a e541
00000070: 4d72 e241 344b fe40 fe79 b341 ae20 f040

encoder.cov02.weight f4 [32, 32, 3, 3]
-0.04219858 -0.032927476 0.11435443 -0.033952054 -0.13316429 -0.018773915 0.15356262 -0.009862683
0.045865264 -0.1707311 -0.15270638 0.15290754 0.02360598 -0.046719708 -0.08179219 -0.07707913
0.17319916 0.009026765 0.017022518 -0.058584545 -0.08191095 0.05075785 0.12303449 -0.010633905
0.04714049 0.105994314 0.08156111 0.017052125 0.092918515 0.006660198 -0.038445305 0.18876769
0.19601546 0.021158239 -0.032317966 0.03380298 -0.018655179 -0.013409508 0.075889155 0.089525
-0.1215862 -0.07852534 0.09022233 -0.004556005 0.03252655 0.017684147 0.07618874 0.031041661
-0.035536986 -0.03723972 -0.025473315 0.02084637 0.2029474 -0.12805076 -0.1436397 -0.042809423
0.09064037 -0.04925976 -0.020792222 -0.043648493 0.07705279 0.0051269694 0.107521415 -0.08939594
-0.033702612 -0.08720887 0.076906085 0.076457135 -0.0028735362 0.014590709 0.16254559 -0.11283975
0.03247475 0.033204928 0.06262417 -0.03233186 0.027766732 -0.04723313 -0.03704986 -0.23690128
-0.18298605 0.021784792 0.10248709 0.02341805 0.126751 -0.05134776 0.05204264 0.1921047
-0.044360068 0.010490069 0.06388267 -0.15389182 0.04103043 0.005973918 0.11873409 -0.023173055
0.01719114 -0.017804375 -0.15662256 0.09560574 -0.12858017 0.105605565 -0.12586507 -0.08124628
-0.0725492 0.06322508 -0.03506888 -0.00599185 0.08880309 0.08418967 0.051984776 0.05898033
0.021691114 -0.054967068 0.13354632 -0.018002447 -0.042974785 -0.0808361 -0.052227367 -0.09171922
-0.008212669 0.018387765 -0.06637461 0.014306506 -0.050943743 -0.105882816 0.14680223 0.016999548
-0.046613358 0.14170769 0.020803787 0.075505376 -0.0061415904 0.08850441 0.011871802 -0.04937789
0.10253836 0.052198403 0.023312656 0.079569675 -0.09172757 0.04825234 -0.00020223316 -0.09641576
-0.16725062 0.06374213 -0.0650433 0.122419566 0.19154517 0.15638325 0.0073215114 0.0938266
0.052357417 -0.06574827 0.052795358 -0.12701151 0.011519363 -0.048943732 0.13373078 0.038468115
-0.016887596 0.19063398 0.030954247 -0.06264039 -0.07513577 0.06735598 -0.2005763 0.011833423
-0.012934487 -0.07160435 0.09921576 -0.15795034 -0.014415857 0.030483076 0.004287147 -0.105912186
0.029730864 0.06445009 -0.026483808 -0.19229268 -0.083914235 0.08883601 0.02753207 0.1338805
-0.13900065 0.045144603 -0.054139785 0.1266685 0.11112887 -0.03450452 0.021016337 -0.014912645
0.0369454 0.110120706 -0.08217925 -0.08041553 -0.005889081 -0.20278431 0.04857717 -0.013211893
0.12876575 0.12433005 0.09899292 -0.01629163 0.1542862 -0.016658094 -0.08095605 0.01295773
0.08290015 0.15346605 0.036914825 0.09758013 0.14645079 -0.06736598 0.03660754 -0.030202938
0.103877105 0.16212584 0.06477598 -0.009263639 0.020061435 0.07762697 0.033814594 0.10664418
0.13816519 -0.045498174 0.080251634 0.019397615 0.08817753 -0.039329216 0.11112633 0.0026185727
-0.035690967 -0.08484874 0.12294331 -0.084517755 0.14934164 -0.072000764 -0.11102057 -0.010055074
0.10022849 -0.020772632 0.009123648 -0.073748715 0.0746699 -0.03332747 0.038404375 0.052967366
0.09180209 -0.04816678 0.0042396705 -0.0053847013 0.076836206 0.12411169 0.040335253 -0.031631146
00000000: 6bd8 2cbd f6de 06bd a832 ea3d 4f11 0bbd
00000010: 385c 08be c1cb 99bc 853f 1d3e 1797 21bc
00000020: 37dd 3b3d 22d4 2ebe 105f 1cbe cb93 1c3e
00000030: 5461 c13c 2a5d 3fbd aa82 a7bd aadb 9dbd
00000040: 1f5b 313e ffe4 133c cf72 8b3c 59f6 6fbd
00000050: eec0 a7bd 77e7 4f3d 82f9 fb3d d539 2ebc
00000060: 6316 413d 8c13 d93d 8309 a73d e6b0 8b3c
00000070: 104c be3d ca3d da3b d378 1dbd 514c 413e
00000080: 47b8 483e 0b54 ad3c d85f 04bd fe74 0a3d
00000090: bfd2 98bc 8eb3 5bbc c66b 9b3d e258 b73d
000000a0: 3002 f9bd e5d1 a0bd 7cc6 b83d 8a4a 95bb
000000b0: 8f3a 053d 58de 903c d808 9c3d 154b fe3c
000000c0: 3b8f 11bd ad88 18bd 6aad d0bc 02c6 aa3c
000000d0: 71d1 4f3e bd1f 03be 4916 13be ef58 2fbd
000000e0: a9a1 b93d 9ac4 49bd 7354 aabc c3c8 32bd
000000f0: dacd 9d3d 2300 a83b 3034 dc3d 3815 b7bd
00000100: c00b 0abd 909a b2bd f080 9d3d 8f95 9c3d
00000110: f051 3cbb de0d 6f3c 5a72 263e 8718 e7bd
00000120: 3e04 053d e401 083d 1a41 803d 6a6e 04bd
00000130: 0f77 e33c 8777 41bd 98c1 17bd 4096 72be
00000140: b260 3bbe 0576 b23c c0e4 d13d 36d7 bf3c
00000150: 04cb 013e 0752 52bd aa2a 553d 18b7 443e
00000160: e7b2 35bd 8ade 2b3c ebd4 823d d195 1dbe
00000170: 860f 283d dbc0 c33b dc2a f33d 6bd5 bdbc
00000180: 6fd4 8c3c 7bda 91bc aa61 20be f1cc c33d
00000190: 85aa 03be bb47 d83d c6e2 00be 7364 a6bd
000001a0: ad94 94bd 277c 813d 63a4 0fbd 4857 c4bb
000001b0: 65de b53d a26b ac3d fded 543d 5c95 713d
000001c0: 90b1 b13c 2625 61bd 5ec0 083e de79 93bc
000001d0: 5406 30bd 668d a5bd 5dec 55bd 49d7 bbbd
000001e0: 6e8e 06bc f0a1 963c 69ef 87bd d665 6a3c
000001f0: 63aa 50bd 17d9 d8bd 5353 163e a342 8b3c
00000200: a6ed 3ebd d21b 113e b46c aa3c 90a2 9a3d
00000210: 653f c9bb cd41 b53d f281 423c 7840 4abd
00000220: a2ff d13d fecd 553d 2ffa be3c 6df5 a23d
00000230: aadb bbbd 3fa4 453d 8d0e 54b9 a075 c5bd
00000240: bf43 2bbe 3c8b 823d 6c35 85bd 1cb7 fa3d
00000250: 6b24 443e ee22 203e 4ae9 ef3b 2928 c03d
00000260: bb74 563d 07a7 86bd f23f 583d 4e0f 02be
00000270: b6bb 3c3c 3979 48bd b9f0 083e be90 1d3d
00000280: db57 8abc 8e35 433e c393 fd3c 9b49 80bd
00000290: c8e0 99bd eff1 893d e063 4dbe f9e0 413c
000002a0: 2ceb 53bc 4da5 92bd a231 cb3d bcbd 21be
000002b0: 7d30 6cbc a5b7 f93c 327b 8c3b 7de8 d8bd
000002c0: 248e f33c 69fe 833d 92f4 d8bc 5fe8 44be
000002d0: 3adb abbd a7ef b53d f08a e13c f817 093e
000002e0: 3056 0ebe 8ce9 383d aec1 5dbd 63b5 013e
000002f0: 8897 e33d 9d54 0dbd 742a ac3c 2b54 74bc
00000300: 0f54 173d f786 e13d 984d a8bd e6b0 a4bd
00000310: 31f9 c0bb b1a6 4fbe dbf8 463d b276 58bc
00000320: 2bdb 033e c1a0 fe3d cdbc ca3d 0676 85bc
00000330: 34fd 1d3e 8e76 88bc 49cc a5bd a94c 543c
00000340: 8ec7 a93d 3426 1d3e 0034 173d 17d8 c73d
00000350: 32f7 153e 2df7 89bd caf1 153d 276c f7bc
00000360: 85bd d43d 5104 263e 45a9 843d 85c6 17bc
00000370: e157 a43c e4fa 9e3d 2c81 0a3d 4468 da3d
00000380: 2d7b 0d3e 4b5c 3abd f85a a43d bfe7 9e3c
00000390: 6c96 b43d ac17 21bd 3496 e33d 5c9c 2b3b
000003a0: b130 12bd 2dc5 adbd b4c9 fb3d a517 adbd
000003b0: 04ed 183e 2375 93bd c15e e3bd 09be 24bc
000003c0: 9844 cd3d 5e2b aabc 5a7b 153c 9109 97bd
000003d0: 88ec 983d 6382 08bd e84d 1d3d 4ff4 583d
000003e0: bc02 bc3d 884a 45bd efec 8a3b 2672 b0bb
000003f0: 4d5c 9d3d 452e fe3d 9436 253d a98f 01bd

encoder.cov02.bias f4 [32]
3.1025833e-05 0.00046136577 1.2016239e-05 9.2062306e-05 0.00023081832 4.8192473e-05 -0.0011317296 -0.00017534639
-9.711044e-05 -0.0010965251 -0.00037569512 -0.0003079934 -0.00015008541 -0.00060307386 -9.212033e-05 3.9376653e-05
-7.789277e-05 0.0011729766 -1.4622707e-05 -0.000114008435 -0.0001015776 -0.00060688355 4.608249e-05 0.0006647995
0.00016335964 0.000327728 -0.00011003687 -0.00039734814 0.0010645069 0.0009591928 -0.00033959444 0.00019322812
00000000: bc21 0238 77e3 f139 5b99 4937 9311 c138
00000010: d207 7239 4622 4a38 8b56 94ba 30dd 37b9
00000020: c5a7 cbb8 47b9 8fba f2f8 c4b9 2d7a a1b9
00000030: 3f60 1db9 9a17 1eba ba30 c1b8 5c28 2538
00000040: 5d5a a3b8 90be 993a 0c54 75b7 d017 efb8
00000050: 0f06 d5b8 4417 1fba b248 4138 f045 2e3a
00000060: 854b 2b39 e8d2 ab39 98c3 e6b8 2a53 d0b9
00000070: ed86 8b3a 5772 7b3a 980b b2b9 479d 4a39

encoder.bn02.weight f4 [32]
1.0243491 0.9964232 0.8533344 0.9790781 1.0093685 1.0340576 0.9880301 1.0312724
0.9689232 0.9977124 0.98858833 0.9809682 0.9890723 0.9950739 1.0455451 1.0115631
1.0487404 0.9947636 0.99898905 1.0130568 1.0607266 1.0066882 1.0104322 1.0396781
1.0026866 1.0064477 1.0201591 1.0017745 0.9890299 0.95674664 0.9889008 1.004499
00000000: df1d 833f 9715 7f3f 2074 5a3f dda4 7a3f
00000010: fd32 813f 005c 843f 8aef 7c3f bc00 843f
00000020: 5a0b 783f 146a 7f3f 2014 7d3f bb20 7b3f
00000030: d833 7d3f 2abd 7e3f 6cd4 853f e67a 813f
00000040: 203d 863f d4a8 7e3f bfbd 7f3f d8ab 813f
00000050: e4c5 873f 29db 803f d855 813f 2c14 853f
00000060: 0958 803f 47d3 803f 9394 823f 263a 803f
00000070: 1031 7d3f 59ed 743f 9a28 7d3f 6c93 803f

encoder.bn02.bias f4 [32]
-0.0013552982 0.047273006 -0.064316526 -0.00054826523 0.016938917 0.023684258 -0.009935415 0.07732083
-0.01256526 -0.011696077 -0.06381016 0.026837075 -0.03551657 0.023782207 0.032525215 -0.0012245417
0.045761887 0.016974254 0.03668062 -0.0013605228 0.14634702 -0.04668242 -0.0054682116 0.058752194
-0.010183402 0.060931757 0.053972855 -0.007250868 -0.002534064 -0.005582848 -0.007863754 0.005538335
00000000: 43a4 b1ba 57a1 413d 62b8 83bd 75b9 0fba
00000010: 7cc3 8a3c 7d05 c23c 27c8 22bc 625a 9e3d
00000020: 85de 4dbc e7a0 3fbc e7ae 82bd 6dd9 db3c
00000030: d379 11bd e7d2 c23c 2939 053d cd80 a0ba
00000040: d170 3b3d 970d 8b3c 6b3e 163d 9253 b2ba
00000050: fedb 153e 1136 3fbd af2e b3bb 24a6 703d
00000060: 49d8 26bc 9493 793d a412 5d3d b098 edbb
00000070: 8a12 26bb 53f0 b6bb fad6 00bc ec7a b53b

encoder.bn02.running_mean f4 [32]
1.0962268 -0.22306925 0.18463217 0.528778 0.11451126 0.6825621 -0.15199216 0.2210532
-0.691445 0.04101053 0.41345015 -0.52577764 1.1096003 -1.803514 0.11854969 1.3398597
-0.15721081 -0.021447983 -0.39469668 0.16642052 -0.3898408 -0.14470653 0.6222045 0.3915064
-0.42401043 -0.6581328 0.22198471 -0.2506057 0.47477293 0.12240367 0.0030406336 -0.01557663
00000000: 2951 8c3f 446c 64be 3710 3d3e ff5d 073f
00000010: e184 ea3d 64bc 2e3f d5a3 1bbe c55b 623e
00000020: 8a02 31bf a8fa 273d bdaf d33e 5d99 06bf
00000030: 6207 8e3f 8cd9 e6bf 2eca f23d 8680 ab3f
00000040: dffb 20be aeb3 afbc af15 cabe 246a 2a3e
00000050: 3799 c7be f32d 14be cb48 1f3f 8773 c83e
00000060: e517 d9be 647b 28bf f64f 633e 644f 80be
00000070: 7015 f33e c6ae fa3d 5e45 473b 1f35 7fbc

encoder.bn02.running_var f4 [32]
2.2661533 0.7568159 0.4806828 1.6763896 0.7690315 0.61109316 0.6376123 0.79807305
1.0266192 1.5593947 1.0903257 2.703706 1.4435564 2.4658978 0.66479415 2.1762242
0.7153088 0.915885 1.537641 2.442683 0.22312638 0.35613593 1.7176048 0.52284145
0.8532821 1.3037797 0.46680236 1.1930876 0.5619244 0.7236137 0.7353297 0.88457584
00000000: a808 1140 b0be 413f 0e1c f63e ef93 d63f
00000010: 40df 443f 9a70 1c3f 8f3a 233f 844e 4c3f
00000020: 4268 833f 3f9a c73f cb8f 8b3f 8509 2d40
00000030: 75c6 b83f 45d1 1d40 f32f 2a3f 4247 0b40
00000040: 7a1e 373f 7077 6a3f 6cd1 c43f eb54 1c40
00000050: 3e7b 643e 7357 b63e 79da db3f f0d8 053f
00000060: b270 5a3f 41e2 a63f b800 ef3e 18b7 983f
00000070: 47da 0f3f bf3e 393f 913e 3c3f 9073 623f

encoder.cov03.weight f4 [32, 32, 3, 3]
0.017620286 -0.010856838 0.10815673 0.035629615 -0.019555645 0.016578633 0.07064313 -0.04218044
0.1452913 0.07471192 0.008216203 0.06783726 -0.0763718 -0.027155822 -0.10655995 -0.027984733
-0.053990304 0.0455542 0.13305624 -0.022000577 0.0007170881 -0.06885873 0.1885939 -0.091016315
0.032907914 0.07022103 0.07893515 -0.08213945 0.056412335 0.07853947 0.07587289 -0.08486566
0.014803684 0.1011153 0.13287856 -0.08972794 0.12717173 0.026018914 0.075739264 0.0019192871
0.02079406 0.069973774 0.08666748 -0.017405646 0.08551023 -0.093693346 0.01997981 -0.059951253
0.009057778 -0.004179881 -0.031960532 -0.02234604 0.13136652 0.07055029 0.05714523 -0.016336815
-0.0019050111 0.029247466 0.018775128 -0.01838402 0.026913766 -0.09492105 0.06656629 -0.19309378
-0.007474342 -0.03540725 -0.04485764 0.011830474 0.09699712 -0.03177494 0.1787697 0.03815569
-0.12748891 -0.1014066 -0.094313696 -0.08285397 -0.06898231 0.13268715 0.050117128 0.022307843
0.07239948 -0.14405939 0.0061241887 -0.0051178383 0.052102942 -0.07471251 0.12791254 -0.15229607
0.037844323 -0.10162891 0.15158324 0.030806491 0.0041510244 0.070635796 0.08601911 0.05015638
0.08974424 0.13360615 -0.032623798 0.09688596 0.034566745 0.10202277 0.09891638 0.09683998
-0.02959187 0.070722155 0.05629153 -0.042081427 -0.03068729 -0.046897277 0.037390318 0.017245183
0.11531103 -0.1208798 -0.08338258 0.09506767 0.002580026 -0.013861492 0.0021687436 0.019840278
-0.12803574 -0.03059369 -0.051969044 -0.04118527 -0.0073677357 -0.17150232 0.04093108 -0.0049570804
-0.050002426 0.09697536 0.012568832 -0.059195068 -0.0916866 -0.09019357 -0.14772902 0.21724717
0.07149662 0.1742142 0.03288955 0.006303821 0.08887297 0.10537221 0.098992355 -0.01276709
0.04436084 0.05672461 0.025954543 0.09237423 -0.08579472 -0.12823008 0.027043996 0.008250926
-0.029182773 -0.084374115 -0.006216522 0.14900975 -0.058969185 -0.06553656 0.13582505 0.22084548
0.03691852 -0.041070778 0.04791139 -0.062647045 0.07015297 -0.018748125 -0.048087295 -0.097311325
0.11872754 0.00037718646 -0.12099098 -0.020960858 -0.059051666 0.15930752 -0.049965356 0.15971392
-0.057102915 -0.10299302 0.1424715 -0.031684108 -0.041282915 0.07142224 -0.011404727 0.115931936
0.088850155 -0.1110899 0.028323753 0.018260885 0.12489486 0.12918644 0.032855943 0.05448593
-0.07098685 -0.05686507 -0.019060057 0.027200317 0.02861334 -0.13360019 -0.122941636 0.04099079
-0.18658255 0.14364727 0.030202616 -0.03786154 0.004365811 -0.03978682 0.176853 -0.1765192
0.14025998 -0.11110268 0.035571855 0.08246984 -0.018764585 0.028511222 0.12892206 -0.029532624
0.044422325 -0.17806767 0.011107872 -0.008258813 0.086817876 -0.11452809 0.08129943 -0.035454184
-0.09207026 -0.0035289063 -0.011345676 0.12875621 -0.016293418 0.052137446 -0.10479027 0.008966057
-0.031928305 -0.074763 -0.005655356 0.005403903 -0.05700044 -0.025800444 -0.20640552 0.087440856
-0.0834175 0.07389784 -0.06814227 -0.10935458 -0.024283137 0.07442986 0.11622116 -0.15588082
0.0051780604 -0.12014735 -0.009956551 -0.05134486 -0.011325073 -0.0198108 -0.056041196 -0.038537163
00000000: 6b58 903c e1e0 31bc 4781 dd3d 5cf0 113d
00000010: 2933 a0bc eacf 873c 58ad 903d 66c5 2cbd
00000020: 3ec7 143e 9002 993d 419d 063c 43ee 8a3d
00000030: d168 9cbd e375 debc 1a3c dabd 3d40 e5bc
00000040: f024 5dbd 0a97 3a3d e53f 083e 8e3a b4bc
00000050: f8fa 3b3a ce05 8dbd c21e 413e c366 babd
00000060: 73ca 063d 0bd0 8f3d c0a8 a13d ba38 a8bd
00000070: 9f10 673d 4dd9 a03d 3f63 9b3d 0cce adbd
00000080: 278b 723c 8a15 cf3d 5111 083e 48c3 b7bd
00000090: 4e39 023e 9e25 d53c 301d 9b3d 9790 fb3a
000000a0: 4e58 aa3c 694e 8f3d b87e b13d 4996 8ebc
000000b0: fd1f af3d 4ce2 bfbd b3ac a33c 728f 75bd
000000c0: 1367 143c 62f7 88bb 0ce9 02bd 0b0f b7bc
000000d0: f284 063e ac7c 903d 1e11 6a3d c9d4 85bc
000000e0: 91b1 f9ba 6298 ef3c 4cce 993c 169a 96bc
000000f0: 427a dc3c f865 c2bd e853 883d 60ba 45be
00000100: 53eb f4bb 3107 11bd a5bc 37bd 9bd4 413c
00000110: 6da6 c63d 7126 02bd 670f 373e 2449 1c3d
00000120: 748c 02be 43ae cfbd 8a27 c1bd 58af a9bd
00000130: 9946 8dbd 24df 073e 9e47 4d3d f0be b63c
00000140: 2e46 943d 4e84 13be 6bad c83b 8ab3 a7bb
00000150: e569 553d df02 99bd 81fb 023e 80f3 1bbe
00000160: a602 1b3d d122 d0bd a338 1b3e e55d fc3c
00000170: 5105 883b 80a9 903d ca2a b03d c770 4d3d
00000180: d4cb b73d 0dd0 083e 88a0 05bd 256c c63d
00000190: dc95 0d3d 50f1 d03d ac94 ca3d 0a54 c63d
000001a0: a66a f2bc c7d6 903d f391 663d 935d 2cbd
000001b0: e963 fbbc 5c17 40bd 9726 193d c545 8d3c
000001c0: 3028 ec3d d48f f7bd 7cc4 aabd d7b2 c23d
000001d0: a715 293b 501b 63bc 7b21 0e3b 1488 a23c
000001e0: cd1b 03be 9e9f fabc 7edd 54bd e3b1 28bd
000001f0: 0c6d f1bb 4e9e 2fbe 59a7 273d 016f a2bb
00000200: 58cf 4cbd 049b c63d 81ed 4d3c 8776 72bd
00000210: 2fc6 bbbd 68b7 b8bd 4746 17be 0b76 5e3e
00000220: d26c 923d 3565 323e 31b7 063d 4990 ce3b
00000230: 0803 b63d 63cd d73d 81bc ca3d 0f2d 51bc
00000240: b6b3 353d 1158 683d 9f9e d43c b32e bd3d
00000250: 24b5 afbd bf4e 03be 5f8b dd3c e42e 073c
00000260: b610 efbc 56cc acbd f7b3 cbbb 0396 183e
00000270: ac89 71bd 0838 86bd b915 0b3e 5125 623e
00000280: e037 173d d539 28bd bc3e 443d 184d 80bd
00000290: 5cac 8f3d ab95 99bc 2ff7 44bd 294b c7bd
000002a0: 6d27 f33d 1cc1 c539 1eca f7bd 1bb6 abbc
000002b0: 29e0 71bd 8321 233e 79a8 4cbd 0c8c 233e
000002c0: bfe4 69bd 01ee d2bd 0de4 113e 32c7 01bd
000002d0: 4618 29bd d345 923d e4da 3abc b96d ed3d
000002e0: 12f7 b53d 1a83 e3bd 3707 e83c da97 953c
000002f0: e0c8 ff3d 7349 043e f493 063d a32c 5f3d
00000300: 8e61 91bd 59eb 68bd d623 9cbc 33d3 de3c
00000310: 8666 ea3c 7dce 08be d3c8 fbbd f5e5 273d
00000320: 7f0f 3fbe 4518 133e 7a6b f73c b414 1bbd
00000330: 140f 8f3b 81f7 22bd f418 353e 73c1 34be
00000340: 50a0 0f3e cd89 e3bd cbb3 113d f3e5 a83d
00000350: 30b8 99bc 5e90 e93c 2504 043e 67ee f1bc
00000360: 2ff4 353d 5f57 36be cbfd 353c f94f 07bc
00000370: 92cd b13d b48d eabd 5180 a63d 6838 11bd
00000380: 558f bcbd 3945 67bb 37e3 39bc abd8 033e
00000390: c679 85bc 138e 553d 489c d6bd 5ee6 123c
000003a0: 41c7 02bd 581d 99bd 9150 b9bb 3913 b13b
000003b0: 4b79 69bd 745b d3bc f85b 53be 3114 b33d
000003c0: cbd6 aabd c057 973d 2d8e 8bbd 4bf5 dfbd
000003d0: 6eed c6bc af6e 983d 5c05 ee3d 399f 1fbe
000003e0: b8ac a93b d00f f6bd cd20 23bc fd4e 52bd
000003f0: cd8c 39bc 424a a2bc 748b 65bd 25d9 1dbd

encoder.cov03.bias f4 [32]
-0.0006406875 0.00011089344 4.945047e-05 0.00037822162 0.00013371758 -0.00027383212 0.000106176056 0.00014568171
-6.858272e-05 0.00010593214 0.00025680196 0.00031530697 -0.0004530762 -0.0003405787 0.0004629117 0.00027635228
-6.2894505e-05 -0.000102874976 -0.00045467136 -9.6087875e-05 0.00049740775 0.0005516106 2.1908261e-05 0.00012515712
9.09329e-05 0.0006432285 4.7602425e-05 -0.00021929704 0.0002651673 -2.4952442e-05 -0.00019125025 -7.1850394e-05
00000000: cff3 27ba 768f e838 0a69 4f38 0c4c c639
00000010: 8a36 0c39 2091 8fb9 d6aa de38 23c2 1839
00000020: 11d4 8fb8 e227 de38 60a3 8639 c94f a539
00000030: dc8a edb9 b38f b2b9 f5b2 f239 60e3 9039
00000040: 3be6 83b8 95be d7b8 f560 eeb9 c982 c9b8
00000050: 7864 023a f699 103a a2c7 b737 9c3c 0339
00000060: 3bb3 be38 559e 283a b7a8 4738 1af3 65b9
00000070: 2706 8b39 f650 d1b7 598a 48b9 63ae 96b8

encoder.bn03.weight f4 [32]
0.990478 0.9919279 0.9690632 1.0035089 1.0005469 1.0198302 1.0147285 1.0144589
1.0013057 1.0166942 1.0483044 0.9697212 0.98296434 1.0015812 1.0265572 1.0066833
0.9503469 1.0028424 0.93924695 0.98028153 1.0127318 1.0533484 0.96189284 0.9596336
0.9442667 1.0234809 0.9847474 0.96899754 0.9513836 1.0162277 1.0059102 1.0234461
00000000: f78f 7d3f fdee 7d3f 8714 783f fb72 803f
00000010: ec11 803f cc89 823f a0e2 813f cad9 813f
00000020: c92a 803f 0923 823f d72e 863f a63f 783f
00000030: 8da3 7b3f d033 803f 3a66 833f 00db 803f
00000040: ef49 733f 245d 803f 7d72 703f bbf3 7a3f
00000050: 32a1 813f 1fd4 863f 9c3e 763f 8caa 753f
00000060: 76bb 713f 6c01 833f 6818 7c3f 3910 783f
00000070: e08d 733f c013 823f aac1 803f 4800 833f

encoder.bn03.bias f4 [32]
-0.02611726 0.052236 0.011151719 0.11068043 -0.003045203 0.07294786 0.04232757 0.052072704
-0.03279584 0.04546654 0.06672292 0.0010838257 0.016704097 0.010725511 0.14483777 0.015223343
-0.08665275 -0.03832959 -0.06348133 -0.012415285 0.04621246 0.099373 -0.003277726 -0.031605072
-0.011771702 0.03771612 -0.009623234 -0.08972553 0.052107226 -0.053161383 0.0075220224 0.0422146
00000000: ddf3 d5bc 6af5 553d b3b5 363c 6cac e23d
00000010: 0792 47bb b065 953d ad5f 2d3d 304a 553d
00000020: ee54 06bd 1f3b 3a3d 07a6 883d 280f 8e3a
00000030: 08d7 883c 0eba 2f3c 5a50 143e 546b 793c
00000040: ff76 b1bd 7dff 1cbd 8002 82bd 7b69 4bbc
00000050: 4749 3d3d 1284 cb3d 1ecf 56bb 5274 01bd
00000060: 19de 40bc 387c 1a3d c5aa 1dbc 05c2 b7bd
00000070: 636e 553d c0bf 59bd 4c7b f63b 37e9 2c3d

encoder.bn03.running_mean f4 [32]
0.5874529 0.05884706 -0.6019602 -0.39358032 -0.42150182 -0.05958473 -0.8042402 0.140903
1.3992205 -0.6245191 0.0961098 0.88497305 1.8655868 -0.32441863 -0.13674606 0.5195947
-0.45557618 0.22206977 0.5117536 1.1818365 -0.15218964 -0.48973683 0.65105635 -0.35137343
1.3239852 0.78091466 1.0388668 -0.31111714 -0.082401335 0.2791657 0.74729455 -0.6410069
00000000: 5063 163f 9d09 713d 101a 1abf 5c83 c9be
00000010: 16cf d7be 1e0f 74bd b0e2 4dbf e048 103e
00000020: a819 b33f 7ce0 1fbf 37d5 c43d 988d 623f
00000030: 8ccb ee3f 331a a6be 2907 0cbe 2904 053f
00000040: 4841 e9be 4266 633e 4902 033f 6b46 973f
00000050: 9ad7 1bbe c9be fabe a1ab 263f 38e7 b3be
00000060: 5978 a93f 06ea 473f 96f9 843f bf4a 9fbe
00000070: 08c2 a8bd ceee 8e3e b24e 3f3f 0719 24bf

encoder.bn03.running_var f4 [32]
3.5520756 3.6063871 1.3720934 0.8228118 1.1841706 3.5561144 3.9204788 1.3750249
4.6663465 1.981221 1.8401186 2.5932906 5.0431314 2.0626585 3.9319448 4.808594
2.5706234 1.3235059 4.0818048 3.3349528 1.0895725 1.7357364 2.3938863 0.9468951
2.9269674 2.4552038 3.7039468 4.0879087 2.1525836 2.0201983 4.0247974 1.788479
00000000: 3555 6340 0ccf 6640 c2a0 af3f cba3 523f
00000010: e792 973f 6197 6340 20e9 7a40 d100 b03f
00000020: b652 9540 a698 fd3f 0289 eb3f 79f8 2540
00000030: 5561 a140 9902 0440 fca4 7b40 01e0 9940
00000040: 1885 2440 a468 a93f 259e 8240 de6f 5540
00000050: 1d77 8b3f 9c2c de3f 6f35 1940 b867 723f
00000060: 6f53 3b40 0f22 1d40 770d 6d40 26d0 8240
00000070: eec3 0940 ee4a 0140 24cb 8040 e1ec e43f

decoder.tr01.weight f4 [32, 32, 3, 3]
-0.098833136 0.15830329 -0.038938377 0.016744483 0.14925775 0.06823452 0.02192651 -0.015509116
-0.032395557 0.020488823 0.056042902 -0.025883354 0.00047101092 0.10985122 0.103417985 0.18690494
0.06669067 0.08059019 0.108962044 -0.020565161 0.107576355 0.05826972 -0.050599635 0.020712212
0.09069658 0.004155042 0.15133497 -0.024024846 0.17619322 -0.013416143 0.0040941774 0.12774487
-0.06972261 0.09118684 0.10426942 0.118516944 -0.038840003 -0.06633547 0.07396123 -0.08408288
0.16305974 0.14276785 0.0032870355 0.09875107 0.06013651 0.102423295 -0.03963111 -0.059372794
0.009068154 0.085906245 -0.128358 0.04557593 0.033607177 -0.058987208 -0.049438857 0.0005934694
-0.015129621 -0.03242151 0.028608022 -0.12375864 -0.07064996 -0.029655255 -0.038420405 0.020804724
-0.16027625 -0.05033772 -0.04420528 -0.030671079 0.048487436 -0.030358624 0.09996759 -0.0005389445
-0.09081429 0.05602301 0.09165093 -0.12595943 -0.019075777 0.039762836 -0.26311076 -0.10577476
-0.123770006 -0.22294512 0.07697642 -0.21563509 -0.12182061 -0.17911948 -0.078068696 -0.06851194
-0.09888197 -0.013020379 -0.036544636 0.059883974 0.05982299 0.12528715 0.046200685 0.04056143
-0.030750884 0.09638078 -0.041604705 -0.14247978 0.049011573 -0.06545302 0.0051721483 -0.12524031
0.027287748 0.011072038 0.009731989 -0.09222539 -0.02968802 0.0032060565 0.09907448 0.068613134
0.10192965 0.118289046 0.0592882 -0.14261313 0.05155282 -0.0039604576 -0.06715837 -0.16666557
0.118605964 -0.030282961 -0.042505804 -0.11764837 0.087344594 0.07815298 -0.06340485 0.08582618
0.04907528 0.072583705 0.08732317 -0.03774623 -0.013956108 -0.022268528 0.06699294 -0.036981124
0.024604784 -0.003490804 -0.10751007 0.09338022 0.07268614 -0.04075149 -0.077558964 -0.011444699
-0.0006334274 0.014814376 0.07042246 -0.19059941 -0.10018433 0.08686887 -0.10722572 0.07231424
0.011166829 -0.17020525 0.04312084 -0.07092923 0.08571686 -0.026360342 0.06463768 0.07156637
-0.10168952 -0.09541387 -0.22817191 0.051580988 -0.19207814 0.00047091395 -0.03967484 -0.057553418
-0.06422149 0.05288472 -0.06590076 0.105124876 -0.011070154 -0.043271977 0.02139893 -0.058926385
-0.03958836 0.14813307 0.047649395 0.16152902 -0.020008072 0.10354001 0.06772532 0.0074127424
0.043003704 0.03037235 0.033623792 0.14711478 0.1352369 -0.15835072 0.04208625 0.015035397
-0.024379212 0.08242176 0.007791343 0.06713873 0.056136765 0.063148305 0.074201435 -0.02565993
0.021694297 -0.019799488 -0.02109308 -0.016162861 0.0055168504 -0.107236646 -0.16068976 0.10389682
0.015531506 -0.032810632 -0.098235376 0.10955184 -0.046705384 0.025978282 -0.026421899 -0.0044337055
-0.059609037 -0.049696997 0.0551954 -0.010301022 -0.043975685 0.10094383 -0.02312769 -0.121759996
-0.14778726 -0.056426596 -0.034621567 -0.08107558 0.12516582 -0.019124817 -0.051294982 -0.10164876
0.081286915 -0.082149 0.020386288 -0.029267196 0.04669034 0.05231264 0.03568321 -0.065471075
0.1547097 -0.017573286 0.030963853 -0.029626574 0.07535386 -0.019123347 0.027755579 -0.0739275
-0.14013298 0.021596903 -0.10132735 -0.14424284 -0.113304004 -0.039132845 0.012752471 -0.019779142
00000000: 0769 cabd 421a 223e d97d 1fbd ba2b 893c
00000010: 06d7 183e 8abe 8b3d 399f b33c f319 7ebc
00000020: 34b1 04bd 2dd8 a73c 3e8d 653d 5409 d4bc
00000030: 04f2 f639 adf9 e03d cfcc d33d 0264 3f3e
00000040: 1e95 883d 780c a53d 7e27 df3d 4578 a8bc
00000050: fe50 dc3d 3bac 6e3d 9041 4fbd a8ac a93c
00000060: 21bf b93d 0527 883b 8ef7 1a3e c1cf c4bc
00000070: ff6b 343e 62cf 5bbc 7328 863b 8dcf 023e
00000080: baca 8ebd 2ac0 ba3d 358b d53d 03b9 f23d
00000090: b216 1fbd e4da 87bd fc78 973d a533 acbd
000000a0: 22f9 263e bc31 123e 4e6b 573b 003e ca3d
000000b0: b351 763d 4ec3 d13d 3b54 22bd e330 73bd
000000c0: 9892 143c 9def af3d 4870 03be d4ad 3a3d
000000d0: aea7 093d 929c 71bd 6680 4abd 0f93 1b3a
000000e0: 3be2 77bc 6bcc 04bd 5f5b ea3c 2b75 fdbd
000000f0: edb0 90bd 94ef f2bc b75e 1dbd ab6e aa3c
00000100: 751f 24be ed2e 4ebd 9810 35bd ea41 fbbc
00000110: c39a 463d a6b2 f8bc cfbb cc3d f447 0dba
00000120: d8fc b9bd 6278 653d 7cb3 bb3d 82fb 00be
00000130: ce44 9cbc 5bde 223d 74b6 86be 70a0 d8bd
00000140: 217b fdbd ba4b 64be d0a5 9d3d 72cf 5cbe
00000150: 157d f9bd 196b 37be 7be2 9fbd fd4f 8cbd
00000160: a182 cabd 6d53 55bc d4af 15bd e648 753d
00000170: f408 753d 464b 003e ee3c 3d3d be23 263d
00000180: 47e9 fbbc 4963 c53d b269 2abd 38e6 11be
00000190: 5cc0 483d 3c0c 86bd 207b a93b ff3e 00be
000001a0: 8e8a df3c 7e67 353c ec72 1f3c aae0 bcbd
000001b0: 4a34 f3bc b41c 523b 90e7 ca3d 0b85 8c3d
000001c0: 7ec0 d03d 8741 f23d 2fd8 723d 2d09 12be
000001d0: 0d29 533d bac6 81bb 548a 89bd 61aa 2abe
000001e0: afe7 f23d f913 f8bc 911a 2ebd a1f1 f0bd
000001f0: b9e1 b23d ab0e a03d 67da 81bd a3c5 af3d
00000200: 2903 493d c4a6 943d 7dd6 b23d ca9b 1abd
00000210: 29a8 64bc 7d6c b6bc 9833 893d 8579 17bd
00000220: f98f c93c f9c5 64bb 3d2e dcbd 213e bf3d
00000230: 79dc 943d 09eb 26bd 3cd7 9ebd 8c82 3bbc
00000240: 980c 26ba ffb7 723c a739 903d 7e2c 43be
00000250: 712d cdbd 4ee8 b13d 2999 dbbd 7d19 943d
00000260: 13f5 363c 494a 2ebe 7a9f 303d 5843 91bd
00000270: 528c af3d a5f1 d7bc c360 843d 6491 923d
00000280: 9842 d0bd 5968 c3bd e6a5 69be 9646 533d
00000290: 22b0 44be 00e5 f639 1682 22bd 22bd 6bbd
000002a0: 8e86 83bd a69d 583d faf6 86bd b64b d73d
000002b0: 975f 35bc f53d 31bd cf4c af3c cb5c 71bd
000002c0: 6727 22bd 32b0 173e 032c 433d dd67 253e
000002d0: f8e7 a3bc c90c d43d 93b3 8a3d 97e6 f23b
000002e0: a724 303d 6fcf f83c 1ab9 093d 42a5 163e
000002f0: 8b7b 0a3e b126 22be a262 2c3d 0757 763c
00000300: eab6 c7bc bdcc a83d 864e ff3b 0880 893d
00000310: aaef 653d e653 813d ecf6 973d c634 d2bc
00000320: 3db8 b13c 8932 a2bc 65cb acbc fa67 84bc
00000330: b2c6 b43b e39e dbbd db8b 24be dbc7 d43d
00000340: dc77 7e3c 7164 06bd a12f c9bd b75c e03d
00000350: 254e 3fbd 68d0 d43c bd72 d8bc 9e48 91bb
00000360: 9b28 74bd 148f 4bbd 9214 623d 9ec5 28bc
00000370: d91f 34bd a4bb ce3d 4876 bdbc 4e5d f9bd
00000380: 8b55 17be 931f 67bd 58cf 0dbd f40a a6bd
00000390: 782b 003e a6ab 9cbc b01a 52bd 3a2d d0bd
000003a0: c179 a63d bc3d a8bd 2501 a73c c2c1 efbc
000003b0: 5f3e 3f3d c745 563d 8f28 123d b315 86bd
000003c0: 386c 1e3e daf5 8fbc e8a7 fd3c 6eb3 f2bc
000003d0: 2053 9a3d 91a8 9cbc ab5f e33c 4d67 97bd
000003e0: 057f 0fbe fdeb b03c b784 cfbd 65b4 13be
000003f0: ee0b e8bd c349 20bd bdef 503c de07 a2bc

decoder.tr01.bias f4 [32]
0.0018279079 0.00061202364 -0.005207155 -4.5482062e-05 -0.0034507655 -0.0038758626 0.0004357253 -0.002476844
-0.005289175 0.00078943395 -0.0017621736 -0.0014285602 -0.004579138 -0.0009048778 0.0008724093 -0.0027186251
-0.003982906 0.00047526928 -0.00090627355 -0.0015049698 -0.0045164176 -0.0020001212 -0.0043842588 -0.0031430423
-0.0017690271 -0.0010940887 -0.0015684419 -0.00037545827 0.0027695105 -0.0003626842 -0.0011741499 -0.00085019047
00000000: 6996 ef3a 3670 203a c8a0 aabb fec3 3eb8
00000010: 3d26 62bb 2f02 7ebb 0f72 e439 8c52 22bb
00000020: d150 adbb 04f2 4e3a bcf8 e6ba 873e bbba
00000030: 980c 96bb 5235 6dba 66b2 643a f62a 32bb
00000040: 0a83 82bb 902d f939 fd92 6dba 6842 c5ba
00000050: 75fe 93bb 7714 03bb d4a9 8fbb 80fb 4dbb
00000060: b3de e7ba 8667 8fba 2d94 cdba 28d9 c4b9
00000070: ad80 353b a626 beb9 efe5 99ba 51df 5eba

decoder.rbn.weight f4 [32]
1.1356206 1.0442562 0.9456477 0.9763479 0.95797753 0.9933525 1.0125486 0.94489014
0.9635949 0.97994906 0.969754 0.9618486 0.9632183 0.9468954 1.1016002 0.9772491
0.97019625 1.0069195 0.94293624 0.9603911 0.94537795 1.0242687 0.95210385 0.94712955
0.9860423 1.0086282 0.98721796 0.9675423 1.0969644 0.96090764 0.9751386 1.1144471
00000000: 045c 913f 30aa 853f f815 723f f0f1 793f
00000010: 043e 753f 594c 7e3f 319b 813f 52e4 713f
00000020: 28ae 763f f1dd 7a3f cc41 783f b63b 763f
00000030: 7995 763f bd67 723f 3c01 8d3f ff2c 7a3f
00000040: c85e 783f bde2 803f 4564 713f 31dc 753f
00000050: 4a04 723f 3d1b 833f 14bd 733f 1577 723f
00000060: 456d 7c3f bb1a 813f 51ba 7c3f dab0 773f
00000070: 5469 8c3f 0bfe 753f afa2 793f 34a6 8e3f

decoder.rbn.bias f4 [32]
0.16852127 0.13022825 -0.07917599 0.024101702 -0.04822955 -0.013562683 0.08503203 -0.056306515
-0.03193913 0.04351223 -0.016491067 -0.040187005 -0.040365815 -0.037888296 0.16633911 -0.018134227
-0.025851147 0.051775794 -0.068845406 -0.02730684 -0.07648842 0.07981561 -0.045528132 -0.013618542
0.019487739 0.049765076 -0.00013629817 -0.0333434 0.1376956 -0.05129754 -0.013736566 0.13701391
00000000: d790 2c3e 8e5a 053e 0527 a2bd ef70 c53c
00000010: 598c 45bd 0436 5ebc 4625 ae3d a9a1 66bd
00000020: 9bd2 02bd e139 323d 4618 87bc 219b 24bd
00000030: a056 25bd c230 1bbd cd54 2a3e 3b8e 94bc
00000040: c9c5 d3bc db12 543d d2fe 8cbd 98b2 dfbc
00000050: f6a5 9cbd 5e76 a33d b57b 3abd 4e20 5fbc
00000060: c0a4 9f3c 77d6 4b3d 43eb 0eb9 1793 08bd
00000070: 1300 0d3e 5f1d 52bd 550f 61bc 604d 0c3e

decoder.rbn.running_mean f4 [32]
-0.03778465 -0.111512735 -1.1269538 -0.27918845 -0.884941 -0.40936255 -1.0967613 -0.9753452
-0.7283716 -0.7717921 -0.3105493 -0.93346786 -1.0016161 -0.7827971 0.44684836 -1.3088759
-0.4990617 -0.50002867 -0.4284295 -0.11028256 -0.45040992 -0.9429557 -0.42192855 0.32084408
-1.0640357 -1.0240388 -0.7675102 -0.8324351 -0.674181 -0.8242298 -1.1086729 0.10807005
00000000: 14c4 1abd ca60 e4bd 0640 90bf caf1 8ebe
00000010: 7e8b 62bf f897 d1be ad62 8cbf 39b0 79bf
00000020: 9076 3abf 2b94 45bf 5100 9fbe c0f7 6ebf
00000030: f534 80bf 6465 48bf 4fc9 e43e 3f89 a7bf
00000040: 0485 ffbe e101 00bf 1d5b dbbe d3db e1bd
00000050: 219c e6be 8b65 71bf 0507 d8be ad45 a43e
00000060: 5232 88bf b413 83bf 8c7b 44bf 771a 55bf
00000070: 2097 2cbf b900 53bf fee8 8dbf d553 dd3d

decoder.rbn.running_var f4 [32]
6.5221243 4.651252 8.37565 5.06177 6.4150796 4.632009 6.6984057 5.2993355
5.8423038 7.034601 6.5669155 4.3051963 5.2785673 3.7470622 4.112286 6.497333
3.695565 5.1393533 5.533689 5.363705 5.578602 3.50012 4.754818 3.9678202
6.862688 4.5866623 5.1039314 6.5962377 4.3729343 8.151717 4.804369 4.059092
00000000: 3eb5 d040 0ed7 9440 aa02 0641 05fa a140
00000010: 5548 cd40 6b39 9440 5759 d640 2894 a940
00000020: 27f4 ba40 741b e140 2c24 d240 2bc4 8940
00000030: 06ea a840 decf 6f40 d997 8340 27ea cf40
00000040: 2384 6c40 9575 a440 fb13 b140 79a3 ab40
00000050: e883 b240 f701 6040 7827 9840 c4f0 7d40
00000060: 249b db40 f0c5 9240 6853 a340 6114 d340
00000070: 14ef 8b40 6f6d 0241 64bd 9940 15e4 8140

decoder.tr02.weight f4 [32, 144, 1, 1]
-0.20389342 0.26620868 0.3706004 -0.20996962 0.12668285 0.21810082 -0.2584721 -0.27695006
-0.0146112405 -0.20242773 0.14240247 -0.09311133 -0.061901744 -0.23012136 -0.16669111 0.23461744
-0.20585342 -0.14853223 0.14549021 0.3769756 -0.8220626 0.23989943 0.10286588 -0.033147264
0.24579735 -0.11089551 -0.5918815 -0.5148913 -0.010113886 -0.3257457 0.12507038 -0.2454057
-0.44132528 -0.17235678 -0.20849295 -0.5081661 -0.46925318 -0.017390095 -0.2868976 -0.1791496
-0.06031514 -0.43454155 -0.041138984 0.124873415 -0.12185929 -0.5285871 0.062072825 -0.35760185
-0.28241342 -0.044299576 0.15141186 -0.03625381 -0.15780623 -0.26273146 -0.35802957 -0.35870856
-0.13634068 -0.1405694 -0.18369846 -0.32650965 -0.3922428 0.017739642 -0.021494506 -0.37762818
-0.46138445 0.20516197 0.04000605 -0.6042194 -0.34977 0.14894933 -0.3190965 -0.39624107
-0.04829782 0.17037079 -0.38082206 -0.10047577 -0.15308425 -0.013794214 -0.12999728 0.040566176
0.18748869 -0.08379179 0.3903871 0.3134226 -0.38628587 0.30974153 0.20233712 0.23218447
0.06198701 -0.007872985 0.33772498 0.0063313874 0.24047628 -0.32879794 0.107017666 0.021794446
-0.047551434 0.16753672 0.40231726 0.21711189 -0.07506502 0.006488449 -0.102125786 -0.24393164
-0.0049485103 0.30462527 -0.04278714 -0.02391142 -0.12987176 0.3681401 0.29191998 0.06519386
0.13979 0.10197105 -0.06298027 0.16983138 0.083360024 0.120818794 -0.035183895 0.07566978
0.28121743 0.14217472 -0.17070052 0.23300739 -0.0011909463 0.05037992 0.28993568 -0.36591408
-0.25165555 0.4688751 -0.0017166195 -0.0994724 -0.29926178 0.29169604 0.27920255 -0.327622
0.16902246 -0.17800345 -0.064547874 0.1422145 0.019317172 0.011050712 0.040182326 0.06348892
0.30156144 0.013559851 0.26730242 -0.267906 0.006136658 0.48850572 0.15579306 -0.20080574
0.15365309 0.4009429 0.11049394 0.34677896 0.091569394 -0.06797876 0.48030257 0.23588885
-0.036493603 0.084106185 0.07294648 0.23145495 0.12961753 0.18188578 0.40659103 -0.15291147
0.27978566 -0.2381109 0.19587766 -0.040947247 0.0067315693 0.2942009 0.053102255 0.48246512
0.2673324 0.010417469 0.35760623 0.25109622 0.082394026 0.09098251 -0.14454132 -0.13721186
0.11008995 0.07327336 -0.2795126 -0.08477713 -0.1005357 0.033216525 0.035886064 0.021896083
0.48450276 0.15167215 0.24263696 0.15855397 -0.3650489 -0.08280726 -0.47360033 -0.30946037
0.29130548 0.4073557 0.10913665 0.32492858 0.4497818 0.07107231 -0.0092748795 -0.012182426
0.23878875 0.38022378 0.15542576 -0.29313424 0.14675783 0.39656794 0.026146607 -0.118456446
0.08057935 -0.03506795 0.11865039 -0.034177598 0.17811427 0.12225047 0.066941395 -0.145222
-0.08101876 0.079311594 0.2193533 0.79652697 0.10302426 0.12283429 0.36067685 0.09695529
0.05728318 0.4396618 0.21225412 0.30918625 0.04946354 0.027646244 -0.09390929 0.119321674
0.0034876391 0.018031674 -0.02363286 0.34930545 0.0787105 0.41638663 0.25025287 -0.16567717
0.10705703 -0.024629176 -0.020989524 0.5803867 0.30955362 0.19948393 0.22156844 0.06268783
00000000: 70c9 50be 814c 883e 56bf bd3e 4702 57be
00000010: 26b9 013e d255 5f3e 7556 84be 66cc 8dbe
00000020: fc63 6fbc 3749 4fbe f4d1 113e 27b1 bebd
00000030: af8c 7dbd efa4 6bbe 13b1 2abe 8e3f 703e
00000040: 3dcb 52be d518 18be 63fb 143e f202 c13e
00000050: b272 52bf 32a8 753e 59ab d23d 6dc5 07bd
00000060: 4db2 7b3e 2f1d e3bd 8c85 17bf ebcf 03bf
00000070: b6b4 25bc 24c8 a6be 7312 003e a24b 7bbe
00000080: 63f5 e1be 4c7e 30be 2d7f 55be 2c17 02bf
00000090: f441 f0be ac75 8ebc 3ee4 92be fe72 37be
000000a0: 020d 77bd 3b7c debe 5a81 28bd a2bd ff3d
000000b0: 5d91 f9bd 7c51 07bf 1340 7e3d 9717 b7be
000000c0: 7e98 90be 7973 35bd b60b 1b3e e07e 14bd
000000d0: f597 21be bd84 86be a74f b7be a6a8 b7be
000000e0: e49c 0bbe 6df1 0fbe 731b 3cbe 462c a7be
000000f0: 0cd4 c8be ba52 913c 3f15 b0bc 7b58 c1be
00000100: 953a ecbe fb15 523e 62dd 233d 1fae 1abf
00000110: 0e15 b3be 2c86 183e 9e60 a3be 1ce0 cabe
00000120: efd3 45bd ae75 2e3e 1cfb c2be 3ec6 cdbd
00000130: 1ec2 1cbe 2101 62bc 021e 05be b828 263d
00000140: 09fd 3f3e 089b abbd d1e0 c73e ed78 a03e
00000150: 43c7 c5be 7196 9e3e 7631 4f3e c4c1 6d3e
00000160: 17e6 7d3d b1fd 00bc 4aea ac3e 8777 cf3b
00000170: 6a3f 763e 3458 a8be 142c db3d 448a b23c
00000180: 4bc5 42bd bf8e 2b3e 87fc cd3e 9452 5e3e
00000190: b0bb 99bd 0e9d d43b 5327 d1bd 37c9 79be
000001a0: 1d27 a2bb d8f7 9b3e 9141 2fbd e2e1 c3bc
000001b0: 1afd 04be dc7c bc3e 8976 953e 5c84 853d
000001c0: 1c25 0f3e 33d6 d03d cdfb 80bd 47e8 2d3e
000001d0: a9b8 aa3d d86f f73d fd1c 10bd c2f8 9a3d
000001e0: bbfb 8f3e 4096 113e 1ecc 2ebe 7d99 6e3e
000001f0: 8719 9cba 2d5b 4e3d 7372 943e 1759 bbbe
00000200: ffd8 80be 6610 f03e 3100 e1ba 30b8 cbbd
00000210: d738 99be 2f59 953e a3f3 8e3e 12be a7be
00000220: 3914 2d3e 8946 36be ad31 84bd aea0 113e
00000230: 0c3f 9e3c 0c0e 353c 3996 243d 7b06 823d
00000240: 4366 9a3e 232a 5e3c dddb 883e fa2a 89be
00000250: 0516 c93b 6c1d fa3e 3788 1f3e 05a0 4dbe
00000260: 3c57 1d3e 6348 cd3e a64a e23d 038d b13e
00000270: bc88 bb3d 7338 8bbd 38ea f53e d98c 713e
00000280: 517a 15bd dd3f ac3d f764 953d 8702 6d3e
00000290: 75ba 043e 4440 3a3e b32c d03e d394 1cbe
000002a0: 1140 8f3e 58d3 73be 2794 483e 4db8 27bd
000002b0: 7f94 dc3b 80a1 963e c081 593d ab05 f73e
000002c0: cbdf 883e 08ae 2a3c 2a18 b73e af8f 803e
000002d0: 33be a83d 0a55 ba3d a402 14be 4481 0cbe
000002e0: d776 e13d 5810 963d 471c 8fbe a29f adbd
000002f0: a9e5 cdbd 0d0e 083d 44fd 123d 6a5f b33c
00000300: bf10 f83e f24f 1b3e d375 783e f95b 223e
00000310: b0e7 babe da96 a9bd be7b f2be 9771 9ebe
00000320: fe25 953e ed90 d03e 0983 df3d 0a5d a63e
00000330: cd49 e63e 5c8e 913d aaf5 17bc cc98 47bc
00000340: 0a85 743e b1ac c23e ee27 1f3e b115 96be
00000350: af47 163e f40a cb3e 6931 d63c 4b99 f2bd
00000360: c906 a53d 69a3 0fbd fafe f23d cffd 0bbd
00000370: 9663 363e 745e fa3d 9218 893d 13b5 14be
00000380: 2aed a5bd 1e6e a23d 279e 603e 31e9 4b3f
00000390: 62fe d23d 8b90 fb3d a3aa b83e 7f90 c63d
000003a0: c5a1 6a3d 5a1b e13e 2559 593e a94d 9e3e
000003b0: 489a 4a3d 607a e23c 8453 c0bd ec5e f43d
000003c0: e090 643b 29b7 933c b399 c1bc 2ad8 b23e
000003d0: f832 a13d a130 d53e 2521 803e 47a7 29be
000003e0: b740 db3d 20c3 c9bc 39f2 abbc 3994 143f
000003f0: d07d 9e3e 8445 4c3e d6e2 623e 7a62 803d

decoder.tr02.bias f4 [144]
0.013657672 0.116773956 -0.012389171 0.034510996 -0.057572134 0.030823577 -0.07480775 -0.07995286
-0.12942284 0.17007841 -0.08068599 -0.08218629 -0.058194082 -0.0142125115 0.09615688 0.043524288
0.08020484 0.042335127 -0.123142496 -0.01362753 0.0709328 -0.14425465 0.06664644 -0.102145776
-0.022653222 -0.10497832 -0.066654235 0.08975552 0.0062637725 -0.02614387 -0.019337328 0.13885064
0.08318754 -0.05434316 0.067258745 0.020138878 -0.12147614 -0.018366797 -0.12378937 0.0587392
-0.01371449 -0.01849923 -0.06550725 0.019437259 0.062673874 -0.033886895 -0.06987603 0.016262414
-0.047598407 0.06708936 0.12009197 -0.0718462 0.006784272 0.1045571 0.09690609 -0.02063005
-0.0445532 0.06945139 -0.008701112 0.10916618 0.16430375 -0.05449185 0.12461677 0.0029410669
-0.029590916 0.15620013 -0.042657793 -0.07875039 0.012848022 0.007504252 -0.060724273 0.14510672
0.012777925 0.05185167 0.085852616 0.08440345 -0.039619897 0.12225368 -0.105452895 0.061355006
0.01692948 -0.060067438 -0.0034240196 0.045763038 -0.018560255 0.0373173 -0.11367072 0.035506256
-0.10155068 -0.12412204 -0.043503806 -0.15529165 -0.077754796 -0.10103856 -0.09504339 0.06832295
-0.12129784 0.036847014 0.01770142 -0.010255038 -0.118915655 0.12502356 -0.14204487 -0.049867198
-0.068082415 0.00057042163 0.027021255 -0.06964472 -0.049743053 -0.07129649 0.044674642 0.06083744
-0.0024822203 -0.034325376 -0.088172875 -0.055023156 0.041863885 0.06990387 0.02954329 -0.014249881
0.11810722 -0.05612121 -0.06814182 -0.068540305 -0.07556709 0.10162831 0.02496779 -0.10652967
0.042805992 -0.0665381 -0.10741893 -0.12255386 -0.097567864 0.023686754 -0.004292936 -0.13641195
-0.07013697 0.0057712514 -0.080361255 -0.09422951 -0.08903594 0.018687513 -0.10270006 -0.03554486
00000000: 6ec4 5f3c 2f27 ef3d f3fb 4abc 675b 0d3d
00000010: c2d0 6bbd ba81 fc3c ce34 99bd 53be a3bd
00000020: 6c87 04be 0929 2e3e b23e a5bd 4951 a8bd
00000030: eb5c 6ebd 98db 68bc e6ed c43d 8646 323d
00000040: 6f42 a43d 9967 2d3d 2232 fcbd 0146 5fbc
00000050: 3745 913d 7eb7 13be ee7d 883d ce31 d1bd
00000060: 4093 b9bc e0fe d6bd 0482 88bd bed1 b73d
00000070: 5540 cd3b ab2b d6bc 5169 9ebc dd2e 0e3e
00000080: 3b5e aa3d ef96 5ebd f4be 893d 4afa a43c
00000090: 7cc8 f8bd f775 96bc 4885 fdbd 8498 703d
000000a0: beb2 60bc b28b 97bc aa28 86bd e33a 9f3c
000000b0: 295b 803d fccc 0abd 2a1b 8fbd c138 853c
000000c0: 8cf6 42bd 2566 893d c7f2 f53d 1a24 93bd
000000d0: 994e de3b 0822 d63d b376 c63d 5a00 a9bc
000000e0: 6b7d 36bd 883c 8e3d 1c8f 0ebc 8592 df3d
000000f0: 3e3f 283e d932 5fbd 1437 ff3d eabe 403b
00000100: a668 f2bc edf2 1f3e f0b9 2ebd e247 a1bd
00000110: 8380 523c 3ae6 f53b 04ba 78bd db96 143e
00000120: 805a 513c 6b62 543d 7fd3 af3d b7db ac3d
00000130: 7948 22bd 2360 fa3d b0f7 d7bd 634f 7b3d
00000140: b1af 8a3c 4609 76bd 8465 60bb 0672 3b3d
00000150: ad0b 98bc 06da 183d 32cc e8bd 026f 113d
00000160: cef9 cfbd b233 febd 0c31 32bd c604 1fbe
00000170: e83d 9fbd 4eed cebd 1ca6 c2bd e7ec 8b3d
00000180: 006b f8bd e5ec 163d 9102 913c bf04 28bc
00000190: 0d8a f3bd 2d06 003e 3674 11be 8c41 4cbd
000001a0: cb6e 8bbd 5988 153a ae5b dd3c e4a1 8ebd
000001b0: 5fbf 4bbd e503 92bd c2fc 363d ae30 793d
000001c0: bfac 22bb c498 0cbd fb93 b4bd f65f 61bd
000001d0: 7779 2b3d c329 8f3d c504 f23c 5578 69bc
000001e0: 33e2 f13d 5bdf 65bd f08d 8bbd dc5e 8cbd
000001f0: ebc2 9abd 8122 d03d 4089 cc3c 3a2c dabd
00000200: 5655 2f3d 2145 88bd 75fe dbbd 85fd fabd
00000210: a9d1 c7bd b90a c23c c2ab 8cbb 93af 0bbe
00000220: f9a3 8fbd c41c bd3b 7194 a4bd 67fb c0bd
00000230: 7a58 b6bd 8e16 993c 6954 d2bd 7d97 11bd
