checkpoint/model_checkpoint_pre.pt (torch, 641532 bytes, 32 tensors)

encoder.cov01.weight f4 [64, 63, 1, 1]
0	0x3d05936a	0.032611288
1	0x3df1ca9e	0.11806224
2	0x3e20c8a6	0.15701541
3	0x3e89a534	0.26883852
4	0xbdf81481	-0.12113286
5	0xbd813335	-0.06308595
6	0x3ed5a4a5	0.41727176
7	0x3a373bdd	0.00069898163
8	0x3e5bcbe6	0.214645
9	0x3e185d8b	0.14879434
10	0xbe3d414f	-0.18481945
11	0x3e8ccc47	0.274996
12	0x3d2cebeb	0.042217176
13	0xbda0a667	-0.07844239
14	0xbe7ebc43	-0.24876504
15	0x3e570a58	0.2100004
16	0x3dd4acfa	0.10384555
17	0x3e97257d	0.2952079
18	0x3e10cdf1	0.1414106
19	0x3eaaf6ce	0.33391422
20	0x3e1b52d5	0.15168317
21	0x3d40f554	0.047108963
22	0x3dcd74b0	0.10032022
23	0x3e9a8254	0.30177557
24	0x3da4d38e	0.08048163
25	0x3c5bd248	0.013416834
26	0xbd9db405	-0.077003516
27	0x3e893df1	0.2680507
28	0xbd835219	-0.06412143
29	0x3ea55d66	0.3229782
30	0x3e613b1d	0.21995206
31	0xbdeef7e2	-0.11668374
32	0x3e07a767	0.13247453
33	0x3e8eee4a	0.27916175
34	0xbe577b45	-0.21043117
35	0xbdac75aa	-0.0842088
36	0x3e149eac	0.14513654
37	0xbd922142	-0.0713525
38	0x3e59f49e	0.2128472
39	0x3bbab22a	0.0056975083
40	0xbe2d628d	-0.16932125
41	0xbe3dc8f3	-0.18533687
42	0x3e29a569	0.16567005
43	0x3e8393c9	0.2569869
44	0x3d67be77	0.056578126
45	0xbd125470	-0.035725057
46	0xbe1b5fe3	-0.15173297
47	0xbcb02c6d	-0.021505559
48	0x3d996d2a	0.074915245
49	0x3e0761df	0.13220929
50	0x3dcb084e	0.09913693
51	0xbed1ec38	-0.41000533
52	0xbd75e410	-0.06003195
53	0x3e276154	0.16345721
54	0xbdf139b2	-0.11778583
55	0x3e622bd2	0.22087029
56	0xbde5d6c5	-0.11222605
57	0x3e523d47	0.20531188
58	0x3e31beaf	0.17357896
59	0x3d07efbc	0.033187613
60	0xbe5e7b9b	-0.21726839
61	0x3ddda43a	0.10822339
62	0x3cb34ba6	0.021886658
63	0x3d9e6255	0.07733599
64	0x3cd89538	0.02643834
65	0x3e0aeba9	0.1356646
66	0xbd416aed	-0.047221113
67	0x3e1ae263	0.15125422
68	0xbe865983	-0.26240167
69	0xbebab6c4	-0.36467564
70	0x3a47db1c	0.00076238974
71	0x3e1792d0	0.14802098
72	0xbd31c0de	-0.043396823
73	0x3e46b7d7	0.19406067
74	0xbd92840a	-0.07154091
75	0xbd2bc4e5	-0.04193582
76	0xbe238f19	-0.15972556
77	0x3e46f96c	0.19431084
78	0x3ece4b6d	0.4029192
79	0x3ea14fa5	0.31506076
80	0xbe49e1ba	-0.19715014
81	0x3e66d56a	0.22542349
82	0xbd976c68	-0.07393724
83	0x3dbf44bb	0.09339281
84	0x3eb6802f	0.3564467
85	0xbed9e103	-0.42554483
86	0xbd9451ad	-0.07242141
87	0xbe13e3d6	-0.14442381
88	0xbd8b0720	-0.06788468
89	0x3e3d69c6	0.1849738
90	0x3e77acfb	0.2418708
91	0xbc250323	-0.010071549
92	0x3d4e2f91	0.05033833
93	0x3d14a48a	0.03628973
94	0x3e56d60b	0.20980088
95	0x3e5f8ddf	0.21831463
96	0xbe1d5a96	-0.15366587
97	0x3cba538b	0.022744915
98	0x3e168e3a	0.14702693
99	0xb997d90d	-0.0002896268
100	0x3dadd99a	0.0848877
101	0xbcf1ac73	-0.029501176
102	0x3e72b82f	0.23703073
103	0x3e70ab79	0.23502912
104	0x3db5d36c	0.08878216
105	0xbbcf7b50	-0.0063318387
106	0x3de57bf6	0.11205284
107	0x3e454d61	0.19267799
108	0x3ed6e802	0.41973883
109	0xbcf93662	-0.03042144
110	0x3d47dcd2	0.048794575
111	0x3eaf4bf1	0.34237626
112	0xbdd380a5	-0.10327271
113	0x3db84f4e	0.08999501
114	0x3d86db2c	0.065847725
115	0xbcbd3478	-0.023096308
116	0x3e7bea28	0.24601042
117	0x3e901c39	0.28146532
118	0xbd96202d	-0.07330356
119	0x3df3c24f	0.11902296
120	0xbde02f79	-0.10946555
121	0xbd3d9429	-0.046283875
122	0xbdc40fa0	-0.09573293
123	0xbdc31591	-0.09525598
124	0xbb879d65	-0.004138636
125	0x3e2e02ab	0.16993205
126	0xbda4a966	-0.08040123
127	0x3e1e6af6	0.1547049
128	0x3e18ccfe	0.14921948
129	0x3e5f25ce	0.21791765
130	0x3c318679	0.010835283
131	0x3ea90d22	0.33017832
132	0x3d192b8b	0.03739504
133	0x3d4e85e0	0.050420642
134	0x3ddbe91b	0.10737821
135	0x3e8c33d7	0.273833
136	0x3ca533ed	0.020166362
137	0xbe2a6b3d	-0.1664247
138	0xbe188d09	-0.1489755
139	0x3ea51b70	0.32247496
140	0xbd36d16b	-0.04463331
141	0xbe82cd94	-0.2554747
142	0x3e2a4118	0.16626394
143	0xbe6fcde4	-0.23418385
144	0xbb8c9b6c	-0.0042909887
145	0x3d60820e	0.05481153
146	0xbb9b7b9b	-0.0047449595
147	0xbdb68783	-0.089125656
148	0x3e555644	0.20833689
149	0x3e05ec3c	0.13078398
150	0xbdb43c23	-0.08800533
151	0x3e2d6974	0.16934758
152	0x3dcbb1b9	0.09946007
153	0xbe2044aa	-0.15651193
154	0x3dbef693	0.09324374
155	0xbe5986a0	-0.21242762
156	0x3cf7abbc	0.030233257
157	0xbd3d2324	-0.04617609
158	0x3bf765fe	0.00755
159	0x3ea26ed1	0.3172517
160	0xbe0d0a99	-0.13773574
161	0xbe7dc75e	-0.24783084
162	0x3d818224	0.063236505
163	0x3e437520	0.19087648
164	0x3d0cf92b	0.034417313
165	0xbe547076	-0.20746025
166	0xbda4a4b4	-0.08039227
167	0xbdf83c0b	-0.12120827
168	0x3d28d7fd	0.041221607
169	0x3ec4e11d	0.38452998
170	0xbe2fc37d	-0.17164417
171	0x3e6e360e	0.23262808
172	0xbe1868c7	-0.1488372
173	0xbdd6edfb	-0.1049461
174	0x3e84e527	0.2595608
175	0xbcfe096c	-0.031010352
176	0xbe399a49	-0.18125261
177	0xbcb912db	-0.022591999
178	0xbe4cc3a7	-0.1999651
179	0xbe4dbe26	-0.20092067
180	0xbe8266d4	-0.25469077
181	0x3d0acd81	0.03388739
182	0xbe916138	-0.28394485
183	0xbd24593b	-0.04012416
184	0xbe603f2a	-0.21899095
185	0xbe457a95	-0.19285043
186	0x3d99ace4	0.075036794
187	0x3ccd2b9f	0.025045214
188	0x3dbf09de	0.09328054
189	0xbe91a28a	-0.2844432
190	0xbd5fc1fa	-0.05462835
191	0x3dd6d3fb	0.10489651
192	0x3e1824eb	0.14857833
193	0x3da9817d	0.08276651
194	0xbc41a654	-0.011819441
195	0x3e05440c	0.13014239
196	0x3dd296a7	0.10282641
197	0xbc5ab4c4	-0.013348762
198	0xbc06fc51	-0.008238868
199	0x3e2b06fa	0.1670188
200	0xbe3cea76	-0.18448815
201	0x3dddc4f0	0.108285785
202	0x3e0f38ee	0.1398656
203	0x3e216636	0.15761647
204	0xbd3df265	-0.046373744
205	0xbe6aaa81	-0.22916605
206	0xbe2073ad	-0.15669127
207	0x3d861c1f	0.065483324
208	0x3de20ff8	0.11038202
209	0x3e4e8b96	0.20170435
210	0xbe4cf5fe	-0.20015714
211	0x3e14d8ad	0.1453578
212	0x3e3df639	0.18550958
213	0x39dac3af	0.00041725996
214	0x3d335bb1	0.043788616
215	0x3dab0d9e	0.08352207
216	0x3d814da0	0.06313634
217	0xbe9c0c84	-0.304783
218	0x3e33a74c	0.17544287
219	0x3e228e43	0.15874581
220	0x3f0830f9	0.53199726
221	0x3d9d5419	0.07682056
222	0x3eb0a808	0.34503198
223	0xbcd3f3e0	-0.025873125
224	0x3e156ca3	0.14592223
225	0xbd61cf08	-0.05512908
226	0xbda264f7	-0.07929414
227	0x3dfbf81a	0.12303181
228	0x3d7f9eef	0.06240743
229	0x3d66f31d	0.056384195
230	0xbddee9dd	-0.1088445
231	0xbdae8f03	-0.08523371
232	0xbe0ce6e8	-0.13759959
233	0x3e46189e	0.19345328
234	0xbdbe41d8	-0.092899024
235	0xbdd4e099	-0.10394401
236	0xbe09e22b	-0.13465182
237	0x3d6651eb	0.056230467
238	0x3ee29d84	0.442608
239	0xbd1cfa9a	-0.03832493
240	0xbe63e55e	-0.22255465
241	0xbe0cf183	-0.13764004
242	0xbd3a043a	-0.045414187
243	0xbd826f49	-0.06368882
244	0xbedb96dd	-0.42888537
245	0x3c0f25ac	0.008737009
246	0xbe778917	-0.2417339
247	0xbeb6afdd	-0.35681048
248	0x3da8019d	0.08203433
249	0x3de4c96d	0.111712314
250	0xbe860e6d	-0.2618288
251	0x3e7c0adb	0.24613516
252	0x3da09010	0.07839978
253	0xbeaa758b	-0.33292803
254	0xbd5d191f	-0.053979035
255	0xbe07bdad	-0.1325595

encoder.cov01.bias f4 [64]
0	0xb9ee1c12	-0.00045415811
1	0x38aa1f4b	8.1120605e-05
2	0xb90de7bd	-0.00013533137
3	0xba247db8	-0.0006274837
4	0xba09ce30	-0.00052568596
5	0xba02319f	-0.00049665006
6	0x39f8ad58	0.00047431397
7	0x3933afe0	0.00017136289
8	0x392c0664	0.00016405579
9	0x38c57c10	9.4168005e-05
10	0xb9e8be25	-0.00044392157
11	0x399af2e7	0.00029554145
12	0x395b148f	0.00020893126
13	0xb9522779	-0.00020041865
14	0x39ee0179	0.00045395995
15	0xb90d55eb	-0.00013478815
16	0x3914d9c5	0.00014195505
17	0xb980296e	-0.0002444493
18	0x38bc54e0	8.980348e-05
19	0xb97f5467	-0.00024350137
20	0xb97002c1	-0.0002288921
21	0x37d6a51a	2.558767e-05
22	0x37067897	8.015099e-06
23	0x389d38fa	7.496956e-05
24	0xb8f62cf6	-0.00011738569
25	0xb9d60964	-0.00040824257
26	0x398643e5	0.00025609057
27	0x36befd2f	5.6919157e-06
28	0xb969738a	-0.00022263653
29	0xb97b3049	-0.00023955213
30	0xb8fef48f	-0.000121572164
31	0xb8f45db6	-0.00011652282
32	0x3838b479	4.4037097e-05
33	0xb89c0a4a	-7.440576e-05
34	0xb8ca72d2	-9.6534975e-05
35	0x3a1745ba	0.0005770583
36	0xb7145a56	-8.84252e-06
37	0xba6dbe80	-0.0009069219
38	0xb9486e91	-0.00019114676
39	0xb90d156c	-0.00013454788
40	0x393859b2	0.00017581022
41	0xb5d916df	-1.6174416e-06
42	0xb9c1f8f2	-0.00036997307
43	0x3949804d	0.0001921665
44	0x391e3ad7	0.00015089974
45	0xb808eae0	-3.264367e-05
46	0x38aab5af	8.140073e-05
47	0x37c21481	2.313615e-05
48	0x390b572d	0.00013288549
49	0x39f01f5b	0.0004579973
50	0xb8c8c02b	-9.572537e-05
51	0x393db14a	0.0001809049
52	0x38a2881c	7.750114e-05
53	0x37e8c07a	2.7746184e-05
54	0x3908dd56	0.00013052425
55	0xb84c5f98	-4.872642e-05
56	0x3883149c	6.2504056e-05
57	0x390947a0	0.0001309202
58	0xb850e8aa	-4.980775e-05
59	0xb8b42764	-8.590406e-05
60	0xb8a1c9c9	-7.714664e-05
61	0x3a1d3a10	0.00059977267
62	0xb9a9991d	-0.0003234827
63	0x38a3d01b	7.811208e-05

encoder.bn01.weight f4 [64]
0	0x3f7b9435	0.9827302
1	0x3f6abeaf	0.9169721
2	0x3f816912	1.011019
3	0x3f7833ba	0.9695393
4	0x3f80bef0	1.005827
5	0x3f81f9dc	1.0154376
6	0x3f80e88f	1.0070971
7	0x3f885dd4	1.0653634
8	0x3f80516b	1.0024847
9	0x3f7ddf82	0.9916917
10	0x3f8410bd	1.0317608
11	0x3f94e403	1.1632084
12	0x3f7a323c	0.977329
13	0x3f81aa2f	1.0130061
14	0x3f81072e	1.0080316
15	0x3f68cb34	0.90935063
16	0x3f771d80	0.9652939
17	0x3f7e246f	0.99274343
18	0x3f781b57	0.9691672
19	0x3f6bf3ee	0.9216908
20	0x3f8700bd	1.05471
21	0x3f622f53	0.8835346
22	0x3f7fc2a2	0.9990636
23	0x3f85a196	1.0439937
24	0x3f80fd04	1.0077214
25	0x3f6ba997	0.9205565
26	0x3f761df2	0.9613944
27	0x3f6fac25	0.93622047
28	0x3f7da84f	0.99084944
29	0x3f5b5e8f	0.8569116
30	0x3f7b202c	0.98095965
31	0x3f836869	1.0266238
32	0x3f7fa9bd	0.99868375
33	0x3f78a692	0.97129166
34	0x3f7e3a16	0.9930738
35	0x3f81cdf6	1.0140979
36	0x3f7d7b21	0.99016005
37	0x3f8c14dc	1.0943866
38	0x3f8c1e03	1.0946659
39	0x3f89e68f	1.0773486
40	0x3f7959f2	0.9740287
41	0x3f7833b1	0.96953875
42	0x3f809d86	1.0048072
43	0x3f84dd24	1.0379987
44	0x3f7bfd0c	0.98432994
45	0x3f78c915	0.97181827
46	0x3f75e3ca	0.96050704
47	0x3f7d56a7	0.98960346
48	0x3f85c6ca	1.0451291
49	0x3f8cfca8	1.1014605
50	0x3f7a4ea1	0.9777623
51	0x3f7a7c28	0.978457
52	0x3f803aef	1.0017985
53	0x3f8eaff6	1.1147449
54	0x3f7fcfa7	0.9992623
55	0x3f84dccc	1.0379882
56	0x3f7d8a5a	0.9903923
57	0x3f85b8ea	1.0447056
58	0x3f907e9f	1.1288642
59	0x3f727e71	0.94724184
60	0x3f7b9a5a	0.98282397
61	0x3f6aee66	0.9177002
62	0x3f7dc6d0	0.9913149
63	0x3f8115b1	1.0084745

encoder.bn01.bias f4 [64]
0	0xbcb73c80	-0.022367716
1	0x3dcfcf26	0.10146932
2	0x3c38e7be	0.01128572
3	0xbd8e4727	-0.06947165
4	0x3c665378	0.014057986
5	0x3dc86dba	0.09786554
6	0xbcc12d52	-0.02358118
7	0x3f1f16cb	0.62144154
8	0x3dada247	0.084782176
9	0x3e022a10	0.12711358
10	0x3dd09ac9	0.10185773
11	0x3eb7e7d6	0.35919064
12	0xbd013494	-0.031544283
13	0x3dbef427	0.09323912
14	0x3c934057	0.017975016
15	0x3e00368a	0.12520805
16	0x3d9844c9	0.07434995
17	0x3d7a45fb	0.061101895
18	0x3dc822ed	0.097722866
19	0xbcc09516	-0.02350859
20	0x3de80634	0.11329308
21	0x3db4d7c9	0.0883022
22	0x3da30a42	0.07960941
23	0x3d93a169	0.07208521
24	0x3c029ec0	0.007972419
25	0x3d3a5863	0.04549445
26	0xba7cee10	-0.0009648511
27	0xbc491072	-0.012271987
28	0xbcc793c5	-0.024362454
29	0x3dac8d27	0.0842536
30	0x3d20df3a	0.039275385
31	0xbdc17f5b	-0.09448119
32	0xbda5ae37	-0.080898695
33	0x3de84b23	0.11342456
34	0xbd5e6c18	-0.054302305
35	0x3c22c760	0.00993523
36	0xbdcb10e0	-0.09915328
37	0x3df0598e	0.11735831
38	0x3dfab364	0.12241247
39	0x3d592517	0.053013887
40	0xbd27a7e8	-0.040931612
41	0xbb41de91	-0.0029582123
42	0x3dd47e0e	0.103756055
43	0x3d100395	0.035159666
44	0xbdae3987	-0.08507066
45	0xbda8575c	-0.082197875
46	0x3c29ca18	0.010363124
47	0xbddfb8f0	-0.10923946
48	0x3c79e3d9	0.015252077
49	0x3ef2f59e	0.47453016
50	0x3e19c9f7	0.1501845
51	0xbc4937f7	-0.012281409
52	0xbb26929d	-0.0025416978
53	0x3c463357	0.012097201
54	0x3d0013ab	0.031268757
55	0x3daf38dc	0.08555767
56	0x3daf15fd	0.08549116
57	0xbceb6d39	-0.028738605
58	0x3e158b7c	0.1460399
59	0xbd3197f6	-0.043357812
60	0xbdc7ae62	-0.09750058
61	0xbd33d020	-0.043899655
62	0x3d073c4b	0.033016484
63	0xbd822940	-0.06355524

encoder.bn01.running_mean f4 [64]
0	0xbe5cb4de	-0.2155337
1	0xbe19dacf	-0.15024875
2	0xbcd2160b	-0.025645277
3	0xbd896dcd	-0.06710396
4	0x3d9789fd	0.07399366
5	0x3d40865a	0.047003128
6	0xbcf05d26	-0.029341292
7	0x3d59f1e6	0.053209208
8	0x3d8c7bae	0.068595275
9	0x3d1c8fb9	0.038223002
10	0x3cef005d	0.029174978
11	0x3d454f73	0.04817147
12	0xbd258bea	-0.040416636
13	0x3e6e3c5f	0.23265217
14	0x3e42fe6d	0.19042368
15	0xbdaed5ce	-0.08536874
16	0xbdb784c2	-0.089608684
17	0xbe06ed1a	-0.13176385
18	0xbe3ec30b	-0.1862909
19	0xbdc2797d	-0.09495828
20	0x3dd7911d	0.10525725
21	0xbe24f4de	-0.16109034
22	0x3e776b77	0.24162088
23	0x3e4b8547	0.1987506
24	0xbd51af1b	-0.051192384
25	0xbdfdfe2a	-0.124019936
26	0x3ba51f73	0.0050391494
27	0xbe2a7b17	-0.16648518
28	0x3d9ae754	0.075636536
29	0xbe02023d	-0.12696166
30	0xbe31e4c3	-0.17372422
31	0xbd39cc9c	-0.045361146
32	0xbd35cb8f	-0.04438358
33	0xbdfeeea6	-0.12447862
34	0x3df3423d	0.11877868
35	0x3e080f27	0.1328703
36	0xbd3f1ab0	-0.04665631
37	0x3d59027c	0.052980885
38	0x3d9268c5	0.071488895
39	0x3dc9ae7a	0.09847732
40	0x3d95fda8	0.07323772
41	0xbe340756	-0.17580923
42	0x3dc373a4	0.09543541
43	0x3e1c5293	0.15265875
44	0xbc4380c0	-0.011932552
45	0xbbec68e4	-0.0072146524
46	0xbe38b1d8	-0.18036592
47	0x3e6fa9d9	0.23404635
48	0x3e1fc370	0.15601897
49	0x3d6b97a0	0.057517648
50	0xbddcfc3b	-0.10790297
51	0x3e114877	0.141878
52	0x3e3e3c4b	0.18577687
53	0x3dbe97b1	0.093062766
54	0x3d327349	0.043566976
55	0x3d84dbcf	0.06487238
56	0xbe29664b	-0.16542928
57	0xbd474181	-0.048646454
58	0x3d2e1b0e	0.04250627
59	0x3e036eba	0.12835208
60	0xbd21d494	-0.03950937
61	0x3e0be582	0.13661769
62	0x3e163963	0.14670329
63	0xbb821c58	-0.003970664

encoder.bn01.running_var f4 [64]
0	0x4126840d	10.407239
1	0x4096dc3b	4.7143836
2	0x40742350	3.8146553
3	0x409eaccd	4.958594
4	0x40ac8037	5.390651
5	0x3f8c414b	1.0957426
6	0x4041c682	3.027741
7	0x3f9f660c	1.2453017
8	0x40c1f613	6.0612884
9	0x400d8829	2.2114356
10	0x3fa6e14b	1.3037504
11	0x403befd0	2.936512
12	0x41081ccf	8.507033
13	0x415f4f09	13.956796
14	0x40a692a1	5.205399
15	0x4040f270	3.0147972
16	0x402a2726	2.6586394
17	0x40364be0	2.848381
18	0x40f4bd6d	7.6481233
19	0x40c2383f	6.069366
20	0x40a07e18	5.0153923
21	0x40662ed7	3.5966089
22	0x40fc8dfa	7.892331
23	0x40cbde1b	6.3708625
24	0x409b931a	4.8617067
25	0x401280d6	2.2891135
26	0x40316b9a	2.7721925
27	0x408bd0fe	4.3692617
28	0x4190aee9	18.085405
29	0x400bd5e8	2.1849308
30	0x40a30a03	5.094972
31	0x4094273c	4.6297894
32	0x4106277f	8.384643
33	0x402b2b25	2.6745083
34	0x401ac5d3	2.4183242
35	0x4065db9e	3.5915294
36	0x40e60136	7.187648
37	0x402478e9	2.5698798
38	0x41065df9	8.397943
39	0x412aa666	10.665625
40	0x40fb16de	7.8465414
41	0x40803b11	4.0072103
42	0x401b916b	2.4307506
43	0x405dc588	3.4651814
44	0x409509c8	4.657444
45	0x3fee9d63	1.8641781
46	0x40888cf9	4.2672086
47	0x411e9ada	9.912806
48	0x40708c71	3.7585719
49	0x40027036	2.0380988
50	0x3fecb4fe	1.8492734
51	0x41562e07	13.386237
52	0x40947a2f	4.639915
53	0x40e1e2f3	7.058954
54	0x404330da	3.0498567
55	0x40d995ab	6.79952
56	0x40897cdb	4.296491
57	0x40e4bd9a	7.1481447
58	0x3fe4ec76	1.7884662
59	0x4023c4b8	2.5588818
60	0x40809bdf	4.019027
61	0x40a1d612	5.0573816
62	0x40383812	2.8784223
63	0x40585f5a	3.3808198

encoder.cov02.weight f4 [64, 64, 3, 3]
0	0x3d840f7e	0.064482674
1	0xbce038a1	-0.027370753
2	0xbd00ffa8	-0.031493813
3	0xbdb1d6e0	-0.08683562
4	0xbd62cc41	-0.055370573
5	0xbd8d16c5	-0.068891086
6	0x39c61d40	0.00037787296
7	0xbcc953ff	-0.024576185
8	0xbd4c3d4c	-0.049863145
9	0x3e179c42	0.14805701
10	0xbcdfd9bf	-0.02732551
11	0x3d32c526	0.043645047
12	0x3cbbda38	0.022931203
13	0xbe38e61d	-0.18056531
14	0xbd3ed97f	-0.04659414
15	0xbdacc2ff	-0.0843563
16	0xbd57f047	-0.05271938
17	0xbcb98e78	-0.022650942
18	0x3d0635fa	0.03276632
19	0x3ba9f426	0.0051865755
20	0x3dda213c	0.1065087
21	0x3db793aa	0.089637116
22	0xbd8a8479	-0.067635484
23	0xbcb282fd	-0.021790976
24	0x3d29bb5f	0.041438457
25	0xbbca5fa3	-0.0061759516
26	0x3c872eec	0.016501866
27	0x3d5c1952	0.053735085
28	0xbc89b1f3	-0.016808486
29	0xbb8ed761	-0.0043591713
30	0xbd986492	-0.07441057
31	0xbd0ba6c4	-0.034094587
32	0xbbf9d1a7	-0.0076238695
33	0xbd90ccdf	-0.07070326
34	0xbe4590a2	-0.19293454
35	0xbc54661f	-0.012963801
36	0xbdabb2f5	-0.08383743
37	0xbdd3c4d1	-0.10340274
38	0xbcfc1d9d	-0.03077584
39	0xbdc4209b	-0.095765315
40	0x3cd9c4f7	0.026583178
41	0x3d610d00	0.05494404
42	0x3c629a14	0.01383068
43	0x3d975b8c	0.07390508
44	0x3d3d7c69	0.046261225
45	0xbd229944	-0.039696947
46	0xbaafaaef	-0.0013402383
47	0xbc5ccc20	-0.013476402
48	0xbdec05be	-0.11524533
49	0x3d4af4ee	0.04954999
50	0x3d91e5a4	0.071238786
51	0x3aa783ef	0.0012780408
52	0x3d398746	0.045295022
53	0x3cf9b5a7	0.030482126
54	0xbc8c0602	-0.017092708
55	0x3d1416fd	0.036154736
56	0x3d8a04bd	0.06739185
57	0xbd9a1468	-0.075234234
58	0xbd0205b2	-0.031743713
59	0x3da12bf2	0.0786971
60	0x3d52c2ec	0.051455423
61	0xbc3781fa	-0.011200422
62	0xbd23a235	-0.039949615
63	0x3c55a361	0.013039441
64	0xbd9edc22	-0.07756831
65	0x3d9c9b1a	0.07646771
66	0xbccf515a	-0.025307346
67	0x3d00d785	0.031455535
68	0xbe263632	-0.16231611
69	0x3cf69a94	0.030103005
70	0x3d81c6ed	0.0633677
71	0x3defb63a	0.11704679
72	0x3d548c83	0.051891815
73	0x3c950d3a	0.018194783
74	0x3df22356	0.11823146
75	0x3be06894	0.006848404
76	0xbda99550	-0.08280432
77	0xbccdcc26	-0.02512176
78	0x3d603421	0.054737214
79	0xbd79953e	-0.060933344
80	0x3c271585	0.010198002
81	0x3c02a1bd	0.007973132
82	0xbda7f9fd	-0.08201978
83	0x3e2af004	0.16693121
84	0x3dc0d7fd	0.094161965
85	0xbddab95a	-0.10679884
86	0x3d95c171	0.07312287
87	0x3daf519a	0.08560486
88	0xbd87a89b	-0.06623956
89	0xbb516c7a	-0.0031955526
90	0x3e0057e2	0.12533525
91	0x3ddbacb2	0.107262984
92	0x3c824ccf	0.015905766
93	0xbc16ecbb	-0.009211714
94	0xbd8701da	-0.0659215
95	0x3e0df9e0	0.13864851
96	0x3d5a9aaa	0.053370155
97	0xbd3fb2f2	-0.046801515
98	0xbcbcddc0	-0.023054957
99	0xbd061ed0	-0.03274423
100	0xbd54345f	-0.051807757
101	0x3c977c86	0.018491995
102	0xbc790628	-0.015199222
103	0x3c08e3c9	0.008355089
104	0xbcf1c90b	-0.02951481
105	0x3d9c84bb	0.07642504
106	0x3d3383ce	0.04382687
107	0xbd06b01c	-0.032882795
108	0xbcb32e00	-0.02187252
109	0xbdb05777	-0.086104326
110	0x3dfd484d	0.12367306
111	0x3c82cd78	0.015967116
112	0xbe05efdc	-0.1307978
113	0x3ccbcba0	0.02487737
114	0xbd327e29	-0.043577347
115	0x3ce72f95	0.028220931
116	0x3dc74d14	0.09731498
117	0x3b6f6255	0.0036527116
118	0xbd40e559	-0.047093723
119	0xbc9874e5	-0.018610427
120	0x3ad810e9	0.0016484532
121	0x3bac15af	0.0052516083
122	0xbc28e570	-0.010308608
123	0xbd42335e	-0.04741227
124	0xbd017019	-0.031601045
125	0xbde24954	-0.110491425
126	0x3db7cd6c	0.08974728
127	0x3d02d381	0.031939987
128	0x3d616749	0.05503014
129	0x3d9077c0	0.070540905
130	0x3dd71ef4	0.10503951
131	0x3cb481ed	0.02203461
132	0x3bcb4d20	0.0062042624
133	0x3dd08184	0.10180953
134	0xbba8ff2c	-0.005157372
135	0x3c534b5d	0.012896386
136	0xbe046967	-0.12930833
137	0x3d55a01c	0.052154645
138	0x3c5de6ea	0.013543824
139	0xbcd6bf5e	-0.026214298
140	0xbe0265b8	-0.12734115
141	0xbcb17994	-0.021664418
142	0xbe20781a	-0.15670815
143	0x3c8bae56	0.017050903
144	0x3b1887ab	0.0023274224
145	0xbd51b29d	-0.05119573
146	0xbd1f00d6	-0.038819157
147	0xbde50f49	-0.11184556
148	0xbde92ac5	-0.11385111
149	0xbe02aee1	-0.12762024
150	0x3cd00870	0.025394648
151	0xbdb3a53e	-0.08771752
152	0x3d36eeaa	0.0446612
153	0x3d5dfd75	0.054196794
154	0xbd81abeb	-0.06331619
155	0x3d436fcd	0.047714043
156	0xbc259c10	-0.010108009
157	0xbddbad41	-0.10726405
158	0xbd73020e	-0.05932813
159	0xbd24a0b3	-0.040192317
160	0xbe1919e8	-0.14951289
161	0xbce9023f	-0.028443454
162	0xbd75bae6	-0.059992693
163	0xbcbff20e	-0.02343085
164	0x3cd1457a	0.025545824
165	0x3d997ad5	0.074941315
166	0x3cb64e7f	0.022254227
167	0x3c5c4fd1	0.013446764
168	0x3cd69b24	0.026197024
169	0x3d152e5e	0.036421172
170	0x3def35d1	0.116801865
171	0xbd06fe16	-0.03295716
172	0xbcc53311	-0.024072202
173	0x3d7b27c6	0.061317228
174	0x3ce4f07f	0.027946709
175	0x3b6968ce	0.0035615447
176	0x3d82b9a9	0.06383068
177	0xbc6cffb2	-0.014465259
178	0xbcb84f8d	-0.02249887
179	0xbd10bc9e	-0.03533613
180	0x3d20d896	0.039269052
181	0x3ced8d78	0.028998122
182	0xbd6433d4	-0.05571349
183	0xbc4d7a4c	-0.012541365
184	0x3d9e47d5	0.077285446
185	0xbcd5401c	-0.026031546
186	0xbd6853cb	-0.056720536
187	0xbd477a2f	-0.048700508
188	0xbd20e567	-0.039281275
189	0xbde1101a	-0.10989399
190	0x3c837eb7	0.016051633
191	0xbd897bd4	-0.067130715
192	0xbd83f63d	-0.064434506
193	0xbdc7a4ec	-0.09748253
194	0xbd657044	-0.056015268
195	0xbbe111fc	-0.006868599
196	0x3d9d5665	0.07682494
197	0x3cbcb3ef	0.023035018
198	0x3d93a34e	0.07208882
199	0x3dd1e813	0.10249343
200	0xbc4a6f2f	-0.01235561
201	0x3e050647	0.12990676
202	0x3e27d84a	0.16391101
203	0xbce6ff3e	-0.02819788
204	0xbd81208b	-0.06305035
205	0x3cfb4801	0.030673983
206	0x3d7d6dc8	0.061872274
207	0x3bfa7157	0.0076429057
208	0x3e16925c	0.14704269
209	0xbd937449	-0.07199914
210	0xbd7909f8	-0.060800523
211	0x3e1c0cf3	0.15239315
212	0x3de0c62f	0.109753005
213	0xbca2ce20	-0.019873679
214	0xbcfd0a85	-0.030888805
215	0xbd95e525	-0.073190965
216	0xbb490029	-0.0030670261
217	0xbd07c218	-0.033144087
218	0x3cdb8da1	0.026800932
219	0x3c8ea389	0.017411964
220	0xbdc62d72	-0.09676637
221	0xbce91756	-0.02845351
222	0x3dde21e5	0.108463086
223	0xbd8bd67f	-0.06828021
224	0x3e30b425	0.1725622
225	0x3c64670c	0.013940584
226	0xbc5dfd27	-0.013549126
227	0x3c97901c	0.018501334
228	0xbcfaa214	-0.030594863
229	0xbdc0d55d	-0.09415696
230	0xbd252b70	-0.04032463
231	0xbe302561	-0.17201759
232	0xbd4af4f8	-0.049550027
233	0xbd36daba	-0.044642188
234	0x3e0d3efc	0.13793558
235	0x3d84a3df	0.064765684
236	0x3e38387a	0.17990294
237	0x3db3e1e3	0.08783319
238	0xbdf64e9a	-0.12026711
239	0x3d4c6a24	0.04990591
240	0x3d3d121b	0.046159845
241	0x3d9265b9	0.07148308
242	0x3d5e89f1	0.05433077
243	0x3d66a368	0.05630818
244	0xbc0360cb	-0.008018683
245	0xbd95bf50	-0.073118806
246	0xbd9ac17e	-0.07556437
247	0xbd9d8619	-0.07691593
248	0xbdcebebb	-0.10094973
249	0xbd9e5be1	-0.07732368
250	0xbdd300c2	-0.10302879
251	0x3d2d4623	0.042303216
252	0x3dc26360	0.094916105
253	0x3df5ac5e	0.11995767
254	0x3dbe9ae8	0.0930689
255	0xbd82f19c	-0.063937396

encoder.cov02.bias f4 [64]
0	0x38b7cb9e	8.764047e-05
1	0x38d7f5ac	0.00010297759
2	0x39e2e52f	0.00043276834
3	0x392f9094	0.0001674316
4	0xba315cb7	-0.000676583
5	0x39c0f819	0.0003680594
6	0x39a15a8c	0.00030775776
7	0x39b14f54	0.00033819175
8	0x38492397	4.795528e-05
9	0x3900e3f9	0.00012291958
10	0x3a27e8e6	0.0006405249
11	0xb82bcb47	-4.0958894e-05
12	0x3868c2a2	5.5494376e-05
13	0xb9ce7172	-0.00039375905
14	0xb983777a	-0.00025075284
15	0xb983c7ff	-0.00025135276
16	0xb993ef47	-0.000282163
17	0xb8f27821	-0.00011561835
18	0xb88f2a50	-6.826653e-05
19	0xb964720d	-0.00021786262
20	0x3910bf1a	0.00013804101
21	0x39c4dd05	0.00037548706
22	0xb9869c27	-0.00025674814
23	0xb999c3b7	-0.00029328253
24	0x388ca530	6.706489e-05
25	0x392e7b49	0.0001663986
26	0x39aafeff	0.00032614914
27	0xb8a0aded	-7.661791e-05
28	0x38143e4b	3.5343965e-05
29	0xb7d1f891	-2.503049e-05
30	0xb6a2d3ba	-4.8526244e-06
31	0x3951c06a	0.00020003473
32	0xb9c24ed7	-0.00037061304
33	0xb97a9a13	-0.00023899255
34	0x390a2ee2	0.00013178171
35	0x3995bfe8	0.00028562476
36	0x39279c25	0.0001598453
37	0xb8853ab9	-6.352872e-05
38	0x39adb810	0.0003313427
39	0x381f1535	3.7928305e-05
40	0x38ccd475	9.767051e-05
41	0xb95a9699	-0.00020846202
42	0x38fa1437	0.00011924694
43	0x39d552ec	0.00040688307
44	0x3944e61e	0.00018777742
45	0x38e83495	0.00011072416
46	0x3722bea2	9.700338e-06
47	0x3a05369d	0.00050816854
48	0x38ed2aab	0.00011308988
49	0xb82d279b	-4.12833e-05
50	0x38979160	7.227319e-05
51	0xb8a154fc	-7.692908e-05
52	0x39ba130c	0.00035490876
53	0x3a020a66	0.0004960656
54	0xb87e6588	-6.0652877e-05
55	0x399deb17	0.0003012053
56	0x3895dd4b	7.146093e-05
57	0x3842fb58	4.6487286e-05
58	0xb98f526e	-0.000273365
59	0xb8d6110b	-0.0001020749
60	0x39081102	0.00012976307
61	0xb9468ca0	-0.00018935138
62	0x39f99cde	0.00047609856
63	0xb81d4be5	-3.75024e-05

encoder.bn02.weight f4 [64]
0	0x3f7faeda	0.9987618
1	0x3f7b77d2	0.98229706
2	0x3f8ecd8f	1.1156482
3	0x3f86b820	1.052494
4	0x3f769c62	0.9633237
5	0x3f776f5e	0.9665431
6	0x3f860efe	1.0473325
7	0x3f87a367	1.0596741
8	0x3f73226e	0.9497441
9	0x3f7d6bb7	0.98992485
10	0x3f8a353a	1.0797493
11	0x3f7768fd	0.96644574
12	0x3f7593a4	0.95928407
13	0x3f6fad33	0.93623656
14	0x3f7b88f3	0.9825584
15	0x3f811b7f	1.0086516
16	0x3f689b01	0.9086152
17	0x3f87ef7d	1.0619961
18	0x3f744e64	0.95432115
19	0x3f86a508	1.0519114
20	0x3f6d081f	0.92590517
21	0x3f72bf1b	0.94822854
22	0x3f841c1f	1.0321082
23	0x3f81acea	1.0130894
24	0x3f75ccc2	0.9601556
25	0x3f7f66fc	0.99766517
26	0x3f7bc9ff	0.98355097
27	0x3f7e08c9	0.99232155
28	0x3f850f5a	1.039531
29	0x3f7f0cf0	0.99629116
30	0x3f9764fc	1.1827693
31	0x3f825530	1.0182247
32	0x3f8314d2	1.0240729
33	0x3f7cb697	0.9871611
34	0x3f65a305	0.89701873
35	0x3f84b3b4	1.0367341
36	0x3f757668	0.958838
37	0x3f7875f6	0.97054994
38	0x3f70cfcb	0.94067067
39	0x3f70e855	0.9410451
40	0x3f870950	1.0549717
41	0x3f8b1ceb	1.08682
42	0x3f8a1be6	1.0789764
43	0x3f7c1283	0.98465747
44	0x3f7ac453	0.97955817
45	0x3f8a623b	1.0811228
46	0x3f852d9a	1.0404541
47	0x3f64c3a9	0.89361054
48	0x3f88ba95	1.068194
49	0x3f7d2b81	0.98894507
50	0x3f80c4c8	1.0060053
51	0x3f723b1a	0.9462143
52	0x3f8a24e0	1.0792503
53	0x3f7cfb00	0.98820496
54	0x3f7540d0	0.9580202
55	0x3f739b62	0.9515897
56	0x3f77522d	0.96609765
57	0x3f5eb828	0.8699975
58	0x3f7c213e	0.98488224
59	0x3f81655f	1.0109061
60	0x3f842622	1.0324137
61	0x3f77ddcb	0.96822804
62	0x3f7ceba9	0.9879709
63	0x3f8ecff1	1.1157209

encoder.bn02.bias f4 [64]
0	0xbcc8d74e	-0.024516728
1	0x3e259682	0.16170695
2	0x3e3bb6c6	0.18331441
3	0x3e2646ad	0.16237898
4	0xbd38c8df	-0.04511344
5	0x3ecc5227	0.39906427
6	0x3c8de017	0.017318768
7	0x3e47d711	0.19515635
8	0xbd1f7432	-0.03892917
9	0xbddfdc12	-0.10930647
10	0x3e6a02f5	0.2285269
11	0xbd67f261	-0.056627635
12	0xbc066813	-0.008203524
13	0xbdd2b952	-0.10289253
14	0xbd97b2e4	-0.074071676
15	0x3dd19354	0.10233179
16	0xbda117fb	-0.07865902
17	0x3e423300	0.18964767
18	0xbe069be3	-0.13145404
19	0x3de2dcd3	0.11077275
20	0xbcb0eb2e	-0.021596517
21	0xbdcfd22f	-0.10147511
22	0x3d41ac96	0.04728373
23	0x3cd3ad35	0.025839427
24	0x3c89fe35	0.016844848
25	0xbdb443bc	-0.08801982
26	0x3e139303	0.1441155
27	0x3c972c04	0.018453605
28	0xbce9e91c	-0.028553538
29	0xbd932c1d	-0.07186148
30	0x3ecce319	0.40017012
31	0x3d53589b	0.051598173
32	0xbd112981	-0.03543997
33	0x3e342d8d	0.17595501
34	0x3dbe7ecd	0.09301529
35	0x3e023a2d	0.12717505
36	0xbcfbb22a	-0.030724604
37	0x3da42bac	0.08016142
38	0x3f07671f	0.52891725
39	0xbc0f6b34	-0.008753587
40	0x3e4efb90	0.20213151
41	0x3d9b23d2	0.075751916
42	0x3e3caeb4	0.18426019
43	0xbc3bcbed	-0.011462194
44	0x3d892ed6	0.06698386
45	0x3e909914	0.2824179
46	0x3e156444	0.1458903
47	0xbd05e889	-0.032692466
48	0x3e883e7d	0.26610175
49	0xbda29121	-0.079378374
50	0x3db51ab5	0.088429846
51	0xbd5acd08	-0.05341819
52	0x3e435aac	0.19077557
53	0x3c45e0a7	0.012077487
54	0xbd926474	-0.07148066
55	0xbd3242c4	-0.043520704
56	0xbcead1b2	-0.028664444
57	0x3e76f90f	0.24118446
58	0xbcaa7c72	-0.020811293
59	0xbda56173	-0.080752276
60	0x3dae4f14	0.08511177
61	0xbdd71088	-0.105012
62	0xbc8ef9db	-0.017453125
63	0x3d9f210e	0.077699766

encoder.bn02.running_mean f4 [64]
0	0x3ee63a73	0.44966468
1	0x3dcb8437	0.09937327
2	0xbf3144ac	-0.6924541
3	0xbf1488ea	-0.58021414
4	0xbfaca7f4	-1.3488755
5	0x3ee04b74	0.43807566
6	0x3fbf2218	1.493228
7	0xbf116377	-0.56792396
8	0xbf2f9dd7	-0.6860022
9	0x3edb6a9b	0.4285477
10	0xbf328ba5	-0.6974433
11	0x3e3a277d	0.18179126
12	0xbf1c83eb	-0.6113879
13	0x3eb3cfc0	0.35119438
14	0x3fc3c3a3	1.5294079
15	0xbf6e728d	-0.9314354
16	0x3f9ed1e2	1.2407801
17	0xbeadb570	-0.33927488
18	0x3e0abcff	0.13548659
19	0xc0179359	-2.3683684
20	0xbfb336c4	-1.4001088
21	0xbe4cec0b	-0.20011918
22	0xbe46015e	-0.19336459
23	0x3f8f31b1	1.118704
24	0xbf82d611	-1.0221578
25	0x400eb02a	2.2295022
26	0xbf078655	-0.5293935
27	0x3ec7833f	0.3896732
28	0x3f558465	0.83405143
29	0x3e90df1f	0.28295228
30	0xbeec85f8	-0.4619596
31	0x3e953705	0.2914354
32	0x3f296708	0.6617284
33	0xbfc6b132	-1.5522826
34	0xc012f884	-2.2964182
35	0xbf0a3c69	-0.5399843
36	0xbf76927b	-0.9631726
37	0x3f40f562	0.75374424
38	0xbf0db595	-0.553552
39	0xbfe99d0b	-1.8251051
40	0x3f0f40c0	0.55958176
41	0xbecb9ac8	-0.39766526
42	0xbe81617d	-0.2526969
43	0x3f7bdfa0	0.983881
44	0x3e98bd76	0.29832047
45	0xbedd01d4	-0.43165457
46	0x3d48ae69	0.048994455
47	0x3f0d4c25	0.5519431
48	0xbf5cacbd	-0.8620108
49	0x400e75c2	2.2259374
50	0xbc791354	-0.015202362
51	0xbee481aa	-0.44630176
52	0xbf0bd17e	-0.54616535
53	0xbfb86879	-1.4406883
54	0xbf5a3b24	-0.8524649
55	0x3d1fb895	0.03899439
56	0x3eb73e70	0.35789824
57	0xbf8bb49a	-1.091449
58	0xbe97986d	-0.2960848
59	0x3fb866cd	1.4406372
60	0x3f875914	1.057406
61	0x40292bff	2.6433103
62	0xbe169767	-0.14706193
63	0x3ea905cd	0.33012238

encoder.bn02.running_var f4 [64]
0	0x410dc612	8.860857
1	0x3f8a75cd	1.08172
2	0x40002b3a	2.0026383
3	0x3f9ab979	1.2087852
4	0x4032bd29	2.7927954
5	0x3f9c1c90	1.2196217
6	0x411d7f60	9.843597
7	0x3fdefe04	1.742127
8	0x4071adc1	3.77623
9	0x4055d262	3.3409657
10	0x3fafca99	1.3733703
11	0x40152a0a	2.3306909
12	0x40c8a700	6.2703857
13	0x403509c2	2.8287206
14	0x40b701c2	5.7189646
15	0x3fe43998	1.7830076
16	0x408dc452	4.430215
17	0x4034b79e	2.823707
18	0x40aaa801	5.3330083
19	0x419e45f3	19.784155
20	0x40bf8332	5.984765
21	0x40e8ec54	7.2788486
22	0x3fbfb570	1.4977245
23	0x40b62d08	5.692997
24	0x3ff0c9e7	1.8811616
25	0x40e99e00	7.300537
26	0x3f89c175	1.0762163
27	0x401d2abc	2.4557333
28	0x4001d7fc	2.0288076
29	0x4009ddb2	2.1541562
30	0x402e5596	2.7239738
31	0x409fd8ae	4.9952
32	0x419cce72	19.600803
33	0x3fb8958f	1.4420642
34	0x40127721	2.288521
35	0x3f8cc318	1.0997038
36	0x40c75b3b	6.2298865
37	0x402e7ad6	2.7262473
38	0x3f45fefa	0.7734219
39	0x409ccd0a	4.900029
40	0x4085b2f1	4.1780934
41	0x40a67a92	5.202462
42	0x3ff971b2	1.9487822
43	0x40c5139d	6.158644
44	0x3fb67518	1.4254484
45	0x40068045	2.101579
46	0x4086be15	4.2107034
47	0x401b1842	2.4233556
48	0x3fe2585c	1.7683215
49	0x413cd501	11.802003
50	0x40628dee	3.5399127
51	0x40999257	4.7991138
52	0x3fc58683	1.5431675
53	0x40af0dfd	5.4704576
54	0x40a11cef	5.034782
55	0x40e6e476	7.2153883
56	0x40d1f1e4	6.5607777
57	0x3f63fd4e	0.8905839
58	0x4083b931	4.1163564
59	0x406ad17b	3.6690357
60	0x40192d54	2.3933916
61	0x40f0e076	7.5274
62	0x40187293	2.381993
63	0x40aa3a46	5.3196135

encoder.cov03.weight f4 [64, 64, 3, 3]
0	0xbdac49b9	-0.08412499
1	0xbb61f25c	-0.0034476733
2	0xbcca870a	-0.024722595
3	0xbdd475d6	-0.10374038
4	0xbd398dea	-0.045301355
5	0x3dbf8fd1	0.09353603
6	0xbc84b73f	-0.01620066
7	0xbd02eb32	-0.03196258
8	0x3d5e1a91	0.054224554
9	0x3c78747f	0.015164494
10	0x3c630532	0.013856219
11	0xbd62c2a6	-0.055361412
12	0xbcabb42f	-0.020959942
13	0x3d003784	0.031302944
14	0x3cae6414	0.021287955
15	0xbd0f8a6f	-0.03504413
16	0x3c822d74	0.015890814
17	0xbc5ccc62	-0.013476463
18	0xbdbc66f0	-0.09199321
19	0xbd226574	-0.039647534
20	0xbdb22f1a	-0.0870039
21	0xbdc9ffff	-0.098632805
22	0xbc054cc7	-0.008135981
23	0xbdb59734	-0.0886673
24	0xbd437618	-0.047720045
25	0xbe2d47f0	-0.16921973
26	0xbe17ff63	-0.14843516
27	0x3d992ca1	0.074792154
28	0x3cd3e5ac	0.025866352
29	0xbcb6c665	-0.022311399
30	0xbc6f0377	-0.014588228
31	0x3d498a5d	0.04920422
32	0xbd83051d	-0.0639746
33	0xbc5415d4	-0.012944657
34	0x3ca7e904	0.020496853
35	0xbcea7f27	-0.028625084
36	0xbb97d90c	-0.0046340283
37	0xbd3cfb21	-0.046137933
38	0xbd9d9bb9	-0.07695717
39	0xbde7c679	-0.113171525
40	0xbdb180de	-0.086671576
41	0x3c4c36ab	0.012464206
42	0x3b33bfaa	0.0027427473
43	0xbc116727	-0.008874691
44	0xbd72c23c	-0.059267268
45	0xbd0ba0ec	-0.034089014
46	0x3e1af68a	0.1513311
47	0x3ca635eb	0.020289382
48	0x3e05321b	0.13007395
49	0x3da38902	0.079851165
50	0x3d15066a	0.03638307
51	0x3cc71e1b	0.024306348
52	0xbbda1c18	-0.006656181
53	0x3c5d9fee	0.0135269
54	0x3d1ec359	0.038760517
55	0x3b6cbde8	0.0036123935
56	0x3cefebe0	0.029287279
57	0x3d10df26	0.03536906
58	0xbd043458	-0.03227648
59	0xbb55afc5	-0.0032605988
60	0x3dba91e9	0.091098614
61	0x3a75f1be	0.00093820307
62	0xbdfdf3fa	-0.124000505
63	0x3c9e685f	0.019336877
64	0xbd54d105	-0.05195715
65	0xbda1968b	-0.07890042
66	0x3dbe95ed	0.0930594
67	0x3dbd1790	0.0923301
68	0xbccbb698	-0.02486734
69	0x3de6fe4d	0.11278973
70	0x3da9c327	0.082891755
71	0x3e25063f	0.16115664
72	0xbd2d9262	-0.04237593
73	0xbdf54be9	-0.11977369
74	0x3cfd04e7	0.030886127
75	0xbcf7d16c	-0.030251227
76	0x3dbdd61f	0.09269356
77	0x3c71d7d3	0.014760929
78	0x3ddc33a5	0.10752038
79	0xbc4958c4	-0.01228923
80	0x3dad1187	0.08450609
81	0x3ce696f2	0.028148148
82	0x3de7d819	0.11320514
83	0x3cd15596	0.025553506
84	0x3da2ecf8	0.079553545
85	0x3d26d194	0.040727213
86	0xbcfb137f	-0.030648945
87	0xbb0febf1	-0.00219607
88	0xbcc9f764	-0.024654098
89	0x3c4c4d19	0.012469553
90	0x3d0e93c3	0.034808885
91	0x3d1c29e7	0.0381259
92	0x3e234019	0.1594242
93	0xbd0e8396	-0.03479346
94	0xbdfd63c2	-0.12372543
95	0x3d23093f	0.03980374
96	0x3db7fe00	0.089839935
97	0xbd04236a	-0.032260336
98	0xbd9ea925	-0.077471055
99	0x3d883d91	0.06652368
100	0xbca5a2f8	-0.020219311
101	0xbcfba70a	-0.030719299
102	0xbdab9fe7	-0.08380108
103	0x3ddaa975	0.106768526
104	0x3e0dd569	0.13850941
105	0xbcc9c721	-0.024631085
106	0x3dbcc3f1	0.0921706
107	0x3cdbb417	0.026819272
108	0xbd1d416e	-0.038392477
109	0x3ab78a83	0.0014003072
110	0xbdcd84d6	-0.10035102
111	0x3d0ecc93	0.034863066
112	0xbd636e1e	-0.055524938
113	0x3c5073cb	0.01272292
114	0x3d2199fc	0.03945349
115	0xbc8f2f73	-0.01747868
116	0xbd0a0a36	-0.033701144
117	0x3d9c360e	0.076274976
118	0x3dc868e9	0.09785635
119	0xbc40b176	-0.01176106
120	0x3c077e83	0.008269909
121	0x3da5fa5f	0.08104395
122	0x3db1de43	0.08684971
123	0xbd54f671	-0.051992837
124	0x3d4205cb	0.047368806
125	0xbc7fba09	-0.015608319
126	0xbdacd762	-0.084395185
127	0x3d839ea7	0.06426745
128	0xbbe65500	-0.0070291758
129	0xbbd54cfe	-0.0065094223
130	0x3c2639f2	0.010145651
131	0xbc48d3d3	-0.012257534
132	0x3d872444	0.06598714
133	0x3e4da1cf	0.20081256
134	0x3db9e5dd	0.09077046
135	0x3db13870	0.08653343
136	0x3c469349	0.012120076
137	0xbd30f8f4	-0.04320617
138	0xbd077bbc	-0.033076987
139	0x3dcba679	0.099438615
140	0x3d93183e	0.07182358
141	0xbdee05c5	-0.11622194
142	0x3dbb9adc	0.091603965
143	0xbdac5e31	-0.08416403
144	0x3ca37d0a	0.019957084
145	0xbd15dd39	-0.036587927
146	0x3e1218ac	0.14267224
147	0x3d1a2de4	0.03764142
148	0x3dd57b1d	0.104238726
149	0x3da39952	0.07988228
150	0x3d0b5c51	0.034023587
151	0xbd43c9aa	-0.047799744
152	0x3e294053	0.16528444
153	0xbad711dc	-0.0016408521
154	0x3cb7bce7	0.022428943
155	0xbc36f252	-0.011166172
156	0x3d1ba5c9	0.037999902
157	0x3d7b095b	0.06128822
158	0xbc736228	-0.014854945
159	0xbd21ab24	-0.039469853
160	0xbd8d60fe	-0.069032654
161	0x3d142fcd	0.0361784
162	0x3dff1af1	0.124563105
163	0x3da95389	0.08267886
164	0x3d08a23b	0.03335784
165	0x3dab7ed6	0.083738014
166	0xbcb8e5f9	-0.022570597
167	0xbd864723	-0.06556537
168	0x3c80b88e	0.015713003
169	0xbd53a703	-0.051672947
170	0x3d2ed53b	0.04268382
171	0x3ab57c82	0.001384631
172	0x3d9d722d	0.07687793
173	0x3d0ed8b4	0.034874633
174	0x3da93fe5	0.0826414
175	0x3c57c625	0.0131698
176	0xbd1cc3b0	-0.03827256
177	0xbcd64c77	-0.026159508
178	0x3e0fe564	0.1405235
179	0x3d53d664	0.05171813
180	0xbc7277e8	-0.014799096
181	0x3c72c440	0.014817297
182	0x3e058313	0.13038282
183	0xbdb229c3	-0.08699372
184	0xbcee1d72	-0.029066775
185	0x3ca35fa3	0.019943064
186	0x3c2fce60	0.010730356
187	0xbd2f56f2	-0.042807527
188	0xbd94e94c	-0.0727106
189	0x3dc957dd	0.09831212
190	0xbdb5c812	-0.08876051
191	0x3cf7e210	0.030259162
192	0xbdb2eecc	-0.08736953
193	0x3d0ec45f	0.034855243
194	0x3ca6ec8b	0.020376464
195	0x3af452ee	0.0018640438
196	0xbd62b3a6	-0.055347107
197	0xbd99c89a	-0.07508965
198	0xbbd6c972	-0.006554776
199	0x3e0da841	0.13833715
200	0x3cde6188	0.027146116
201	0xbd85b923	-0.06529453
202	0xbcfe4682	-0.03103948
203	0xbdcd6be9	-0.10030348
204	0xbd001080	-0.031265736
205	0x3a2dc122	0.00066282053
206	0xbddcbae2	-0.107778326
207	0x3d11f8ea	0.035637774
208	0xbd4e619d	-0.05038606
209	0x3cbdd757	0.023173971
210	0xbc81154a	-0.015757222
211	0x3bef5b08	0.007304553
212	0xbd041fd5	-0.03225692
213	0x3d6a8702	0.05725766
214	0x3d1a3ccb	0.037655633
215	0xbcaa9cf3	-0.020826792
216	0x3d0202e4	0.031741038
217	0x3d86aea9	0.065762825
218	0x3c8d13f8	0.017221436
219	0x3c937720	0.01800114
220	0x3d3f94db	0.04677282
221	0xbd868c49	-0.06569726
222	0x3d03ba2e	0.032159977
223	0xbc3286c2	-0.010896387
224	0xbdd99b61	-0.10625339
225	0x3de4a6e4	0.11164644
226	0x3dd20573	0.102549456
227	0x3c48e4b8	0.012261562
228	0x3cbf150f	0.023325471
229	0x3e1cc61f	0.15309952
230	0x3e207ff9	0.15673818
231	0x3d201490	0.03908211
232	0x3dc9295e	0.09822343
233	0x3e092a6b	0.13395087
234	0xbd97ae04	-0.07406238
235	0xbd54f6b0	-0.051993072
236	0x3c85a3d4	0.01631347
237	0x3cde75f6	0.027155858
238	0x3c8c21f2	0.01710603
239	0x3c34d560	0.011037201
240	0x3d702949	0.058633123
241	0xbbb04a58	-0.005379956
242	0xbd103a18	-0.035211653
243	0xbc9dcbba	-0.019262183
244	0x3d9eab9f	0.07747578
245	0xbcd82686	-0.026385557
246	0xbbc9f722	-0.0061634937
247	0xbcc707c3	-0.024295693
248	0x3d8930c2	0.06698753
249	0xbdbe1fd1	-0.09283412
250	0x3d9ffcbc	0.07811877
251	0xbc113e8a	-0.008865008
252	0x3da4c9b7	0.080462866
253	0x3df89dbd	0.12139461
254	0x3d5686fb	0.05237482
255	0x3dabe9b6	0.08394186

encoder.cov03.bias f4 [64]
0	0xb9833ca0	-0.00025031436
1	0x39d1a4b8	0.00039986311
2	0xb8f2ce96	-0.00011577939
3	0x39eeec22	0.0004557083
4	0x39302ee6	0.00016802139
5	0xb8271472	-3.9834944e-05
6	0xb863f7df	-5.4351865e-05
7	0x38f4ca17	0.00011672469
8	0x39ae9008	0.00033295178
9	0xb70906f4	-8.167455e-06
10	0xb935382d	-0.00017282432
11	0x388f13e2	6.822475e-05
12	0x392cd578	0.00016482722
13	0xb6b5603b	-5.405423e-06
14	0xb955d85f	-0.00020393867
15	0x39f340d2	0.00046396867
16	0x38f38d75	0.000116134914
17	0xb8c7e2fc	-9.5313386e-05
18	0x388cc4a6	6.712349e-05
19	0x3957399a	0.00020525456
20	0x3a015ea9	0.0004935065
21	0x39db7eca	0.000418654
22	0xb839400a	-4.4167078e-05
23	0x39ce1a60	0.00039311033
24	0xb9bcfc2f	-0.00036046046
25	0xb918772f	-0.00014540249
26	0xb79a422e	-1.8389048e-05
27	0x3621fcef	2.4138096e-06
28	0x39dd4019	0.0004220016
29	0x3992d588	0.00028006383
30	0xb97776b1	-0.00023599972
31	0xb892755b	-6.983682e-05
32	0xb9d19c82	-0.00039980194
33	0xb7889580	-1.628208e-05
34	0x38b1ea11	8.483616e-05
35	0x38b86587	8.792715e-05
36	0x39b2ca55	0.00034101555
37	0x3994095a	0.00028235727
38	0x38f4a87b	0.000116662086
39	0xb784a575	-1.5812673e-05
40	0xb62c882f	-2.5709267e-06
41	0x390b2f00	0.00013273582
42	0xb93dac5e	-0.00018088656
43	0x3a067fc4	0.0005130733
44	0xb85ae4c7	-5.2188316e-05
45	0x390922ca	0.00013078298
46	0xb8e5cdc1	-0.000109578956
47	0xb9d9fe58	-0.00041578966
48	0x3a0a5972	0.00052776106
49	0x39e5db11	0.000438415
50	0x38eb02f6	0.00011206225
51	0x3846deb5	4.741429e-05
52	0xb9946724	-0.00028305606
53	0xb8978567	-7.225089e-05
54	0x396c323b	0.00022525426
55	0xba054086	-0.0005083162
56	0xb8b19520	-8.4677944e-05
57	0x38e80700	0.00011063926
58	0x3981b97b	0.0002474299
59	0xb9d917d7	-0.00041407227
60	0x39c872b2	0.00038232427
61	0x391a1126	0.00014692973
62	0xb9140129	-0.00014114812
63	0x39ad3a0c	0.0003304038

encoder.bn03.weight f4 [64]
0	0x3f7ee8bf	0.9957389
1	0x3f82b578	1.021163
2	0x3f7bd811	0.98376566
3	0x3f802ab6	1.0013034
4	0x3f81df5e	1.0146291
5	0x3f74a28d	0.9556053
6	0x3f8cf94b	1.1013578
7	0x3f7bc1fc	0.9834287
8	0x3f8c7c47	1.0975426
9	0x3f728fbb	0.94750565
10	0x3f8482c9	1.0352412
11	0x3f8075e8	1.0035982
12	0x3f8b5bf3	1.0887436
13	0x3f76fcd2	0.96479523
14	0x3f786cea	0.9704119
15	0x3f77eb60	0.9684353
16	0x3f814075	1.0097796
17	0x3f7bd8eb	0.98377866
18	0x3f886af4	1.065764
19	0x3f7ab60a	0.9793402
20	0x3f883c42	1.0643389
21	0x3f6e0c82	0.92987835
22	0x3f823de4	1.0175138
23	0x3f839701	1.0280458
24	0x3f6a4f8d	0.91527635
25	0x3f785f3e	0.9702033
26	0x3f83c247	1.0293664
27	0x3f7bc19e	0.9834231
28	0x3f87d670	1.0612316
29	0x3f742dd3	0.9538242
30	0x3f79f346	0.9763683
31	0x3f6e336e	0.93047225
32	0x3f904f3b	1.1274179
33	0x3f82a79f	1.0207404
34	0x3f747216	0.9548658
35	0x3f8c00c3	1.0937732
36	0x3f88edfa	1.0697625
37	0x3f7f8b6f	0.99822134
38	0x3f78a38c	0.9712455
39	0x3f6ab34b	0.9167983
40	0x3f6f3d8a	0.93453276
41	0x3f8dd7cc	1.1081481
42	0x3f8267ba	1.0187905
43	0x3f804ad2	1.0022833
44	0x3f851549	1.0397121
45	0x3f6ab2ca	0.9167906
46	0x3f890200	1.0703735
47	0x3f836efc	1.0268245
48	0x3f8ebd34	1.115149
49	0x3f69de85	0.9135516
50	0x3f79c3fb	0.9756467
51	0x3f7aadc8	0.9792142
52	0x3f7f6a17	0.99771255
53	0x3f829213	1.0200828
54	0x3f883fbf	1.0644454
55	0x3f7dc4ab	0.99128217
56	0x3f85aa25	1.0442549
57	0x3f75fd73	0.9608986
58	0x3f81bcbc	1.0135722
59	0x3f7c4c4d	0.98553926
60	0x3f769eee	0.9633626
61	0x3f74a176	0.9555887
62	0x3f723ee1	0.94627196
63	0x3f8940db	1.0722917

encoder.bn03.bias f4 [64]
0	0xbdfe9e6a	-0.12432559
1	0x3ce1fb0f	0.027585534
2	0xbd6be9b3	-0.05759592
3	0x3e72981f	0.23690842
4	0x3d4cc126	0.04998889
5	0xbcfdd04c	-0.030983113
6	0x3e55c4c6	0.20875844
7	0x3c0a8d8e	0.008456601
8	0x3e4e9a8c	0.20176142
9	0xbda4dec5	-0.080503024
10	0xbce79619	-0.028269814
11	0xbc0ec762	-0.008714529
12	0x3e32a24a	0.17444721
13	0xbd7d8817	-0.061897364
14	0x3c6b97e3	0.014379474
15	0x3d696944	0.056985155
16	0x3de09710	0.10966313
17	0xbd6ad245	-0.057329435
18	0x3e3b32ff	0.18281172
19	0xbcc7f18c	-0.02440717
20	0x3dc197e7	0.09452801
21	0x3e2657e1	0.1624446
22	0x3e10f7a7	0.14156972
23	0x3cd7fec5	0.0263666
24	0x3cbd6194	0.023117818
25	0xbdd41e8d	-0.103573896
26	0x3d78bc6a	0.06072656
27	0xbcc3152a	-0.023813803
28	0x3e6f67a9	0.23379387
29	0xbdbe6797	-0.09297102
30	0xbd80092a	-0.06251748
31	0xbd324ef7	-0.043532338
32	0x3e734173	0.23755436
33	0x3d99ac70	0.07503593
34	0xbd1e044c	-0.038578317
35	0x3d99ac54	0.07503572
36	0x3eaf2cb1	0.34213784
37	0x3e36a9e9	0.17838253
38	0xbd90a251	-0.070622094
39	0xbd43a18a	-0.047761478
40	0xbc4e1a25	-0.0125794755
41	0x3d8c1589	0.06840045
42	0xbd06727c	-0.032824025
43	0x3d56552a	0.052327313
44	0x3e275ded	0.16344424
45	0xbcd7e067	-0.02635212
46	0x3c823940	0.01589644
47	0x3e336ac6	0.175212
48	0x3eafa16f	0.34302852
49	0x3e9b537e	0.30337137
50	0xbca96842	-0.020679597
51	0x3c0f5174	0.008747447
52	0x3d2120e4	0.039338008
53	0x3df58749	0.11988694
54	0x3de63ff8	0.1124267
55	0x3d087d1c	0.03332244
56	0x3e8be5a6	0.27323645
57	0x3d1e0cb9	0.038586352
58	0xbd39dfb8	-0.04537937
59	0x3c335745	0.0109461
60	0x3e7902f6	0.24317536
61	0xbe0790ca	-0.13238826
62	0xbe0694b9	-0.1314267
63	0x3dd2ea74	0.10298625

encoder.bn03.running_mean f4 [64]
0	0x3fafc2d3	1.3731331
1	0xbf8074be	-1.0035627
2	0x3e6e2a71	0.23258378
3	0x3ee15593	0.440106
4	0x3ee1bb4b	0.44088206
5	0x3f1b4f1c	0.60667586
6	0xbe8673ae	-0.26260132
7	0x3e9e30c5	0.30896583
8	0xbf953873	-1.1657852
9	0xbefa8cce	-0.4893555
10	0x3ec4d298	0.3844192
11	0xc005251b	-2.0803897
12	0xbe276ebc	-0.16350836
13	0x3f0ac62b	0.5420863
14	0xbf23960d	-0.63900834
15	0xbe8823cc	-0.2658981
16	0xbf62e29c	-0.8862703
17	0x3fdda690	1.7316456
18	0xbe3339e2	-0.1750255
19	0xbd3edaea	-0.04659549
20	0xbf644bf9	-0.89178425
21	0x3ea9e16d	0.331798
22	0xbd8cd2e5	-0.068761624
23	0xbfcea767	-1.6144837
24	0xbe383211	-0.17987849
25	0x3f9d4096	1.2285335
26	0xbf0c4632	-0.5479461
27	0xbf238040	-0.6386757
28	0x3f2a7fe2	0.66601384
29	0x3edc91b5	0.43079916
30	0x3e844b7a	0.25838834
31	0x3ef40c6d	0.4766573
32	0xbe28a86b	-0.16470496
33	0xbef605f0	-0.48051405
34	0xbfef059c	-1.8673587
35	0x3f2d0e5b	0.6760003
36	0xbde8b701	-0.1136303
37	0xbf1bf0dc	-0.609144
38	0x3f994892	1.1975272
39	0xbe442bb4	-0.19157296
40	0xbe8ecc2d	-0.2789015
41	0x3d9c0b6b	0.07619365
42	0x40052452	2.0803418
43	0xbf215758	-0.630239
44	0x3f0599b0	0.52187634
45	0x3eecd519	0.4625633
46	0x3f68530b	0.90751714
47	0xbe627635	-0.22115405
48	0xbee3ead7	-0.44515106
49	0xbe974453	-0.29544315
50	0xbf944752	-1.1584265
51	0xbf5a0d46	-0.85176504
52	0xbfcc197b	-1.5945276
53	0x3f06f24e	0.5271348
54	0x3f43be0a	0.7646185
55	0x3e3f70a0	0.18695307
56	0xbd7bd6e7	-0.061484244
57	0xbf5959d1	-0.84902674
58	0xbe4f6b0b	-0.20255677
59	0xbf90e676	-1.1320331
60	0xbf00da58	-0.50333166
61	0x3f072b57	0.52800506
62	0x3fe9c40e	1.8262956
63	0xbf5e006b	-0.8671939

encoder.bn03.running_var f4 [64]
0	0x40b19a3c	5.5500774
1	0x40e56fca	7.169896
2	0x405a2bb5	3.4089177
3	0x3fb7a68a	1.4347699
4	0x4098b2de	4.7718344
5	0x402a0258	2.656393
6	0x3fb346e8	1.4006014
7	0x407760e2	3.8652883
8	0x4074eb5a	3.8268647
9	0x41035f74	8.210804
10	0x4035fc1c	2.8435125
11	0x405856c7	3.3802965
12	0x400446be	2.0668178
13	0x40b8b6ed	5.77233
14	0x408a2e07	4.3181186
15	0x3fb8b0c4	1.4428945
16	0x4097ff14	4.7498875
17	0x41364b85	11.393437
18	0x3fdb0045	1.7109457
19	0x4091ed47	4.5602145
20	0x4050da9b	3.2633426
21	0x3febbeda	1.8417618
22	0x4055722e	3.335094
23	0x404c7969	3.1949103
24	0x40002bda	2.0026765
25	0x4094e001	4.652344
26	0x40e8a1f7	7.269771
27	0x404b1f7b	3.1737964
28	0x403009fc	2.7506094
29	0x409fbb0d	4.9915833
30	0x40794ccf	3.895313
31	0x4064e259	3.5763152
32	0x3ff3e773	1.9055008
33	0x401f3b29	2.4879858
34	0x40be1a39	5.940701
35	0x408f8915	4.4854836
36	0x3fb51381	1.4146577
37	0x402ff9d9	2.7496245
38	0x409bd961	4.8702855
39	0x3fdda512	1.7316
40	0x40b53d28	5.6637154
41	0x4089cafb	4.306028
42	0x41045499	8.270654
43	0x4082d259	4.088177
44	0x408e5cf3	4.4488463
45	0x4067fed3	3.6249282
46	0x4023de7e	2.5604548
47	0x4010590b	2.2554348
48	0x3fe83346	1.8140647
49	0x3f8d1945	1.1023337
50	0x404d0d8e	3.2039523
51	0x40de3e42	6.9451
52	0x407d56d8	3.9584255
53	0x403e7204	2.975709
54	0x4006a585	2.1038525
55	0x404aaca6	3.1667876
56	0x4008bb6d	2.1364396
57	0x402edd88	2.7322712
58	0x40deac68	6.9585457
59	0x40a5bb8a	5.179143
60	0x3f873601	1.0563356
61	0x4030d6df	2.7631147
62	0x40f4b109	7.6466107
63	0x3fec3e4d	1.8456513
