checkpoint/model_checkpoint_pre.pt (torch, 493436 bytes, 32 tensors)

encoder.cov01.weight f4 [64, 63, 1, 1]
000000 5d 9d 11 be a8 78 1a bd 6a 3c 76 bc ea 75 35 be
       -0.14220186 -0.037712723 -0.015029052 -0.17720762
000010 2f 0f e3 bd 80 2d 7e bc 3a 2b 81 be f0 d8 8e 3e
       -0.110868804 -0.015513778 -0.25228292 0.27899885
000020 a4 29 57 be a3 ae e7 3d 7d ba 0a be 26 a6 13 3e
       -0.21011978 0.11312606 -0.13547702 0.1441885
000030 6a 7a 6e 3d 6e 5c 04 be a5 3f ac be f3 bb e2 bc
       0.058222212 -0.12925884 -0.33642307 -0.027677512
000040 62 04 ff bd cb 4d a3 3d ed 78 79 bd e3 1e d9 bc
       -0.12452008 0.07973822 -0.06090634 -0.026503986
000050 05 1c 05 be b3 e7 80 3d 15 f5 13 3e 88 df 9e 3e
       -0.1299897 0.06294193 0.1444896 0.31029916
000060 6e ff 5e be 65 3f 1b 3e e0 84 79 3d e1 a0 9c 3c
       -0.21777126 0.15160902 0.060917735 0.019119682
000070 d3 1c 8d bd 36 b6 97 bd 76 6e af be cb f4 29 be
       -0.068902634 -0.07407801 -0.34263963 -0.16597287
000080 f4 e9 cc bd 57 cf 1b be 4e 48 91 3d df f5 c7 be
       -0.100055605 -0.15215813 0.07093869 -0.39054772
000090 12 74 4e 3e 99 01 ec bd 34 0e 9c bd 52 5c 08 be
       0.20161465 -0.11523742 -0.076198965 -0.13316467
0000a0 f8 ea 21 3e 62 c0 77 3e a8 d6 2d be fc b5 71 bc
       0.1581229 0.24194482 -0.16976416 -0.014752861
0000b0 d2 a8 06 3e 99 15 24 be f6 04 51 be 43 d5 eb bc
       0.13150337 -0.16023864 -0.20412049 -0.028788215
0000c0 97 98 0b bd 02 60 30 3e 47 85 ff bd d9 1c 84 be
       -0.034081068 0.17224124 -0.124765925 -0.2580326
0000d0 62 b6 56 be a5 c8 a1 3e b2 e0 b5 3c d1 d6 6e 3d
       -0.20968011 0.31598392 0.02220187 0.058310334
0000e0 06 3e d5 3b 90 1f 93 bd 54 d4 81 3f 5a 55 27 3e
       0.006507638 -0.071837544 1.0142922 0.16341153
0000f0 22 cb 62 3e 6a bf ac 3d b1 c8 fd 3d 83 80 46 be
       0.22147802 0.08434947 0.123917945 -0.19384961
000100 48 21 ce 3d 4f 3a 40 3e 50 d4 f8 3c 61 2d 1e bd
       0.10064942 0.18772243 0.030374676 -0.038617495
000110 30 e2 32 bd bb ef b5 bd a7 27 6d 3e 6d 92 e4 3d
       -0.04367274 -0.088836156 0.23159657 0.11160741
000120 e3 f6 97 3e ee 59 bd 3e 1d 0e 26 3e ce 7d af 3a
       0.29680547 0.36982673 0.16216321 0.0013388933
000130 30 74 d5 3e a1 b8 8a be c6 48 b7 3d 2a 66 22 3d
       0.41690207 -0.27093986 0.08949427 0.039648212
000140 d5 41 b7 bc 75 fe 01 3e 34 74 5e be b2 7c 4d 3d
       -0.022370258 0.12694724 -0.21724015 0.050167747
000150 38 82 8a 3e 61 73 17 3c 4a 5a 1e 3e 06 93 8b be
       0.27052474 0.009243817 0.1546413 -0.27260607
000160 d2 39 71 bb 2f e0 af b9 29 36 4e bd 2f 1e 78 be
       -0.0036808145 -0.0003354563 -0.05034462 -0.24230264
000170 10 17 27 bd 1a 17 cb 3d f8 73 06 be 38 ff 28 be
       -0.04079348 0.09916516 -0.13130176 -0.16503608
000180 42 59 5d be b6 17 83 be 47 cd 2c bd ee f5 09 3d
       -0.2161608 -0.25604028 -0.042187955 0.033681802
000190 ac ef 9c 3e ff 00 2e bd 82 18 a9 be 56 33 d0 bd
       0.30651605 -0.04248142 -0.3302651 -0.101660416
0001a0 00 87 fc 3c cd 7f 6f bc 35 6a 27 3d e5 7d d6 bc
       0.030826092 -0.014617872 0.04087277 -0.026183078
0001b0 5b e1 58 3e 08 23 85 3e 3c 0e 4f 3d 1d e9 06 3d
       0.21179716 0.2600329 0.050550684 0.032937158
0001c0 e8 ce 0b 3e d4 9e 4c be 49 5d 3d 3e c1 40 e0 bd
       0.13653147 -0.19982463 0.18492617 -0.10949851
0001d0 8f 25 c6 bd 57 64 70 bd 53 ec 6a bd 87 9f 61 3c
       -0.096751325 -0.05868944 -0.057354283 0.013770944
0001e0 94 4d df 3d 7d 7f c6 be 1b c1 6b 3e d8 87 7a be
       0.10903469 -0.3876914 0.23022883 -0.24465883
0001f0 68 a2 8f bc 1d 9b 39 be f9 b0 09 3f bf 83 bb 3d
       -0.017533496 -0.18125577 0.53785664 0.09155988
000200 93 bb 09 3c 1b 0c 5d 3e 84 6c 0e 3f df 69 a4 3e
       0.008406538 0.21586649 0.5563433 0.32112023
000210 fd 7e 85 3e 3d af 74 3d 20 b5 43 3e 8b b2 7f 3e
       0.26073447 0.059737433 0.19112062 0.24970452
000220 70 f2 e1 3b fe eb ae bd 3d 88 75 bd 1e 7a 7b 3e
       0.006895356 -0.08541106 -0.05994438 0.24558303
000230 33 e9 83 be 47 2e 9d bd fa d7 d2 3d 4b f5 33 bc
       -0.25763854 -0.07674842 0.102951005 -0.010983775
000240 ad 3e 41 3e 1d a3 f8 bc 26 9d 81 3d d0 69 1c bd
       0.18871565 -0.030351216 0.06328802 -0.03818685
000250 45 25 88 3d 34 76 ed 3c 98 60 be 3d 86 47 a1 3c
       0.066477336 0.028987028 0.092957675 0.019687425
000260 c5 5b fb bd 98 29 74 3d ae bd 7e 3d 26 b8 ba 3d
       -0.12273363 0.05960998 0.06219261 0.09117155
000270 81 95 bf 3d ca 23 3f be c9 6a 2d 3e 41 4f 9f 3e
       0.093546875 -0.18665996 0.16935267 0.31115153
000280 78 a9 89 3d 7e d1 11 bd b7 40 5e 3e 29 41 df bc
       0.06721777 -0.035600178 0.21704374 -0.02725275
000290 7e 6f e0 3d 21 e4 2d 3e 48 2e 67 bd 4a d7 df 3e
       0.109587654 0.16981556 -0.05644062 0.4371894
0002a0 a7 48 92 3c 1c 99 f4 bd 27 cb 80 bd ed e8 bd 3d
       0.017856909 -0.11943266 -0.06288748 0.09272943
0002b0 72 60 06 be 4d e1 76 bd a0 19 13 3e 38 1b a1 be
       -0.13122728 -0.060273457 0.14365244 -0.3146608
0002c0 cf a2 9c be 83 83 db 3e 67 55 f7 bc b6 e2 a4 be
       -0.30592963 0.42873773 -0.03019209 -0.32204217
0002d0 c7 e6 76 bc 40 f5 bd bd 82 70 c5 3d fe f7 41 3e
       -0.01506967 -0.09275293 0.096406 0.18942258
0002e0 2b aa 22 bd c5 00 03 3d b1 f6 75 3b 40 0e c2 3e
       -0.039713066 0.031983156 0.0037531073 0.37901497
0002f0 12 6d 2a be 82 74 e2 bd 00 a0 39 3e b7 77 52 3d
       -0.1664317 -0.11057378 0.18127441 0.0513837
000300 01 90 0b 3e 5c 27 d3 3d 0b 5b 22 be 41 a2 63 bd
       0.13629152 0.103102416 -0.15855043 -0.05557466
000310 f9 c3 c8 bc fd a8 09 3c 18 3b 22 be a0 9b d1 3e
       -0.02450751 0.008402106 -0.15842855 0.40939045
000320 50 9a d0 3d 77 ac 25 3e e4 6d 1c 3e ce 08 a8 3e
       0.10185683 0.16179071 0.15276295 0.32819217
000330 36 4f 26 bc 78 38 30 bd 31 b4 83 3e 97 62 c3 bd
       -0.010150721 -0.043022603 0.25723413 -0.09540289
000340 19 60 ee 3d 22 e7 4a 3c d8 6c 5c be a6 23 15 3e
       0.11639423 0.012384208 -0.21525896 0.1456438
000350 e4 16 28 be 82 76 67 3e 31 25 ea bd 34 18 36 3e
       -0.16414982 0.22603801 -0.11432875 0.1778267
000360 1b d9 63 bb b7 65 16 3e 3c 99 70 3d ba c7 45 3e
       -0.0034766856 0.14687239 0.058739886 0.19314471
000370 59 0b 9a 3d 1c 26 43 3e 57 23 50 3e d7 60 1b 3e
       0.07521696 0.19057506 0.20325981 0.1517366
000380 62 93 43 3e b3 69 15 3e 0a 3c 8a be a6 e3 52 3e
       0.19099191 0.14591102 -0.2699893 0.20594653
000390 5b 59 28 be 85 0c 42 3e 75 84 af 3d 19 8c eb 3e
       -0.16440336 0.18950088 0.08570186 0.46005324
0003a0 52 9e 1a 3e cb db 5c bd 22 98 1d 3e 99 7a ef bd
       0.15099457 -0.05392055 0.15390065 -0.116933055
0003b0 45 8a 97 bd 81 04 04 3e 74 70 b3 3d 05 8f 5b 3e
       -0.0739942 0.12892343 0.08761683 0.21441276
0003c0 7c 8b 41 3d 6f e2 9b bd 92 c5 15 be 3d 81 e4 3d
       0.047252163 -0.07611548 -0.14626148 0.11157463
0003d0 42 f5 60 be 00 26 1f 3e 74 1f e7 3b d0 79 1f bd
       -0.21968558 0.1554184 0.00705331 -0.03893453
0003e0 f3 25 8f 3e d7 39 14 be e5 32 88 bd ec 7d 47 3d
       0.2795864 -0.14475189 -0.06650332 0.048704073
0003f0 23 96 70 3b e2 2d 43 3e 38 30 45 3d 1c 51 c2 3d
       0.0036710582 0.19060472 0.048141688 0.09488127

encoder.cov01.bias f4 [64]
000000 00 e1 23 39 e1 e0 3c 39 e8 65 4d b9 b0 a9 7f b9
       0.0001562871 0.00018012851 -0.00019588287 -0.00024381909
000010 59 e7 e3 b9 49 43 21 3a 32 bd 5c 3a 19 59 29 3a
       -0.0004346918 0.0006151689 0.0008420526 0.0006460115
000020 16 02 84 b9 33 72 05 b9 68 18 26 ba 31 4e ad b8
       -0.00025178556 -0.00012726411 -0.0006336034 -8.263847e-05
000030 cb 5f a0 39 b0 b8 41 b9 6f 2f a2 38 e5 b0 9d 39
       0.0003058895 -0.00018474716 7.733597e-05 0.0003007717
000040 fa 09 0b 3a ee c4 fc 36 ca 8e 2d 39 ee 6e 30 b6
       0.0005303916 7.533111e-06 0.00016551759 -2.6290613e-06
000050 a5 2f de b7 50 a0 c8 b9 77 a3 3d 39 ca fe d4 b9
       -2.6486648e-05 -0.00038266415 0.0001808534 -0.00040625624
000060 9f 04 a2 ba 0e 9a 83 39 71 e6 f7 38 ed 0e 01 ba
       -0.0012360996 0.00025101047 0.00011820801 -0.00049231836
000070 3e 9e 1a 3a a7 6f 0d 3a c7 50 0e b9 1d bf d6 39
       0.0005898214 0.00053953606 -0.00013572267 0.0004095965
000080 67 33 a2 b8 af fa 8d 39 29 24 3f b9 43 6f 81 b9
       -7.7343364e-05 0.0002708039 -0.0001822865 -0.00024687694
000090 da 14 3a 38 52 4d 5c 39 f2 12 8c b9 6e c4 3d b9
       4.4365275e-05 0.00021009639 -0.00026716996 -0.0001809762
0000a0 42 0b bb b9 6c 3a 23 b8 45 9e 08 b7 d7 24 09 b9
       -0.00035675807 -3.8916638e-05 -8.143082e-06 -0.00013079062
0000b0 ab c5 22 3a dd f7 29 ba 05 53 4f b9 a2 90 17 39
       0.00062092644 -0.0006483773 -0.00019771986 0.00014454362
0000c0 b3 41 96 b8 c3 15 3b 3a 86 2a aa 39 89 3a af b9
       -7.164795e-05 0.00071367266 0.0003245661 -0.00033422213
0000d0 e8 55 1b 3a 31 29 45 b9 85 b0 8b 37 28 0f d4 39
       0.0005925582 -0.00018802729 1.665229e-05 0.00040447083
0000e0 2d a8 0b ba 33 0d 24 b9 63 f3 63 ba 1e 65 86 38
       -0.00053274893 -0.00015645176 -0.000869563 6.4084525e-05
0000f0 c7 dd bd b8 a1 89 69 39 14 4d 96 39 6f 83 fa 39
       -9.0535315e-05 0.00022271882 0.00028667657 0.00047781641

encoder.bn01.weight f4 [64]
000000 7e e0 87 3f c0 45 86 3f 15 89 77 3f ad 9f 80 3f
       1.0615385 1.0490036 0.96693546 1.0048729
000010 7d fe 7f 3f d3 74 80 3f 54 a6 85 3f c0 6e 81 3f
       0.99997693 1.0035652 1.0441384 1.0111923
000020 13 35 78 3f 7f 13 75 3f 0f 3c 6d 3f a9 4b 76 3f
       0.96955985 0.95732874 0.9266977 0.962092
000030 f5 2b 86 3f e9 9b 7c 3f 80 f4 70 3f da eb 79 3f
       1.0482165 0.986754 0.9412308 0.97625506
000040 07 b8 76 3f 2d f1 80 3f 4e 3b 5f 3f 69 04 81 3f
       0.96374553 1.0073601 0.87199867 1.0079471
000050 7e 12 79 3f a8 25 78 3f 5b 3f 80 3f 57 09 81 3f
       0.9729384 0.9693246 1.0019335 1.0080975
000060 af 78 7f 3f 6a b6 7a 3f 8a 65 7d 3f 84 6d 86 3f
       0.99793524 0.9793459 0.9898306 1.0502172
000070 37 d0 8c 3f f6 57 86 3f 5d 7e 80 3f 01 20 8a 3f
       1.1001042 1.0495594 1.0038563 1.0791017
000080 e3 1e 7a 3f 27 14 85 3f 72 66 87 3f 94 9a 83 3f
       0.9770338 1.0396775 1.0578139 1.0281549
000090 48 22 8d 3f ae 39 80 3f 13 fe 81 3f 6d ff 71 3f
       1.1026087 1.0017602 1.0155662 0.94530374
0000a0 e4 49 70 3f b6 8e 86 3f b2 b7 80 3f 49 e7 70 3f
       0.9386275 1.0512302 1.0056059 0.94102913
0000b0 03 39 83 3f 19 cf 70 3f d0 e2 8a 3f 6d d3 7a 3f
       1.0251774 0.94066006 1.0850468 0.9797886
0000c0 3a ce 75 3f a1 f4 88 3f 78 bf 80 3f 92 32 77 3f
       0.960178 1.0699655 1.0058432 0.9656154
0000d0 c9 2a 6d 3f ce 00 78 3f 58 e1 82 3f ae a3 7b 3f
       0.9264341 0.9687623 1.022502 0.9829663
0000e0 61 b6 7e 3f a6 bf 77 3f 83 6b 74 3f 29 94 80 3f
       0.9949704 0.9677681 0.9547655 1.0045215
0000f0 43 b6 75 3f fb 7b 7e 3f 26 fe 81 3f e0 af 80 3f
       0.95981234 0.9940793 1.0155685 1.0053673

encoder.bn01.bias f4 [64]
000000 6b 64 ac 3e b6 33 86 3d 28 ff cb 3c ad ce 6e 3c
       0.33670363 0.06552832 0.024901941 0.0145756425
000010 01 2d f7 3d c0 85 dd 3c ee 0f d4 3a d5 41 c5 3c
       0.12069131 0.027041316 0.0016179064 0.024079243
000020 e7 65 d8 bd 6c f3 65 bd 3a fc 72 3d e4 13 98 3d
       -0.10566311 -0.05614035 0.059322573 0.07425669
000030 6d 01 45 3e 27 bb 9c 3d 20 ca c9 3c 72 72 d5 3b
       0.19238825 0.07652884 0.024632514 0.006513887
000040 8f a0 0e 3d d7 d0 00 be 3e 0e 96 3c 76 c4 fb bc
       0.03482109 -0.12579666 0.018317338 -0.030733328
000050 a9 e0 77 bc 5f 65 ce 3d 52 e1 ec bc 0f b8 fc bc
       -0.015129247 0.10077929 -0.028916035 -0.030849485
000060 6b c1 9c bd 1a 2e 8c bb 87 95 a7 bd 59 29 be 3d
       -0.07654079 -0.0042779567 -0.08182817 0.0928523
000070 f9 d4 8d 3e dc 4d 57 3d ec 4b 51 3b 50 e5 74 bc
       0.27701548 0.052564487 0.0031936122 -0.0149472505
000080 7f e3 1c 3d af 93 78 3d 63 9c b5 3c 26 5a 58 3c
       0.038302895 0.060687717 0.022169298 0.013205087
000090 52 ca c4 3d 93 4c c9 3c f6 89 90 bd 9b 51 20 bd
       0.09608902 0.024572646 -0.07057564 -0.039140325
0000a0 01 87 ea 3c 6b 29 00 3e 43 d6 9a bc 85 85 95 3c
       0.028628828 0.125158 -0.018900996 0.018252144
0000b0 a7 8c b1 3d ad 16 dd bd f5 7c 9d 3e 75 3b 6a 3d
       0.086694054 -0.10795341 0.30759397 0.05718561
0000c0 9c 6e ef 3c 6c f0 92 3d 23 71 00 3d c7 c0 17 be
       0.029227547 0.07174763 0.031357896 -0.14819632
0000d0 17 f8 06 3d 36 c0 aa bc 03 74 a7 3d b6 2f 40 3d
       0.03295144 -0.020843606 0.08176424 0.0469205
0000e0 a7 b5 5c 3d 57 87 58 3d f9 70 6d bc 7c 59 b1 bd
       0.053884175 0.052863445 -0.014492267 -0.08659646
0000f0 e0 3e 89 bc eb 8a 47 bd dd db a8 3d ed 23 9d bb
       -0.016753614 -0.048716467 0.082450606 -0.0047955425

encoder.bn01.running_mean f4 [64]
000000 30 2c 20 3d ba aa e0 3a a2 53 07 be 69 16 06 be
       0.03910464 0.0017140724 -0.13215497 -0.13094486
000010 12 5e 57 3d f6 54 94 bd 4f 16 f7 3d 8f 49 17 3d
       0.052579947 -0.072427675 0.12064802 0.036935385
000020 91 9a 75 3d a1 12 54 bd 24 15 bc bd 58 81 c9 3d
       0.05996186 -0.05177558 -0.0918372 0.098391235
000030 48 7c 91 3c c2 28 a0 3c d7 5f 0f be 0f f3 cb bd
       0.017759457 0.019550685 -0.14001404 -0.09958469
000040 39 97 65 bd 67 e4 e7 3c 74 cc 82 bd 40 29 a1 bb
       -0.05605242 0.028307153 -0.063866526 -0.0049182475
000050 07 45 81 3d 73 2c a4 bd a4 7a 12 3d 13 60 31 3e
       0.06311994 -0.080162905 0.03576149 0.17321806
000060 e8 b6 5b bc 11 61 ae bd 53 1b 4d 3d 84 67 32 3d
       -0.0134103075 -0.08514608 0.050074887 0.04355575
000070 25 73 fb 3c a9 aa 1f 3e 2d dd e6 3d 19 73 3c 3d
       0.030694554 0.15592445 0.11272655 0.046008203
000080 6e fc fd bd ac 89 17 be cf 4c 05 3e 7e 4a 33 3e
       -0.12401663 -0.14798611 0.13017581 0.17508885
000090 3a 2a 75 3d c9 eb c6 3c 28 a6 fa bc de ad d4 3d
       0.059854724 0.024282353 -0.030596808 0.10384725
0000a0 46 55 92 bd 06 02 d3 39 ec 42 37 3e aa 0f b0 bd
       -0.07145171 0.00040246564 0.17896622 -0.08596738
0000b0 fb fa ad bd 0b 8c 6e bb e4 18 1a 3d 33 8f 21 3d
       -0.08495136 -0.003639939 0.037621394 0.039443206
0000c0 c5 7e 65 bc 86 66 c0 3d 69 a7 bc 3d 66 65 64 bc
       -0.014007275 0.09394555 0.092116185 -0.013940191
0000d0 d6 1b d1 bd 83 5b d2 3d 14 09 22 3d 30 eb d6 bd
       -0.102103874 0.10271361 0.03955944 -0.10494077
0000e0 05 31 81 bd 3d da a7 bd 59 4f f7 bc a3 fe 28 bc
       -0.06308178 -0.081959225 -0.030189203 -0.010314616
0000f0 3a 53 c5 3d 3a 09 79 bc a7 0b 25 bd 4f d1 08 3e
       0.09635015 -0.015199954 -0.040294316 0.13361095

encoder.bn01.running_var f4 [64]
000000 34 b6 76 40 8c ea 94 3f ae 0c 0f 41 20 22 b2 40
       3.8548708 1.1634078 8.940596 5.5666656
000010 2f 8d a7 3f 53 6c 17 40 fa c4 af 40 c8 0e a6 40
       1.3089961 2.3659866 5.492795 5.1893044
000020 2c c9 c4 40 5b 37 5c 40 46 66 8c 40 a4 9d 35 41
       6.149557 3.4408786 4.3874846 11.3509865
000030 f1 09 d1 3f 08 26 ab 40 e3 f3 b5 40 50 6c 6a 40
       1.6331159 5.3483925 5.6860213 3.6628609
000040 3a 0b b2 3f be 05 d0 40 19 a0 c6 3f ff 93 51 40
       1.3909676 6.500701 1.5517608 3.274658
000050 14 25 6e 40 1f e4 74 40 16 76 11 41 14 72 18 41
       3.721013 3.8264234 9.09133 9.527851
000060 aa 9e 04 40 46 fa 55 40 4d 1a 4e 41 5b 63 17 41
       2.072184 3.3434005 12.881421 9.461757
000070 ff 99 aa 3f fe 96 43 41 29 df 86 40 d6 22 ec 40
       1.3328246 12.224363 4.214741 7.3792524
000080 e8 74 e6 40 78 23 e9 40 0e 9d d8 40 0d e3 e2 41
       7.201771 7.2855797 6.7691717 28.360865
000090 c7 02 ab 40 1d 33 aa 40 a3 69 d9 40 f3 e6 0d 41
       5.344089 5.3187394 6.794145 8.868884
0000a0 e5 e8 8f 40 9f 0b 38 41 5b 9a 90 41 ab 19 96 40
       4.4971795 11.502837 18.075369 4.6906333
0000b0 7c 94 9b 40 f2 3e 01 40 96 a0 82 40 19 95 20 41
       4.8618755 2.0194669 4.082103 10.036401
0000c0 d6 0f 81 3f 9c 29 e1 40 2f 4c 3c 41 6d c6 02 41
       1.0082958 7.0363293 11.7685995 8.173444
0000d0 66 15 76 40 5c 24 ac 40 82 a6 c5 40 61 40 03 41
       3.845056 5.3794384 6.1765757 8.2032175
0000e0 4e ef 49 40 be 14 bc 40 4f c0 c7 3f f6 1c e6 40
       3.155231 5.877532 1.5605563 7.1910353
0000f0 e1 cf 5e 40 3b 1c eb 3f 02 fb 12 41 71 8c d8 40
       3.481438 1.836799 9.186281 6.7671437

encoder.cov02.weight f4 [64, 64, 3, 3]
000000 f5 b0 f0 3d fa b2 b7 bb 3b 22 a4 bd 59 8b 1d be
       0.11752502 -0.0056060525 -0.080143414 -0.15385188
000010 50 7d 83 3d 11 c8 8b 3d df 8f b4 3d 78 8d 83 bd
       0.06420386 0.06825269 0.08816504 -0.064234674
000020 af 6c 34 3d 5f 88 86 3c 1f 11 23 bd f8 25 f7 3c
       0.04404896 0.016422449 -0.03981125 0.030169472
000030 0f d7 e3 bd 0b d0 f5 3c e7 08 bb bd c5 fd 98 bd
       -0.111250035 0.03000643 -0.09132557 -0.07470278
000040 76 9b 52 bd 4a a2 52 3c 01 e8 ce 3d 65 6e a4 3c
       -0.05141779 0.012856076 0.10102845 0.020072171
000050 60 ae a1 bd 82 5f 20 3c 85 6a 78 bd cd 80 24 bd
       -0.078945875 0.009788396 -0.06064846 -0.040161896
000060 ba 9d 8d bc 29 1c b0 bd 77 2a 15 3e 09 d4 36 bc
       -0.017287124 -0.08599121 0.1456698 -0.011158952
000070 ef fb 05 bc 47 71 99 3d e4 34 95 bd f4 c7 63 3d
       -0.008177741 0.07492309 -0.07285479 0.055610612
000080 79 55 28 bc a6 74 85 3d 11 50 ed bc af 89 22 bd
       -0.0102742845 0.065163895 -0.028968843 -0.039682087
000090 9b e2 48 bb af e6 e4 3c 29 e9 ae 3d 42 96 f5 bb
       -0.0030652646 0.02794203 0.085405655 -0.007494719
0000a0 8b 2f a8 3d da b0 b9 3c 1e 2e b0 bd 5e 1b 32 3e
       0.08212193 0.022667337 -0.08602546 0.17393252
0000b0 8d 46 99 bd d0 dc 72 bc 3e 36 d9 3c 7c 9c 2b bd
       -0.074841596 -0.014823154 0.026515123 -0.041897282
0000c0 66 b4 0e 3d 41 e7 ce bc a3 8c 37 3d 19 55 ca 3b
       0.03484001 -0.025256755 0.044811856 0.006174695
0000d0 d3 18 fe 3c a1 18 e6 bb 7f aa 9e 3c 4d c1 78 3d
       0.031017696 -0.007021979 0.019368408 0.06073122
0000e0 d2 af 1c 3a 50 3c 1e 3e 39 d2 86 3d ab 81 0f bc
       0.0005977127 0.15452695 0.065830655 -0.008758943
0000f0 ab 2e c4 3b f2 97 35 3d e4 69 5a bd 63 e4 ee bc
       0.0059870086 0.04433436 -0.05332364 -0.029161638
000100 d7 b1 a8 bd 8f c4 22 3c 35 e6 17 3e bc 43 f3 3d
       -0.08237045 0.0099345585 0.14833911 0.11878154
000110 b6 6b 4b bd dd dc 15 bd 46 d9 0d 3c 16 89 74 3d
       -0.049663268 -0.036587585 0.008657759 0.059701048
000120 2a 37 58 bd 8a 91 19 3d 29 29 05 36 d3 b0 e6 bc
       -0.052786984 0.037492312 1.9842503e-06 -0.028160488
000130 6b 1b 17 bd d0 ab b6 bc a8 ee 0d bd 37 a3 d0 bc
       -0.036891382 -0.022298723 -0.03465143 -0.025468452
000140 f6 93 91 3d 41 f3 07 bd 5a 4f d4 3d 57 65 78 3c
       0.071082994 -0.03319097 0.103666976 0.01516088
000150 7f cc 59 3d 12 3c 24 3e c0 2f 6f bc 12 02 be 3d
       0.05317354 0.1603854 -0.014598787 0.09277739
000160 55 98 f2 3c aa ca 8f bd 56 bb ab bc 1e bf 5b bd
       0.029613653 -0.07021077 -0.020963352 -0.05364906
000170 af 81 93 bc de 73 03 bd 25 4c 5d 3d d3 56 a4 bd
       -0.018006174 -0.03209292 0.054027695 -0.08024373
000180 b3 d5 30 bd 57 f4 20 bd 97 a4 95 bd af e2 9a bd
       -0.04317255 -0.03929552 -0.07306784 -0.07562768
000190 dc 3d d3 ba 98 f7 a2 3c 74 cf 4c 3a 7d 99 10 be
       -0.0016116458 0.019893453 0.00078128953 -0.14121051
0001a0 98 92 1e 3b 93 8b b5 bb 19 6b be bd bc 09 b4 bd
       0.0024196263 -0.00554032 -0.09297771 -0.08790919
0001b0 fa ab c1 3d 95 ef c5 3d f1 30 96 bd a2 4b 02 bc
       0.0945663 0.09664837 -0.073335536 -0.007952603
0001c0 d6 2a ec 3d c0 c2 bb 3d 85 41 8b bd e0 e1 22 bd
       0.11531608 0.09168005 -0.06799606 -0.039766192
0001d0 56 ff 0d bb fe 68 44 3d 9b 1e 08 3d 37 1d 35 3d
       -0.0021667085 0.04795169 0.033232313 0.044217315
0001e0 01 08 88 3d 10 85 7d 3d d0 c0 09 bd 95 a1 ab bd
       0.066421516 0.061894476 -0.033631146 -0.08380429
0001f0 5c b9 87 bd 20 1d 68 bb 63 7d e4 bc c8 5f 9b 3b
       -0.06627151 -0.003541775 -0.02789182 0.0047416426
000200 6b c8 a2 bd 05 e6 06 3e a1 e8 3e 3d b6 97 c7 bd
       -0.07948383 0.13173683 0.04660857 -0.097457334
000210 b4 34 1a bd c1 45 ad 3b 05 ad 30 3d 37 8e 2c bc
       -0.037647918 0.0052878563 0.043133754 -0.010531954
000220 ce a3 d2 3d 82 3e a7 bd 05 a2 7f bd de 7f 06 bd
       0.102851495 -0.08166219 -0.062410373 -0.032836787
000230 9d 22 f4 bd 49 fe 24 3d a8 44 e9 3c 8e 09 95 bd
       -0.119206645 0.040281568 0.02847512 -0.07277213
000240 ef ab 9e bc 4f 80 f5 3c 70 bc a8 bd 1c 2c 1e bd
       -0.019369094 0.029968409 -0.082390666 -0.038616285
000250 e7 a2 71 bc 6d c8 89 3a 73 83 a4 3d ad c6 65 be
       -0.014748312 0.0010512002 0.080328844 -0.2243907
000260 c0 c1 95 bd aa 1b db bd e0 8f 81 3d 8b 81 ba bd
       -0.073123455 -0.10698636 0.0632627 -0.091067396
000270 f0 8f 8a bd 5a 11 f4 bc d3 dd 07 bd 50 9c 96 bd
       -0.06765735 -0.02979343 -0.033170532 -0.07354033
000280 2d 7e fb bd bc aa c7 3d 19 c6 5f bd 41 96 87 3d
       -0.122799255 0.09749362 -0.05463228 0.066204555
000290 e0 ad 7d ba 2d 86 da 3c f5 2b c1 3d 82 76 f1 3d
       -0.00096770935 0.026675308 0.09432212 0.11790182
0002a0 11 9e fc bb c0 e6 64 3c 36 05 5e 3d 8d 18 5f bd
       -0.0077092727 0.013971031 0.05420419 -0.054466773
0002b0 69 2c 86 bc f7 fe 1b 3c 22 eb 95 bd c7 18 66 bd
       -0.016378598 0.009521238 -0.07320239 -0.056175973
0002c0 67 39 6e bd 70 64 77 bc 74 63 d2 3c 4c 77 d8 3d
       -0.058160212 -0.01509963 0.025682189 0.10569629
0002d0 c7 fc 48 3c db d8 b7 3b 16 a3 10 bd 13 28 91 bc
       0.012267298 0.005610568 -0.03531178 -0.017719304
0002e0 02 a8 b7 bd 41 ae 80 bd e3 3c 8f bd 80 21 2b 3d
       -0.08967592 -0.06283236 -0.06994035 0.041779995
0002f0 2e 29 da bc d3 68 8c 3d 4c b9 70 bd 34 1f 98 3d
       -0.026630964 0.06855931 -0.058770463 0.074278265
000300 1e 11 de 3b 78 8b 8e bd 41 0d 49 bd 7f db aa 3c
       0.006776943 -0.06960195 -0.049084906 0.020856617
000310 e6 57 e6 3d 62 d4 d6 bd 3d 87 0d bd e4 d0 a7 bd
       0.11247234 -0.104897276 -0.0345528 -0.081941396
000320 ce 3d f8 bc 6f 28 b1 3c da 6d 21 be 48 5e b8 3c
       -0.030302908 0.021625726 -0.15764561 0.022505894
000330 9e fa a8 3b 4b 43 ba 3c 0c 1e ec bc ed 20 ce 3c
       0.005156829 0.022737166 -0.028822921 0.025162185
000340 5e e9 94 3c 55 20 85 3d 23 43 78 3d af 77 94 3c
       0.018177684 0.065003075 0.0606109 0.018123476
000350 9f 37 27 3d 6a 25 68 3d 36 7d eb 3c 9e 23 bb bd
       0.04082453 0.056676306 0.028746229 -0.09137653
000360 8e 8b be bd c9 5e b1 bc 48 59 d1 3c 5d 1a 49 3d
       -0.09303962 -0.021651642 0.025555268 0.049097408
000370 84 d3 67 be 26 76 de b7 74 ee e3 bc 30 61 1c 3d
       -0.2263928 -2.651948e-05 -0.027823664 0.038178623
000380 fa 5e f2 3d e7 e6 d8 3d a5 32 f0 bb 87 55 76 3d
       0.118345216 0.10590916 -0.007330256 0.06014016
000390 df 23 01 3d 80 e4 ee bc aa dc c4 bc 39 72 8a 3c
       0.03152835 -0.029161692 -0.024031002 0.016900169
0003a0 64 1e be bc a7 0d 6f 3d b4 38 7e 3c 33 43 23 3d
       -0.02320785 0.05836263 0.015516449 0.039859008
0003b0 13 5d 4f bc 47 f4 0b 3d 1f 75 ad 3d 41 0e c1 bb
       -0.012656468 0.034168508 0.08469605 -0.005891592
0003c0 df 89 59 3d 1e 3f bc 3d da 58 8a 3d 12 57 82 3d
       0.05311 0.09191726 0.06755228 0.063642636
0003d0 a1 28 6c 3d d5 34 51 bc bd a5 92 3d f6 34 dd 3d
       0.057655934 -0.012768944 0.07160518 0.10801117
0003e0 61 9b 45 be 24 f7 a7 bb 8f 5c 3d bd f8 c6 dd bd
       -0.19297554 -0.005125897 -0.04623085 -0.10828966
0003f0 7e 6e 6c b9 e0 63 b4 bc 79 ba a4 bd 75 3c 0e be
       -0.00022547875 -0.02202028 -0.08043379 -0.1389025

encoder.cov02.bias f4 [64]
000000 d7 1d 12 ba fd bf 89 38 ba c2 85 39 29 62 34 39
       -0.00055739045 6.56843e-05 0.0002551282 0.00017202705
000010 d2 44 8a 39 b9 2b 16 3a 16 92 5a 39 61 a0 3b b9
       0.00026372686 0.0005728561 0.00020844521 -0.00017893456
000020 5f 2c 08 b9 32 79 9a b8 bf 79 00 3a 24 fc 36 39
       -0.000129865 -7.3658666e-05 0.0004900954 0.00017450802
000030 ce f8 b8 38 f5 28 da b9 f3 4e 1f 39 48 fe aa b9
       8.820147e-05 -0.00041610716 0.00015192833 -0.0003261438
000040 6c 5d 87 b9 ec 32 0d 3a 31 bd 40 39 29 43 47 b8
       -0.0002581881 0.0005386311 0.00018381026 -4.7507845e-05
000050 da 4e 3a b9 cb f4 18 b9 ca 88 9a b8 0c 13 82 b6
       -0.00017767717 -0.00014587042 -7.368771e-05 -3.8765193e-06
000060 70 37 be 38 00 23 02 b9 77 51 db b7 f3 e6 7c 38
       9.070232e-05 -0.00012410805 -2.614477e-05 6.029657e-05
000070 14 da e3 b9 08 d6 08 b7 4c fd df 38 27 30 16 3a
       -0.00043459295 -8.156065e-06 0.00010680649 0.0005729221
000080 db ca c6 36 62 46 86 38 94 36 80 b9 dc 57 37 39
       5.9244753e-06 6.402728e-05 -0.00024454726 0.0001748497
000090 d7 7b 48 37 d1 3b 24 b9 d9 a7 05 b9 43 f1 11 b9
       1.1949763e-05 -0.00015662542 -0.00012746397 -0.00013918155
0000a0 01 92 48 39 40 1b 9f b7 72 fe 80 b9 a4 bd bb b9
       0.00019127877 -1.8966966e-05 -0.0002460364 -0.00035808713
0000b0 56 b1 f5 39 a8 96 79 39 52 84 4d 38 e8 c0 30 3a
       0.00046862167 0.00023802614 4.899904e-05 0.00067426125
0000c0 c6 b7 01 39 35 ae 60 38 7d 77 16 b9 29 7e ab 37
       0.0001237086 5.3568005e-05 -0.00014349628 2.0443536e-05
0000d0 2a 6c e1 b9 dd 54 62 38 47 44 f8 b8 af ca 40 39
       -0.00042995933 5.3961634e-05 -0.00011838279 0.00018386052
0000e0 79 4a b8 b8 0f 9a ff b8 7e 66 eb 39 ea b6 cb 39
       -8.787675e-05 -0.00012188043 0.00044899056 0.0003885546
0000f0 78 4f 04 3a 38 9e fc b7 aa 57 1e 39 37 5e 26 b9
       0.0005047242 -3.0114417e-05 0.00015100712 -0.00015866091

encoder.bn02.weight f4 [64]
000000 88 e5 80 3f 0c cc 7d 3f c7 d9 77 3f 36 74 76 3f
       1.0070047 0.99139476 0.96816677 0.96271074
000010 36 93 81 3f 6d 03 7c 3f 42 ad 6a 3f 36 c3 79 3f
       1.012305 0.9844273 0.9167062 0.97563493
000020 3a d5 84 3f 9a 8d 77 3f 92 20 78 3f 4f d0 7c 3f
       1.0377572 0.9670044 0.969247 0.98755354
000030 25 43 86 3f 04 b3 79 3f 64 92 7e 3f 1e d0 7a 3f
       1.0489241 0.9753878 0.99442124 0.9797381
000040 12 e4 74 3f fe 88 7c 3f 40 98 83 3f d0 eb 82 3f
       0.9566051 0.98646533 1.0280838 1.0228214
000050 2c 3b 72 3f 0c 4c 7a 3f 73 19 7c 3f 4e be 81 3f
       0.9462154 0.9777229 0.9847633 1.0136201
000060 23 ff 7d 3f 1d 8c 87 3f b8 e1 7e 3f 53 2e 7a 3f
       0.9921743 1.0589634 0.9956317 0.97726935
000070 0f 48 84 3f 66 31 8a 3f 52 22 77 3f 37 26 85 3f
       1.033449 1.0796325 0.96536744 1.0402287
000080 7e 8a 82 3f 3e df 81 3f a2 9d 5d 3f 58 db 75 3f
       1.0198514 1.0146253 0.86568654 0.96037817
000090 8a 34 83 3f ef ea 86 3f f1 62 82 3f 21 61 76 3f
       1.0250409 1.0540446 1.0186445 0.96241957
0000a0 c2 83 7a 3f ec 37 86 3f 0b a6 79 3f 7b 42 75 3f
       0.97857296 1.0485816 0.97518986 0.95804566
0000b0 a7 79 8b 3f 5d c4 75 3f f4 ed 76 3f 7d 11 8a 3f
       1.08965 0.9600275 0.9645684 1.0786587
0000c0 b9 7b 7f 3f 83 c4 8c 3f d8 d0 7b 3f 76 93 76 3f
       0.9979816 1.0997471 0.98365545 0.9631876
0000d0 c6 0b 66 3f 95 0f 78 3f 02 63 83 3f 3f a6 76 3f
       0.89861715 0.96898776 1.026459 0.9634742
0000e0 80 ad 7f 3f 38 1f 85 3f b1 82 89 3f 7d d0 89 3f
       0.99874115 1.0400152 1.0743009 1.076675
0000f0 94 ca 82 3f bc 36 7e 3f ed 16 81 3f bb 3c 86 3f
       1.0218072 0.9930227 1.0085121 1.0487283

encoder.bn02.bias f4 [64]
000000 d7 52 99 bc ea 55 59 bd 78 9b 5f 3c 53 0c 58 bd
       -0.018716259 -0.05306045 0.0136479065 -0.05274613
000010 08 ce 51 3d ca b7 53 3d 3c db 5e bd 13 ab 3a 3d
       0.051221877 0.051688947 -0.054408297 0.045573305
000020 d0 a5 b4 3d 5b 9b b5 bc 0e 1c 47 bc e7 c3 01 bc
       0.08820689 -0.022168806 -0.012152685 -0.007920242
000030 40 df d3 bc 00 db 6f bc 89 bd 22 3c 24 b0 bc 3b
       -0.02586329 -0.014639616 0.009932884 0.0057583023
000040 53 a9 36 bd 8f d9 e7 bc 1b 60 32 3e 6c 38 79 bd
       -0.044595074 -0.028301982 0.17419474 -0.060844824
000050 6d b4 92 bd cc 87 50 bd ce 9f ac 3c 30 b5 e5 3b
       -0.0716332 -0.050910756 0.021072295 0.0070101246
000060 25 2e 27 3d 6c 23 da 3d 58 a4 46 bd c4 b3 31 3c
       0.04081549 0.106512874 -0.048496574 0.010846082
000070 f9 4d dc bd 73 b6 10 3e a5 05 17 b9 06 4e df 3e
       -0.107570596 0.14132099 -0.00014402585 0.43614215
000080 ae d3 1d 3d 34 80 dc bb 38 b2 33 3d bf a8 fa bc
       0.03853195 -0.00672915 0.043871135 -0.030598043
000090 7b f5 87 bd 44 2d 5f bd d5 76 33 3b 32 55 93 bd
       -0.066386186 -0.054486528 0.0027384062 -0.07193984
0000a0 5f a1 41 3d d8 ed 46 3e f8 84 cf 3d 4c 68 54 bd
       0.047273036 0.19426668 0.10132784 -0.051857278
0000b0 54 2a 8d 3e 90 00 91 3d b4 b4 86 3d 01 79 a3 3e
       0.27571356 0.070801854 0.06577435 0.31928256
0000c0 b0 96 c4 3c 07 86 6e 3e f5 38 24 bc 42 89 b1 bd
       0.023997635 0.23293315 -0.010023345 -0.08668758
0000d0 a5 30 95 bd f0 68 28 3c e8 7b 6a 3e a1 dc 03 be
       -0.07284669 0.010278925 0.22898829 -0.12877132
0000e0 fe b1 85 3d 2b 11 90 3c 1f 75 85 3e d8 33 4a 3e
       0.0652809 0.017586311 0.2606592 0.1974634
0000f0 88 70 e5 3d d4 28 08 be ae a1 73 3d d4 b6 23 3e
       0.11203104 -0.13296825 0.05948036 0.15987712

encoder.bn02.running_mean f4 [64]
000000 c4 c2 43 3e 89 d4 4a c0 49 bb 96 bd 53 ad 7a be
       0.19117266 -3.169222 -0.073599406 -0.2448018
000010 98 09 88 3f e4 a7 b4 3d 36 af 67 be c4 f0 a5 be
       1.0627928 0.08821085 -0.22625431 -0.32410252
000020 7e f0 c2 bd 1e 1d 88 be c5 54 e1 be eb 54 f4 bf
       -0.095185265 -0.26584715 -0.44009987 -1.9088415
000030 46 a1 c9 3e e7 40 77 be 98 fa 95 bf ca cb 84 3e
       0.39380854 -0.24145852 -1.17171 0.2593673
000040 d3 a5 27 40 84 1a 92 3f b0 19 87 3e 79 1e 2a 3f
       2.619496 1.1414342 0.26386786 0.6645275
000050 2d 6c 4e 40 00 fe 78 3e 3e 9b 51 3f bc f4 d0 3e
       3.2253525 0.24315643 0.81877506 0.40811718
000060 6f 9f 6b 3e 35 cb 6a 3e 22 c0 a6 3f bd 55 83 bc
       0.23010038 0.2292908 1.3027384 -0.016032094
000070 b7 fb 0b 3e 2b 2b 0b c0 8a 45 99 bf 64 c5 ee be
       0.1367024 -2.1745098 -1.1974347 -0.46634972
000080 b4 4d be 3e 90 d7 bf bf 93 80 1b bf a0 45 67 3f
       0.37168658 -1.498766 -0.60743064 0.90340614
000090 15 04 f1 be ba db 14 3e e5 ce 74 3f 1c 7e da 3f
       -0.47073427 0.14536944 0.95628196 1.7069736
0000a0 96 be 5e 3f 91 ee 86 3e 7a 58 bf 3f c7 19 89 3e
       0.8700956 0.26353887 1.4948876 0.2677748
0000b0 00 b3 30 bf 42 23 dc bf 34 53 b9 be 70 ec 0a bf
       -0.6902313 -1.719826 -0.3619629 -0.54267025
0000c0 3e f8 ac bf 71 fd 84 bf 5c 98 cf be 68 f9 4c bd
       -1.3513258 -1.0389844 -0.40545928 -0.05004254
0000d0 3a 96 82 be d9 cf 38 3d 06 69 b5 bd 2b c5 39 40
       -0.2550524 0.045120094 -0.08857922 2.9026592
0000e0 33 f5 a9 bf d1 a8 9c 3f 79 41 2b 3c 78 55 f0 be
       -1.3277954 1.2239019 0.010452622 -0.46940207
0000f0 f6 78 d3 3e 03 9f 3a 3f 12 f0 ce be 88 5b 27 bf
       0.41303223 0.7289888 -0.40417534 -0.6537404

encoder.bn02.running_var f4 [64]
000000 7e 2c fa 40 25 8f 44 41 32 fa 6c 40 a3 88 e0 40
       7.817931 12.284947 3.7027707 7.0166793
000010 c7 1d f6 40 7a 0c 53 40 c8 2f 79 40 75 0f 02 41
       7.691135 3.2976365 3.8935413 8.128774
000020 7a 71 5e 40 5b 3e 0d 40 d9 6a 0f 40 a1 d9 3b 41
       3.475676 2.2069309 2.2408965 11.740632
000030 47 04 de 40 79 97 ce 40 61 53 64 40 1e 22 b3 40
       6.938022 6.4559903 3.567589 5.5979147
000040 77 d5 0b 41 94 17 bc 40 56 e9 a9 40 a8 0c 60 40
       8.739615 5.877878 5.3097334 3.5007725
000050 e7 1b 30 41 5e 7a 0c 40 f1 6a 85 40 e2 cb 38 41
       11.006812 2.1949687 4.1693044 11.549776
000060 f6 37 0a 41 b6 88 d8 3f c1 ae 7d 41 b3 53 a1 40
       8.638662 1.6916721 15.855165 5.041467
000070 2c aa c3 40 ac 27 b7 40 86 57 54 40 b7 23 8b 3f
       6.114523 5.7235928 3.317842 1.0870274
000080 eb 7b a8 40 30 91 8d 40 93 01 3d 3f 6f 45 e7 3f
       5.2651267 4.423973 0.7383053 1.8068064
000090 d1 43 5e 41 28 94 0f 40 e0 b5 39 40 da fe 20 41
       13.891557 2.2434177 2.9017258 10.06222
0000a0 fb f2 b9 40 c0 6f 8b 40 16 49 af 3f ae 91 f4 40
       5.8109107 4.3573914 1.3694179 7.642783
0000b0 d6 31 19 40 96 74 a8 40 a1 85 36 40 c3 cc c2 3f
       2.3936667 5.2642317 2.851906 1.5218738
0000c0 93 a6 90 40 9b f9 e2 3f ed 9e 39 40 24 e5 bd 40
       4.520334 1.7732424 2.900325 5.9342213
0000d0 8a 32 85 40 fb 38 79 40 8e 46 61 40 9a 98 3b 41
       4.1624193 3.8941028 3.5199313 11.724756
0000e0 6e b1 96 40 0e bb 89 40 24 27 1f 40 31 b4 10 40
       4.709159 4.304084 2.486764 2.260998
0000f0 ff 21 b6 40 80 55 e8 40 a4 61 d3 40 26 4b 49 40
       5.69165 7.260437 6.605669 3.1452117

encoder.cov03.weight f4 [32, 64, 3, 3]
000000 99 14 9f bd 03 1f a9 bd e7 7c a4 3c 24 ce 82 bb
       -0.077676006 -0.08257868 0.02007909 -0.003991859
000010 96 de 58 3d fc b4 10 3d 87 9a cc bd 43 f4 17 bc
       0.05294665 0.03532885 -0.09990411 -0.009274545
000020 95 a3 8f 3c 03 19 37 3c a2 03 40 bd d5 ab a0 bc
       0.017534057 0.011175397 -0.046878465 -0.019613186
000030 3d fa 64 be c7 09 e1 bd 05 27 03 be 59 93 2f bd
       -0.22361083 -0.10988193 -0.12807854 -0.04286513
000040 56 e6 e8 bd 59 ef 28 bd bb 5b 65 bd ab 98 8b 3c
       -0.11372058 -0.041243885 -0.055995684 0.017040571
000050 40 6a 13 be 5c 0c 7b bd 21 5a 99 bd 86 e2 90 3d
       -0.14396 -0.061291084 -0.07487894 0.07074456
000060 07 eb 39 bd 3d 63 25 bd 7d 9d 9e bc 5f 56 26 bd
       -0.045390155 -0.040377844 -0.019362206 -0.040609714
000070 9e 9e c6 bd 1c b0 98 bd e1 2b b4 3b 11 3b 8d 3d
       -0.096982226 -0.07455465 0.005498395 0.06896032
000080 8e 11 45 3c cf 38 ef bc fd 9d 28 3d e5 cf 8e 3d
       0.012028111 -0.029201893 0.041166294 0.069732465
000090 f0 40 07 3e 6f 3a 16 3d d3 2a fd 3b 29 56 ae bc
       0.13208365 0.03667682 0.0077260523 -0.021281319
0000a0 35 ef f6 3d e1 51 8b 3c c9 b4 8b 3d 0e 4c b8 3d
       0.12057344 0.017006816 0.068215914 0.08998881
0000b0 e9 fd 53 bd 28 37 93 3c 95 04 6a bd 27 a9 96 3d
       -0.05175582 0.017970636 -0.057133276 0.07356482
0000c0 d6 3b ed bd 68 1d 06 3e 47 c8 ed 3c 92 42 4e bc
       -0.115836784 0.13097155 0.029026164 -0.012589114
0000d0 35 b4 8d bd 95 11 10 bd ae eb 8e bc ac 42 c6 bb
       -0.069191374 -0.035173018 -0.017446365 -0.0060504284
0000e0 5a 45 4f be 86 26 5c 3d 7c cf c9 3d ae b8 93 bd
       -0.202413 0.053747676 0.09854028 -0.07212959
0000f0 52 fa 00 bc cc 88 ad 3d 7e 3d 15 bd 60 aa aa bd
       -0.007872181 0.084733576 -0.036435597 -0.08333278
000100 f0 d1 b8 3d 20 f3 4a bd 23 b6 3a bd a4 c2 f6 bd
       0.090244174 -0.04954827 -0.045583855 -0.120488435
000110 49 1a 75 bd fd 9b cf bd 8d 5c 2b bd b7 1b db bd
       -0.05983952 -0.10137174 -0.04183631 -0.106986456
000120 02 ed 50 bd 0d 3c 86 bd 22 01 e4 3c a2 ad f3 ba
       -0.05100728 -0.065544225 0.027832571 -0.0018591175
000130 fb 48 65 bd 1b b4 2f 3d 5e a6 8c bd 56 49 28 3d
       -0.055977803 0.04289637 -0.068676695 0.041085564
000140 73 b4 a3 bd d0 52 a2 bd 2c 02 2c be fd 77 05 3e
       -0.07993402 -0.079259515 -0.16797704 0.13034053
000150 a5 ab b7 bd f5 71 cf 3d 60 f4 e4 3c 42 03 e9 bd
       -0.089682855 0.101291575 0.027948558 -0.113775745
000160 e0 ab 9c 3d 73 56 80 3b 45 7c 3e bd 37 f7 0e bd
       0.0764997 0.0039165555 -0.04650523 -0.03490373
000170 6b d0 31 3d f9 02 e7 bd 30 bd d2 3c 8e b7 d9 bc
       0.043411653 -0.11279864 0.025724977 -0.026576784
000180 15 dd 1d bc f8 c0 92 bd 68 1d ca 3d 75 2b 72 3d
       -0.00963523 -0.07165712 0.0986889 0.059123475
000190 ca 0f 86 ba 18 a8 19 be d3 47 fc bd 96 55 39 be
       -0.0010228094 -0.15005529 -0.12318387 -0.18099055
0001a0 2f 03 4b bd 61 44 ae bd a5 c8 09 be cf 47 2d bd
       -0.049563583 -0.08509136 -0.13455446 -0.04230481
0001b0 0f 37 21 3c be b3 22 bd 09 5f 5d bd cb a8 e4 bd
       0.009839787 -0.039722197 -0.05404571 -0.11165007
0001c0 87 d9 2a bb e3 6b 5e bb 61 57 3b 3e b8 2a 81 bd
       -0.0026069598 -0.0033938817 0.18295051 -0.06306976
0001d0 36 d4 ec 3a e1 e2 25 3e 17 75 f6 3d ae 67 c1 bd
       0.0018068615 0.16199829 0.12034052 -0.094436035
0001e0 46 3a 06 3d 86 ac 99 3c 84 f7 a7 3d 8f ea 6f be
       0.032770418 0.018759023 0.08201507 -0.23429321
0001f0 8f 1b 59 bd 30 e0 2d bc ea 09 17 bd fa b5 1c be
       -0.053004798 -0.0106125325 -0.03687469 -0.15303794
000200 ca 09 14 bd 45 4c 54 bd 6f f4 2c be be 0c 0a 3d
       -0.036142148 -0.05183055 -0.16890119 0.03370356
000210 53 c8 10 bd 1f fc 0d 3d d6 24 e7 bb c9 77 a6 3d
       -0.035347294 0.03466427 -0.0070539517 0.08128316
000220 91 34 48 bd c0 0d 23 bd 18 6f 73 bd 3e 9e 8f 3d
       -0.048878256 -0.039808035 -0.05943212 0.07012604
000230 6e 9a 7f bd b0 06 db bc f5 7f 93 bd 13 72 10 3e
       -0.062403135 -0.026736587 -0.0720214 0.14106016
000240 46 8a 02 be 5c ee 1d be 0b b0 5f 3c 62 2c 72 bc
       -0.1274806 -0.15422958 0.013652812 -0.0147810895
000250 e1 4f b8 bd b4 22 07 bd f6 61 b0 3c 6c 20 c4 3b
       -0.08999611 -0.03299208 0.021531086 0.0059853103
000260 cb 46 5e be 3c ca 61 bd 5f b4 45 bd dd 52 62 3d
       -0.21706693 -0.055124506 -0.04826772 0.055254806
000270 35 93 54 3d e3 2d 9e 3c 1f 32 90 bd 93 9a 5e 3d
       0.0518982 0.01930899 -0.0704081 0.054346632
000280 b9 46 40 3d 65 ea fa 3c cd cd 2f 3d 59 b1 3b bd
       0.046942446 0.030629346 0.042920876 -0.04582343
000290 a1 9f 73 be e8 49 ab 3b 3c 01 ba 3d 64 8e 87 bc
       -0.23791362 0.005227316 0.09082267 -0.01654739
0002a0 5e e7 79 bd da 88 16 be 64 76 48 bc a5 a4 09 3e
       -0.061011665 -0.14700642 -0.012235258 0.13441713
0002b0 88 4c dc bb c5 33 9f 3d 7b 0b d6 3d ee 8a 76 3d
       -0.0067229904 0.07773546 0.104514085 0.060191087
0002c0 79 e2 5b 3b 8e 81 64 bd 0d 16 99 3d bd 18 96 3b
       0.0033551736 -0.055787615 0.07474909 0.0045805858
0002d0 a9 d8 8f 3d 8b a2 cd bc bc 22 c9 bc c4 b7 a0 3c
       0.070237465 -0.02510192 -0.024552695 0.019618876
0002e0 97 ec 06 3d 87 d8 8c 3d 97 11 21 3e 81 20 cf bb
       0.032940473 0.06877237 0.15729366 -0.0063210134
0002f0 b8 74 22 3e 16 ec ee 3d cb 7d fb bc e3 44 0b 3e
       0.15864837 0.116661236 -0.030699631 0.13600497
000300 80 cd fe 3d 37 34 0c be d0 dc 07 3d ea 9b ea 3b
       0.1244154 -0.13691793 0.033169568 0.0071596997
000310 58 b9 6c 3e 1c 96 76 bd c5 1b 0d 3d 92 2f ce 3d
       0.23117578 -0.06020175 0.03445031 0.10067667
000320 87 c3 22 3d 59 8d c9 ba 6c 7f 87 3d 3d de 3f 3e
       0.03973725 -0.0015377208 0.06616101 0.18737121
000330 66 74 0b be 40 d5 0e 3c ef 93 f3 bd 49 b7 9b bd
       -0.13618621 0.008717835 -0.118934505 -0.07603318
000340 d7 f7 47 bc 5d 9e 9e bd d6 f8 f6 bd e1 99 28 3d
       -0.012205086 -0.07745049 -0.120591804 0.041162375
000350 8b fb dd 3d 58 54 52 bc f8 be 69 bd b9 bc df ba
       0.10838994 -0.012837492 -0.057066888 -0.0017069794
000360 8f 79 27 3d c0 00 74 be 69 d3 22 bd fd fb 46 3d
       0.04088741 -0.23828411 -0.039752398 0.04858016
000370 27 19 99 3d a5 18 54 bd 9a 2d 66 3d 31 3b 3f be
       0.074755006 -0.051781315 0.056195833 -0.18674923
000380 07 fc 93 3d 0d 24 0e 3e e5 4f 7c bb dd 2c dd 3c
       0.07225805 0.1388094 -0.003849977 0.026998932
000390 d1 9f a8 bb 77 68 b0 3e 3a 45 81 3d 05 92 4f 3d
       -0.0051460047 0.344547 0.06312032 0.050676364
0003a0 5b 51 3c bd 29 65 9f bd aa a1 41 bd 74 a9 c5 bd
       -0.045976024 -0.07782967 -0.047273315 -0.09651461
0003b0 78 ae 79 3d cb 02 0a be 6c fb ff bd 10 fc cd bd
       0.060957402 -0.13477628 -0.12499127 -0.10057843
0003c0 08 40 37 bc 94 91 e5 3b 0a af 1c bd 3f 3b 01 bd
       -0.0111847 0.0070058797 -0.038252868 -0.031550642
0003d0 0a 19 f6 bc 86 fb 94 bd 65 7a 02 3d c0 08 61 bd
       -0.030041236 -0.07274537 0.031855006 -0.054939985
0003e0 45 55 9a 3d ea 75 32 3c ce 57 c2 bd e4 10 a2 bd
       0.07535795 0.010892371 -0.09489404 -0.07913378
0003f0 55 5f 8f bc bd b2 04 bc 60 2a 1f 3e b0 39 08 3b
       -0.017501513 -0.008099255 0.15543509 0.0020786338

encoder.cov03.bias f4 [32]
000000 e0 dc 5c 3a da f1 84 b9 44 17 f5 38 86 88 61 b9
       0.0008425247 -0.00025357195 0.00011686844 -0.00021508531
000010 d3 cc 14 3a 9e 7e 9a b9 dc 27 75 b9 97 1e 58 b9
       0.0005676273 -0.00029467506 -0.0002337987 -0.00020610761
000020 f5 ef 5d b9 1f e8 cb b9 74 77 95 38 d1 fd 57 39
       -0.00021165593 -0.0003889212 7.1271235e-05 0.00020598552
000030 97 f2 66 b9 56 80 07 3a b4 d5 35 39 d6 cc 9d 39
       -0.00022024881 0.0005168965 0.00017341116 0.00030097988
000040 ec 67 16 3a 99 d8 ca 39 b3 2c 5b b9 01 42 63 39
       0.00057375315 0.0003868982 -0.0002090212 0.00021672995
000050 a0 41 0c 39 8a 08 7a b9 b5 57 15 39 d4 2c 18 3a
       0.00013375888 -0.00023845039 0.00014242421 0.000580502
000060 4c ad 66 36 f7 d6 16 38 55 f9 96 b9 f7 db 81 b9
       3.4373543e-06 3.596299e-05 -0.00028795996 -0.00024768684
000070 f6 a1 91 38 94 07 5e b8 6c 7a 0b b8 b7 25 50 39
       6.9443064e-05 -5.2935982e-05 -3.3254197e-05 0.00019850476

encoder.bn03.weight f4 [32]
000000 01 2c 8a 3f b1 a8 79 3f 5a 9d 8a 3f 0a c0 74 3f
       1.0794679 0.9752303 1.082927 0.9560553
000010 de 45 7d 3f a8 e7 84 3f 32 f0 6b 3f 1f 60 7b 3f
       0.98934734 1.0383196 0.92163384 0.98193544
000020 75 01 7c 3f 2a 2f 7f 3f ba 6d 7c 3f ba 5f 7d 3f
       0.98439723 0.9968134 0.9860493 0.9897419
000030 6b 3e 75 3f c9 34 66 3f 8a 1d 88 3f ed 36 82 3f
       0.9579837 0.89924294 1.0634015 1.0173012
000040 3e 45 6c 3f ce 2b 6e 3f 18 41 89 3f 87 67 75 3f
       0.92293155 0.9303559 1.072299 0.95861095
000050 32 fc 81 3f 5d 41 7a 3f 03 1d 8b 3f de 03 88 3f
       1.0155089 0.97755986 1.0868229 1.062618
000060 82 bf 78 3f 95 d5 79 3f 65 55 7d 3f b3 4f 75 3f
       0.9716722 0.97591525 0.98958427 0.95824736
000070 14 9e 72 3f 57 69 8e 3f ea e6 71 3f aa 21 7a 3f
       0.9477246 1.1125897 0.9449297 0.9770762

encoder.bn03.bias f4 [32]
000000 b4 b1 6b 3e 2c e0 f6 bb 00 c4 d2 3e cd 3a f4 3a
       0.23017007 -0.0075340476 0.4116516 0.0018633247
000010 bc 36 64 bb 7f ce f5 bc 29 01 50 3e 7a 91 40 3d
       -0.0034822663 -0.030005692 0.20312943 0.047013737
000020 1a 55 ab 3d 21 e1 c2 bd a1 c9 b5 3b e7 06 29 3d
       0.08365841 -0.09515596 0.0055477177 0.04126635
000030 3a b4 7d 3c 0a 7f a3 3e bd 56 4f 3e 4f 6b 1b 3e
       0.015484864 0.3193286 0.20247932 0.15177654
000040 c1 b7 b8 3e 86 bd 19 bd 60 8d d7 3c 6e 89 0b 3e
       0.36077693 -0.03753426 0.02631253 0.13626644
000050 6f 8d 3c 3e d5 6a 52 bd 1b 81 05 3e 8c 67 9a 3e
       0.18413328 -0.051371414 0.13037531 0.30157125
000060 7c 21 2d bd 0f 66 85 ba ba 43 b8 3d 9c 97 39 bd
       -0.04226826 -0.001017751 0.08997293 -0.0453106
000070 39 84 82 3e ec 43 38 3e 1e f1 4c 3e 7a 35 51 3d
       0.25491503 0.1799466 0.20013854 0.05107639

encoder.bn03.running_mean f4 [32]
000000 00 80 99 be 52 79 8e bf c0 a0 84 bf bb 9f 8b be
       -0.2998047 -1.1130774 -1.0361557 -0.27270302
000010 bd d6 52 3f 9a f8 e4 3e 32 a5 78 3e 92 a3 2b 3f
       0.82358915 0.44720918 0.24281767 0.67046463
000020 90 61 7c bd 47 bb ae 3f 64 d4 5c 3f fc 21 20 3f
       -0.06161648 1.3650903 0.8626158 0.62551856
000030 ef 7f cb bf 4c 37 72 bf 63 af a7 3e 08 f4 21 be
       -1.5898417 -0.94615626 0.32750997 -0.15815747
000040 eb 3b 22 bf 04 ce 15 bf a4 a3 7d 3f de c8 ad bf
       -0.6337268 -0.5851748 0.9907782 -1.3576925
000050 1e 13 08 3f 76 fc 19 3f 64 5e 85 3f 7a e7 31 be
       0.5315417 0.6015085 1.0419431 -0.17373458
000060 7f 69 4c bf d5 cf 42 3f e2 0e 76 3f bd a9 4a bf
       -0.79848474 0.76098377 0.9611646 -0.7916525
000070 2b 89 aa 3e ee e7 91 3e 70 c7 be bf 90 dc 44 bf
       0.33307776 0.2849726 -1.4904613 -0.7689905

encoder.bn03.running_var f4 [32]
000000 6c b5 50 40 4e 2b fb 40 9b 77 5a 40 e3 a2 8f 40
       3.261073 7.849036 3.4135501 4.4886336
000010 23 e1 b9 40 a5 4c 8c 41 ce 7c 41 40 c0 2c 4b 41
       5.8087325 17.537424 3.0232425 12.698425
000020 c8 26 fc 40 87 c0 fd 40 c8 34 9e 40 8c 84 13 41
       7.879734 7.929752 4.943943 9.21986
000030 9e c7 e2 40 a6 46 fc 3f 6b 01 a9 40 eb fa 98 40
       7.0868673 1.970906 5.281423 4.7806296
000040 70 70 36 40 a1 9c b4 40 b2 70 3d 41 3b 52 74 40
       2.8506126 5.6441197 11.8400135 3.817519
000050 3b fc c3 40 5b 15 d7 40 ca 9b 86 40 86 3a 43 40
       6.12454 6.721357 4.206517 3.050447
000060 83 35 0a 41 9d f5 34 41 8d ad ed 40 fb 72 07 41
       8.638064 11.309964 7.4274354 8.465571
000070 bf 45 7a 40 93 be b5 40 59 a5 a3 40 77 2c 04 41
       3.910507 5.6795135 5.113934 8.260856

decoder.tr04.weight f4 [32, 64, 3, 3]
000000 e1 65 39 bd 40 f2 f0 3c 1d 6f 01 be 12 31 e0 bd
       -0.045263175 0.029412389 -0.12640043 -0.109468594
000010 71 a5 e2 3d d4 e9 ef 3d 33 d3 a1 bd e4 11 3b 3d
       0.11066712 0.11714521 -0.07901611 0.04567136
000020 0d 8c 85 bd cb 04 b9 bd 4c 6e d1 bc f2 2a 87 bd
       -0.06520853 -0.09034117 -0.025565289 -0.06599988
000030 58 2f 52 bd 26 e3 0c 3e 5e a2 9c bd 35 a1 7e bd
       -0.05131468 0.13758525 -0.076481566 -0.062165458
000040 bd 3b 36 bd 01 eb db bc 36 0d a7 bd 19 83 93 3d
       -0.044490565 -0.026845457 -0.08156817 0.07202739
000050 f8 d5 c3 3d b5 bb 77 bc c7 46 ae 3b 64 7e 20 bd
       0.09562296 -0.015120436 0.005318496 -0.039183035
000060 13 1c 49 3d 75 b6 86 3c b4 c8 11 bb 35 7a b8 bc
       0.04909904 0.016444424 -0.0022244873 -0.02251921
000070 ae 4d 72 bd f9 d9 1e bd 7c 66 d0 bd 26 a5 ac 3e
       -0.059156112 -0.038782094 -0.10175797 0.33719748
000080 66 3f 69 bd a0 c9 c9 bd fc 96 21 3c 6f ef 22 3d
       -0.056945227 -0.0985291 0.009862658 0.039779123
000090 ef 5b 2e be 3f c8 fe 3d 7e 0a 4e bd a6 06 a7 bd
       -0.17027257 0.12440538 -0.050302975 -0.08155565
0000a0 87 eb ab 3d 69 e5 07 bd e0 71 9b bd 0f 6d ab bd
       0.08394533 -0.033177767 -0.07590079 -0.08370411
0000b0 53 f6 46 bd 83 bf b9 3d 7c 94 0b bd 85 2c 78 bc
       -0.048574757 0.09069731 -0.034077153 -0.015147333
0000c0 f5 7e 0d bd 3e 15 d7 3d 7d a7 03 bd 6a e7 17 be
       -0.034544904 0.105020985 -0.03214215 -0.14834371
0000d0 bc a7 14 bd 7b eb 7e bc 60 b0 b8 3c 53 02 82 bd
       -0.036292776 -0.015559073 0.02254504 -0.063480996
0000e0 d4 c4 08 be fa 91 ac bc 1e 32 25 3d 78 ab 04 be
       -0.13356334 -0.0210657 0.040331 -0.12956035
0000f0 1e 85 58 3d f8 58 6e 3d c7 6b 76 3d 61 7b b2 bc
       0.052861325 0.058190316 0.06016138 -0.021787347
000100 53 e9 fd bd ee 35 8e bb 0d 82 8e bd 6d 0e 14 3c
       -0.12398019 -0.004339925 -0.06958399 0.0090366425
000110 97 3d 9c bd 37 a3 07 3d fa 78 db bc 38 cd 48 bd
       -0.07628935 0.03311464 -0.026791085 -0.049023837
000120 d7 d3 94 3d 31 4d db 3d a1 9a a6 bd 29 5e d0 bc
       0.07266968 0.107080825 -0.08134962 -0.025435524
000130 59 9a eb bc d9 6d 56 bc 38 7b bc 3c a7 af ce bb
       -0.028760122 -0.013087713 0.023007974 -0.0063075605
000140 f3 31 9d 3d ed c7 7a bd 8e e4 8f bd a4 83 01 be
       0.07675543 -0.06122582 -0.07026015 -0.12647873
000150 f2 9b d7 bc ab e3 3e 3e f3 63 f3 3d 49 a8 b0 bd
       -0.026319478 0.18641536 0.11884298 -0.08625848
000160 ba 7d 0c bd d2 28 c7 bd b7 1e 51 3d 97 d8 13 bd
       -0.03429959 -0.09724583 0.051054683 -0.036095228
000170 91 c5 56 bc b8 fa bf 3d ca 35 e7 3d 53 ce fe 3d
       -0.013108627 0.09373993 0.11289556 0.12441697
000180 46 26 d8 3c 76 41 21 bd 76 6e 1c 3d 46 99 9a bd
       0.026385438 -0.03936907 0.03819128 -0.07548766
000190 a9 65 da 3c 0f 4e 86 bc f4 0f 75 bd 72 56 19 be
       0.026659803 -0.016394643 -0.059829667 -0.14974383
0001a0 7d b9 90 3d 26 6b 0f 3d c5 ea 36 3d 73 d1 75 bd
       0.07066629 0.035014294 0.044657487 -0.0600142
0001b0 0f 46 9e bd dc 55 8e 3d eb 02 ac bc d9 4b 17 be
       -0.07728206 0.0694997 -0.020997485 -0.14775027
0001c0 59 1d 21 bc 46 2c a8 3d fd 5d c4 3c e8 30 52 bc
       -0.009833657 0.082115695 0.023970598 -0.012829043
0001d0 62 b0 30 bd ac 7e 5d bd 1e 1b 18 3d 3e 40 e5 bc
       -0.04313696 -0.05407588 0.037135236 -0.027984735
0001e0 a6 81 bd 3c 7d 19 14 bd 6f 20 91 bd 00 7f 83 3d
       0.02313311 -0.03615712 -0.07086264 0.06420708
0001f0 71 4f 86 3c 5f 94 00 3e f5 84 96 bd 3e 07 9d 3d
       0.016395302 0.12556599 -0.07349578 0.07667397
000200 4e e6 8c bc ba ed ce bc 92 97 dd 3e 9e 65 4a 3c
       -0.017199662 -0.025259841 0.432797 0.012353329
000210 e7 ef 06 3e c7 8f ef bc 5f 18 76 bd 67 b8 10 bc
       0.13177453 -0.029243363 -0.060081836 -0.008833027
000220 9e 85 a9 bd 27 58 3a 3d 88 57 9f bd 31 d9 fe 3d
       -0.082774386 0.045494225 -0.07780367 0.1244377
000230 80 14 c0 3d 5c af 39 bd 3c 28 25 3d 7e 31 a2 3c
       0.0937891 -0.04533325 0.040321574 0.01979899
000240 bb 0d 6b bd 9a 44 78 bc 81 56 03 be 74 2b 6b bd
       -0.05738614 -0.015153075 -0.12825967 -0.057414487
000250 e2 63 84 3e e7 16 18 3e d7 64 57 3d fd b4 05 bd
       0.25857455 0.14852487 0.052586403 -0.032643307
000260 b2 72 74 3d 1f a8 aa bd 0b ba f5 bd 3b c4 b3 bd
       0.059679694 -0.08332848 -0.119983755 -0.08777662
000270 6a 28 64 3d f3 1b cc 3d c4 36 83 bc 28 51 42 be
       0.055702604 0.099662684 -0.016017325 -0.18976271
000280 72 d0 49 bc c1 a0 08 be 07 ed 19 3d 9b f8 63 3c
       -0.012317764 -0.13342573 0.037579563 0.013914253
000290 d7 c9 ef bd 9b a9 2d be 53 74 03 3e e6 d5 ae bd
       -0.1170842 -0.1695923 0.12837343 -0.08536892
0002a0 ca 90 09 be 5e 9b 8f bd 5f c4 9e ba c6 19 a3 bc
       -0.13434139 -0.07012056 -0.0012112967 -0.01990975
0002b0 19 61 9c 3d 5b 70 3d 3b cb 2a 01 be 76 50 8b 3d
       0.076357074 0.002890608 -0.1261398 0.06802456
0002c0 89 2a 20 bd c6 11 d0 3c a6 04 89 3d 4d cf 02 3c
       -0.039103065 0.0253991 0.0669034 0.007983995
0002d0 4c 1e bb 3d 9c 0d 6d bd 43 d2 18 3d 61 65 12 bd
       0.09136638 -0.057874307 0.037309896 -0.035741214
0002e0 71 59 6f 3e af f7 72 3d 92 56 99 3d 85 19 31 3d
       0.23373963 0.05931824 0.07487215 0.043237228
0002f0 ac 4b 34 3d 06 eb 07 bc 09 5a 03 3d 7a e3 ea 3a
       0.04401748 -0.00829578 0.032068286 0.0017920577
000300 a9 a4 b9 3d 35 d0 9a 3c 13 4e 5e bd 8a 3d 8b 3d
       0.090646096 0.018898109 -0.054273676 0.06798847
000310 08 c5 42 bd 1f c2 ac bc ed 2a 5c bd 08 a9 3c 3d
       -0.047551185 -0.021088658 -0.053751875 0.04605964
000320 06 a5 ea 3c a4 17 77 bc 36 92 9d bd 31 ec cb bc
       0.028643142 -0.01508132 -0.07693903 -0.024892898
000330 bd 6a 1f bd 83 f0 ae bd 04 2b 8c 3d 6a be e5 3b
       -0.038920153 -0.08541968 0.06844142 0.0070112245
000340 12 a9 80 bd ba ac 34 bc bc 01 87 3d fe dd c6 3d
       -0.062822476 -0.011027509 0.06592128 0.097103104
000350 ee 28 e8 bc 00 81 43 be d8 d5 fe 3c 9c be 3a be
       -0.02833983 -0.19092178 0.031107828 -0.18236774
000360 7a c0 74 3d b7 b3 41 bd c1 8f 49 bc 9e d5 9b 3d
       0.059753872 -0.04729053 -0.01230234 0.076091036
000370 6e 24 2b bd 8d f5 1d 3d 9e 10 f0 bd a9 b4 76 3d
       -0.04178279 0.038564254 -0.117219195 0.060230885
000380 81 c3 fb 3c d9 07 34 bd 0e 68 98 3d 30 14 8e 3c
       0.030732872 -0.043952797 0.07441722 0.01734361
000390 c6 f3 f2 bc 0c 16 52 3e 6c 1f 69 bc 37 aa 07 bd
       -0.029657256 0.20516223 -0.014228683 -0.033121314
0003a0 88 4e 60 bd d7 89 8d 3d 83 2d 04 be 42 a6 fd bc
       -0.054762393 0.069110565 -0.12907986 -0.030963067
0003b0 d2 1a 26 bc ca 62 88 3d a7 37 1c 3e 5e 17 ee bc
       -0.01013823 0.066594675 0.15255605 -0.029063877
0003c0 e7 4e 8d bd 8d 6e 03 3d f0 21 44 bd c6 e9 85 bd
       -0.06899815 0.03208785 -0.047883928 -0.06538729
0003d0 f6 e5 a5 bd fe 92 48 bd 79 10 3e bd 09 33 f1 3d
       -0.08100502 -0.048968308 -0.04640243 0.11777312
0003e0 eb 05 a9 bb 21 56 63 bd 38 38 7d 3d 5f 84 6b 3c
       -0.005158176 -0.05550206 0.061821193 0.014374821
0003f0 57 0a 85 3d 97 72 95 3e 8d e0 32 3c 9e 24 56 3d
       0.06496113 0.29188988 0.010917795 0.052281015
