checkpoint/model_checkpoint_pre.pt (torch, 715592 bytes, 44 tensors)

encoder.cov01.weight f4 [64, 162, 1, 1]
00000000: 846b 533d f159 6dbe 5bbf 1e3d 0475 e3be
00000010: 9ec4 1bbe b708 8c3e e510 a4be ea9a cfbd
00000020: d47d 5f3c 8cbd 69be 228f 093d 80da 43bd
00000030: 0550 9d3d f9c7 6ebd 8ce2 3abe f1ad 1e3e
00000040: 6306 2bbe 24e4 98bd e29c abbd db43 35be
00000050: b155 693d a85f a3bc b5c0 883e d635 873d
00000060: 225c 47bd d5f0 a1be 88e3 c23c aa2b e5bd
00000070: 9080 53be 8944 8cbd 6b71 b33e 4d8f 0d3e
00000080: 41f6 bbbd aaa1 343e 4faa 94bd 4724 d0be
00000090: ef66 65bd 0a0f 3bbd fa88 243e baee 70be
000000a0: 70ab 6a3e 418f 39be 4aa2 56bc a2ce 933e
000000b0: 5079 b3be 3b36 8d3e 5160 18be b9b6 cc3c
000000c0: 7024 f43d 5ea4 353e 6d8e 0f3e fdd4 febc
000000d0: 8326 58be b383 e4bd f035 ad3d 3239 9d3e
000000e0: 206a a13d ce3d 11be d1dd 5a3d 8de5 513d
000000f0: 2089 9bbe 5c68 49bd 714a 903d 296e 8ebe
00000100: 4b79 3f3d 4a96 1ebd a791 b53d d754 3cbd
00000110: fbed 5ebc dc6c 113e 4288 92be 91f1 bebe
00000120: e2cf 26bd ad63 7d3e 25f1 49be f483 c83d
00000130: 8ddc 1e3e a725 f93d 5b67 eabd 96c6 0f3e
00000140: 534a 1e3e a1a7 4c3e 4b65 b43c de03 0e3e
00000150: 730b adbd 31ec cdbd d09b 0bbe e833 1cbe
00000160: 6dbe e1bd a295 3b3e 3415 1d3e b06f 8f3e
00000170: b68a 7f3d 5853 28bd 9717 183d 7010 8abd
00000180: ac05 ffbd 4826 973e 455d 8f3e 0af8 c43d
00000190: 1ed9 3a3e 8a7e b73e 4142 203d 6463 263e
000001a0: ba49 063e 03db a1bd 21b0 913d 26e3 5b3e
000001b0: aea0 1ebd 4e2f 0dbd fb18 deba 244f 6bbe
000001c0: 0440 b13d 6085 b63d 30b5 8e3e 33f9 babd
000001d0: 8d13 923e a004 b23c 9ba8 283e 4429 ef3d
000001e0: afbc 16be 60b7 a7bd d9d1 b23e 4adf 17be
000001f0: 4070 b6bd 2fb1 dd3d 8c16 27be 378e db3c
00000200: 30e5 a1be 9792 50be 407b ffbd 76dc a43c
00000210: 32cb 7d3e df6c 673e 4261 9d3e 685b 953c
00000220: f7ad 053e d1ee b3bd 90f3 61b9 b7a5 7dbe
00000230: b123 513e b29d 77bd 412e 853e 89c3 853e
00000240: 70c3 0abe 77f1 083c 0d77 10be f72b 093f
00000250: 3890 8f3e 89e6 2dbe 27af 3b3e d302 0d3e
00000260: 6a59 80bd 01e9 6e3d 9d5c 0dbe 2384 88bd
00000270: dacc 033e 930e 84be e009 a83d ef0e 253e
00000280: 3acb 663e 1a1f 6a3d 1fcd d93c 7d79 fabc
00000290: 97a8 59be 3907 d0bd 6ba7 263e 3ca5 dabd
000002a0: ff7f 57bd a9fc 573e 5a65 8dbe 1585 8cbe
000002b0: 1aec 553e 32ce d23c a3dc cb3e 941a 85be
000002c0: e12a 81be 8cdf ecbd 0ede 993e 20ea 20be
000002d0: 4bb8 28bc 5b46 05be b0f7 8cbd 8ef3 bebd
000002e0: 7c97 a1bd 5a78 c8bd aba2 be3e 4189 84bd
000002f0: 5172 28be 4ca1 d13d bd45 76bd d3b0 05be
00000300: 02fa 413e 9d69 0e3e 0e7b 063e 0fbd 89bd
00000310: 4170 68be 52cd 023e 3f11 0b3d 175c 24bd
00000320: 1563 5abe 2c9c e1bd 7e73 c4be 3529 423c
00000330: f24a 19be 0659 753e 5e2a 863c 5f01 ce3d
00000340: 531a 533e e495 3f3d 74b2 25be 058e 59bc
00000350: e9f2 923d ec5e cf3d 2dae 673d 6da4 933e
00000360: f13c 44bc f818 703c 1aae 90bd 2699 57be
00000370: fcf6 71bd 0898 abbe 4cad a7bd d180 423e
00000380: 0efb b23d deeb fd3b 4e14 ad3d 2352 8c3e
00000390: 93da a13d 9903 8abc a4ed 74bd 775c 863d
000003a0: 3e81 19be 0005 debc d787 4e3e c2ce c43c
000003b0: b349 453e 7801 a13e aaac eebd 6b86 dbbc
000003c0: 9eb6 95bd 4814 adbd af24 533e c265 883e
000003d0: 4f82 0a3e e2d1 e43e 4531 153e c519 113d
000003e0: 0e92 73bd b479 9fbd edad 5c3e 145f 433e
000003f0: e9f4 bdbb 107a 9d3d 5bf1 14bd b015 313e
0.051616207 -0.23178841 0.03875671 -0.44425213 -0.15211722 0.273504 -0.3204414 -0.101369694
0.01364084 -0.22826213 0.033583768 -0.0478158 0.07681278 -0.058296178 -0.18250483 0.15496041
-0.16701655 -0.07465389 -0.083795324 -0.17701666 0.056966487 -0.019943073 0.26709524 0.06602065
-0.04867185 -0.31629053 0.023790136 -0.11189969 -0.20654511 -0.068490095 0.3504747 0.13824196
-0.091778286 0.17639795 -0.07259046 -0.40652677 -0.05600637 -0.04566864 0.16067877 -0.23528567
0.2291696 -0.18121053 -0.013100216 0.28868586 -0.35053492 0.27580437 -0.14880492 0.024989473
0.119210124 0.17738482 0.14019175 -0.03110742 -0.21108441 -0.11157932 0.084575534 0.307077
0.0788157 -0.14183733 0.053434197 0.051244307 -0.30378056 -0.04917179 0.070454486 -0.2781842
0.046746533 -0.038717546 0.088656716 -0.045979347 -0.013606544 0.14201683 -0.2861958 -0.37293676
-0.040725596 0.24745055 -0.19720896 0.09790793 0.15513821 0.12165385 -0.11445495 0.14040598
0.1545804 0.1998582 0.022020957 0.13868663 -0.084494494 -0.100548156 -0.13633657 -0.15254176
-0.11022649 0.18318799 0.1534012 0.28014898 0.062388144 -0.041095108 0.037131872 -0.067414165
-0.12452254 0.29521394 0.28000847 0.09617622 0.18246886 0.3583873 0.039125685 0.16248852
0.13114062 -0.07903101 0.07113672 0.21473369 -0.038727455 -0.03446894 -0.0016944701 -0.22979409
0.08654788 0.08912158 0.2787261 -0.09129562 0.2853054 0.021730721 0.16470568 0.11677793
-0.14720415 -0.08189273 0.34925726 -0.14831272 -0.08908129 0.10824811 -0.16317195 0.026801212
-0.3162017 -0.2036842 -0.1247468 0.020124655 0.24784544 0.22600125 0.30738264 0.018232062
0.13054644 -0.08785785 -0.00021548406 -0.24770246 0.20423771 -0.060453124 0.2601185 0.26125744
-0.13551116 0.008358351 -0.14107914 0.5358271 0.28039718 -0.16982473 0.18328534 0.13770609
-0.062670544 0.05832768 -0.1380486 -0.06665828 0.12871113 -0.2579237 0.082050085 0.16118978
0.22538462 0.057158567 0.026587067 -0.030575508 -0.21255718 -0.101576276 0.16274802 -0.10676047
-0.0526123 0.21092476 -0.27616388 -0.27445284 0.20890847 0.025733087 0.3981677 -0.2599684
-0.25228027 -0.11566076 0.30052227 -0.15714312 -0.010297845 -0.1301512 -0.0688318 -0.09323798
-0.078902215 -0.0978858 0.3723348 -0.064714916 -0.16449858 0.10235843 -0.0601251 -0.13055734
0.18943027 0.13907476 0.13132879 -0.06725513 -0.22699071 0.12773636 0.033951994 -0.040126886
-0.2132686 -0.110161155 -0.38369364 0.011850645 -0.14969996 0.23959741 0.016377624 0.10058855
0.2061551 0.046773806 -0.16181356 -0.013278489 0.07175238 0.10125527 0.05656259 0.28836384
-0.01197742 0.0146543905 -0.07064457 -0.21054515 -0.059073433 -0.33514428 -0.08187351 0.18994452
0.08739291 0.007749065 0.084511384 0.27406415 0.07903018 -0.016847419 -0.059796944 0.06560605
-0.14990708 -0.027101994 0.20169006 0.024024371 0.19266395 0.31446433 -0.11654027 -0.026797494
-0.07310222 -0.08451134 0.20619462 0.26640135 0.13526271 0.44691378 0.14569576 0.035424966
-0.05946546 -0.07786885 0.21550722 0.19079238 -0.005797018 0.07689297 -0.036362987 0.1729343

encoder.cov01.bias f4 [64]
00000000: cb3e c9b8 e128 6f38 fe51 d2b7 847a 3036
00000010: 74c8 81b8 ce7d 6a39 a6af 8536 ead6 a838
00000020: fd9f af37 929a 0b38 6441 06b8 5ba5 6d39
00000030: 4841 acb8 bfc5 dcb6 5ab0 72b8 ebba d9b9
00000040: cd24 09b8 f74f 5bb7 ef23 ae38 4c20 14b9
00000050: 0586 16b8 1cfa 68b7 1e1f c2b8 6842 c6b8
00000060: 6a07 7838 62ea 46b6 cfe7 bdb7 c5d7 b5b8
00000070: 9c75 0139 b385 b7b8 6e2e eab6 027d f3b6
00000080: 2068 0a38 33f8 a636 c079 5e39 1226 b4b8
00000090: c93d f9b7 ca2c 2b38 99b3 02b9 a1ac 1e38
000000a0: 626d 93b9 9c92 c8b8 67d0 e1b8 f514 8937
000000b0: 0afd 4eb8 49e3 dab8 8329 f937 91f2 ca37
000000c0: 6355 b8b8 e3e9 9638 bd1d 82b9 a954 b838
000000d0: d3f0 d638 588c 6a39 b171 a338 91b1 86b8
000000e0: 6471 1f39 39a1 ea37 f0a1 c1b8 2685 9f38
000000f0: ceaa b838 c84b 9c38 769d 8339 ea56 17b9
-9.596123e-05 5.7020112e-05 -2.5072131e-05 2.6297357e-06 -6.188537e-05 0.00022362845 3.984157e-06 8.050895e-05
2.0936126e-05 3.3284137e-05 -3.200899e-05 0.00022663681 -8.213759e-05 -6.5795316e-06 -5.7861536e-05 -0.0004152873
-3.269762e-05 -1.30720355e-05 8.30366e-05 -0.00014126411 -3.5887602e-05 -1.3886511e-05 -9.256437e-05 -9.453745e-05
5.9134713e-05 -2.9640728e-06 -2.26385e-05 -8.670943e-05 0.00012346212 -8.7510234e-05 -6.9791486e-06 -7.256517e-06
3.2998738e-05 4.9760797e-06 0.00021216925 -8.59016e-05 -2.9711884e-05 4.081129e-05 -0.00012464671 3.783091e-05
-0.0002811952 -9.564051e-05 -0.00010767654 1.6341432e-05 -4.934989e-05 -0.00010437385 2.9702443e-05 2.419323e-05
-8.789708e-05 7.196122e-05 -0.0002481769 8.789573e-05 0.00010249172 0.00022368261 7.793622e-05 -6.422692e-05
0.00015205663 2.7970049e-05 -9.23312e-05 7.606512e-05 8.8056186e-05 7.452775e-05 0.00025103585 -0.0001443286

encoder.bn01.weight f4 [64]
00000000: aaf5 813f f442 6f3f 690e 7c3f 39b6 7d3f
00000010: 97e1 7f3f db9a 7a3f abee 6c3f c190 783f
00000020: a8e5 7a3f 02db 7e3f 38e4 803f d225 803f
00000030: 7c94 733f 54da 803f 324a 823f 9859 793f
00000040: e440 7e3f 390f 813f d29d 7c3f 47a8 803f
00000050: bdf1 7f3f f983 813f 6914 7c3f 327e 7c3f
00000060: 104d 823f 8326 793f bac1 873f cd6f 853f
00000070: 42c2 803f 113f 7c3f 5b4a 893f 06d8 7f3f
00000080: f72b 803f 3bf1 883f 8165 7f3f 1733 883f
00000090: b784 7b3f 508f 803f 6294 7a3f 7071 7f3f
000000a0: 0781 713f a5f3 7a3f 9055 7d3f 5da3 733f
000000b0: 8bad 833f ff6d 833f c553 8a3f 3bcf 743f
000000c0: a946 823f d99a 873f b7a2 7f3f 914b 7c3f
000000d0: 14c5 7b3f 4d9f 833f f90f 803f a2d4 7d3f
000000e0: 8b1e 7e3f 66d4 7a3f f98c 813f fc10 773f
000000f0: ff63 833f c3b5 813f 07a0 7a3f 3f22 7f3f
1.0153096 0.9346154 0.9845949 0.99106175 0.999536 0.9789254 0.9255168 0.97095877
0.9800668 0.9955293 1.0069647 1.0011542 0.95148444 1.0066628 1.0178893 0.97402334
0.99317765 1.008277 0.98678315 1.0051354 0.9997824 1.01184 0.98468643 0.9863006
1.0179768 0.9732439 1.0605996 1.0424744 1.0059283 0.9853373 1.0725816 0.99939
1.0013417 1.0698618 0.9976426 1.0640591 0.9824938 1.0043736 0.97882664 0.99782467
0.94337505 0.9802802 0.98958683 0.9517115 1.0287336 1.0267943 1.0806814 0.9562871
1.0177814 1.0594131 0.9985766 0.98552805 0.9834759 1.028299 1.0004874 0.99152577
0.99265355 0.97980344 1.0121146 0.9651029 1.0264891 1.0133594 0.9790043 0.9966163

encoder.bn01.bias f4 [64]
00000000: 4117 143c cf7d e53d bd82 be3c af49 2abc
00000010: c396 fcbc 3ca7 413d b72a b2bc 3a54 743c
00000020: 937f ed3c 12bc 1c3d 93de 8f3d 47dc 82bc
00000030: a8ed 91bb 5c7f f03b faa3 0cbd 1d15 7ebc
00000040: 8fba 5a3d 159f 09bd 963b 073b 2e5f 8a3b
00000050: a4f2 54bc 6711 f7bb d311 77bc a351 a43b
00000060: c159 d1bb edfc 933d ecab 1abd 63a9 a9bc
00000070: 33af e53c 39e0 653c b0c4 4cbd cad1 4b3d
00000080: 9b09 3cbd 7a92 cf3c 9baf 653c dd98 263c
00000090: 3263 0cbd da24 0fbc afba b03d 8be9 bcbb
000000a0: 225f 2ebd 5531 38bd fec8 113d 1264 18bd
000000b0: 7755 c73b 8f37 613c 946d 903b 0c48 cd3d
000000c0: 227f 60bd e28b e03c f7ea 823d 769b eeba
000000d0: 3270 97bc 7c65 24bd 7b78 783c abe5 803b
000000e0: 359a f33c 0946 2a3d de2f a7bb fc54 9a3d
000000f0: f44e c9bb 612e 38bd 5434 dabc d554 e63a
0.009038747 0.11205637 0.0232557 -0.010393544 -0.030833608 0.047278628 -0.021748884 0.014912659
0.028991496 0.038265295 0.070248745 -0.015974177 -0.0044533797 0.007339401 -0.034336068 -0.0155079635
0.053400572 -0.033598978 0.0020634881 0.004222772 -0.012997303 -0.0075399163 -0.015079933 0.0050146147
-0.0063888733 0.07225976 -0.037761614 -0.020710653 0.028037643 0.01403051 -0.049992263 0.049760617
-0.045907598 0.0253384 0.014018918 0.010168281 -0.034274288 -0.008736813 0.08629357 -0.005765145
-0.042571194 -0.04496892 0.03559207 -0.03720481 0.0060831863 0.013746156 0.004407594 0.100235075
-0.054808743 0.027410451 0.06392472 -0.001820429 -0.018486116 -0.040135846 0.0151654435 0.0039336286
0.029736618 0.041570697 -0.0051021418 0.07535741 -0.006143445 -0.044966105 -0.02663628 0.0017572889

encoder.bn01.running_mean f4 [64]
00000000: 35fe 3dbc 864f 283c 549a 34bc ef9d 2fbd
00000010: 326d a0bc 896f 51bc f354 03bd a8ea fcbc
00000020: dd46 16bd c275 23bb d018 803c b8b7 ac3c
00000030: 7bb8 e3bc 9f97 8a3d b32c 0d3d f789 5dbc
00000040: 4e6a febc 92c9 e9bb db1b d0bc 08be 79bc
00000050: f0fa 363c 84f1 1d3c 5ee5 d23c 0c18 6bbb
00000060: 9e45 4d3c 4882 d7bc e785 123d 54f1 0e3d
00000070: 3048 d33b 0d5f e93c 0c89 2e3d 3bdc f1bc
00000080: 6e7e 28bd 3379 3f3c 40f2 263c ad02 893c
00000090: 6fc9 d1bc 20df 63bc 868f f4bc f040 11bd
000000a0: baab 7fbc 7168 edbc 6536 193b fde3 c7bc
000000b0: df40 093d c9c6 1d3d 4d16 0b3d 8052 e93b
000000c0: 9f5b 11bb 91a6 bab9 e4fb 69bc 5800 c8bc
000000d0: 3f56 d2bb 35ac 0cbc 909a 64bc 882f b53c
000000e0: 32ab ebbc 9fe3 a83c da8c 0b3b 822c 98bc
000000f0: f3b1 c63b a890 f43c 8edd 24bc 3cc8 92bc
-0.011596252 0.010272866 -0.011023123 -0.042875227 -0.019583318 -0.01278294 -0.032063436 -0.030873612
-0.036688674 -0.0024942015 0.015636832 0.021083698 -0.027797928 0.06767201 0.034466457 -0.013521663
-0.03105655 -0.0071346248 -0.025403908 -0.015243061 0.011168227 0.009640101 0.025744136 -0.0035872487
0.012528805 -0.02630724 0.03577223 0.034898117 0.0064478144 0.028487707 0.042611167 -0.02952396
-0.041136198 0.011686611 0.010189593 0.016724909 -0.025608746 -0.013908178 -0.029853594 -0.03546232
-0.015604908 -0.028980466 0.002337837 -0.024400705 0.03350913 0.038519654 0.033956815 0.0071204305
-0.0022179855 -0.00035600786 -0.014281247 -0.024414226 -0.0064189727 -0.008585979 -0.013952866 0.022117391
-0.028768156 0.02061635 0.002129367 -0.01857591 0.0060636937 0.029854134 -0.010062588 -0.017917745

encoder.bn01.running_var f4 [64]
00000000: 9890 4841 1300 a640 6d50 cb3f 04ac 8c41
00000010: 776c 3841 1b7a 6b40 b275 5541 6e2c 6d41
00000020: aca8 4741 439b 1d41 ab9b 2141 e578 c840
00000030: 80e7 7c41 91ba 8b42 d2e6 9541 20ce d240
00000040: c4fb 5641 6d3d b740 a479 8741 9413 f440
00000050: d804 dc40 94d8 fd40 5322 d140 59a1 f440
00000060: bd78 9541 9159 8b41 f0bc 8e41 e594 5041
00000070: 061e b340 dcd6 2441 a9af 9e41 9e0e ac41
00000080: 611b b441 d004 8040 9e5d 9040 6e37 f040
00000090: e16b 1b41 a550 7740 54db 7041 7933 c341
000000a0: bd3b bb40 e9dd 1441 12a7 0241 91b4 1741
000000b0: 014b be41 d8ef 8f41 f9b5 b741 7238 db40
000000c0: 897c 0441 3cf0 a740 f744 7440 23aa 3d41
000000d0: 0d25 0541 8edb 8140 306d 8740 4368 ce41
000000e0: 0eb1 1e41 5f3a e540 ecb0 6e40 6844 f740
000000f0: 7d39 4840 99a8 8841 9a97 c940 d314 0541
12.535301 5.187509 1.5883919 17.583992 11.526481 3.6793277 13.341234 14.823347
12.47868 9.850406 10.100505 6.2647576 15.806519 69.86439 18.737705 6.5876617
13.436466 5.7262483 16.934395 7.62739 6.8755913 7.9326878 6.53544 7.6446958
18.683954 17.418734 17.842255 13.036351 5.597415 10.302456 19.835772 21.507137
22.513369 4.0005875 4.511428 7.5067663 9.713838 3.8642972 15.053547 24.400133
5.8510423 9.304177 8.165789 9.481584 23.786623 17.992111 22.963854 6.8506403
8.280404 5.2480755 3.8167093 11.854037 8.321546 4.058051 4.2320786 25.800909
9.918226 7.1633754 3.7295485 7.7271004 3.1285088 17.082323 6.299756 8.317584

encoder.cov02.weight f4 [64, 64, 3, 3]
00000000: 7e19 9dbc ec35 1dbd 4883 233d 14eb c6bd
00000010: 7199 f6bc 9fe5 36bd be1f 393d e9d8 77bb
00000020: 83f4 c73c e956 6dbb 44b7 4e3d 61bc 063d
00000030: d38e 9a3d e961 e63c fcd1 c13b e2d6 68bd
00000040: bb91 253c e8e9 c3ba 6ff4 db3a 6bdd 5b3d
00000050: 24f1 afbd 2a5a 46bd 34b1 fcbb fd31 ec3d
00000060: f64f ea3c 399b 60bc b431 5f3d 4dbb b73d
00000070: cd5d 493c 1345 493a ae0a 9039 11f3 88bc
00000080: 7b07 7ebd 067e 90bd d955 4f3d dee9 263d
00000090: 2325 9b3d 4e2c 76bd 9b59 9fbd b996 fd3b
000000a0: 76ff 023c ad19 80bd 00b4 dfbd 8af7 073d
000000b0: 35e0 863c 6ec7 2b3b 8130 96bd c8db 5a3d
000000c0: 734f 063a 33dd 003d d0f9 b23b d85f fb3c
000000d0: 52a1 b03d 6140 67bd 1932 d63c 2222 893d
000000e0: 0c94 963d 4c19 2ebd 738a 38bb e672 c33b
000000f0: bb87 96bd 5ad8 953c 8eab 00bc 7a8e b63c
00000100: 0c94 efbc 5d62 033d 5171 153d 4cc3 6bbc
00000110: 039a 57bc 92e8 743c 8abf 9abc 51fb f3bc
00000120: c4f6 4b3c ec85 fabb 92ca a4bd 0a96 8ebd
00000130: 138f e43d 5df8 90bc f725 9c3d f137 073e
00000140: 4600 00bc 4762 adbd b048 243e 5715 2ebe
00000150: 6a67 f83c e939 2c3b 17d2 bc3d ca79 adbc
00000160: c00f c03c 467f 7e3c fd47 fb3b d940 74bd
00000170: c258 ebbd 3a74 a23c d899 093c c136 2cbd
00000180: c69e fdbd c5af b9bd 8a79 743c 8d52 1ebc
00000190: 3638 ea3d f974 17be bcd4 8e3d 1300 663d
000001a0: 0402 b73c 2c88 9dbd 92be 943d be2b b03c
000001b0: 2b7e 343d c2de ac3d 0366 bd3d c050 9bbd
000001c0: d896 27bd 6868 2abe 7473 c33d d243 693d
000001d0: cec3 94bd 8a0e 9e3d 3f7a 02bb 080a 93bb
000001e0: 6152 18bb 846c c03c 1fe2 043d f1aa 59bc
000001f0: 8d14 283d a110 163d 28e9 103c d677 0f3d
00000200: 693f fc3c 65ee e53c eb52 e1bc 7f28 193d
00000210: 5634 2cbd d135 58bb a83e be39 fbf5 b73b
00000220: d287 b73d 1b74 223d 93b1 ab3c 2224 c83d
00000230: 34e1 b63d 3734 c63c 767b 19bd bed4 993c
00000240: 8f1f 953d 9e04 71bd 14c0 903d fedc 21bd
00000250: c12c 0d3d d10b 3f3d e2c0 b8bb 5884 e8bc
00000260: 06dd fabc 0b5f 2abd e382 1dba f1b0 12be
00000270: dcd2 583b 7147 fb3c c801 a33d cbdd 963c
00000280: 65ad 55bd 03b7 23bd 36e5 4abd 4331 20bd
00000290: 8e18 fa3c 079d 0d3d 0b7d df3d a348 b63c
000002a0: 2ac5 00bd 9084 1d3c cf3e 9d3d 389b 893d
000002b0: 5fa1 dfbc a4a3 d53b 9bb8 b13d 01fe e1bb
000002c0: 96ee 4b3d 6ab4 36bd 52b7 053d 6b91 ba3c
000002d0: 61cb 35bd 610d 81bd 8455 ef3d 2410 513d
000002e0: 50c2 9cbd daf0 b83d ea38 de3c aa79 56bc
000002f0: 1240 cbbc 63b1 ed3d efbf 7b3d b3c2 a1bd
00000300: d890 b83c 0cba 99bd e4c2 ddbc fb66 a13d
00000310: 9179 80bd f0c3 1abd 7751 0e3c 26f2 743d
00000320: 6d10 343d 3164 f43d af41 dc3b d90c 783d
00000330: b31c 9d3d e052 1d3d f42f 723d 187a 023d
00000340: f9e0 9c3c f7ff 16be 2c0f 063d 7111 2a3d
00000350: 91d5 b3bc fcf6 d03d 4e89 fd3c e585 5c3b
00000360: bf7a 213d da03 1c3d d81e 33bb de99 16bd
00000370: 9c56 bd3d dba4 773d 1a44 8b3d b64f 283d
00000380: 5a3d 5a3d 8e48 6a3d 8bae 4fbc b201 95bb
00000390: 13be d83d 0810 383c 73f1 833d 5180 b1bd
000003a0: f69e e23c 20af 05bd 77cc 733c de6d 993c
000003b0: 3d01 473b 2732 cfbc 5a2a c93c fd6b 853c
000003c0: 6313 443d 4776 9e3d ccc9 bebd 40d2 89bd
000003d0: ab5c a33d 1e5a 30bc 4317 303d e664 0b3e
000003e0: 6802 76bd f2a9 533d 66ed 053d 3592 67bd
000003f0: 57b0 063d ca9d 4d3b 6cfa 18bd 5809 083d
-0.019177195 -0.038381502 0.03992012 -0.09712806 -0.030102463 -0.044652577 0.045196287 -0.0037818498
0.024408584 -0.0036215133 0.050467744 0.032894496 0.07546773 0.02812286 0.0059149247 -0.056845553
0.010105546 -0.0014947029 0.0016781221 0.053677958 -0.08590916 -0.04842583 -0.007711554 0.11532972
0.028602581 -0.013708883 0.05449076 0.08971272 0.01229043 0.00076778344 0.00027473777 -0.016717466
-0.062018853 -0.07055287 0.05061898 0.040750377 0.07575443 -0.060100846 -0.07780763 0.007738915
0.007995477 -0.06254897 -0.10923004 0.033195056 0.016464332 0.0026211399 -0.0733347 0.053432256
0.0005123533 0.031460952 0.005461909 0.03068535 0.086245194 -0.05645788 0.026146935 0.066959634
0.073524565 -0.042504594 -0.0028158694 0.0059646247 -0.07350107 0.018291641 -0.007853402 0.022284735
-0.029245399 0.03207623 0.03648502 -0.014389824 -0.013159278 0.014948027 -0.018890161 -0.029782923
0.01244897 -0.0076453593 -0.0804645 -0.069622114 0.11160102 -0.017696554 0.07624429 0.13204934
-0.007812565 -0.084660105 0.16043353 -0.17000328 0.03032275 0.0026279634 0.09219759 -0.021176238
0.02344501 0.015533274 0.007668494 -0.059632156 -0.114915386 0.019830812 0.008398496 -0.042044405
-0.12383799 -0.090667285 0.014921555 -0.009663236 0.11436503 -0.14790715 0.069741696 0.056152415
0.022339828 -0.07691988 0.07262911 0.021505233 0.044065636 0.08440925 0.09247973 -0.07583761
-0.04091534 -0.1664139 0.09543505 0.056949444 -0.07263909 0.07717617 -0.001990929 -0.00448728
-0.002324246 0.023489244 0.03244221 -0.0132853845 0.041035224 0.036636952 0.008844651 0.035026394
0.030791955 0.028067777 -0.027505359 0.037392136 -0.0420421 -0.0032991061 0.00036286307 0.00561404
0.089614525 0.039661508 0.020958697 0.09772517 0.08929673 0.02419482 -0.037471257 0.018778201
0.0728141 -0.058842294 0.07067886 -0.039517395 0.03446651 0.04664213 -0.005638228 -0.028383419
-0.03062297 -0.041594546 -0.00060085783 -0.1432531 0.0033084666 0.030673714 0.07959324 0.018416306
-0.052167315 -0.039969455 -0.049535 -0.03910948 0.030529287 0.03457358 0.10912522 0.022251433
-0.03143803 0.009614125 0.076779954 0.06719059 -0.027298627 0.0065197516 0.08677789 -0.0068967347
0.04978808 -0.04460565 0.03264553 0.022774419 -0.04438341 -0.0630138 0.11686233 0.051040784
-0.0765425 0.09030314 0.027126748 -0.01309053 -0.024810825 0.116060995 0.06146234 -0.07898464
0.022530004 -0.07506189 -0.02707047 0.0788097 -0.06273187 -0.037784517 0.008686415 0.059801243
0.043960977 0.119331725 0.0067216973 0.060559127 0.076714896 0.038409114 0.059127763 0.03185472
0.019150244 -0.1474608 0.032729313 0.04152054 -0.021952422 0.102033585 0.030949261 0.0033649143
0.0394237 0.03808961 -0.0027331617 -0.036767833 0.09245035 0.060459953 0.06800099 0.041091643
0.053281166 0.0571981 -0.012675892 -0.0045473212 0.10583129 0.011234291 0.06442537 -0.086670525
0.02766369 -0.032637715 0.014880291 0.018729147 0.0030365728 -0.02529247 0.024556328 0.016286844
0.04787005 0.07737403 -0.093158334 -0.06729555 0.079766594 -0.010763673 0.042990934 0.13612708
-0.06006089 0.051675744 0.032697104 -0.05653592 0.032883015 0.0031374567 -0.037348196 0.033212036

encoder.cov02.bias f4 [64]
00000000: 3533 bbb8 ecf7 a1b8 bf4e 8b39 5d97 5038
00000010: d90d 8a38 2e81 bf39 25b2 9f39 be4e d0b8
00000020: 181b d638 9eb1 c5b8 f538 7239 2b78 39b9
00000030: 48b6 4e39 d8f5 07b9 3205 41b7 d5ef 10b9
00000040: a933 c437 d51c 8239 1006 1839 7b5e aab4
00000050: 2806 97b8 f676 053a 4eec 5039 9286 a739
00000060: 30cd 2039 baf6 bdb8 8557 a139 85bf c938
00000070: 4ca9 9638 ef3d b9b8 9244 50b8 d117 9138
00000080: e74d 2739 0f26 7539 0067 6e39 ee92 5639
00000090: c5f4 4c39 976b feb9 c085 8139 6ea5 c838
000000a0: 8d74 51b8 6f13 96b8 fa41 0cb9 d79c 3138
000000b0: 3e2e 3038 7ef4 8bb8 0c1d b5b8 f5a4 0ab7
000000c0: 0074 e138 2901 8238 61a7 93b8 a719 3339
000000d0: bfa1 2539 d685 9bb8 6edf 9738 5fdd 35b8
000000e0: d565 5c39 b861 dfb7 64a7 90b7 dfb9 5939
000000f0: 53ff 9638 5153 deb9 1f71 8038 ec0c cc39
-8.926393e-05 -7.723257e-05 0.00026570816 4.9732032e-05 6.582932e-05 0.00036526605 0.0003045957 -9.93288e-05
0.00010209362 -9.426776e-05 0.00023100137 -0.00017687741 0.00019713596 -0.00012966187 -1.1504906e-05 -0.00013822255
2.3389077e-05 0.00024817014 0.00014498108 -3.173371e-07 -7.201388e-05 0.0005091274 0.00019924456 0.00031952985
0.00015335227 -9.058179e-05 0.0003077352 9.6201e-05 7.1840914e-05 -8.8330235e-05 -4.9654926e-05 6.918575e-05
0.00015955382 0.00023379199 0.00022735819 0.00020463366 0.0001954614 -0.00048526816 0.0002470445 9.567557e-05
-4.993803e-05 -7.156177e-05 -0.00013376019 4.2346157e-05 4.2004736e-05 -6.673577e-05 -8.636163e-05 -8.263848e-06
0.00010750443 6.199099e-05 -7.040683e-05 0.00017080327 0.00015795881 -7.415905e-05 7.241858e-05 -4.335993e-05
0.0002101877 -2.6629175e-05 -1.7244085e-05 0.00020763975 7.200115e-05 -0.00042405215 6.124586e-05 0.0003891954

encoder.bn02.weight f4 [64]
00000000: 1208 6f3f 903b 803f 7e7d 813f 4b51 7b3f
00000010: e02c 833f 5e1a 743f 81cc 753f 961d 7d3f
00000020: 63a2 7d3f 4b5e 803f 8719 7d3f 9ae9 763f
00000030: 44d1 823f a215 813f b74c 883f 90b7 853f
00000040: 792a 833f f846 873f 669f 833f 3c19 823f
00000050: cf8f 713f 27ab 813f 2552 793f 6a2c 883f
00000060: 3ed6 703f 353c 833f a0bf 793f dba4 873f
00000070: b2b4 733f 436d 7e3f 53e7 813f 37ee 7b3f
00000080: d7e3 713f 775d 823f 0ee0 803f ee02 823f
00000090: 930d 833f 0b3d 763f 7a7c 803f b8c7 743f
000000a0: 1cf4 7c3f c155 7d3f 7f10 7f3f fff0 7e3f
000000b0: afa3 813f b45a 7f3f 2937 733f 81a1 823f
000000c0: fb9c 813f fa00 7d3f c463 793f c1c5 823f
000000d0: 7f4d 7c3f 3eee 7e3f 0fe8 783f 3176 7b3f
000000e0: e36a 833f 559f 823f c3b8 7e3f dcbf 7f3f
000000f0: 7f43 873f 671b 743f fe3c 7b3f 5b80 8a3f
0.9337169 1.0018177 1.0116422 0.9817092 1.024807 0.95352733 0.96015173 0.9887327
0.9907591 1.0028776 0.98867077 0.964502 1.0220113 1.0084727 1.0648412 1.0446644
1.0247337 1.0568533 1.028302 1.0163951 0.9436006 1.0130357 0.9739097 1.0638554
0.9407691 1.0252749 0.9755802 1.0597185 0.95197594 0.9938547 1.014872 0.9841036
0.9448828 1.0184773 1.0068376 1.0157144 1.0238518 0.96186894 1.0037987 0.95617247
0.9880998 0.98958975 0.99634546 0.9958648 1.0128077 0.99747777 0.9500604 1.0205537
1.0126032 0.98829615 0.97417855 1.02166 0.9855575 0.9958228 0.97229093 0.9822722
1.0266994 1.0204874 0.99500674 0.9990213 1.0567473 0.9535431 0.9813994 1.0820421

encoder.bn02.bias f4 [64]
00000000: c837 84bd 15d0 013d cabe f6bc ab64 67bb
00000010: 64cb 7d3d dad1 993d 2532 6fbd c609 c13b
00000020: 49da 0f3d fde1 1cbd 3674 263d a547 ba3c
00000030: 1e4d 023e 701b 68ba 0dc7 bd3d ad08 443e
00000040: 5292 f43c 4114 7c3e 0143 f13c 79b9 1cbd
00000050: fd23 3fbd bc3c 813c 631a 4abc 723b 833e
00000060: 7a33 fb3c de39 bb3c f169 9fbc ce7c f73d
00000070: 865c 943b fd05 40bd 4829 b23d 8324 f53c
00000080: 1d17 84bd ee40 ee3d 773b 713c 6c93 bc3d
00000090: f93c b83d 4c00 9f3b b886 a33d b0e2 b43d
000000a0: 0f13 ccbc e807 e5bc cfcf e2bb f01c 293d
000000b0: 9157 95bc c55c 68bb d6b6 c6bc 7455 a2bc
000000c0: 9691 e13c 8b2f f13c f8b4 f1bc db04 403d
000000d0: b434 8bbc 9824 6dbc 5ce1 b9bd 754e 153c
000000e0: 79da 773c 6bef 933d 89aa 9a3b b85c 943c
000000f0: 4f49 8c3b 6c96 fbbc d706 833d 9460 413e
-0.06455952 0.031692583 -0.030120272 -0.0035307806 0.061961547 0.07510729 -0.05839743 0.0058910577
0.035120282 -0.038301457 0.04063817 0.02273924 0.1272473 -0.0008854186 0.092664815 0.19143935
0.029854927 0.24617101 0.029450895 -0.038262818 -0.04666518 0.01577603 -0.012335393 0.2563129
0.030664194 0.022854742 -0.019459696 0.120843515 0.004527631 -0.04688071 0.0869928 0.029924637
-0.06449721 0.11633478 0.01472365 0.09207806 0.089960046 0.0048523303 0.0798468 0.088323
-0.024911432 -0.027957872 -0.0069217454 0.041287363 -0.018230231 -0.0035455686 -0.024257105 -0.019816138
0.027535241 0.029441616 -0.029505238 0.04687963 -0.016992904 -0.014474057 -0.09076187 0.009112944
0.0151277715 0.072234 0.0047200364 0.018110618 0.0042812 -0.030711375 0.06397789 0.18884498

encoder.bn02.running_mean f4 [64]
00000000: e13d db3f b9e9 663e 0297 553f 265b 89be
00000010: 0c5b 8c3e d739 3bbf 63c5 d1be c63f 24bf
00000020: c209 dabe 3552 54bf 98ad c7bd 8813 da3e
00000030: 686b 80be 5220 b7bf b31a b13d fdcb d1bf
00000040: 8fb3 16bf fd50 2cbf 1924 46bf 0cc2 993f
00000050: f71b 553f f468 ce3e c31a c63e 1124 7fbf
00000060: b7a2 e5bf bd11 033f 6038 9b3e 0a1e f83c
00000070: eac9 aa3e c299 ef3e c917 b4bf 267c b6be
00000080: 3218 993f 95a4 2a3f 7d8c 623e 65eb 013d
00000090: b9ae 183e eedd 7ebf 9a43 08bf 6917 d4be
000000a0: 274b 11bf e377 fcbe 7fd9 803e 1cd3 acbf
000000b0: f78f 4f3d b731 16bf 1dfd 39be f91f 1f3f
000000c0: 5786 0c3e 2e63 c33e c760 953e f9a3 073f
000000d0: aed6 9d3e 770c 1ebf 60bb 6f3f 8150 81bf
000000e0: 4249 013e 6585 20bf bbe4 be3e d1ec a63e
000000f0: 6ba5 713f ce08 593f 8114 09bf 7b9e 093d
1.7128259 0.22550096 0.83433545 -0.26827353 0.27413213 -0.7313513 -0.40970907 -0.6415981
-0.4258557 -0.8293794 -0.09749907 0.42593026 -0.25081944 -1.4306738 0.086476706 -1.6390377
-0.58867735 -0.6731108 -0.7739883 1.2012343 0.83245796 0.40314448 0.38692293 -0.9966441
-1.7940282 0.5119894 0.30316448 0.030287761 0.33357173 0.46796995 -1.4069759 -0.35641593
1.1960509 0.6665738 0.22123905 0.03171863 0.14910401 -0.9955739 -0.5322815 -0.4142411
-0.567553 -0.49310216 0.25165936 -1.3501925 0.050674405 -0.5866961 -0.18162961 0.6215816
0.13723122 0.38161606 0.29175398 0.5298458 0.3082785 -0.6173777 0.93645287 -1.0102693
0.12625602 -0.62703544 0.37283882 0.32602552 0.9439303 0.8477906 -0.5354691 0.033598404

encoder.bn02.running_var f4 [64]
00000000: 795a d63f 4467 be40 31a3 4f40 e7f3 4340
00000010: 69e4 1a40 8265 773f 4f3d 2140 b776 4540
00000020: cb85 2c40 ddd4 f93f 9e00 cb3f b41f b53f
00000030: 4d26 a03f 47fd df40 3ea7 bd3f 09a8 943f
00000040: 35a8 0c40 4837 503e e02b 883f e4ab f43f
00000050: 6705 8e3f 22f0 eb3f 6398 973f 11ec f03e
00000060: 8189 0e40 835f b43f 94e8 2c40 4ddf b63e
00000070: 4af2 5340 6747 e03f 19ef b53f 588f 3540
00000080: 568c 1740 c3f1 c23f 084d 1240 026b 8d3f
00000090: b3a7 473f 5385 2040 86a2 973f 93a7 043f
000000a0: 2b86 8140 8630 4a40 54a7 0f40 4c30 df3f
000000b0: d3f0 483f 61a5 0f40 88f3 ab3f 7342 c23f
000000c0: b08b e13f ea50 dc3f c908 ea3f 9c51 fb3f
000000d0: 6ce7 d43f 1703 d940 5e32 2540 1e7d 6340
000000e0: 8b3f 5140 e173 b93f 9edf 5740 c5ce ac3f
000000f0: 0f5e d13f 1c53 3940 3272 0240 f333 1e3f
1.674636 5.9501057 3.2443354 3.0617616 2.420191 0.96639264 2.519367 3.0853708
2.695666 1.9518086 1.5859563 1.41503 1.2511688 6.9996676 1.4816663 1.161378
2.1977665 0.20333588 1.063839 1.9114957 1.1095399 1.8432658 1.184338 0.47055104
2.2271426 1.4091648 2.7016954 0.3571724 3.3116632 1.752179 1.4213592 2.836874
2.3679404 1.523003 2.2859516 1.1048281 0.77990264 2.5081375 1.1846473 0.518182
4.047628 3.1592116 2.244588 1.7436614 0.7849247 2.244469 1.3433695 1.5176529
1.7620754 1.7212193 1.8283931 1.963428 1.6633124 6.781627 2.5811992 3.5545115
3.2695034 1.4488488 3.3730235 1.3500601 1.635683 2.8956976 2.03822 0.6179802

encoder.cov04.weight f4 [64, 64, 3, 3]
00000000: cca8 263d 30f2 a6bc f366 df3c d370 6c3d
00000010: abd0 03bd 0d71 e73b 8b12 71bd d5ed b6bb
00000020: a036 a6bd 3b32 5a3d 9c71 283c ce48 e9ba
00000030: dbbf 2f3d 6063 393c e8b7 75bd 6dde 283d
00000040: be47 8c3d 8b1d 07bc 0c12 12bd e9f6 803b
00000050: 5186 c73c 410e a83d 4d6f 003d 3466 073d
00000060: 4398 2fbd 14d9 f73c 4cad 723d 59d1 fe3d
00000070: 41fb 2b3d 4e37 c9bc 0e16 a43d caa2 85bc
00000080: b0d8 9bbc 76b7 e6bc 73dd c33c f9ab 503d
00000090: 048b f9bc d453 c4bb 01be 68bd 77a5 cdbc
000000a0: 87c4 5ebc 9994 b53c d04f 8bbd f340 c1bd
000000b0: b170 9cbd be10 b0bd 2773 873c 97ef bebc
000000c0: b5a9 1bbe a89e 4dbd 20c8 fbbc 3d7e 183d
000000d0: 138f c5bd 63ba 303d e51f eebd daf5 3e3d
000000e0: c202 f13c 7d2e 1fbd 4d7b 41bd 6eff debd
000000f0: e09e 59bd d77c b9bc d726 c93d 1bfd 453d
00000100: 6032 0cbd 3a74 9abd adcd bbbc 728c a9bd
00000110: f576 db3d 1807 c1bd 9fdc 1e3c 3299 a53d
00000120: d951 5a3d 9d51 f3bd ecc9 3c3d 1b50 1b3d
00000130: fb11 14bd 44da 013d d2bd 3fbd ac05 143d
00000140: 7b9c e4bd 7b67 a1bd 1d6c 6dbd 0838 b33c
00000150: 5bbd 4f3d 2946 c63d 85f6 043d c009 8d3c
00000160: a676 19bd b586 0c3b 95bc 4f3d 241b 8e3c
00000170: 9879 343d 7dd3 c23c 57d7 58bd 1a20 03bc
00000180: 4ece c3bc 1c8d 5dbd 37b6 c1bc 76af b53c
00000190: 8a5f 2bbd 0191 18bd e339 6dbd 38fd af3d
000001a0: 0c9d 8d3d 7a6c b33b a32f 5f3c b152 39bd
000001b0: 978e d1bd 73b6 97bd 1a76 26bd 1c68 c8bd
000001c0: 19f9 1d3d 2863 9d3d 6a27 613b 2594 533d
000001d0: 12a9 80bc fff3 713d 8007 44bd 7cd8 9bbd
000001e0: 33db 1c3a c39e 9bbc c809 653d 1098 46bd
000001f0: 4881 a03d 802a 223b 9bd2 1e3e 76af c4bd
00000200: 56cc 843c 8ce3 033c 7806 14bd c360 92bd
00000210: 90d4 3b3c 1712 c4bd 236b edbd 10ea 0dbe
00000220: 8518 553d 0b00 37bd 43ce 9ebd 2740 3cbd
00000230: 9b88 85bd 4a8b 45bd 8176 1a3d 4ff7 823a
00000240: 95bc 18be 2ad6 87bc e406 16bd b5a1 3d3d
00000250: 007d 893d 5c8e 50bd 6cc3 5ebd 40de 5ebe
00000260: 993e 13bd e8c1 633d bf16 0f3d 8034 6fbd
00000270: 85c2 563b d330 d2bd b393 b83d cab6 183c
00000280: 6aaa f53c cc3f 44bc a461 663d 8dbe 7a3c
00000290: 06d9 b8bd 72cf 233c c28d e43d 8b4a 633c
000002a0: 9066 ef3c 8b24 d73c 0061 b3bd 1021 f53c
000002b0: cfd6 cc3d 2986 423c fb3b bb3c 1584 65bc
000002c0: 08fa c43d 80cd 223d 25bc 1c3d 2d31 f03b
000002d0: 5ab5 ba3b 8438 f13c 8e89 df3c 0fe1 853d
000002e0: bef2 183c b0d9 2a3d 8235 473c 28cc 063d
000002f0: e2dd f03c 6ec9 8bbd 228a 3c3c 7a4f 06bd
00000300: 0fb5 103e 8f52 90bd 2c34 b9bb 43b7 263d
00000310: 6dcd eb3c c88d aabc 2a66 eebc 2da3 9e3d
00000320: 50e2 5c3c c0cc 29bd b2b8 14bd 0471 a4bd
00000330: 5ac0 5c3d 1a4d 2d3d 78c8 c83c a420 943d
00000340: b0dd 4f3b 2e16 7dbd 8700 ed3a 2778 41be
00000350: bca6 a1bb 4dfc 3ebd 34f4 3cbd f7dd 16bd
00000360: 270e 4cbc eede f83d 1a39 353d c9b2 87bd
00000370: 2555 c139 ea8d 9b3d 70ff 44bd 0b85 33bd
00000380: b5b4 4c3d 3b3c 14be 397f 383d 2ce9 62ba
00000390: 423c b53d aab4 383d b1f9 9c3c 360a a5bc
000003a0: 76cf 683d 86df b6bd ce1c 233c 8d74 46bd
000003b0: ee72 b6bc bd88 893d 639e 573d 85da 923d
000003c0: aa65 06bd 25fa 623d 5995 32bc da84 793c
000003d0: 3fa6 e7bc 8131 cc3c 9b89 403d c037 033d
000003e0: f232 fc3c 9045 ae3a 7ac2 70bd b0f8 dd3b
000003f0: d4b6 d23d cdd3 0b3d 8d5c 01bd a2bb 9abd
0.04068832 -0.020379156 0.02727077 0.057724785 -0.032181423 0.0070630373 -0.058855575 -0.005582551
-0.08115888 0.05327056 0.010280993 -0.0017798187 0.042907577 0.011315197 -0.05998984 0.041227747
0.06849621 -0.00824679 -0.035661742 0.003935684 0.02435604 0.08205844 0.031356145 0.033056453
-0.042869817 0.030254878 0.0592473 0.12442274 0.04198766 -0.024562504 0.08012019 -0.016312975
-0.019024223 -0.028163653 0.023909306 0.050945256 -0.030461796 -0.0059914384 -0.056821827 -0.025103314
-0.01359666 0.022165583 -0.068023324 -0.09436216 -0.07638682 -0.08596943 0.016534401 -0.023307605
-0.15201457 -0.050200135 -0.030735075 0.037229765 -0.0964643 0.043146502 -0.11627177 0.04662118
0.02942026 -0.038862694 -0.04723673 -0.10888563 -0.05313003 -0.022642536 0.09821861 0.048337083
-0.03422773 -0.075417 -0.022925222 -0.08278741 0.10716049 -0.09425181 0.009696155 0.0808586
0.053300712 -0.11880801 0.046091005 0.03791819 -0.03614996 0.031702295 -0.046811886 0.03613822
-0.11162659 -0.078810655 -0.057964433 0.021877304 0.050717693 0.09681351 0.03246166 0.017216563
-0.037466668 0.0021442596 0.050716955 0.017346926 0.044061273 0.023782486 -0.05293974 -0.008003259
-0.023902085 -0.05408965 -0.023646457 0.022178393 -0.04183916 -0.03724766 -0.057916533 0.085932195
0.0691472 0.005475578 0.013622197 -0.045244876 -0.10232275 -0.07407846 -0.040639974 -0.09785482
0.038567636 0.07684928 0.0034355768 0.051654954 -0.015705619 0.059070583 -0.047858715 -0.076096505
0.0005983591 -0.018996602 0.05591753 -0.04848486 0.078371584 0.002474457 0.15510027 -0.09603779
0.016210716 0.008049857 -0.03613898 -0.07147362 0.011464253 -0.09573763 -0.115927 -0.13858819
0.052025337 -0.044677775 -0.07754185 -0.045959618 -0.06520196 -0.04822854 0.03771067 0.0009991917
-0.14915688 -0.016581614 -0.036627665 0.046296794 0.06713295 -0.050917014 -0.054385588 -0.21764469
-0.03594837 0.055604845 0.0349338 -0.058399677 0.0032769751 -0.10263219 0.090125464 0.009320924
0.029988486 -0.011978101 0.05624546 0.01530422 -0.09025769 0.009998189 0.11159851 0.013872753
0.02922371 0.026262542 -0.08758736 0.029922992 0.10001909 0.011872807 0.02285575 -0.014008542
0.09618002 0.03974676 0.038265366 0.007330081 0.0056978883 0.029445894 0.02728727 0.06537067
0.009335218 0.04171151 0.012158753 0.032909542 0.029402677 -0.06825529 0.011507543 -0.03279064
0.14131568 -0.07046997 -0.0056519713 0.040702116 0.028784478 -0.02081956 -0.02910145 0.07745967
0.0134816915 -0.04145503 -0.03630895 -0.080293685 0.05389438 0.042309858 0.024509653 0.07232788
0.003171783 -0.06178873 0.0018081822 -0.1889349 -0.0049332064 -0.04662733 -0.046131328 -0.036832776
-0.012454546 0.121518955 0.04424391 -0.066258974 0.00036875266 0.07595427 -0.048095167 -0.04382805
0.049977023 -0.14476101 0.045043204 -0.0008655961 0.08849384 0.04509417 0.01916203 -0.02014647
0.056838475 -0.089293525 0.009955598 -0.048450995 -0.0222716 0.06715534 0.052641284 0.071705855
-0.0328118 0.055414338 -0.010899865 0.015229428 -0.028277515 0.024925949 0.04700623 0.03203559
0.030786011 0.0013295878 -0.058779217 0.0067740306 0.10288778 0.034137536 -0.031582404 -0.07555319

encoder.cov04.bias f4 [64]
00000000: a455 a0b8 cfe7 f937 fe7d 0339 c9d5 deb7
00000010: 98a3 27b8 e5a5 aeb8 7dd7 10ba b1b5 ceb9
00000020: c80f 0fb8 0e13 27b8 210e ed38 ab30 2139
00000030: 1c8e 4eb9 42a8 4b39 e28c cdb8 4a7a 9138
00000040: 564a 2d38 1067 e0b6 071a b139 7b10 a5b7
00000050: d337 db38 687a 3b39 0e6f 4cb8 a08f b8b6
00000060: 805e 34b9 391a 05b9 6311 99b8 dbf0 ea38
00000070: 3e70 b7b7 3468 4fb9 de36 2ab7 fbca 85b7
00000080: e30d adb8 b793 ef38 ff7e b938 c9bf b038
00000090: 66b2 1237 3023 0638 0531 8337 6e2c 4cb8
000000a0: fe63 6638 7bf0 8539 9f0e 43b9 6b2f 1ab7
000000b0: 5af4 dbb7 ed6a 2f39 73e6 e1b8 9b82 8eb9
000000c0: 06b5 e2b8 8919 63b9 1298 9838 8fda 7d38
000000d0: 3b5c 9038 09dc 0738 acfa 01b9 8cb5 6138
000000e0: 88d0 ccb9 d832 9238 07c4 0db9 18aa 5139
000000f0: 4b2b a738 8dbc 2739 c6e6 5539 c2e0 8e39
-7.645346e-05 2.9791057e-05 0.0001254007 -2.6564014e-05 -3.996826e-05 -8.327867e-05 -0.00055252743 -0.00039426752
-3.4108554e-05 -3.983365e-05 0.00011303672 0.00015372287 -0.00019698631 0.0001942227 -9.801403e-05 6.936917e-05
4.1315645e-05 -6.6877183e-06 0.00033779463 -1.9677207e-05 0.00010453132 0.0001787931 -4.8740818e-05 -5.5003475e-06
-0.00017201342 -0.00012693637 -7.298847e-05 0.00011202852 -2.1867567e-05 -0.00019779877 -1.0145564e-05 -1.5949356e-05
-8.2518694e-05 0.00011423922 8.845142e-05 8.428057e-05 8.743815e-06 3.198086e-05 1.5639243e-05 -4.867877e-05
5.4929398e-05 0.0002554691 -0.00018602096 -9.190156e-06 -2.622062e-05 0.00016729133 -0.000107717606 -0.0002718166
-0.00010810238 -0.0002165792 7.27625e-05 6.052345e-05 6.883634e-05 3.2391432e-05 -0.00012395781 5.381326e-05
-0.0003906528 6.971293e-05 -0.00013519834 0.00019995158 7.9712445e-05 0.00015996602 0.00020399233 0.00027251808

encoder.bn04.weight f4 [64]
00000000: 231e 823f 31a8 813f 25b9 813f 3274 823f
00000010: 4b36 873f bb2d 7d3f 834f 7f3f e1fb 773f
00000020: a449 853f a565 7f3f 6ed3 813f b49f 7a3f
00000030: 6954 773f 3251 7c3f db0f 7e3f dc50 7e3f
00000040: e21c 813f eb97 783f d505 803f d949 813f
00000050: 3ec7 7f3f 2ca4 7d3f 0be5 773f fc76 823f
00000060: a6c2 803f 8eca 733f d084 793f 9319 883f
00000070: a104 823f be01 7a3f 19dc 843f 151e 7e3f
00000080: cf12 803f a0b2 773f 9944 7c3f f1f6 7a3f
00000090: bcd8 803f bd06 773f 6f1a 823f 56d2 863f
000000a0: 06aa 803f ed26 743f 7032 7b3f e98a 803f
000000b0: 5d75 7e3f 3bef 7c3f 9a0a 803f e1ae 7a3f
000000c0: 5eaf 803f bc5c 7c3f d96c 823f e513 813f
000000d0: 6d44 813f 289c 7c3f e2df 7c3f 1cfd 7d3f
000000e0: 9d3a 783f bdd2 793f 21d9 8b3f 9ce5 803f
000000f0: d85e 853f 842f 783f fbd2 823f 65be 733f
1.0165447 1.0129453 1.0134627 1.019171 1.0563444 0.98897904 0.997307 0.9686871
1.0413098 0.9976447 1.0142648 0.9789994 0.96613175 0.98561394 0.99242944 0.9934213
1.0086939 0.9710681 1.000178 1.0100662 0.99913394 0.9907863 0.96833867 1.0192561
1.0059402 0.9523095 0.9746828 1.0632805 1.0157663 0.9765891 1.0379668 0.9926465
1.000574 0.96756935 0.9854217 0.9803305 1.0066142 0.96494657 1.0164317 1.053294
1.0051887 0.95371896 0.98123837 1.0042392 0.9939783 0.98802537 1.0003235 0.97923094
1.0053518 0.98579 1.0189468 1.0084196 1.0099007 0.98675776 0.9877912 0.9921434
0.96964437 0.97587186 1.0925637 1.0070071 1.0419569 0.96947503 1.0220636 0.95212394

encoder.bn04.bias f4 [64]
00000000: 826a 383d 7de8 233d ea21 1a3c 27fb 663d
00000010: 3789 293e 7c3b dabc d49a 983d a659 993c
00000020: 6209 a6bd 1735 b23c 89bc 473c 6a65 bc3b
00000030: b584 a33d 4e44 493c fe5a dbbc 0821 063e
00000040: e06f 6e3c 500c 193d de75 cc3d 6c45 4c3d
00000050: 56b5 233d a490 19bc 6d99 b53d 914f 2f3d
00000060: fe3c b33c 9fff 743c 78bb 1e3d 196e 163e
00000070: a434 6f3d cb20 9fbb c6d1 c23d a62d a33d
00000080: 2d52 e53c 57d4 4e3d 3db4 0e3e be51 d13c
00000090: 9077 903c 2f3b b23c 077d 5c3d 4011 7e3e
000000a0: fb54 283d 59f9 543d ce5b 503d 31e5 1c3b
000000b0: dd0e 143d d969 303d b0e7 f13c 4dbf d33c
000000c0: 0976 10bc 3526 ffba 3d2d c3bd 9cd9 743d
000000d0: c45c e3bb 9f1e 8e3b 7c5a cb3b d49c 9e3d
000000e0: 74ca 90bc 2a4d 833a 0405 5e3d 0cd5 7f3d
000000f0: 18b0 cd3d b7f0 bdbc 9f75 ab3d f83c 5c3c
0.04502345 0.04001664 0.0094075 0.05639186 0.1655625 -0.026639692 0.07451406 0.018719506
-0.081072584 0.02175383 0.012190946 0.005749394 0.07984296 0.0122843515 -0.026776787 0.13098538
0.01455304 0.037365258 0.09983419 0.049870893 0.039967857 -0.009372864 0.08867154 0.04280049
0.02187967 0.014953523 0.038753003 0.14690436 0.05839981 -0.004856204 0.09512667 0.07967691
0.027993286 0.05049547 0.13935943 0.025551673 0.017635137 0.021756737 0.053830173 0.24811268
0.04109667 0.05199561 0.0508688 0.002394032 0.036146987 0.043069694 0.029529423 0.025848055
-0.008817204 -0.0019466343 -0.09530113 0.05977784 -0.0069385488 0.0043371464 0.006205855 0.07744756
-0.017674662 0.0010017504 0.054204002 0.062459037 0.10043353 -0.02318607 0.08372044 0.01344227

encoder.bn04.running_mean f4 [64]
00000000: dd48 84be 1bf3 19be 291b 2c3f e718 e2be
00000010: 57a8 003f 1013 17bf f769 81be 1b43 a9bf
00000020: 857a 2bbf 7ecf 27bf 475d c33a 18af 423f
00000030: 20c5 09bf daf4 8e3d f4d5 82bf d63e 8dbd
00000040: 4f21 5cbf 2318 363d 4c75 d4be 58b7 3cbf
00000050: a14f 92be 117e 46be 1957 4abf 41a5 febe
00000060: 4bd6 64bf e885 22bf 3b45 483f 46a1 d73d
00000070: a8cd 973e 2145 ebbe ae3f f13c d80f 4bbf
00000080: 46dc a9bd 8741 1d3f 0b2c c0bf 9764 d83e
00000090: f383 693f 7978 1fbe f40b 263d ba67 cbbd
000000a0: 9ebb 6dbe 638a 9fbf 9c29 f8bf 499e 1b3e
000000b0: 8dd8 86bd d373 28bf 9afa 673f 46ec 9ebe
000000c0: d818 923e 3a86 783d 1c0e af3e 671c 843e
000000d0: 7cbd 1ebf 00b5 c6be e2a5 9f3f f131 8ebe
000000e0: 0a3f 15bd 493b 8bbf 31bb 933e 1ce1 5bbf
000000f0: 343d 86be 25d7 98be 32ac 3fbf 97da 10ba
-0.2583684 -0.15034144 0.67228943 -0.44159624 0.50256866 -0.5901346 -0.25276157 -1.3223604
-0.66983825 -0.6555098 0.0014905118 0.7604842 -0.53816414 0.069802955 -1.0221543 -0.06896751
-0.85988325 0.044456612 -0.4149574 -0.7371726 -0.28576377 -0.19384028 -0.7903915 -0.49735454
-0.89389485 -0.63485575 0.7823064 0.10528807 0.2964909 -0.4595118 0.02944931 -0.7932105
-0.08293967 0.6142811 -1.5013441 0.42264244 0.91216964 -0.155733 0.040538743 -0.09931894
-0.23216102 -1.2464107 -1.9387698 0.151971 -0.065842725 -0.65801734 0.9061676 -0.31039637
0.2853458 0.060674883 0.34190452 0.2580292 -0.6200788 -0.38809967 1.2472498 -0.27772477
-0.03643707 -1.0877467 0.28853753 -0.85890365 -0.2621857 -0.29851642 -0.74872124 -0.00055257365

encoder.bn04.running_var f4 [64]
00000000: 7164 4940 5ae9 3940 7e43 1640 b40d 1a40
00000010: c77d b33f b186 b440 f24a ee3f a80c 1440
00000020: 9c3e 993f a4fb 6f40 6430 6040 dbcf d93f
00000030: b9d7 bd3f 827b 5940 4caa 5b40 6abb 0c40
00000040: f153 e63f 8b1b a53f b41e 0e40 8003 3f3f
00000050: 86e3 2d40 81de 5f40 fdf5 bf3f 8dd1 8e40
00000060: 73ec 7b40 380f 3f40 1253 6540 7dde 9b3f
00000070: 5097 6440 31e7 1240 bef2 0d40 46c8 5640
00000080: 0911 5440 11e0 4840 4c9e 0140 7b1c 1540
00000090: 00b4 e13f 70dc d13f d654 6340 3c95 a73f
000000a0: 5170 e03f 8081 973f 32c8 8740 acbe 6340
000000b0: d22f df3f ac4b 0140 4462 0840 10e4 3140
000000c0: 834e d13f c324 e93f f05c a03f fb11 2140
000000d0: a275 be3f 9188 6040 fdb3 8040 7c63 dc3f
000000e0: 7a75 0f40 0e95 f93f 502c a83f 3bc0 3640
000000f0: 28bd 4040 43cd a13f 067a c33f c215 a83f
3.1467555 2.9048676 2.3478694 2.4070864 1.4022759 5.641442 1.8616621 2.3132725
1.1972232 3.749734 3.5029535 1.7016557 1.4831458 3.3981633 3.432269 2.1989388
1.7994367 1.289903 2.220624 0.74614716 2.717012 3.4979556 1.4996945 4.46308
3.9363067 2.9853039 3.5831952 1.2177273 3.5717354 2.2953608 2.2179408 3.3559737
3.3135397 3.138676 2.0252867 2.3298633 1.7633057 1.6395397 3.552053 1.3092418
1.7534276 1.1836395 4.243188 3.5585127 1.7436469 2.0202436 2.1309977 2.7795448
1.6352085 1.8214344 1.2528362 2.5167224 1.4879649 3.5083354 4.021971 1.721786
2.2415452 1.9498613 1.3138523 2.8554828 3.0115452 1.2640766 1.5271614 1.313164

encoder.cov05.weight f4 [64, 64, 1, 1]
00000000: 0369 633e 5a3e d0be da88 8cbd 86f3 fd3d
00000010: 65a0 1dbd 8545 8f3e a233 3b3d 3ab3 a33d
00000020: 85f1 333e 801f 453e b775 a13e 4b33 233c
00000030: e6b7 84be 5cf6 133e e343 9cbd 6f4e 8fbd
00000040: 613c 653e 14b7 05bd 2cc8 8f3d cbe4 ae3e
00000050: f39c 3ebe c5f5 c23c eaec d1bd 0536 67bc
00000060: ce26 843d 9d6d 89bd 8873 a43e 1aa8 073e
00000070: ea74 9b3e acf1 703e 990a 46bd 024f 653d
00000080: 20d9 493e 5d59 cdbd 552c 963e d4b9 79bd
00000090: 0364 d3bd ae41 af3c 17f4 c43d d816 673e
000000a0: 16cd 0a3d 9453 453c f15e 4ebd 49af 2b3d
000000b0: 9a72 5abe 7f23 5c3e 89c8 03be 1079 743e
000000c0: f375 64be aaed 843e 62f9 15be 3902 213e
000000d0: 4e01 303e bc50 673e db89 473e 0981 b1bd
000000e0: 32bc aebe 1826 29be b546 68be b723 21bd
000000f0: 171e f13c f937 8f3e 1ff3 433e 52eb 6fbe
00000100: 70f7 9cbd d69e 713e 094c c4be 8049 5ebe
00000110: 0807 8f3d e2a2 1bbe bcc4 88be ea03 8fbe
00000120: 5795 ddbd 9d65 553e 0ee6 613d 5983 903e
00000130: 9849 1cbc 9ed5 5abd 9b29 8dbe 7371 43bb
00000140: 88d8 ea3d bc39 933d d277 f33b 2c1b 8abc
00000150: 6a79 7ebe 9572 a13e 6b71 e4bd 5885 8dbe
00000160: af1b 523e 9f7d 203e aca4 623c 4889 15bc
00000170: c5fe 37be 43a3 443c ce0d 9b3d 8f2f 9fbd
00000180: 2dbc 75bc e759 21bd 838f 49bd d1dc 1bbd
00000190: 7575 39bd 2597 e4bb 39b8 343e b8d8 5a3b
000001a0: 6804 dc3d 9b2c aebd ee6d 013d 9de3 9f3d
000001b0: 03cf 2bbd 8d0c 28be 38f8 d33c fc22 4f3d
000001c0: 4851 63be caf0 86bc c1f8 e53d 6064 be3e
000001d0: 871f babe d634 013e 852a 1abe 7fc0 e4bd
000001e0: 1233 bfbd e29f 51be 6760 4b3e 5a96 a93e
000001f0: 9d3e 02be 5885 a4be 61e4 403e 938e 1a3e
00000200: a8a7 443d 3188 6bbd 9296 d73e 26c4 203b
00000210: 9dbc 55bd ac0f 5c3e 18e1 133e d0e6 2b3e
00000220: ab63 cfbd 086c 043e 323f b13d 2f57 563e
00000230: bb91 873e cec3 413e 3289 2a3e 098c 373d
00000240: c26a 4a3e adaa 2ebd 2106 f0bd 5375 763d
00000250: 2b35 643e c1de 84be b185 903e 3ad3 243e
00000260: fe96 1d3e e932 5d3e 89ac 77bd 539a 393d
00000270: 2fb3 debd 9591 ae3e fc31 c33d 5b93 ed3d
00000280: 690a d8bd 9865 1fbe ffcb c43d 151b b4bd
00000290: 9b6f 0bbd a0ae aa3d 6849 e23d 7fe9 fabd
000002a0: eea3 0b3d a180 5f3d c2d1 fcbd fbc6 033e
000002b0: 29d1 e9bd 441f 233e 1ae3 cb3d 9fcd 673e
000002c0: ae54 0ebd 56ef d6bd af32 8c3e b457 8b3d
000002d0: df08 253e e79a debc badf 513e b6b4 56be
000002e0: d144 e53d 7dc7 38be 8c11 b83d 65bb d13d
000002f0: 4122 373d 94c5 02be 5e32 3d3d 9090 c63c
00000300: c522 353e 3458 0fbe 7fc9 d43e 8006 a0bd
00000310: 1f77 f53b 10e5 9e3d fb66 d3bd 269e 8e3e
00000320: fbe6 5c3d fc6c 933d 719b a13e 8356 2fbd
00000330: 8592 9a3d 115f b5be 7118 33be 2276 6abd
00000340: b9ee 6fbd 44a3 af3e 37df 493e 62c8 2dbe
00000350: 06bf 403e 55b2 9fbe 4083 fd3c 526d ce3e
00000360: 80a8 753d 08d9 6d3e 85f0 01be ae2e 1fbe
00000370: 49d2 ff3d 38b9 3ebe a5f0 b13d f794 0cbd
00000380: 4988 96be a758 24be c588 aabe 35e9 aa3e
00000390: 9919 813c fb10 d1bc ce44 8a3e ec4b e7bd
000003a0: 41ad 7abd 050d 22be 2bf1 55be 30ca b83e
000003b0: 1000 b7bd e5d9 c23d 8f1c 8ebe 7cd0 f8bc
000003c0: 118c 7d3e 1b50 e3bd a61c 133e 1a3e 633d
000003d0: ce5e 82be 0f28 3f3e 5f6f 1dbe 9cad 463d
000003e0: 90e2 983d fb10 6c3d 6901 643c 06fb 88be
000003f0: 3b29 83bd b054 e33e 0388 e4bc 310e 42be
0.22208028 -0.4067257 -0.0686204 0.12399964 -0.038483042 0.27982727 0.045703538 0.07993169
0.17572601 0.19250298 0.31535122 0.00996096 -0.25921553 0.14449447 -0.07630136 -0.06997382
0.22386314 -0.0326453 0.07020602 0.3415893 -0.18614559 0.023798833 -0.10250266 -0.014112
0.06452714 -0.0671036 0.32119393 0.1324772 0.30362636 0.2352969 -0.04834995 0.05598355
0.19711733 -0.1002681 0.29330698 -0.060968235 -0.1032181 0.021393623 0.09616869 0.22567308
0.03388699 0.012043852 -0.050383512 0.04191521 -0.2133278 0.21497916 -0.12869467 0.23874307
-0.22310619 0.25962573 -0.14645913 0.15723504 0.17187998 0.22589391 0.19486181 -0.0866719
-0.34127957 -0.16518438 -0.22683223 -0.0393407 0.029433293 0.2797239 0.19135712 -0.23429611
-0.076643825 0.23595747 -0.3833926 -0.21707726 0.06983763 -0.15198854 -0.26712596 -0.27932674
-0.108195 0.20839544 0.055151038 0.2822521 -0.0095390305 -0.053426377 -0.27570805 -0.002982226
0.11467081 0.07188746 0.007430055 -0.01685866 -0.24851003 0.31532732 -0.11154445 -0.27640796
0.20518373 0.1567292 0.013833206 -0.009126969 -0.1796828 0.012001815 0.075709924 -0.07772743
-0.014998478 -0.03939238 -0.04920913 -0.038052384 -0.04527803 -0.0069760256 0.176484 0.0033393335
0.10743028 -0.085046016 0.031598978 0.07807086 -0.04194547 -0.16411038 0.025875196 0.050570473
-0.22198975 -0.016472239 0.11229087 0.37185955 -0.36352178 0.12617812 -0.15055282 -0.11169528
-0.09335913 -0.20471147 0.19860993 0.33122522 -0.12719198 -0.32132983 0.1883712 0.1509345
0.048011452 -0.05750293 0.42107064 0.0024530976 -0.05218183 0.21490353 0.14441335 0.16787267
-0.10126432 0.12931836 0.08654632 0.20931695 0.2647837 0.1892235 0.16653898 0.044811282
0.19767287 -0.042643238 -0.11719919 0.060170483 0.22285907 -0.25951198 0.28226998 0.16096202
0.1538963 0.21601452 -0.060467277 0.04531319 -0.1087402 0.34095445 0.09531018 0.116003715
-0.105488606 -0.15566099 0.09609222 -0.08794228 -0.034041982 0.08334088 0.110491574 -0.12251567
0.034091882 0.05456603 -0.12344696 0.12868874 -0.11416847 0.15929896 0.099554256 0.22637032
-0.034748726 -0.104948685 0.2738242 0.068038374 0.16116665 -0.027173473 0.20495501 -0.20967373
0.11194766 -0.18044849 0.08987722 0.10240821 0.0447104 -0.12770683 0.046190612 0.024238855
0.17689045 -0.1399849 0.4155998 -0.0781374 0.007491007 0.07758534 -0.10322376 0.27855033
0.053931218 0.071985215 0.31563905 -0.042807113 0.07547478 -0.35424092 -0.17489792 -0.057241566
-0.058577273 0.3430425 0.19714056 -0.16970971 0.1882287 -0.31190744 0.030946374 0.4031778
0.059975147 0.23227322 -0.12689407 -0.1554515 0.124912806 -0.18625343 0.086884774 -0.03432175
-0.29400852 -0.16049443 -0.33307472 0.33381048 0.015759276 -0.025520792 0.2700562 -0.11293778
-0.061200384 -0.15825279 -0.2089278 0.36091757 -0.08935559 0.09514216 -0.27756163 -0.03037285
0.24760462 -0.11099263 0.14366397 0.055479147 -0.25462955 0.18667625 -0.15374516 0.04850541
0.07465088 0.05763338 0.013916352 -0.26754016 -0.064043485 0.4440055 -0.027896887 -0.18950726

encoder.cov05.bias f4 [64]
00000000: 7896 06b7 6c0d 8139 9d7e 62b9 66b0 ebb7
00000010: bde0 5a39 5bbc 1838 8146 7f38 6d79 8db8
00000020: e170 b3b8 92dc 4939 3ae5 f238 7652 07b9
00000030: 244d 1938 e839 bb37 4cf2 fb37 1e43 f037
00000040: 0fbe f6b7 1e20 c836 3c35 a138 a699 ae37
00000050: 0dbf 9fb9 1a49 4238 36c6 1839 816e 1b39
00000060: d431 1138 8495 45b8 a9f8 32b9 b1b5 35b8
00000070: 7e01 27b8 ae94 16b9 c042 1f39 0773 3139
00000080: 61e3 7038 c1c5 2eb9 438d 5838 8ebf 8039
00000090: 4086 11b9 fea5 6db9 bb5f 2439 307b 2b39
000000a0: d86e d9b8 50c6 9b39 6311 6bb8 6c0a 56b8
000000b0: 601e 2039 7bff 5539 7db8 5eb8 64bc f1b7
000000c0: c128 f9b8 36b1 6839 e253 a837 7df8 0939
000000d0: fccb 04b9 3e1a 89b9 f377 8539 c36c 9cb9
000000e0: 4903 b238 8a8c 4b37 15fc 3739 d2d8 0fb9
000000f0: da41 97b8 9256 2a3a 42d8 e8b8 1d03 6938
-8.022056e-06 0.00024614797 -0.00021600207 -2.8096325e-05 0.00020873822 3.6415044e-05 6.08624e-05 -6.746021e-05
-8.5564105e-05 0.00019251023 0.00011582156 -0.00012905322 3.6549885e-05 2.2319102e-05 3.003436e-05 2.8641483e-05
-2.9413988e-05 5.9642034e-06 7.686994e-05 2.0813965e-05 -0.00030469187 4.6321285e-05 0.00014569689 0.00014823118
3.46171e-05 -4.7107707e-05 -0.00017068036 -4.3322976e-05 -3.9817292e-05 -0.00014360502 0.00015188288 0.00016922886
5.7432222e-05 -0.00016667602 5.1629973e-05 0.00024556782 -0.0001387829 -0.00022663918 0.00015675921 0.00016353722
-0.000103680126 0.00029711658 -5.604456e-05 -5.1031282e-05 0.00015270105 0.00020408437 -5.3100743e-05 -2.8817165e-05
-0.00011880836 0.0002219126 2.0066222e-05 0.00013157907 -0.00012664491 -0.00026150228 0.00025457106 -0.00029835672
8.488313e-05 1.2132465e-05 0.00017546148 -0.00013718315 -7.212507e-05 0.00064978853 -0.00011102903 5.555443e-05
