checkpoint/teacher_checkpoint.pt (torch, 936498 bytes, 32 tensors)

ae.encoder.cov01.weight f4 [64, 103, 3, 3]
-0.029707333 0.06114562 0.020125592 0.023124296 0.048752777 0.0020800477 0.04501018 -0.0054331985
0.048690274 0.071229436 -0.0070168898 -0.00020321002 0.015367012 0.021610584 -0.013636886 0.0066218837
-0.014020443 0.014641689 0.08140072 -0.060144823 -0.028010894 0.02989881 -0.10291764 0.14309046
-0.05508381 -0.038990498 -0.028283767 -0.06311768 -0.004956806 -0.0794406 -0.031523325 0.033230748
-0.11130012 0.00062391825 -0.076067574 0.10069421 -0.061923012 0.023195568 -0.008224686 0.038955066
-0.1358707 0.0054953913 0.021278106 0.008530882 0.006574201 0.079700865 0.0019049514 0.03444922
-0.011304695 0.11185056 0.05575718 0.00012199769 0.04155436 -0.0038392514 0.06108281 -0.022466445
-0.0010929074 -0.09180575 -0.11311086 -0.024518145 -0.09468667 0.028673558 0.0022194004 0.027246777
-0.023462519 -0.0060369805 -0.061277132 0.036862623 -0.01241747 -0.0077545014 0.080564275 -0.21956581
0.11593536 -0.1198102 0.045337036 -0.0048674745 0.017399766 0.06352243 -0.036353815 -0.010308678
-0.0062408363 -0.03104082 -0.017732043 -0.047914207 0.04049659 -0.072148986 0.01923838 -0.029380795
0.0015631544 -0.008855907 -0.081532076 0.030548133 0.020637102 -0.07020324 -0.056448806 0.019447125
0.057627946 0.00434795 -0.066957824 0.0550897 0.06626686 -0.010477674 -0.030562324 0.08130354
-0.07585938 -0.03370741 -0.002760416 -0.019254366 -0.05114852 -0.0021310325 -0.006715307 -0.06539517
0.07268911 -0.024646735 0.0798513 0.021390336 0.06416767 0.07637863 0.04432301 0.1738835
-0.08392386 0.15525185 -0.13717061 0.010733674 -0.100538075 0.045979302 0.031983636 0.067901514
0.002293472 0.13039985 -0.005496623 -0.079461984 -0.019457178 0.028657444 0.09557748 0.038805444
-0.016020214 0.12332551 0.004734684 -0.081321694 0.0051553054 0.06544498 0.011720996 -0.046831902
0.06285636 0.17349337 0.08373182 0.030732976 0.026052555 0.04298385 0.058430992 0.07642712
-0.025245233 0.061245136 -0.06059817 0.010602964 -0.01958108 0.0743397 -0.02580556 0.12902857
0.06579232 -0.062481478 0.012526158 0.02308849 -0.0075202943 0.02608006 0.018855538 0.032605276
-0.020124841 -0.007286364 0.0246786 0.01431689 0.007381747 0.016822802 0.019770402 0.0067770462
0.011595505 0.020067729 0.02797577 0.04529145 -0.035299305 0.03234167 -0.09639271 0.055506032
-0.042402264 -0.074600324 0.011361977 -0.018762423 0.05265883 0.060202014 0.006390891 0.019306568
-0.071919784 0.08466026 -0.0050456338 -0.00094231195 -0.024754863 -0.012473415 -0.02642582 -0.17805445
-0.00963349 0.011651909 0.04474091 -0.09811425 -0.056099445 -0.01736597 0.05160484 0.053727213
-0.07972283 -0.09451446 -0.03768538 -0.039230794 -0.0694489 0.03348571 0.03577549 0.029033566
-0.008928093 0.16952589 -0.060771015 0.050344076 0.046973784 -0.0034602976 0.07704508 -0.06350498
0.010235437 -0.030242784 -0.04404778 -0.008814561 -0.00019395267 0.043986462 -0.0019210244 0.0043113125
-0.03454799 0.05162679 -0.037882596 0.08499789 0.0029549801 -0.03729361 0.042698205 0.06453813
0.024989456 0.09743762 -0.0463202 -0.021874553 0.017895352 0.011784105 0.010554294 -0.014301957
0.051447418 0.079438455 0.04397796 0.041937012 -0.08162386 -0.02943742 -0.015811399 -0.0029830472
00000000: cb5c f3bc d473 7a3d 6dde a43c 2a6f bd3c
00000010: feb0 473d 6951 083b 985c 383d f908 b2bb
00000020: 746f 473d bde0 913d f0ed e5bb c614 55b9
00000030: ebc5 7b3c ae08 b13c 3f6d 5fbc 63fc d83b
00000040: 00b6 65bc b2e3 6f3c 6cb5 a63d 6b5a 76bd
00000050: 1a77 e5bc 59ee f43c 7cc6 d2bd 4e86 123e
00000060: 909f 61bd 80b4 1fbd 5cb3 e7bc d843 81bd
00000070: b46c a2bb c1b1 a2bd 9a1e 01bd f71c 083d
00000080: 51f1 e3bd 728e 233a 51c9 9bbd c438 ce3d
00000090: fca2 7dbd a204 be3c d5c0 06bc 598f 1f3d
000000a0: b021 0bbe af12 b43b 6c4f ae3c 1dc5 0b3c
000000b0: 656c d73b 353a a33d 90af f93a a01a 0d3d
000000c0: 5437 39bc e811 e53d a461 643d 03d9 ff38
000000d0: e834 2a3d f39b 7bbb f831 7a3d 8d0b b8bc
000000e0: e33f 8fba a704 bcbd aba6 e7bd 47da c8bc
000000f0: 16eb c1bd cfe4 ea3c 5c73 113b a234 df3c
00000100: 7834 c0bc ddd1 c5bb bbfd 7abd 43fd 163d
00000110: a572 4bbc 7919 febb e2fe a43d dcd5 60be
00000120: 856f ed3d 0d5f f5bd 54b3 393d 567f 9fbb
00000130: f489 8e3c 0c18 823d bde7 14bd bbe5 28bc
00000140: ee7f ccbb 5149 febc ca42 91bc b041 44bd
00000150: c1df 253d d9c2 93bd cf99 9d3c feaf f0bc
00000160: c2e2 cc3a 5e18 11bc 4afa a6bd 1440 fa3c
00000170: 240f a93c b7c6 8fbd dd36 67bd 944f 9f3c
00000180: 480b 6c3d 4079 8e3b 2f21 89bd bda5 613d
00000190: ebb6 873d 8daa 2bbc d75d fabc 7882 a63d
000001a0: 2a5c 9bbd c810 0abd 18e8 34bb 55bb 9dbc
000001b0: 1c81 51bd cba8 0bbb 140c dcbb e7ed 85bd
000001c0: 07de 943d f3e7 c9bc 1489 a33d c93a af3c
000001d0: 576a 833d 666c 9c3d 0b8c 353d 840e 323e
000001e0: 46e0 abbd 57fa 1e3e 7476 0cbe 4bdc 2f3c
000001f0: e8e6 cdbd cb54 3c3d 4601 033d f30f 8b3d
00000200: 134e 163b 8a87 053e 041d b4bb f7bc a2bd
00000210: a964 9fbc 04c3 ea3c 20be c33d 75f2 1e3d
00000220: d33c 83bc 1692 fc3d 6825 9b3b fd8b a6bd
00000230: d6ed a83b 0508 863d 6c09 403c cfd2 3fbd
00000240: d6ba 803d 3fa8 313e 977b ab3d b9c3 fb3c
00000250: 2b6c d53c d50f 303d 5655 6f3d d285 9c3d
00000260: 17cf cebc 2edc 7a3d c935 78bd 0eb8 2d3c
00000270: 8068 a0bc 6a3f 983d 2f66 d3bc 1120 043e
00000280: 20be 863d 94ec 7fbd 843a 4d3c 1324 bd3c
00000290: cd6c f6bb daa5 d53c ee76 9a3c 1c8d 053d
000002a0: dadc a4bc 74c2 eebb c62a ca3c 6491 6a3c
000002b0: 95e2 f13b f9cf 893c 8af5 a13c fc11 de3b
000002c0: 13fb 3d3c 1465 a43c 712d e53c 8783 393d
000002d0: 0196 10bd b378 043d 8b69 c5bd 4b5a 633d
000002e0: ffad 2dbd 0ec8 98bd 9627 3a3c a7b3 99bc
000002f0: c9b0 573d 6396 763d ae6a d13b cf28 9e3c
00000300: ae4a 93bd 5c62 ad3d d855 a5bb 7c05 77ba
00000310: b6ca cabc 4b5d 4cbc f67a d8bc e853 36be
00000320: c9d5 1dbc a6e7 3e3c 3f42 373d 20f0 c8bd
00000330: 88c8 65bd 1443 8ebc 995f 533d 1111 5c3d
00000340: b945 a3bd cc90 c1bd fc5b 1abd 78b0 20bd
00000350: 3a3b 8ebd 5028 093d 5289 123d cdd7 ed3c
00000360: 2347 12bc 3298 2d3e 07eb 78bd 9735 4e3d
00000370: 9567 403d 29c6 62bb d0c9 9d3d e60e 82bd
00000380: 89b2 273c b7bf f7bc 726b 34bd f36a 10bc
00000390: c65f 4bb9 262b 343d e2ca fbba e945 8d3b
000003a0: 3182 0dbd 9d76 533d c82a 1bbd 6013 ae3d
000003b0: 57a8 413b 2fc1 18bd 50e4 2e3d 912c 843d
000003c0: b0b6 cc3c 608d c73d 40ba 3dbd 4332 b3bc
000003d0: 4699 923c 1e12 413c ebeb 2c3c c152 6abc
000003e0: 87ba 523d a1b0 a23d 3c22 343d 25c6 2b3d
000003f0: 692a a7bd bf26 f1bc e886 81bc 3a7f 43bb

ae.encoder.cov01.bias f4 [64]
-0.0011659366 0.004410115 0.0008748472 0.001087395 0.018163864 0.013138689 0.0028974582 0.004982627
0.007338198 -0.0016194388 0.014749763 0.0034592946 0.0012171557 0.0050539332 -0.0017758976 0.0021059837
-0.002341057 -0.0010812001 0.0019443965 -0.001961583 -0.0053943624 0.005107957 0.0077355243 0.0018331545
0.007202271 0.00095893367 0.0033809333 -0.0028063739 -0.003609321 0.00074133615 0.004605739 -0.0019368571
0.0068758735 -0.004431396 0.00044955176 -0.0018352075 -0.0033516956 0.0036424403 0.005362042 0.0034506489
0.002025142 4.138824e-05 -0.00428568 0.014316687 -0.0013197251 0.0072692866 0.00392594 0.011103222
0.0015300603 0.0050370516 0.0016124796 0.0035164794 -0.004931838 0.0021654575 -0.00643892 0.0022209256
0.0008174466 -0.0023504093 0.0025745726 0.003521757 -0.0018249319 0.0059253536 -0.0009932977 0.0042683426
00000000: 57d2 98ba ba82 903b 0056 653a ec86 8e3a
00000010: 62cc 943c a843 573c 48e3 3d3b 4e45 a33b
00000020: 4475 f03b 5943 d4ba fda8 713c 55b5 623b
00000030: f888 9f3a 779b a53b 3cc5 e8ba 8b04 0a3b
00000040: 6b6c 19bb 0eb7 8dba 1fdb fe3a e78d 00bb
00000050: 31c3 b0bb a660 a73b 487a fd3b 7546 f03a
00000060: 0701 ec3b f360 7b3a a692 5d3b 24eb 37bb
00000070: 5c8a 6cbb 3a56 423a bdeb 963b 24de fdba
00000080: 024f e13b 3e35 91bb d1b1 eb39 588b f0ba
00000090: 1fa8 5bbb 02b6 6e3b 12b4 af3b 4824 623b
000000a0: 3fb8 043b 4998 2d38 e46e 8cbb 8a90 6a3c
000000b0: a0fa acba 3233 ee3b 2ca5 803b 4aea 353c
000000c0: 4e8c c83a da0d a53b d659 d33a bc74 663b
000000d0: 419b a1bb 59ea 0d3b 93fd d2bb f38c 113b
000000e0: ea49 563a 5309 1abb 29ba 283b 47cd 663b
000000f0: 8e32 efba 7829 c23b 8a31 82ba 74dd 8b3b

ae.encoder.bn01.weight f4 [64]
1.0033469 1.0329148 0.9963325 0.9808911 0.95106184 1.0464491 1.0076745 1.0200217
1.035665 0.9838378 1.0444332 1.0823572 1.0109831 0.9686834 0.98768914 0.9849282
0.9792658 0.96659636 1.0062612 1.0089403 1.0064178 1.0112712 0.96716493 1.0039746
1.0160227 0.9852207 1.0034653 0.9960368 0.99584454 1.0007718 0.9983825 0.9684208
0.9815921 0.9787367 1.0015192 1.0677173 1.0218959 0.98047286 0.961333 1.0010576
0.99378985 1.0043857 0.9962673 1.00327 0.9841783 0.9799502 1.0198016 0.9744536
0.97105104 0.9888941 1.0044672 0.9670146 0.9693632 0.94225705 0.9782345 0.9606959
0.97018236 0.9606131 1.0203127 1.0082301 1.0217433 1.02163 1.0125234 1.0044779
00000000: ac6d 803f 8d36 843f a60f 7f3f ae1b 7b3f
00000010: ca78 733f 0bf2 853f 7afb 803f 1290 823f
00000020: ac90 843f cbdc 7b3f fdaf 853f ae8a 8a3f
00000030: e567 813f a3fb 773f 32d9 7c3f 4124 7c3f
00000040: 2ab1 7a3f dc72 773f 2bcd 803f f524 813f
00000050: 4cd2 803f 5671 813f 1f98 773f 3d82 803f
00000060: 080d 823f 6c37 7c3f 8d71 803f 45fc 7e3f
00000070: abef 7e3f 4a19 803f ff95 7f3f 6dea 773f
00000080: 9f49 7b3f 7d8e 7a3f c831 803f f6aa 883f
00000090: 7ccd 823f 4500 7b3f eb19 763f a822 803f
000000a0: 0369 7e3f b68f 803f 600b 7f3f 276b 803f
000000b0: 1cf3 7b3f 04de 7a3f dc88 823f cb75 793f
000000c0: cd96 783f 2a28 7d3f 6292 803f 458e 773f
000000d0: 3028 783f c237 713f 946d 7a3f 2bf0 753f
000000e0: df5d 783f bdea 753f 9b99 823f af0d 813f
000000f0: 7cc8 823f c6c4 823f 5e9a 813f bb92 803f

ae.encoder.bn01.bias f4 [64]
-0.10690479 0.043515373 -0.03423066 -0.039228145 -0.11397827 -0.12961023 -0.03909464 -0.038171865
-0.11367881 -0.093969375 -0.13295214 -0.16463305 -0.09004935 -0.022682915 0.0434924 -0.08668368
-0.0842057 -0.16600722 -0.025907014 0.14652196 -0.018690424 0.033092357 -0.020637693 -0.061865192
-0.14658451 -0.03340251 0.087623045 -0.06270983 -0.03202631 -0.0924127 -0.043259516 -0.18524382
-0.17643404 0.050257247 -0.042297293 -0.04596048 -0.023511458 -0.08135123 -0.24413283 -0.05005615
-0.024793016 0.050590925 -0.07748114 -0.20349273 0.019138081 -0.07789091 -0.06864377 -0.2537187
0.0045366464 -0.11971491 -0.06199354 -0.043289475 -0.03721619 -0.13994195 -0.03395561 -0.02935667
0.047253065 0.056073464 -0.039054573 -0.040274046 -0.02825731 -0.0052688504 -0.043479033 0.003278829
00000000: e6f0 dabd 2d3d 323d 7335 0cbd b1ad 20bd
00000010: 706d e9bd 8bb8 04be b421 20bd 1a5a 1cbd
00000020: 70d0 e8bd 0473 c0bd 9b24 08be 9195 28be
00000030: cb6b b8bd 85d1 b9bc 1625 323d 3787 b1bd
00000040: 0a74 acbd ccfd 29be f23a d4bc da09 163e
00000050: a91c 99bc da8b 073d 6110 a9bc 5b66 7dbd
00000060: 401a 16be 12d1 08bd b673 b33d 036e 80bd
00000070: 052e 03bd df42 bdbd e430 31bd 8eb0 3dbe
00000080: 20ab 34be 8bda 4d3d ed3f 2dbd 0e41 3cbd
00000090: 1a9b c0bc 799b a6bd f5fd 79be ad07 4dbd
000000a0: b91a cbbc 6e38 4f3d 6fae 9ebd 6660 50be
000000b0: 77c7 9c3c 4585 9fbd 1b95 8cbd 6be7 81be
000000c0: 26a8 943b 172d f5bd f0ec 7dbd 4e50 31bd
000000d0: 0170 18bd f14c 0fbe 0a15 0bbd 667d f0bc
000000e0: 6e8c 413d 4aad 653d b0f7 1fbd 66f6 24bd
000000f0: e07b e7bc 52a6 acbb 1217 32bd 9fe1 563b

ae.encoder.bn01.running_mean f4 [64]
-0.019211767 0.013566547 -0.007926619 0.0036285764 0.015176189 -0.0030582468 -0.004860231 0.019893432
0.006408842 0.0006859586 0.013241687 -0.0053546107 -0.009273757 0.010175806 0.009004729 -0.007766292
-0.012504075 -0.0010717298 0.018741807 -0.003981698 -0.01481409 -0.0009408955 0.0031310543 -0.009104493
0.001719036 -0.003861307 0.009307156 -0.0076127853 0.005272626 0.010458059 0.005158854 -0.002453896
0.004623961 0.00631631 -0.00071998476 -0.008568184 -0.01494436 -0.0020904364 0.004747248 0.011313624
-0.011276006 0.001789834 -0.019656181 0.014738601 -0.030327102 0.005001472 -0.0064450693 0.012018847
0.0040428564 0.008361685 0.0005406288 -0.0051332377 -0.0045634992 0.008727992 -0.011977428 0.014881475
0.001296614 0.0024346337 -0.015709117 -0.0014977452 -0.015860824 0.016751079 -0.013267132 0.008197943
00000000: ff61 9dbc 3946 5e3c a6de 01bc 69cd 6d3b
00000010: 8da5 783c de6c 48bb 9342 9fbb 8df7 a23c
00000020: 4301 d23b e7d1 333a a9f3 583c bb75 afbb
00000030: f5f0 17bc 6cb8 263c 9288 133c 617c febb
00000040: e4dd 4cbc 4979 8cba 6b88 993c e778 82bb
00000050: ccb6 72bc 6ea6 76ba 6032 4d3b 032b 15bc
00000060: 4751 e13a fb0d 7dbb 0b7d 183c ac74 f9bb
00000070: fec5 ac3b 4758 2b3c 9b0b a93b 8bd1 20bb
00000080: 9984 973b 0cf9 ce3b 5cbd 3cba 9261 0cbc
00000090: 30d9 74bc b4ff 08bb cd8e 9b3b c75c 393c
000000a0: ffbe 38bc dd98 ea3a 0006 a1bc 2c7a 713c
000000b0: 8b70 f8bc 63e3 a33b 2931 d3bb b3ea 443c
000000c0: f079 843b 73ff 083c fcb8 0d3a b834 a8bb
000000d0: 6889 95bb daff 0e3c f93c 44bc 6ed1 733c
000000e0: 25f3 a93a 608e 1f3b 68b0 80bc fd4f c4ba
000000f0: 8fee 81bc 8f39 893c 635e 59bc aa50 063c

ae.encoder.bn01.running_var f4 [64]
6.919083 9.403173 3.5222025 2.2748458 0.96751565 8.964741 5.5354033 6.01479
0.86362 0.8728254 0.63181835 2.900211 4.444658 5.083996 4.6432066 9.56291
5.87789 4.6341286 19.08874 9.028627 4.1191225 3.7711637 1.7724203 3.5738733
1.4485867 1.087739 2.267246 4.2241335 10.660096 4.5508 3.6220782 4.6343093
1.3031181 2.64421 11.260052 3.04565 4.6301637 2.882647 0.7933013 8.995735
10.296302 4.87948 6.9798484 0.64240193 25.024645 2.1423335 3.395286 1.603319
7.1762066 3.0706093 4.191564 3.9034872 3.6734145 6.0236588 1.5028394 7.6007123
4.7276835 9.040143 18.22807 1.6889693 9.09106 4.64328 4.6997013 11.616725
00000000: 2169 dd40 6673 1641 c46b 6140 1397 1140
00000010: 1baf 773f 946f 0f41 0622 b140 2979 c040
00000020: 3316 5d3f 7c71 5f3f d9be 213f 0f9d 3940
00000030: a33a 8e40 18b0 a240 2695 9440 ae01 1941
00000040: ad17 bc40 c84a 9440 bdb5 9841 4275 1041
00000050: dacf 8340 bf5a 7140 abde e23f 57ba 6440
00000060: 4a6b b93f 083b 8b3f 8f1a 1140 1a2c 8740
00000070: c18f 2a41 27a0 9140 21d0 6740 434c 9440
00000080: 93cc a63f bd3a 2940 2c29 3441 eeeb 4240
00000090: 4d2a 9440 4a7d 3840 cb15 4b3f 88ee 0f41
000000a0: a7bd 2441 b324 9c40 eb5a df40 7474 243f
000000b0: 7932 c841 fe1b 0940 5e4c 5940 8f39 cd3f
000000c0: 7ca3 e540 dd84 4440 4b21 8640 bcd2 7940
000000d0: 3919 6b40 d0c1 c040 0b5d c03f 0939 f340
000000e0: 2f49 9740 6da4 1041 16d3 9141 2530 d83f
000000f0: fb74 1141 c095 9440 f463 9640 1bde 3941

ae.encoder.cov02.weight f4 [64, 64, 3, 3]
0.0530012 -0.0070200074 -0.038363136 -0.029367661 0.0063235066 -0.012873767 0.07977187 0.04235277
-0.031875387 -0.047354333 -0.03998836 0.022317015 0.063669816 -0.036812864 -0.070121154 0.0016428473
-0.032749828 0.0014814531 -0.008136192 -0.0053256885 -0.06334099 -0.042319804 -0.040581387 -0.053609382
-0.020229237 -0.034427926 -0.041008852 0.013660208 0.019052785 -0.013579576 0.008130169 -0.04372075
-0.08507845 -0.101232156 0.008018258 -0.038604934 -0.08497805 -0.08429201 -0.12325459 0.01051223
-0.04970119 -0.1207263 -0.06250763 -0.0067670294 -0.048625566 0.060617536 0.0069445954 -0.013059032
0.030874042 0.16078411 0.008961042 0.02794799 0.006134425 0.017284727 -0.04972942 0.01951834
-0.04691525 -0.018189063 -0.019089654 -0.003525341 0.043173987 0.09644774 -0.026070641 0.08210974
0.026581606 -0.084796116 0.03281796 0.08021348 0.036257725 -0.042579897 0.110108405 0.12867112
-0.08076573 -0.051561557 0.008979854 0.05329824 0.036313497 0.0908866 0.057377443 0.007597959
0.04985658 -0.013266704 0.08922679 0.0067253774 0.058705915 0.049038354 -0.037503146 -0.025429383
-0.007841521 0.08984752 0.002550621 0.063748606 0.04523111 0.004944301 0.0010235264 -0.0029786683
0.039443754 0.004584443 -0.027078627 -0.061814927 0.011965249 -0.10899672 -0.002720616 -0.13248421
-0.022910282 -0.03290745 -0.05968319 0.054868605 -0.056522336 -0.03807264 0.056887098 0.013614387
-0.018511737 -0.022665387 0.032654196 0.05856758 0.021426449 0.008875287 0.10334461 0.04612784
-0.03195736 0.015041764 0.14767276 0.03421894 0.16650286 -0.048148368 -0.02687601 -0.052215938
0.037709434 -0.02374758 0.025773143 -0.072877556 0.04117744 -0.008307675 -0.10022184 0.100650825
0.0067351563 0.021693012 0.06281503 0.056709852 -0.04537504 -0.0103016 0.031450387 0.07623236
-0.05148704 0.054384306 -0.01467923 -0.0016174531 0.0029609129 -0.0009019703 0.14248286 -0.022849008
0.0074871336 -0.06341551 -0.09557526 -0.08826177 -0.10111176 0.033162773 -0.024783932 0.04750731
-0.0924849 -0.037275348 0.09552927 0.02680453 -0.10042476 0.039299674 -0.016298024 -0.06377222
0.07716634 -0.055659574 -0.022946797 -0.0660681 0.00473219 -0.033565663 -0.034681488 0.028415438
0.029967261 0.05868538 -0.14854251 0.019700224 0.13488351 0.04717858 0.0010940465 0.04759715
0.018222153 -0.0402116 -0.12722908 -0.045073878 0.07808035 0.028606314 0.04959815 -0.0073724226
0.072940856 0.11641351 0.07850905 -0.060603693 0.05989918 0.01848511 -0.022228723 -0.023177322
0.055324215 0.07350615 -0.012135907 0.035449695 0.03283229 0.06348018 0.05237493 0.064060844
0.058706082 0.109484345 0.004117861 0.022371786 -0.054271873 -0.036486506 0.12754184 0.025227899
-0.021403937 -0.088951565 0.012400435 -0.01783826 -0.09381557 0.05477289 -0.08889371 0.033922404
-0.012722256 -0.07196003 -0.047309786 -0.08354752 -0.022317642 -0.024065627 0.0061281193 0.027135694
-0.06702468 -0.056949507 0.0431132 0.026951544 0.08289577 -0.019517161 0.023455536 0.024170479
-0.020737845 -0.032011606 0.017051563 -0.064729586 0.052997272 0.08123652 0.107793525 0.15033095
0.11959568 0.10489036 0.03676619 0.15175515 -0.001796294 0.06623916 0.048630457 -0.07776251
00000000: c917 593d 1708 e6bb aa22 1dbd 7394 f0bc
00000010: 6b35 cf3b 7eec 52bc 6f5f a33d 197a 2d3d
00000020: c48f 02bd 9ef6 41bd d6ca 23bd 2cd2 b63c
00000030: 5265 823d 16c9 16bd ae9b 8fbd cf54 d73a
00000040: af24 06bd 512d c23a aa4d 05bc 1d83 aebb
00000050: ecb8 81bd 8857 2dbd ab38 26bd 8395 5bbd
00000060: c9b7 a5bc 4c04 0dbd e6f8 27bd 11cf 5f3c
00000070: 9614 9c3c df7c 5ebc 6634 053c 8714 33bd
00000080: 9c3d aebd ce52 cfbd 035f 033c 3520 1ebd
00000090: f908 aebd 4aa1 acbd e76c fcbd 7d3b 2c3c
000000a0: 7a93 4bbd 5a3f f7bd 0004 80bd f5bd ddbb
000000b0: 9a2b 47bd 184a 783d 7d8f e33b 8df5 55bc
000000c0: 8feb fc3c 97a4 243e 56d1 123c 2ff3 e43c
000000d0: 4903 c93b b398 8d3c 14b1 4bbd ede4 9f3c
000000e0: 352a 40bd 3b01 95bc e861 9cbc 6809 67bb
000000f0: 35d7 303d 6586 c53d 1992 d5bc 2729 a83d
00000100: abc1 d93c 96a9 adbd 206c 063d f746 a43d
00000110: fb82 143d 4268 2ebd 8480 e13d 5dc2 033e
00000120: 8168 a5bd 3632 53bd 3d20 133c 414f 5a3d
00000130: 76bd 143d c122 ba3d 9c04 6b3d 4df8 f83b
00000140: 6a36 4c3d 975c 59bc 89bc b63d 8e60 dc3b
00000150: 9d75 703d 71dc 483d e69c 19bd 4851 d0bc
00000160: b979 00bc fa01 b83d 5228 273b a18e 823d
00000170: 4244 393d ce03 a23b d927 863a c335 43bb
00000180: c68f 213d 1839 963b ffd3 ddbc a631 7dbd
00000190: e409 443c ac39 dfbd 5d4c 32bb f1a9 07be
000001a0: 58ae bbbc f6c9 06bd 5c76 74bd e7bd 603d
000001b0: f783 67bd 0ef2 1bbd 7202 693d e10e 5f3c
000001c0: eda5 97bc c3ac b9bc 68c0 053d 8fe4 6f3d
000001d0: 8586 af3c a769 113c 57a6 d33d 8cf0 3c3d
000001e0: b9e5 02bd bb71 763c 8737 173e 2929 0c3d
000001f0: ba7f 2a3e 3937 45bd 142b dcbc 61e0 55bd
00000200: 3575 1a3d 498a c2bc 3322 d33c d440 95bd
00000210: ada9 283d ea1c 08bc 1c41 cdbd 0522 ce3d
00000220: 96b2 dc3b 8bb5 b13c 2ba5 803d 9748 683d
00000230: 2edb 39bd 0bc8 28bc 1fd2 003d b61f 9c3d
00000240: 13e4 52bd 14c2 5e3d 2781 70bc b800 d4ba
00000250: e00b 423b 3472 6cba 07e7 113e d82d bbbc
00000260: a156 f53b fedf 81bd f6bc c3bd 96c2 b4bd
00000270: af13 cfbd b0d5 073d ac07 cbbc 0697 423d
00000280: b968 bdbd 09ae 18bd daa4 c33d 2c95 db3c
00000290: 7fab cdbd b2f8 203d 6f83 85bc 029b 82bd
000002a0: 6309 9e3d 4bfb 63bd ecfa bbbc b64e 87bd
000002b0: 7d10 9b3b 267c 09bd 2d0e 0ebd 7ec7 e83c
000002c0: e77d f53c 1560 703d 871b 18be 5d62 a13c
000002d0: e71e 0a3e 543e 413d 1c66 8f3a 3bf5 423d
000002e0: a046 953c ebb4 24bd 5748 02be 639f 38bd
000002f0: 97e8 9f3d ca57 ea3c 6e27 4b3d 5d94 f1bb
00000300: 0462 953d 356a ee3d 5ac9 a03d 943b 78bd
00000310: d858 753d 166e 973c 0319 b6bc 5ede bdbc
00000320: a59b 623d 648a 963d afd5 46bc b333 113d
00000330: 277b 063d e601 823d 1887 563d 5532 833d
00000340: ca75 703d 5439 e03d 1fef 863b 0945 b73c
00000350: 2f4c 5ebd e072 15bd 549a 023e bdaa ce3c
00000360: 4f57 afbc 3d2c b6bd 322b 4b3c 8b21 92bc
00000370: 6122 c0bd 8a59 603d e80d b6bd 38f2 0a3d
00000380: 0271 50bc c85f 93bd e8c7 41bd f61a abbd
00000390: 7dd3 b6bc 4725 c5bc 64ce c83b ad4b de3c
000003a0: 3c44 89bd e343 69bd 7897 303d 7cc9 dc3c
000003b0: 42c5 a93d 74e2 9fbc d325 c03c 2b01 c63c
000003c0: 6ae2 a9bc 9a1e 03bd b8af 8b3c f290 84bd
000003d0: ab13 593d 555f a63d dac2 dc3d 5bf0 193e
000003e0: 94ee f43d c2d0 d63d 2598 163d b465 1b3e
000003f0: a071 ebba 66a8 873d bb30 473d f341 9fbd

ae.encoder.cov02.bias f4 [64]
0.0094795255 0.010364736 0.0031941358 0.008547311 0.0044448148 0.010738634 0.0048624477 0.0040572253
0.0047372864 -0.0020871242 0.009053344 -0.003176327 0.00062315003 -6.257711e-05 -0.0019835513 0.0011561109
0.011956986 0.00097153324 -0.0036646058 -0.00029001062 -0.0024647834 0.0006965433 0.0017813112 -0.003621041
-0.0006331441 0.0019406237 -0.0016611993 0.006475056 0.0008724873 -0.0009947438 -0.012124844 0.002627469
0.008250379 -0.00024110315 0.0058672195 0.005276678 -0.005819559 -0.002454629 0.0021350163 0.009006956
0.016485494 0.009629854 0.010754622 0.007886006 0.0063734623 0.009910705 0.008015805 2.6429801e-05
0.00016674293 0.0019639232 -0.0046415795 0.011675289 0.013598368 3.4188142e-05 0.022602074 0.0015494315
-0.008975326 0.009524508 0.010591305 -0.0010408955 -0.0037044398 0.008987899 0.00881621 0.0030895944
00000000: 0350 1b3c dbd0 293c b554 513b 050a 0c3c
00000010: cfa5 913b 18f1 2f3c 2b55 9f3b 79f2 843b
00000020: 3d3b 9b3b 22c8 08bb 7a54 143c ed29 50bb
00000030: e45a 233a d53b 83b8 78fe 01bb a588 973a
00000040: 3ce7 433c 7eae 7e3a e229 70bb 910c 98b9
00000050: 3488 21bb 3b98 363a e37a e93a fd4e 6dbb
00000060: 95f9 25ba 875c fe3a 99bc d9ba b52c d43b
00000070: a2b7 643a 1062 82ba 48a7 46bc 9d31 2c3b
00000080: 992c 073c a2d0 7cb9 ce41 c03b fce7 ac3b
00000090: 00b2 bebb d7dd 20bb a1eb 0b3b e991 133c
000000a0: 960c 873c 89c6 1d3c 2734 303c 4e34 013c
000000b0: 7ad8 d03b 8260 223c b954 033c 91b5 dd37
000000c0: b7d7 2e39 2ab5 003b 6418 98bb b649 3f3c
000000d0: b0cb 5e3c 3d65 0f38 fc27 b93c 4b16 cb3a
000000e0: 3f0d 13bc af0c 1c3c 2787 2d3c a86e 88ba
000000f0: 30c6 72bb fb41 133c dd71 103c cb7a 4a3b

ae.encoder.bn02.weight f4 [64]
0.9648167 1.1233006 1.0224628 0.95206684 0.99196833 1.1761992 0.96360266 1.008433
0.9602493 0.9908367 0.95941645 0.9725525 0.95186466 0.92419016 0.9810174 1.0317166
1.008175 0.93573594 0.9778515 1.0043352 1.0335666 0.97378176 0.93329704 1.0195985
0.9793293 1.0601196 1.0125545 1.1094521 1.0063275 0.94666845 0.8624886 0.9947392
1.0163643 0.9566792 0.98032343 0.92777354 1.0122157 0.9909046 0.9169583 1.0780898
1.0365248 0.95349425 0.99677515 1.053109 0.9422356 0.939216 1.1606984 0.9455074
0.9691206 0.98324513 0.93521863 1.0358651 0.9472133 1.0118849 0.9481247 0.95503783
1.0063221 0.9181879 0.93537486 0.9869757 1.0154872 1.0121007 0.96839035 0.95152473
00000000: 3afe 763f 50c8 8f3f 10e0 823f a7ba 733f
00000010: a3f1 7d3f b28d 963f aaae 763f 5514 813f
00000020: e6d2 753f 79a7 7d3f 519c 753f 33f9 783f
00000030: 67ad 733f ba97 6c3f f523 7b3f 4a0f 843f
00000040: e10b 813f 648c 6f3f 7a54 7a3f 0e8e 803f
00000050: e94b 843f c349 793f 8eec 6e3f 3482 823f
00000060: 53b5 7a3f 00b2 873f 639b 813f 8702 8e3f
00000070: 57cf 803f dd58 723f 0ecc 5c3f 3aa7 7e3f
00000080: 3a18 823f eee8 743f 7af6 7a3f 9182 6d3f
00000090: 4990 813f edab 7d3f c7bd 6a3f d9fe 893f
000000a0: d8ac 843f 3318 743f a82c 7f3f 47cc 863f
000000b0: 5a36 713f 7670 703f c491 943f c60c 723f
000000c0: 4a18 783f f4b5 7b3f 7d6a 6f3f 3a97 843f
000000d0: 927c 723f 7285 813f 4db8 723f 5c7d 743f
000000e0: 2acf 803f 5d0e 6b3f ba74 6f3f 71aa 7c3f
000000f0: 7cfb 813f 848c 813f 6ee8 773f 2097 733f

ae.encoder.bn02.bias f4 [64]
-0.16714458 -0.17477518 0.003937752 -0.11977337 -0.13456029 -0.22041377 -0.17747855 -0.18918511
-0.053977765 -0.05516906 -0.23365775 0.027382176 -0.018067745 -0.122052565 0.009954028 -0.014094152
-0.2062123 -0.08197702 -0.085396655 -0.17591687 0.037736557 -0.021134662 -0.025330797 -0.05959918
-0.053684566 -0.05558135 0.062237002 -0.07051845 -0.106195085 0.00097046833 0.0017696687 -0.142518
-0.07391097 -0.081907086 -0.026758535 -0.10773536 0.024059495 -0.036547977 -0.09354317 -0.2859417
-0.26684305 -0.15153097 -0.13527031 0.02675281 -0.2567699 -0.19668013 -0.22358358 -0.01941388
0.040016674 -0.10772752 -0.06590005 -0.22533205 -0.13623609 0.07868768 -0.27560964 -0.124666885
-0.025626147 -0.10182162 -0.16782583 -0.03850452 0.050665546 -0.05448541 -0.14725842 -0.095107734
00000000: f327 2bbe 44f8 32be 4208 813b be4b f5bd
00000010: 2cca 09be 26b4 61be f0bc 35be beb9 41be
00000020: ca17 5dbd f4f8 61bd fa43 6fbe 9650 e03c
00000030: cf02 94bc b2f6 f9bd 3816 233c 28eb 66bc
00000040: 5129 53be 91e3 a7bd 71e4 aebd 8d23 34be
00000050: a691 1a3d 9922 adbc 8882 cfbc 451e 74bd
00000060: 59e4 5bbd 45a9 63bd 3aec 7e3d fa6b 90bd
00000070: cf7c d9bd 0767 7e3a 3af4 e73a 3df0 11be
00000080: a25e 97bd e7be a7bd b734 dbbc 5ba4 dcbd
00000090: 6b18 c53c 55b3 15bd 9093 bfbd f366 92be
000000a0: a79f 88be ef2a 1bbe 4d84 0abe b628 db3c
000000b0: 5877 83be 8466 49be 18f3 64be db09 9fbc
000000c0: 86e8 233d 3fa0 dcbd 9bf6 86bd 72bd 66be
000000d0: 7981 0bbe 0227 a13d b51c 8dbe 5a51 ffbd
000000e0: eded d1bc da87 d0bd 89da 2bbe eab6 1dbd
000000f0: ad86 4f3d 182c 5fbd e9ca 16be d8c7 c2bd

ae.encoder.bn02.running_mean f4 [64]
0.017260859 -0.07552785 -0.885693 -0.36021796 0.54236215 0.08310505 0.48504275 -0.25501144
-0.6859099 0.06570285 -0.5442319 -0.2029872 -1.2005956 -0.57637006 0.9298107 -0.019357715
0.009522902 -0.102661036 0.70658517 -0.14223082 0.28988838 -0.18015076 0.61897635 0.0033234218
0.7362132 -0.021981742 -1.3954688 -0.6050959 -1.112435 -0.94845533 1.1021371 1.0363029
1.0081104 -0.33076057 -0.6222099 0.3255344 -1.3093967 -0.6314338 -0.5794211 -0.17700604
0.7867229 -0.48075134 0.053456295 -0.12110882 0.3498351 -0.28704593 -0.4227049 -0.1525071
0.01098784 -0.07550767 -0.37282676 0.22958374 0.1061623 -1.4839399 -0.15509972 0.60425407
-1.5152462 -0.36910725 -0.27872264 -0.6618726 -1.1524267 0.9856513 -0.2476339 -0.5853463
00000000: a566 8d3c 58ae 9abd c7bc 62bf 7d6e b8be
00000010: 3fd8 0a3f fb32 aa3d 8657 f83e dc90 82be
00000020: cb97 2fbf 378f 863d c852 0bbf e0db 4fbe
00000030: 1ead 99bf fd8c 13bf 1308 6e3f 1294 9ebc
00000040: f205 1c3c f33f d2bd c4e2 343f f5a4 11be
00000050: 406c 943e 7179 38be 3c75 1e3f c4cd 593b
00000060: 7878 3c3f 0e13 b4bc b99e b2bf 91e7 1abf
00000070: 4564 8ebf f8cd 72bf d412 8d3f 93a5 843f
00000080: c309 813f 7359 a9be 2649 1fbf 72ac a63e
00000090: 509a a7bf a5a5 21bf f154 14bf 1241 35be
000000a0: ac66 493f 0a25 f6be fdf4 5a3d e707 f8bd
000000b0: 961d b33e aff7 92be c76c d8be d22a 1cbe
000000c0: 5706 343c c4a3 9abd 26e3 bebe 0018 6b3e
000000d0: 9f6b d93d bef1 bdbf 76d2 1ebe 65b0 1a3f
000000e0: 96f3 c1bf a0fb bcbe bcb4 8ebe 7c70 29bf
000000f0: b882 93bf a553 7c3f be93 7dbe 41d9 15bf

ae.encoder.bn02.running_var f4 [64]
0.41789743 2.664903 2.0621085 1.0015155 1.1648104 1.3040496 1.2175308 0.95450616
1.8766124 2.691289 0.95267105 0.85653436 2.5872827 1.8404434 3.0394337 2.8444371
0.50006247 3.2386274 1.8206044 0.42939913 4.0002255 3.9822187 2.4370196 2.1553078
3.230807 2.067717 3.5273807 3.142159 0.8728669 1.1135015 0.8651933 1.6041497
2.7611125 2.5180595 1.606634 0.830007 4.7404404 3.400479 1.2568913 0.27366138
1.0278821 0.83675 0.8541897 2.4920454 0.37193418 0.38468602 2.291079 2.7313178
3.1263309 1.4406298 1.081068 0.37937355 0.71492213 1.4202186 0.35708016 0.71588725
1.6949093 0.96771944 0.5657023 0.860431 5.464609 1.9629312 0.39023507 2.1474066
00000000: a7f6 d53e c58d 2a40 96f9 0340 a931 803f
00000010: 8218 953f 19eb a63f 0dd8 9b3f 845a 743f
00000020: d634 f03f 143e 2c40 40e2 733f d645 5b3f
00000030: 0a96 2540 a693 eb3f 1586 4240 420b 3640
00000040: 1804 003f ac45 4f40 9109 e93f 34da db3e
00000050: d901 8040 acdc 7e40 21f8 1b40 90f0 0940
00000060: 8bc5 4e40 7a55 0440 9bc0 6140 2219 4940
00000070: 3574 5f3f 3887 8e3f 4f7d 5d3f c754 cd3f
00000080: 11b6 3040 e327 2140 2fa6 cd3f 577b 543f
00000090: b0b1 9740 73a1 5940 d0e1 a03f 581d 8c3e
000000a0: a491 833f 3f35 563f 2dac 5a3f ac7d 1f40
000000b0: 286e be3e 91f5 c43e 0aa1 1240 e9cd 2e40
000000c0: ce15 4840 8f66 b83f 7060 8a3f 403d c23e
000000d0: 2305 373f b9c9 b53f 36d3 b63e 6344 373f
000000e0: caf2 d83f 76bc 773f ded1 103f 3545 5c3f
000000f0: 14de ae40 5441 fb3f e4cc c73e 1c6f 0940

ae.encoder.cov03.weight f4 [32, 64, 3, 3]
-0.14118545 0.12125418 -0.0952297 -0.1045694 -0.082829304 0.065776564 -0.039309923 0.15366757
-0.080557086 0.03930818 0.032730896 -0.005871339 -0.17463553 -0.03432419 0.013319167 -0.08132212
-0.073945306 -0.08898083 -0.010395261 0.022167753 -0.07254534 -0.12879853 0.047366653 0.1342778
0.16128124 0.12240559 0.06431094 0.03402015 0.093302414 0.014142054 -0.0014027065 0.05004122
0.047679655 0.046205472 -0.11192095 0.10754023 0.005803535 0.021813868 0.029365504 0.046810407
0.12807605 0.13295095 0.00011610932 -0.08109278 0.019166019 -0.13267969 0.057076655 -0.030596513
-0.093677975 0.0702431 -0.19311059 0.036255065 -0.28812042 -0.16053158 -0.006963213 0.070811175
-0.039551813 0.06065452 0.023719255 0.008283766 0.039740827 0.08007597 0.0033517845 -0.04011441
-0.112734176 -0.026565995 -0.11110243 -0.21532094 -0.028600574 -0.11127128 -0.13289662 0.0029847405
0.035692647 0.000979719 0.054705616 -0.03954122 0.042624567 -0.107721865 -0.005425367 -0.1682978
0.0899981 0.013148614 0.1184904 -0.10651114 0.106489256 0.062234245 -0.00056683563 -0.053388566
-0.04816752 -0.00036096247 0.09845507 -0.055675223 0.0814707 -0.02420464 -0.01944163 0.004349329
0.06928491 0.06867541 0.1756086 0.023215253 -0.10743254 -0.06190918 -0.06834454 -0.002774424
-0.04115072 0.09106019 -0.055624813 -0.044962976 0.096973345 -0.035625324 -0.10512657 -0.10782527
-0.09791336 -0.05118765 -0.0472596 0.061340436 -0.09476457 -0.05004067 0.051971532 0.09550406
0.015397664 -0.05083687 -0.06792009 -0.007284829 -0.10530553 0.10201363 -0.08076839 -0.1229324
-0.007636197 -0.12955345 0.110757895 -0.122284524 0.019109588 -0.07995707 0.026956836 0.024619699
-0.009198686 0.016702045 -0.034990404 -0.21661727 -0.12812221 -0.09342132 -0.10405111 -0.019859135
-0.012746437 0.04626919 -0.023057649 0.014343002 -0.032269347 -0.13309559 0.008362765 -0.016178321
-0.040728107 -0.04442515 -0.07572588 0.014824112 0.14377385 0.088164724 0.076985545 -0.1618567
-0.11352283 -0.15862386 -0.21605195 -0.1808294 -0.28357136 -0.12225785 -0.05879716 -0.09708498
-0.034248553 -0.19776563 -0.2460862 -0.11972433 -0.05057583 -0.09000879 -0.11056734 -0.016608011
-0.06289656 0.05880018 -0.088644795 -0.053664953 -0.04226812 0.030437445 -0.08541892 -0.11691498
-0.042875227 -0.14906938 -0.099589996 -0.031342547 -0.16187164 0.056073494 0.029936807 0.1000989
-0.09470486 0.0245855 0.04049835 0.07503715 -0.04236699 -0.020784328 0.047779936 0.0757802
0.053670336 0.066151395 0.0070740795 0.0029323462 0.15706465 0.04038039 -0.03689752 0.015760858
-0.08845347 0.05360694 0.03285833 -0.088498175 0.025437176 0.01780907 -0.057180516 0.00726757
-0.033448 -0.006326885 -0.048620068 0.03565335 0.09395578 -0.05955493 0.03014638 0.03390864
0.08349034 -0.010128592 -0.09309449 -0.04810111 -0.13265969 0.022322373 -0.10619052 -0.06868862
-0.09046031 -0.026295247 0.20148611 0.08986435 0.040790137 -0.0348636 -0.0666913 0.08217796
0.021743644 -0.13211417 0.044943243 -0.015122448 -0.045126587 -0.13869892 0.04496963 -0.09409596
-0.23348361 -0.07991967 -0.17288582 -0.18291438 -0.03805829 -0.18452765 -0.040608916 -0.11044864
00000000: eb92 10be 1d54 f83d ca07 c3bd 7b28 d6bd
00000010: 69a2 a9bd ddb5 863d 7103 21bd 085b 1d3e
00000020: 1dfb a4bd 9d01 213d d510 063d 5c64 c0bb
00000030: a8d3 32be 8697 0cbd a338 5a3c 368c a6bd
00000040: a370 97bd 953b b6bd e350 2abc 2699 b53c
00000050: a792 94bd c3e3 03be 8903 423d 1f80 093e
00000060: e926 253e c8af fa3d 74b5 833d b658 0b3d
00000070: 5615 bf3d 13b4 673c 05db b7ba 06f8 4c3d
00000080: be4b 433d f341 3d3d d036 e5bd 0d3e dc3d
00000090: 952b be3b ffb2 b23c ed8f f03c 45bc 3f3d
000000a0: 5e26 033e 4b24 083e b77f f338 f913 a6bd
000000b0: 0e02 9d3c 2fdd 07be 36c9 693d 8aa5 fabc
000000c0: 3dda bfbd 9ddb 8f3d c8be 45be 3180 143d
000000d0: 8584 93be 6462 24be aa2b e4bb 7305 913d
000000e0: 1501 22bd e070 783d e24e c23c a2b8 073c
000000f0: 47c7 223d dffe a33d 9da9 5b3b 024f 24bd
00000100: 2de1 e6bd eea0 d9bc ac89 e3bd 187d 5cbe
00000110: c04b eabc 32e2 e3bd 0d16 08be a39b 433b
00000120: 7432 123d ea69 803a ff12 603d f9f5 21bd
00000130: 1997 2e3d 489d dcbd 47c7 b1bb 4256 2cbe
00000140: ed50 b83d 496d 573c 18ab f23d 8322 dabd
00000150: 0a17 da3d 56e9 7e3d b297 14ba f8ad 5abd
00000160: 4e4b 45bd 903f bdb9 d0a2 c93d b40b 64bd
00000170: 1cda a63d cf48 c6bc 0e44 9fbc d184 8e3b
00000180: 3fe5 8d3d b1a5 8c3d bed2 333e ea2d be3c
00000190: 9705 dcbd 7b94 7dbd 39f8 8bbd 1cd3 35bb
000001a0: a88d 28bd c47d ba3d d8d6 63bd 192b 38bd
000001b0: f699 c63d dceb 11bd 994c d7bd 7fd3 dcbd
000001c0: cd86 c8bd 24aa 51bd 4893 41bd 1c40 7b3d
000001d0: ed13 c2bd 72f7 4cbd 1ae0 543d a297 c33d
000001e0: 7c46 7c3c 523a 50bd b019 8bbd 93b5 eebb
000001f0: 6daa d7bd 86ec d03d e669 a5bd fbc3 fbbd
00000200: 1039 fabb a9a9 04be 09d5 e23d 4f70 fabd
00000210: b68b 9c3c 88c0 a3bd 95d4 dc3c 40af c93c
00000220: 16b6 16bc bad2 883c 1952 0fbd ebd0 5dbe
00000230: 7832 03be ad53 bfbd c018 d5bd a0af a2bc
00000240: 6fd6 50bc c384 3d3d 65e3 bcbc e9fe 6a3c
00000250: dd2c 04bd 364a 08be fb03 093c 6688 84bc
00000260: 84d2 26bd 25f7 35bd 2c16 9bbd d5e0 723c
00000270: 7439 133e b58f b43d 99aa 9d3d c3bd 25be
00000280: a87e e8bd 4b6e 22be b93c 5dbe 582b 39be
00000290: 4430 91be 5362 fabd 4ad5 70bd 7dd4 c6bd
000002a0: 3648 0cbd 1383 4abe 05fe 7bbe 0832 f5bd
000002b0: 9a28 4fbd 8756 b8bd 2171 e2bd 860d 88bc
000002c0: e9cf 80bd 75d8 703d 678b b5bd c8cf 5bbd
000002d0: 5621 2dbd f357 f93c 1df0 aebd 1f71 efbd
000002e0: ef9d 2fbd a5a5 18be d7f5 cbbd 0b61 00bd
000002f0: aec1 25be 52ad 653d 093e f53c a700 cd3d
00000300: 9ff4 c1bd 8867 c93c 99e1 253d 14ad 993d
00000310: 0289 2dbd e543 aabc e5b4 433d a632 9b3d
00000320: 6dd5 5b3d 627a 873d aecd e73b 9b2c 403b
00000330: 8ed5 203e e865 253d db21 17bd ea1c 813c
00000340: 1827 b5bd f392 5b3d 7596 063d 883e b5bd
00000350: a061 d03c 54e4 913c 1e36 6abd cc24 ee3b
00000360: c500 09bd c251 cfbb d625 47bd 3f09 123d
00000370: e36b c03d dfef 73bd 8bf5 f63c c9e3 0a3d
00000380: fcfc aa3d 65f2 25bc 53a8 bebd ab05 45bd
00000390: f1d7 07be 69dd b63c 6a7a d9bd 9fac 8cbd
000003a0: 4143 b9bd 2169 d7bc 6052 4e3e cd0a b83d
000003b0: 8f13 273d 22cd 0ebd 7395 88bd eb4c a83d
000003c0: ba1f b23c f048 07be 6816 383d 25c4 77bc
000003d0: a8d6 38bd 1707 0ebe 1332 383d 62b5 c0bd
000003e0: 5416 6fbe edac a3bd fb08 31be e84d 3bbe
000003f0: 02e3 1bbd d1f4 3cbe 8955 26bd e632 e2bd

ae.encoder.cov03.bias f4 [32]
0.006871282 0.0023039104 0.042247497 0.023575598 0.0011166906 0.0030084345 0.041468117 0.073708564
0.051631924 0.0055828826 0.044901654 0.0026213136 0.0036069173 0.02059074 0.0015904248 0.010115511
0.040795647 0.004363057 0.004133062 0.046587374 0.027736228 0.00085612625 0.00024009903 0.0471159
0.010851896 -4.859602e-05 -0.0005224932 0.04031958 -0.00050735445 -0.0010161153 0.0045885406 0.00351324
00000000: 7e28 e13b 34fd 163b b60b 2d3d 9d21 c13c
00000010: eb5d 923a 2829 453b 79da 293d 84f4 963d
00000020: ff7b 533d 9df0 b63b ccea 373d 58ca 2b3b
00000030: 0862 6c3b e9ad a83c cd75 d03a 87bb 253c
00000040: 5619 273d faf7 8e3b a36e 873b 67d2 3e3d
00000050: 1637 e33c a96d 603a 18c3 7b39 9afc 403d
00000060: 27cc 313c 94d3 4bb8 edf7 08ba 2526 253d
00000070: fbff 04ba 2c2f 85ba 785b 963b 633e 663b

ae.encoder.bn03.weight f4 [32]
0.8743829 0.6795972 0.77567047 0.70322615 0.80475813 0.76403815 1.0956453 0.6334382
0.7955614 0.7993643 1.0139246 0.7098673 0.75777346 0.66241354 1.0426549 0.8803108
1.1201155 0.7619358 0.7672512 0.86036193 0.9164645 0.8480499 1.0227947 0.73619586
0.84278595 1.07037 0.7922082 0.98454905 1.0127971 0.79871356 0.81964886 0.6213899
00000000: 8fd7 5f3f 15fa 2d3f 5792 463f a106 343f
00000010: a104 4e3f 0198 433f 1b3e 8c3f 0229 223f
00000020: e9a9 4b3f 24a3 4c3f 48c8 813f ddb9 353f
00000030: 71fd 413f ef93 293f b775 853f 0c5c 613f
00000040: f25f 8f3f 390e 433f 936a 443f ae40 5c3f
00000050: 6b9d 6a3f cc19 593f f0ea 823f 5577 3c3f
00000060: d2c0 573f e201 893f 28ce 4a3f 680b 7c3f
00000070: 56a3 813f 7e78 4c3f 82d4 513f 6913 1f3f

ae.encoder.bn03.bias f4 [32]
-0.17326875 -0.220247 -0.5077975 -0.47654593 -0.049438484 -0.16238204 -0.51654524 -0.5912722
-0.4984343 -0.18224193 -0.4639518 -0.13930808 -0.077674605 -0.33029568 -0.04813012 -0.29752165
-0.5170777 -0.17478168 -0.24955775 -0.56879044 -0.44882232 -0.22985898 -0.029765753 -0.56537354
-0.261434 -0.04157507 -0.16278477 -0.52231705 -0.05519469 -0.1527072 -0.22988802 -0.2697856
00000000: 5d6d 31be 6e88 61be 04ff 01bf d4fd f3be
00000010: 0280 4abd 7a47 26be 4f3c 04bf 9d5d 17bf
00000020: c832 ffbe a19d 3abe 178b edbe c7a6 0ebe
00000030: dd13 9fbd 841c a9be 1724 45bd c254 98be
00000040: 345f 04bf f8f9 32be 118c 7fbe 409c 11bf
00000050: 0acc e5be 2760 6bbe 4fd7 f3bc 52bc 10bf
00000060: adda 85be 9f4a 2abd 0db1 26be 92b6 05bf
00000070: d413 62bd 475f 1cbe c467 6bbe 5721 8abe

ae.encoder.bn03.running_mean f4 [32]
-0.92347884 -1.6103022 0.05122108 -0.092904635 0.6274173 -1.0934252 -0.059577636 -0.46222275
0.09041876 -1.6841117 0.07390731 -1.9814153 -0.23622605 -1.0052046 0.6084249 -1.6639761
0.025280857 -1.5370823 -1.4580474 -0.26854235 0.10689041 -2.3865068 0.7933833 0.5414723
-2.140442 0.8860237 -0.72037864 0.34076905 0.59077126 -1.2316306 -1.3407698 -2.2941067
00000000: 1c69 6cbf 621e cebf 32cd 513d c944 bebd
00000010: 6c9e 203f 5bf5 8bbf ae07 74bd 76a8 ecbe
00000020: 792d b93d f990 d7bf b75c 973d 049f fdbf
00000030: 3ee5 71be 8baa 80bf bcc1 1b3f 2bfd d4bf
00000040: cd19 cf3c 1dbf c4bf 4ca1 babf 627e 89be
00000050: 5ce9 da3d 87bc 18c0 2b1b 4b3f ee9d 0a3f
00000060: 00fd 08c0 73d2 623f bc6a 38bf 4879 ae3e
00000070: c93c 173f 12a6 9dbf 589e abbf a5d2 12c0

ae.encoder.bn03.running_var f4 [32]
33.033268 18.847397 0.66982585 1.4835306 24.449108 46.838295 1.4859587 0.53165597
0.5031575 83.07909 1.3285537 90.17637 20.52678 12.0019245 23.633495 22.12609
1.281327 31.870785 21.725658 0.76545787 1.3508329 96.79694 31.379602 0.36389232
40.49748 39.304462 26.392084 0.79297173 28.998817 42.438778 52.74354 22.885164
00000000: 1122 0442 78c7 9641 b579 2b3f 55e4 bd3f
00000010: c697 c341 6a5a 3b42 e533 be3f 9b1a 083f
00000020: eece 003f 7e28 a642 0c0e aa3f 4d5a b442
00000030: d836 a441 e207 4041 6611 bd41 3b02 b141
00000040: 8602 a43f 5ef7 fe41 26ce ad41 0cf5 433f
00000050: 18e8 ac3f 0998 c142 6d09 fb41 1850 ba3e
00000060: 6bfd 2142 c537 1d42 fd22 d341 3200 4b3f
00000070: 94fd e741 4fc1 2942 63f9 5242 d114 b741

ae.decoder.tr04.weight f4 [32, 64, 3, 3]
-0.037051305 0.027046919 0.01995921 0.030339668 -0.012642714 -0.03324127 -0.041994017 -0.11803055
-0.040399715 0.06587322 0.11010991 -0.13779725 -0.1241426 0.04224246 0.0311834 -0.04701297
0.057629302 -0.025042268 -0.016723104 -0.029105728 0.16481914 -0.044154532 0.10803748 -0.045827772
0.10726162 -0.011990592 -0.0071926196 -0.16483279 -0.17659381 0.017135087 -0.10658233 0.0026444334
-0.13557692 -0.05826406 -0.018400297 0.04610367 0.055881377 -0.091662906 -0.062886424 0.09904852
-0.062968045 -0.079847835 0.023683175 0.09688002 -0.035206433 0.040823665 0.06622416 -0.050855175
-0.082949236 -0.033132043 -0.0028787127 -0.021254284 -0.119195566 0.00077315315 0.027119007 0.0020154514
-0.030169193 -0.024119643 -0.0029232167 -0.05428977 0.17130943 0.10992929 0.17016898 0.055025343
0.016396826 -0.04772617 0.09855348 -0.07476987 -0.08135825 0.018543603 0.04479905 -0.14420913
0.049997266 0.06726598 0.038126264 -0.024519289 0.10893269 -0.12392991 0.056139223 0.043761138
0.032640006 -0.0048427787 0.034994744 -0.0047962493 0.076303095 0.027848445 -0.004092223 -0.0065621603
-0.26205528 0.013162004 0.13864474 0.10137341 -0.031538077 -0.0727909 0.024701402 0.04925414
0.03311891 0.021193435 -0.10086558 -0.05665356 -0.042477515 0.023200858 0.057295516 -0.031918194
0.024596676 0.11243471 -0.0007238342 -0.06490555 -0.10044228 0.02739411 0.00053566205 -0.027062148
0.016834948 -0.049344707 -0.21073838 -0.121747114 -0.12458308 0.010871883 0.024169177 0.001324266
-0.10676606 0.059658088 0.035674445 0.009010599 0.19383259 -0.08290352 -0.010738189 0.08239663
-0.03541401 0.11098125 -0.1397104 0.05110955 -0.011972131 0.050837334 0.10314284 -0.007190702
-0.065276965 -0.06665811 0.047537647 -0.0829681 -0.049989715 -0.065185376 -0.23132312 -0.034367006
-0.08121939 0.054532185 -0.22820443 -0.19296685 -0.16650152 -0.279522 -0.14260286 0.086040825
-0.13607608 -0.017877808 0.059006125 -0.010785461 -0.011509213 -0.10410973 -0.07535945 0.05728419
-0.15365967 -0.09343471 -0.2221419 0.019406645 -0.18835913 0.026759662 -0.0442004 -0.09550443
-0.022233987 -0.07932602 0.09199357 0.0014481685 0.074740104 0.17024975 -0.0089174425 -0.032640122
-0.06293079 0.05071066 -0.060830228 -0.08573235 0.07101321 -0.016894216 0.03573705 -0.007092431
0.10937684 -0.009101342 0.11683013 -0.015641969 -0.017392881 0.0106460955 -0.030576266 -0.2592237
-0.005914471 0.057916343 -0.022962846 -0.06385541 0.08498621 -0.086903974 0.014388575 0.007538316
-0.044306938 -0.056350406 0.05205107 0.10303772 0.065326236 0.07479425 0.004073491 0.035149083
-0.07698016 -0.0071457424 0.044041947 -0.11439479 -0.05971162 -0.17799409 0.022510402 -0.03370466
0.015804198 -0.07551722 -0.024562953 0.11967771 -0.108678855 -0.09828647 -0.023848472 -0.14125638
-0.09235854 0.07170532 -0.01717113 -0.035146 -0.10839443 0.11924273 0.13559692 0.13504997
0.17299588 0.237072 -0.1872157 -0.13930494 -0.061318506 -0.18402666 -0.06615699 -0.05114475
0.069693886 0.16209604 -0.057491552 0.027394399 0.0019321797 -0.031774722 0.013186706 -0.18603198
-0.014402903 -0.14163439 0.042432018 0.0098310225 -0.027006645 0.030395381 -0.078215614 -0.06583141
00000000: 1cc3 17bd 8091 dd3c 7f81 a33c e58a f83c
00000010: 6323 4fbc ff27 08bd eb01 2cbd 00ba f1bd
00000020: 2c7a 25bd 8ae8 863d 4e81 e13d b91a 0dbe
00000030: 7a3e febd 6e06 2d3d 5474 ff3c ac90 40bd
00000040: b40c 6c3d 7125 cdbc e4fe 88bc 236f eebc
00000050: 59c6 283e 62db 34bd c142 dd3d e7b5 3bbd
00000060: fbab db3d 3074 44bc 11b0 ebbb edc9 28be
00000070: 02d5 34be e25e 8c3c d647 dabd 3b4e 2d3b
00000080: add4 0abe 4ca6 6ebd 38bc 96bc 34d7 3c3d
00000090: dfe3 643d c3b9 bbbd 99ca 80bd f3d9 ca3d
000000a0: 64f5 80bd 4387 a3bd 3803 c23c 0869 c63d
000000b0: 9f34 10bd b736 273d 88a0 873d 844d 50bd
000000c0: 4ae1 a9bd 77b5 07bd c9a8 3cbb 771d aebc
000000d0: ce1c f4bd 6ead 4a3a ae28 de3c aa15 043b
000000e0: 6225 f7bc 8f96 c5bc 7093 3fbb f35e 5ebd
000000f0: bd6b 2f3e 9c22 e13d c740 2e3e 4162 613d
00000100: a352 863c 847c 43bd 68d6 c93d f220 99bd
00000110: 279f a6bd c1e8 973c 357f 373d 8fab 13be
00000120: efc9 4c3d bfc2 893d 492a 1c3d addc c8bc
00000130: 1a18 df3d f7ce fdbd 3ef2 653d e13e 333d
00000140: 87b1 053d 2cb0 9ebb a656 0f3d db29 9dbb
00000150: cc44 9c3d 6c22 e43c 0e18 86bb 6407 d7bb
00000160: 1c2c 86be 72a5 573c e3f8 0d3e dd9c cf3d
00000170: 122e 01bd 6513 95bd 985a ca3c b6be 493d
00000180: b2a7 073d db9d ad3c 9d92 cebd 900d 68bd
00000190: e7fc 2dbd ba0f be3c b4ae 6a3d a7bc 02bd
000001a0: f87e c93c 2b44 e63d b1bf 3dba 33ed 84bd
000001b0: afb4 cdbd 9d69 e03c ac6b 0c3a 70b1 ddbc
000001c0: 72e9 893c ad1d 4abd cdcb 57be 8d56 f9bd
000001d0: 6a25 ffbd fb1f 323c 70fe c53c fe92 ad3a
000001e0: 2aa8 dabd 0a5c 743d 5e1f 123d 31a1 133c
000001f0: 0d7c 463e 52c9 a9bd 3bef 2fbc 90bf a83d
00000200: 480e 11bd 234a e33d 3e10 0fbe 3f58 513d
00000210: c226 44bc cf3a 503d 8e3c d33d fb9f ebbb
00000220: eeaf 85bd 0c84 88bd d6b6 423d 2eeb a9bd
00000230: 04c2 4cbd e97f 85bd f8df 6cbe 6bc4 0cbd
00000240: 5a56 a6bd 245d 5f3d 6cae 69be 1a99 45be
00000250: 607f 2abe 821d 8fbe 7c06 12be 2c36 b03d
00000260: 8757 0bbe 7b74 92bc 68b0 713d 81b5 30bc
00000270: 2391 3cbc 7b37 d5bd 0e56 9abd d4a2 6a3d
00000280: f658 1dbe b25a bfbd 2b79 63be affa 9e3c
00000290: 37e1 40be 1437 db3c 7b0b 35bd d497 c3bd
000002a0: 0d24 b6bc ae75 a2bd 2067 bc3d 79d0 bd3a
000002b0: 5711 993d f355 2e3e 771a 12bc a6b1 05bd
000002c0: dce1 80bd fbb5 4f3d 1e29 79bd 7194 afbd
000002d0: 606f 913d bd65 8abc 0361 123d a067 e8bb
000002e0: f700 e03d cc1d 15bc a344 ef3d 9623 80bc
000002f0: 847b 8ebc f66c 2e3c 147b fabc f8b8 84be
00000300: 2ece c1bb b039 6d3d 941c bcbc a0c6 82bd
00000310: 400d ae3d b6fa b1bd 0fbe 6b3c fa03 f73b
00000320: 317b 35bd afcf 66bd 8133 553d 7105 d33d
00000330: c3c9 853d ba2d 993d eb7a 853b 7cf8 0f3d
00000340: c6a7 9dbd d526 eabb 5465 343d d147 eabd
00000350: 2c94 74bd 1544 36be bc67 b83c e60d 0abd
00000360: ce77 813c c6a8 9abd 3f38 c9bc 9619 f53d
00000370: 0593 debd 6b4a c9bd df5d c3bc 83a5 10be
00000380: 7926 bdbd 3dda 923d 78aa 8cbc 41f5 0fbd
00000390: e6fd ddbd 8835 f43d ebd9 0a3e 8a4a 0a3e
000003a0: d525 313e 01c3 723e 79b5 3fbe f4a5 0ebe
000003b0: 1d29 7bbd 7c71 3cbe 517d 87bd 287d 51bd
000003c0: abbb 8e3d 81fc 253e 437c 6bbd 386a e03c
000003d0: 3141 fd3a 3626 02bd 0e0d 583c 2b7f 3ebe
000003e0: 27fa 6bbc 9b08 11be 32cd 2d3d 4c12 213c
000003f0: 0a3d ddbc bcff f83c 822f a0bd 9ed2 86bd

ae.decoder.tr04.bias f4 [64]
-0.0019163175 0.00012309288 -0.00018371058 -0.00025178815 0.0003236404 -0.00019977307 -3.764673e-05 0.00014348961
0.00029511194 8.462568e-05 -0.00019953103 0.00046433407 0.0001577125 -3.4948538e-05 4.7191807e-06 0.00022710385
0.0014223307 -0.0002309209 -0.000780242 4.2336324e-05 -0.00026821604 -0.00021498317 7.6730306e-05 -0.0004979686
0.00012816337 0.00012798145 0.00025313016 -0.00016926188 6.8582056e-05 -0.00030938032 -0.0008677909 0.00011866376
-0.00023986526 -0.0003246371 0.00011575009 0.0005152737 0.000111238216 0.00018434743 0.00048583755 0.00021464338
0.00031467635 0.00013071387 -3.397448e-05 -0.00029483804 0.00046613815 8.7891785e-05 -6.0964834e-05 -0.00060961815
-0.00019536898 -0.00079521566 -0.0007881159 -0.000893771 -0.0029323564 -0.00063068053 -4.777458e-05 0.00026608194
0.0013303728 -0.0004190192 -2.788649e-05 0.0020215956 4.87131e-05 -0.00043350743 0.0016151287 0.0008450171
00000000: f22c fbba 7e12 0139 6fa2 40b9 6f02 84b9
00000010: 47ae a939 2d7a 51b9 dee6 1db8 b375 1639
00000020: 41b9 9a39 1179 b138 3439 51b9 dd71 f339
00000030: a05f 2539 b595 12b8 7459 9e36 ba22 6e39
00000040: 806d ba3a 5b23 72b9 2789 4cba 4892 3138
00000050: 599f 8cb9 1b6d 61b9 45ea a038 1b8a 02ba
00000060: 9863 0639 c232 0639 8eb6 8439 e47b 31b9
00000070: b6d3 8f38 5334 a2b9 767c 63ba 1fdb f838
00000080: 5784 7bb9 0e34 aab9 dbbe f238 6f13 073a
00000090: 9048 e938 634d 4139 03b8 fe39 e511 6139
000000a0: 25fb a439 3d10 0939 d27f 0eb8 7e94 9ab9
000000b0: 0164 f439 8b52 b838 7eb4 7fb8 c8ce 1fba
000000c0: f6db 4cb9 0576 50ba 9099 4eba f54b 6aba
000000d0: c72c 40bb 4154 25ba 9161 48b8 ea80 8b39
000000e0: e75f ae3a ceaf dbb9 c8ed e9b7 bf7c 043b
000000f0: 4b51 4c38 6248 e3b9 bab2 d33a 2384 5d3a

ae.decoder.rbn4.weight f4 [64]
1.0227067 1.0418994 1.0344124 1.0078027 1.0072498 1.003178 1.0138171 1.0032353
1.0076147 0.9935272 0.9792665 0.98668 0.9713583 0.98285586 0.983153 0.98194575
1.0266092 0.984765 1.0109323 0.9790819 0.9868919 0.99616706 0.9853345 1.0292296
0.98762864 1.0305732 1.0190798 0.9775872 1.019233 0.9645341 0.9873323 0.9839749
0.99867284 1.0388374 1.0010338 1.0045645 1.0173006 0.9677419 1.0231341 0.9766922
0.9735795 1.0041511 0.99501026 1.0114429 1.0148586 1.0349318 0.99058753 0.9893527
1.0222052 0.99954295 1.0316592 0.9565525 1.0193257 1.0168514 0.9710799 0.9999213
1.0036144 0.98939794 1.0169764 0.9895035 0.9839313 1.0460563 1.0147182 0.9678835
00000000: 0ee8 823f f65c 853f a067 843f aeff 803f
00000010: 90ed 803f 2368 803f c2c4 813f 046a 803f
00000020: 85f9 803f cc57 7e3f 36b1 7a3f 0f97 7c3f
00000030: f0aa 783f 719c 7b3f eaaf 7b3f cc60 7b3f
00000040: ee67 833f 8f19 7c3f 3b66 813f 1da5 7a3f
00000050: f3a4 7c3f ce04 7f3f e23e 7c3f ccbd 833f
00000060: 3bd5 7c3f d3e9 833f 3571 823f 2843 7a3f
00000070: 3a76 823f b5eb 763f cfc1 7c3f c7e5 7b3f
00000080: 06a9 7f3f a0f8 843f e021 803f 9295 803f
00000090: e836 823f efbd 773f 0ff6 823f 8008 7a3f
000000a0: 823c 793f 0688 803f feb8 7e3f f676 813f
000000b0: e3e6 813f a578 843f 2597 7d3f 3846 7d3f
000000c0: 9fd7 823f 0ce2 7f3f 690d 843f a0e0 743f
000000d0: 4479 823f 3028 823f b198 783f d8fa 7f3f
000000e0: 7076 803f 2f49 7d3f 482c 823f 1a50 7d3f
000000f0: ece2 7b3f 2ce5 853f 49e2 813f 37c7 773f

ae.decoder.rbn4.bias f4 [64]
0.011911068 -0.0315904 0.11613768 0.07940181 0.017981732 0.0058035036 -0.003985786 0.08534503
-0.036584686 0.008480374 -0.09454577 -0.042492796 -0.04773743 -0.058204833 -0.030959807 -0.02675599
0.017189814 0.01804994 0.10676184 -0.029989798 -0.008852567 0.024285272 -0.06487518 0.21201478
-0.08004138 0.048152998 -0.010020299 0.0276642 -0.020209525 0.0340503 0.08610975 -0.055374365
0.02395627 0.21981351 0.14075741 -0.062012516 0.004743061 -0.059405893 0.03943481 -0.018827228
0.010958112 0.053195264 -0.005784398 -0.0013178311 0.06958131 0.036645282 0.059022345 0.06357518
0.012863362 -0.013469643 0.068437025 0.02248834 -0.06447437 0.09061104 0.06196897 0.05256932
0.06958751 0.019195119 0.046972122 -0.011100857 -0.019363414 0.022121048 -0.018638806 -0.07825607
00000000: a426 433c ef64 01bd 98d9 ed3d 6b9d a23d
00000010: 6d4e 933c 512b be3b 329b 82bb 60c9 ae3d
00000020: d3d9 15bd 44f1 0a3c 36a1 c1bd ed0c 2ebd
00000030: 5388 43bd 3168 6ebd 6c9f fdbc 612f dbbc
00000040: a7d1 8c3c 78dd 933c f4a5 da3d 2aad f5bc
00000050: 5b0a 11bc e8f1 c63c 47dd 84bd 671a 593e
00000060: bcec a3bd 143c 453d 2e2c 24bc 08a0 e23c
00000070: 728e a5bc 5478 0b3d 4f5a b03d 3bd0 62bd
00000080: f13f c43c cb16 613e b622 103e d600 7ebd
00000090: ae6b 9b3b 9853 73bd 6586 213d 8f3b 9abc
000000a0: a789 333c 47e3 593d 0c8b bdbb 13bb acba
000000b0: a580 8e3d 5d19 163d 6ac1 713d b433 823d
000000c0: dac0 523c c7af 5cbc b628 8c3d 7839 b83c
000000d0: 230b 84bd 4892 b93d 2dd3 7d3d ed52 573d
000000e0: e583 8e3d 153f 9d3c d765 403d 5ee0 35bc
000000f0: 06a0 9ebc 3337 b53c 69b0 98bc b844 a0bd
