checkpoint/teacher_checkpoint.pt (torch, 535794 bytes, 32 tensors)

ae.encoder.cov01.weight f4 [64, 144, 1, 1]
000000 45 61 47 be de ab 0d 3e 53 4a 48 bd 36 7f 51 3d
       -0.19470699 0.13835093 -0.048899006 0.05114671
000010 7f 2d 3e 3e a7 fb 22 bd dd 43 33 3e 28 98 0c bd
       0.18572043 -0.039790776 0.17506357 -0.034324795
000020 52 4d 54 3d 38 bf 87 3e 17 f5 41 bc 60 74 b0 bc
       0.05183155 0.26513076 -0.011838219 -0.021539867
000030 62 f3 f2 3d 9e f3 f4 3d cb db 36 bd be 4b 1d 3d
       0.11862828 0.11960529 -0.044643205 0.03840231
000040 80 c4 7b bd 07 74 0b bc da 71 97 3e dd 34 34 be
       -0.061466694 -0.00851155 0.2957905 -0.1759829
000050 dd 63 d3 bd 66 22 16 3e 13 33 96 be 3a 56 df 3e
       -0.10321782 0.1466156 -0.29335842 0.43620473
000060 6e cc 2d be 71 4b 0e be 46 b2 c4 bd 46 d0 57 be
       -0.16972515 -0.13895966 -0.096043155 -0.21075544
000070 39 cd 96 bc 76 db 86 be 0b 29 da bd 29 a2 de 3d
       -0.018408405 -0.2633931 -0.106523596 0.10870773
000080 c0 3f a7 be b9 ba 7b 3b a4 98 5f be b6 bd a7 3e
       -0.32665825 0.0038410856 -0.21835572 0.32761925
000090 8a 5f 4b be 42 c6 d1 3d c2 55 73 3b b5 66 d5 3d
       -0.19860664 0.10242893 0.0037129973 0.104199804
0000a0 d1 5b b5 be c2 29 7c 3d f3 ec dc 3d 42 f4 a0 3d
       -0.35421613 0.06156326 0.10787382 0.078590885
0000b0 75 42 3a 3d c0 97 6c 3e f1 03 db 3c 65 ee 05 3e
       0.045473535 0.23104763 0.026735278 0.13079222
0000c0 8e bb 8a bd 7e 92 bd 3e 23 11 43 3e cc 17 a5 3c
       -0.067740545 0.37025827 0.19049506 0.020152949
0000d0 d4 27 27 3e e7 bf b6 bc 1f 32 0c 3e 93 85 bf bd
       0.16323787 -0.022308303 0.13690995 -0.09351649
0000e0 b3 c8 9c bc b6 1b a9 be 3b a0 a8 be f6 79 8d bd
       -0.01913867 -0.33028954 -0.32934746 -0.06908028
0000f0 ba 91 96 be 03 1a e9 3d ca 75 17 bc 32 87 09 3d
       -0.29408056 0.113819145 -0.009244392 0.033576198
000100 f4 b5 cd bd e9 3c 24 bd 23 34 70 be a6 2b 01 3e
       -0.100444704 -0.04009715 -0.23457389 0.12614307
000110 8d 18 a1 bc 23 21 e3 bc 5d 49 91 3e 64 04 22 bf
       -0.019665027 -0.027725762 0.28376284 -0.6328795
000120 16 c8 a9 3e 61 00 b1 be 31 cb 18 3e 2b 09 69 bd
       0.33160466 -0.34570602 0.14921261 -0.05689351
000130 2e 24 a1 3d 1f 23 63 3e 7f ee fb bd 18 21 b1 bb
       0.07868229 0.22181366 -0.12301349 -0.0054055564
000140 82 20 a1 bb 09 fa 16 be ef cd 9d bd 34 d0 23 be
       -0.0049172053 -0.14743818 -0.07705294 -0.15997392
000150 14 44 73 3d 8b 3a 4f be 50 08 a7 3d 5a a9 ef bd
       0.059391096 -0.20237176 0.08155882 -0.11702223
000160 f2 57 90 3c 9f 45 c1 bc e1 4c 9a be 16 d1 91 3d
       0.01762006 -0.023592768 -0.3013678 0.07119958
000170 dc da 12 3d 75 bf 83 be 1e 8e 1f be de 10 7e 3d
       0.03585325 -0.25732008 -0.15581557 0.062027805
000180 d2 2b 17 3e 7a da 94 3c 18 2f 61 be 3d ec de 3d
       0.1476281 0.018170584 -0.21990621 0.108849026
000190 10 ab 36 3e b5 6b 8a bd 4e 93 0d be 8f 9a 82 3e
       0.17838693 -0.06758825 -0.13825724 0.25508544
0001a0 eb 0b 6c be 5f 1e f3 bd 64 fc 87 3a 09 92 a7 bd
       -0.23051421 -0.11871027 0.0010374901 -0.08182151
0001b0 38 8b 55 be d3 92 e7 bc b5 7b 80 bd e7 f8 7e be
       -0.20853889 -0.028268253 -0.06273595 -0.24899636
0001c0 44 40 66 3e f0 b9 ad bd b5 c6 62 3e 58 32 95 3d
       0.22485453 -0.084827304 0.22146113 0.07284993
0001d0 49 b9 2b 3e 1a 18 35 3e a1 0c e2 3d 2c 3b f1 3e
       0.167699 0.17684975 0.11037565 0.47115457
0001e0 bb 3c a5 be d0 7b ec 3e bb c6 dd be 7e d6 d0 3b
       -0.32272896 0.4618821 -0.43315682 0.0063732257
0001f0 dd f1 9a be 5c bd ec 3d 2b 03 38 3d d6 aa 3e 3e
       -0.30262652 0.11559555 0.044924896 0.18619856
000200 0c e4 06 bd d7 e3 af 3e 93 3a fe bb 2c 02 7e be
       -0.032932326 0.34353516 -0.0077584474 -0.24805516
000210 b2 9e 93 bd 84 3c ca 3d 83 89 8b 3e 39 4a 8d 3d
       -0.07208003 0.09874824 0.2725335 0.068989225
000220 a8 33 92 bd bd 8a a8 3e b2 66 ca bc 7e 1b 6f be
       -0.07138759 0.3291835 -0.024707172 -0.23350331
000230 e5 1d 21 3c 02 e2 3e 3e ca 74 4a 3d 84 f9 1d be
       0.009833788 0.18640903 0.049427785 -0.15427214
000240 a5 97 fe 3d 60 7f f4 3e ee d3 4b 3e 9b 1a 0c 3d
       0.12431268 0.4775343 0.19905064 0.03420506
000250 d6 53 99 3d 42 75 ec 3d 05 32 1a 3e 49 3f 6d 3e
       0.074866936 0.11545803 0.15058143 0.23168673
000260 06 63 c8 bd a5 e7 e4 3d bf 83 6b be 2f df ff bc
       -0.09784512 0.11176995 -0.22999476 -0.031234352
000270 e5 f0 04 be bb ab 56 3e 8e 11 d3 bd 9e b2 b1 3e
       -0.12982519 0.20963947 -0.10306083 0.34706587
000280 1f 82 3d 3e 8b a9 5d be ad 31 00 bd 1d 88 a8 3c
       0.18506669 -0.21646707 -0.031297375 0.020572716
000290 02 4a ae bd 78 d1 40 3c 2a 02 35 3d 56 57 8d 3d
       -0.085102096 0.011768691 0.044191517 0.06901424
0002a0 70 de c6 bd 24 b2 18 bd a0 d7 31 3d 73 4f 96 bc
       -0.09710395 -0.037279263 0.043418527 -0.018348431
0002b0 24 f3 a9 bc f4 86 11 bc 24 42 0d ba 52 ed 4d 3c
       -0.020745821 -0.008882273 -0.0005388579 0.012568789
0002c0 86 2f 04 3c 11 43 ec 3c f0 af 92 3d 73 3b dc 3d
       0.008067971 0.028840574 0.07162464 0.107535265
0002d0 66 da 20 be 74 88 77 3d ad f4 b0 be a6 b7 ed 3d
       -0.15708312 0.060432866 -0.34561673 0.11607294
0002e0 5e 88 03 be b0 f1 7b be 46 01 5d 3c a5 48 68 bd
       -0.12844989 -0.24603915 0.013489073 -0.056709904
0002f0 e4 3f 0b 3e 6c 9d 11 3e 06 31 18 bc 83 82 04 3c
       0.13598591 0.14220208 -0.009289032 0.008087757
000300 f1 b5 81 be 56 fe 85 3e 18 1e fe bc 40 f5 30 bc
       -0.25334123 0.26170605 -0.03102021 -0.01080066
000310 b8 36 83 bd 85 13 5a bd b2 d2 f4 bd 5d 27 11 bf
       -0.06406921 -0.05324127 -0.119542494 -0.5670069
000320 93 36 a2 bd ce 7e ab bb f5 5d 11 3e 9f 8a 9d be
       -0.079205655 -0.005233622 0.14195998 -0.30769822
000330 dc 65 33 be 86 84 23 bd 78 d4 15 3e db 18 ff 3d
       -0.17519325 -0.039921306 0.14631832 0.12455913
000340 9f 64 8c be 8e 24 ac be 4f 07 1c be 30 e2 e4 bd
       -0.27420518 -0.3362164 -0.15237163 -0.11175954
000350 e4 cf 64 be 8f 88 bb 3d 45 b0 ec 3d 6f 7b 9a 3d
       -0.22344929 0.09156906 0.11557058 0.07543074
000360 70 42 77 bd d9 bf f2 3e ee 62 75 be 24 3f e4 3d
       -0.060366094 0.47411993 -0.2396352 0.111448556
000370 ed 34 10 3e 23 94 05 bd a5 dc 58 3e a1 3d 49 be
       0.1408269 -0.032611977 0.21177919 -0.19652416
000380 99 9e 75 3b af e3 0d be 40 67 36 be d8 9e b5 bd
       0.0037478565 -0.13856386 -0.17812824 -0.08868188
000390 c6 2b 15 bd 61 c2 05 3e 60 6d e2 bc 41 9e cd 3b
       -0.0364187 0.13062431 -0.027640045 0.006274969
0003a0 e1 2b cc bd 8b 85 0e 3e 08 bc 13 be d7 5a 67 3e
       -0.09969307 0.1391813 -0.14427197 0.22593246
0003b0 39 6a 0f bd 3f 9b 10 be 19 01 0e 3e f6 17 45 3e
       -0.03501341 -0.14121722 0.13867606 0.19247422
0003c0 a3 5f bb 3d 64 f5 a0 3e 80 41 0c be e7 03 a9 bd
       0.09149101 0.31437218 -0.13696861 -0.082526974
0003d0 80 2d 07 3d 47 64 33 ba b0 0e 7d 3c a7 2a c8 bc
       0.033002377 -0.00068432506 0.015445396 -0.0244344
0003e0 2a ad 1f 3e b2 dc 84 3e 33 d0 22 3e 88 92 05 3e
       0.155934 0.25949627 0.15899734 0.13044178
0003f0 ef 43 85 be 7d 0f de bd a5 d5 a1 bd 0a 96 a0 bc
       -0.26028392 -0.10842798 -0.079020776 -0.019602794

ae.encoder.cov01.bias f4 [64]
000000 7b 8f 8a 39 fe 6f 5b 39 80 ea a4 ba 3a ed 28 bb
       0.00026428312 0.00020927188 -0.0012582093 -0.0025776164
000010 c7 1d b4 b9 25 0a 76 bb e5 15 0c ba 17 d2 15 ba
       -0.0003435446 -0.0037542668 -0.0005343839 -0.0005715205
000020 2c 60 46 3b 14 c7 a7 ba be f4 10 3b e2 00 35 b8
       0.0030269725 -0.0012800419 0.0022118534 -4.3154585e-05
000030 22 55 9c ba e4 5d 23 b9 da 94 0b 3b 80 33 9e 3a
       -0.0011927227 -0.00015579868 0.002129844 0.0012069792
000040 09 ce c7 38 81 db 82 ba db 1f 59 bb 44 50 4c ba
       9.5274365e-05 -0.000998363 -0.003313056 -0.0007793943
000050 b0 59 26 3b 00 77 6f 3b 76 9a 29 b9 3f 92 1c 3b
       0.0025383048 0.0036539435 -0.00016174637 0.002389088
000060 50 91 58 bb 3a 0e cf ba 22 1d 84 ba 12 05 c0 b9
       -0.0033045597 -0.0015797087 -0.0010079483 -0.0003662487
000070 af 83 23 bb 2d b9 9d 3a e2 b0 16 3a a2 94 9e ba
       -0.0024950316 0.0012033336 0.00057484035 -0.0012098739
000080 6f 7a 6f bb 44 5e 83 ba 6f be 00 ba ed 5e a8 39
       -0.0036541482 -0.00100226 -0.00049111893 0.00032114182
000090 2b f7 36 bb 77 d1 c2 ba d1 d0 1c bb 64 33 1b bb
       -0.002791832 -0.0014863451 -0.0023928175 -0.0023681754
0000a0 b0 c1 f2 ba 80 63 cc ba 2f 8b cf b8 0e ea ff 3a
       -0.0018520858 -0.0015593618 -9.896454e-05 0.001952471
0000b0 6b 57 c8 3a f7 22 c3 bb 70 35 27 39 a0 f1 6e ba
       0.0015284842 -0.005955096 0.00015946268 -0.00091149844
0000c0 ec cf fb b9 af 3b 19 bb b4 b8 30 ba ce 1c ff b9
       -0.00048029365 -0.0023381521 -0.000674139 -0.0004865885
0000d0 6a 81 ac b9 7c e2 05 3b e1 31 f5 3a 12 03 ee 3b
       -0.00032902817 0.0020429185 0.0018706882 0.0072635496
0000e0 8b d4 2b ba 8c 84 d7 38 8b e1 11 ba 1e 83 5c 39
       -0.00065548037 0.00010276688 -0.00055649196 0.0002102968
0000f0 b8 48 01 bb 83 28 9e 3a e2 19 d1 3a da 1c 9e ba
       -0.0019727182 0.0012066517 0.0015953148 -0.0012063042

ae.encoder.bn01.weight f4 [64]
000000 6a 3d 81 3f 2a 83 79 3f 51 19 7f 3f 3d 99 76 3f
       1.0096867 0.97465765 0.99648005 0.96327573
000010 df 58 7f 3f b9 94 84 3f 90 5a 7e 3f 7d b7 83 3f
       0.9974498 1.0357887 0.9935694 1.0290371
000020 d6 3d 82 3f 11 83 81 3f 3e f0 80 3f 71 4f 7e 3f
       1.0175121 1.0118123 1.0073316 0.9933997
000030 11 d1 7a 3f 19 5e 80 3f 61 b3 7a 3f bc 21 81 3f
       0.9797526 1.0028716 0.9792996 1.008842
000040 dc 5d 7c 3f 10 f0 7f 3f 5f 5f 81 3f 71 ea 7c 3f
       0.9858072 0.9997568 1.010723 0.9879523
000050 63 8e 80 3f 47 bc 83 3f 3b 84 7e 3f cb c6 83 3f
       1.0043453 1.0291833 0.9942052 1.0295042
000060 9b 8b 7d 3f 27 45 7d 3f d0 1c 80 3f 76 59 7a 3f
       0.99041146 0.98933643 1.0008793 0.97792757
000070 c2 f7 81 3f 63 56 7e 3f ea bf 80 3f 96 98 7e 3f
       1.0153735 0.99350566 1.0058568 0.9945158
000080 2c 70 81 3f 07 5a 7e 3f 95 4d 7f 3f df a3 80 3f
       1.0112357 0.9935612 0.99727756 1.005001
000090 e2 1d 7f 3f 51 61 81 3f 3b 3c 7a 3f ed 0d 7b 3f
       0.9965497 1.0107824 0.97748154 0.98068124
0000a0 dc 72 82 3f 05 3e 7f 3f 8b 3f 80 3f 39 d4 7c 3f
       1.0191302 0.9970401 1.0019392 0.98761326
0000b0 f9 1e 83 3f a0 00 7f 3f 13 0f 7d 3f d9 ff 7b 3f
       1.0243827 0.9961033 0.98851126 0.9843727
0000c0 d3 ac 7b 3f c8 8e 7d 3f af a8 81 3f 82 e6 79 3f
       0.98310584 0.9904599 1.0129603 0.9761735
0000d0 67 10 80 3f 81 eb 7f 3f 6a d6 81 3f f6 01 7f 3f
       1.0005006 0.99968725 1.0143559 0.9961237
0000e0 8d 11 7e 3f e1 df 7c 3f 4d 26 82 3f 81 b0 80 3f
       0.9924553 0.9877911 1.0167938 1.0053865
0000f0 fd da 7d 3f ca 9e 80 3f 16 35 7e 3f ef db 7f 3f
       0.99162275 1.0048459 0.9929975 0.9994497

ae.encoder.bn01.bias f4 [64]
000000 77 a2 21 3d b5 b1 d9 3c 49 9f 64 38 c9 cc a5 bc
       0.03946158 0.026573995 5.4507782e-05 -0.02023925
000010 4d 95 16 bb ea 98 3a bd 5f 24 08 bd 9a f4 e4 bc
       -0.0022977174 -0.045555986 -0.03323781 -0.027948666
000020 45 a8 63 3b 6b 9b 03 bd ce 24 89 b9 d7 b4 89 bc
       0.0034737748 -0.03213064 -0.00026158098 -0.016809864
000030 4c 98 c2 3b 4f 43 1a bc 29 e4 43 3d a2 83 9a 3c
       0.0059385654 -0.009415462 0.047825012 0.018861596
000040 80 6a a7 3c c2 d9 91 bc 65 40 0c bc 31 a9 51 bd
       0.020436525 -0.01780403 -0.008560275 -0.051186744
000050 11 2f 88 3c e2 9f a4 3b 9d cf f7 ba 58 cb 01 3d
       0.016624006 0.0050239423 -0.0018906478 0.031688064
000060 84 73 10 bd 8a 38 4d bc fb 68 41 bc cd 97 b5 3b
       -0.035266414 -0.012525687 -0.011804814 0.0055417777
000070 b9 d1 2c bd 05 2c ce 3b fd 1b 05 3d d9 54 0e bd
       -0.042192195 0.0062918686 0.032497395 -0.034748886
000080 a8 13 aa bc 64 7f ad 3c b6 38 54 3b 57 64 0a bd
       -0.020761326 0.021178909 0.0032382435 -0.033787098
000090 fc 90 35 bd d4 16 dc bc fa dc b5 bc 82 30 8a bc
       -0.04432772 -0.026866354 -0.022200096 -0.016868833
0000a0 62 97 2c bd 0f 5d 4b bd 35 fd 86 3c 25 48 1c 3c
       -0.042136557 -0.049649294 0.01647816 0.009538685
0000b0 c7 05 74 3c ea 4e 11 bd d5 1e 26 bc 40 59 86 bc
       0.014893956 -0.03547565 -0.010139187 -0.01639998
0000c0 cf b7 a1 bc c9 8d cb bc cf 7c 60 3b f6 78 c1 bc
       -0.019740967 -0.024847882 0.003425408 -0.023617249
0000d0 cd d9 74 bc 9a 38 95 3c 2e eb 77 3c 47 ac e6 3c
       -0.014944506 0.018215466 0.015131755 0.02815832
0000e0 20 30 9c 3b 22 70 b8 3c 2d 51 f7 3c 67 a6 55 3b
       0.004766479 0.022514407 0.030190075 0.0032600404
0000f0 20 d5 f8 bc 56 bd 54 3c f7 1b 06 3c a3 04 9d bc
       -0.030375063 0.012984594 0.008185378 -0.01916725

ae.encoder.bn01.running_mean f4 [64]
000000 39 9e 5b 3b 0d b6 6c 3b 19 26 af bb d4 c0 74 bc
       0.0033511056 0.0036119253 -0.0053451178 -0.014938552
000010 db c2 b3 3a 81 1f 88 bb ae b3 de 3b 63 7a 3b 3c
       0.0013714688 -0.004154146 0.006796322 0.0114427535
000020 23 a3 80 3a 52 fc a2 3c e6 a5 05 bc 65 5d 82 bc
       0.0009814244 0.019895706 -0.008157229 -0.015913675
000030 8e 18 c2 ba 02 e0 3c 3c 38 f4 47 3c 75 57 f7 bb
       -0.0014808343 0.011528017 0.012204222 -0.0075482675
000040 ed 59 b2 bb d8 be f6 3b 9f 00 31 bc 83 15 f3 bb
       -0.005442849 0.0075300746 -0.010803371 -0.007418336
000050 b4 4c 54 3b 47 60 d2 3b f8 c3 bb bb a0 29 82 3c
       0.0032394351 0.0064201686 -0.0057301484 0.015888989
000060 98 b7 c3 3a 1a a0 ef bb 95 0e c9 3b b8 40 62 3a
       0.0014932035 -0.0073127868 0.0061357715 0.00086308597
000070 14 9b 8f 3a 9a c3 82 3c 6e 1e 7c 3c 4c ae 0d 3a
       0.0010956251 0.01596241 0.015388114 0.00054046954
000080 55 30 23 bc 99 45 20 3c 69 a0 f4 3b af 7e 1e bc
       -0.009960254 0.009782218 0.0074654114 -0.009673758
000090 f2 33 c2 3b 21 cf 22 bc dc 4f 9c bb 31 da cb bb
       0.0059266025 -0.009937079 -0.004770262 -0.006221079
0000a0 c1 3c 3b bc cf 82 6c 38 64 14 7d 3a ca 75 f9 bb
       -0.011428059 5.638861e-05 0.00096542225 -0.0076129185
0000b0 00 e8 31 ba df 2f fd bb 47 1e 88 ba 52 e1 cf 3c
       -0.0006786585 -0.007726654 -0.0010385 0.025375996
0000c0 dc 80 9a bc d0 fc 78 bb 0f fe a8 3a ff c1 83 bc
       -0.018860273 -0.0037992485 0.0012893098 -0.016083715
0000d0 47 10 97 ba 84 f7 9b b9 b7 3a d6 bb 5f 8a bc 3b
       -0.0011525237 -0.00029748317 -0.006537761 0.0057538
0000e0 1d 79 86 bc 12 ff d3 bc 6a 34 5c bc 12 52 ce 3b
       -0.016415173 -0.025878463 -0.013440231 0.0062964046
0000f0 70 c0 5e 38 ca 15 4a bc a9 24 92 bc ec be 0d 3c
       5.3108146e-05 -0.0123342965 -0.017839747 0.008651476

ae.encoder.bn01.running_var f4 [64]
000000 4b 58 a1 3e 40 90 1a 40 e8 cb 0c 3f 4b e5 22 40
       0.31512675 2.4150543 0.54998636 2.545245
000010 09 1d 89 3f f1 4c 10 3e 59 62 11 41 3f 59 44 40
       1.0711986 0.14091851 9.086511 3.0679471
000020 78 de d3 3d 3a dd 18 41 02 03 0a 40 67 fa 46 41
       0.10345167 9.55401 2.1564336 12.436133
000030 d1 b8 6a 3e 1e 5f 88 41 8a b8 5d 40 09 f7 85 40
       0.22922064 17.046444 3.4643884 4.1864057
000040 8e d7 4c 40 05 2a 8e 3f ea 5a 8e 3f d1 35 e9 3f
       3.2006564 1.1106573 1.1121495 1.8219548
000050 ae 2b 86 3f a0 83 14 3f d2 7e 0e 41 77 c6 39 40
       1.048208 0.58013344 8.905962 2.9027383
000060 61 84 96 3f e5 b2 1c 40 01 c3 86 3f 08 f0 10 41
       1.1759149 2.4484189 1.052826 9.058601
000070 71 c3 d4 3e b6 af 83 40 4e f8 5a 40 a2 85 3d 3f
       0.4155536 4.115199 3.4214053 0.7403203
000080 ce 69 96 3f 3c 7e 6d 41 73 55 0e 40 d1 19 d8 3f
       1.1751039 14.843319 2.2239654 1.6882879
000090 1b 25 a9 40 5f 91 e0 40 5e a7 83 3f ed 13 d2 3e
       5.2857795 7.0177455 1.0285451 0.41030827
0000a0 6d 92 06 40 87 68 26 3f 02 51 46 40 19 0a db 3f
       2.1026871 0.65003246 3.0986943 1.7112457
0000b0 1f c8 94 3f cd 9e d1 3e 82 86 a4 3f 2b 7b d4 41
       1.1623572 0.40941468 1.2853549 26.56014
0000c0 c2 69 eb 40 d1 f7 c0 3d 20 46 ad 3e 1b 62 85 41
       7.35666 0.09422267 0.33842564 16.672903
0000d0 5f 86 5f 3e 77 9e 39 3e 6b 6c 39 40 ea 89 80 3d
       0.21828602 0.18126856 2.8972423 0.06276305
0000e0 d1 4b b3 40 e6 62 61 41 5b 25 e4 40 16 da 5f 3f
       5.603005 14.086645 7.12956 0.8744215
0000f0 2a 10 d5 3f 6e 0b 58 40 04 fa ee 40 a3 ab 38 40
       1.6645558 3.3756976 7.4680195 2.8854759

ae.encoder.cov02.weight f4 [64, 64, 3, 3]
000000 2b 17 72 3d b4 3f 19 bd 7b 3f 69 bd cc 2c 04 bd
       0.059104126 -0.037414268 -0.056945305 -0.032269284
000010 39 ff 2d bd 7d 3e 56 bd 5b 62 ac 3d 63 cb f0 3c
       -0.042479727 -0.052305687 0.08417197 0.029393857
000020 2b 17 cd bc d9 2a 32 bd 8c 96 3e bd 7d 2a 7d 3c
       -0.025035461 -0.043497894 -0.04653029 0.0154520245
000030 92 8a 46 3d 8b 0a b6 bc b2 48 96 bd 56 25 73 3c
       0.048471995 -0.022221824 -0.07338084 0.014840445
000040 35 bf bb bc 3c 50 63 3d 66 6f 5b 3c b9 75 e7 3c
       -0.022918323 0.05549644 0.013393259 0.028254377
000050 bc 85 00 bd 93 8c d8 bc b1 54 eb ba d6 36 9a bb
       -0.03137754 -0.026434219 -0.0017954317 -0.004706244
000060 67 c6 0c 3b 02 3e a6 bb 1d 06 8a bc 3b 2d 5d 3c
       0.0021480562 -0.00507331 -0.016848618 0.013499553
000070 9f 3e 85 3d 26 26 1b 3d dc 78 99 3c 72 32 cf bb
       0.06506085 0.037878178 0.018734388 -0.006323152
000080 20 bf 99 bd 50 68 d8 bd b5 1c b5 3c 75 bb 25 bd
       -0.07507157 -0.10566771 0.022108415 -0.040461976
000090 d4 bd a6 bd 51 35 07 bd 24 3a bd bc be c0 02 3d
       -0.081416756 -0.03300983 -0.023099013 0.031922095
0000a0 7a 2a 3a bd ab 49 9b bd 33 94 be bd de 3d a5 bc
       -0.045450665 -0.075824104 -0.093056105 -0.020171102
0000b0 6c 18 96 3b ad 4f 14 3d 3d 1f 5c ba b0 9f f7 3b
       0.004580548 0.036208797 -0.0008396989 0.007556878
0000c0 18 f4 a7 3c 47 58 29 3e b1 39 83 3c 01 89 e5 3c
       0.020502135 0.16537581 0.01601872 0.02801943
0000d0 a6 fa 8a 3c 7d fd df 3c 18 b9 cf bb ea 3d b2 3c
       0.016965222 0.027342552 -0.0063392036 0.021758039
0000e0 42 3d 34 bd f9 f1 aa bc be 7a 32 bd 46 12 d3 ba
       -0.044003733 -0.020867335 -0.043574087 -0.0016103468
0000f0 69 2a 45 3c 22 97 9c 3d ae 1d 65 bc 9b bd 98 3d
       0.012034037 0.07646014 -0.013984127 0.074580394
000100 37 37 cc 3c 72 89 a2 bd b2 a3 f6 bb 8e 3e 31 3d
       0.024928672 -0.07936372 -0.007526838 0.043272547
000110 5c 6c c4 3c 0b 0c f1 bd 3c 9b 54 3d bf 02 99 3d
       0.023977451 -0.11769875 0.051905856 0.07471227
000120 19 b7 a0 bd db e1 cc bc 69 d7 15 3d c2 bd 7e 3d
       -0.07847423 -0.02501004 0.036582384 0.062192686
000130 c3 22 54 3d b1 80 a6 3d 2e f1 f5 3c 0a 15 d2 bb
       0.051790964 0.08130015 0.03002223 -0.0064111995
000140 e8 47 1c 3d b4 64 04 3d 99 88 00 3e 78 8f 30 3d
       0.038154513 0.0323226 0.12552108 0.043105572
000150 a0 a9 a1 3d 10 79 a5 3d c7 96 d0 b9 ef 1d 5f bd
       0.078936815 0.080797315 -0.0003978519 -0.054471906
000160 85 c2 82 bc 49 d6 d3 3d 63 c7 5e bd 51 13 4f 3d
       -0.015961895 0.10343606 -0.05438937 0.05055553
000170 95 df c1 3c f0 b2 32 bd 2b fb ba 3c 3c 90 67 bc
       0.023666183 -0.04362768 0.022824844 -0.014133509
000180 07 98 57 bc 9b f9 0e 3d 4c 35 16 bd 68 52 34 bd
       -0.013158805 0.03490601 -0.03667192 -0.0440239
000190 ec 2d 54 3d 07 6e 59 bd 86 a5 81 ba 3b 36 f7 bd
       0.051801607 -0.053083446 -0.0009891249 -0.120708905
0001a0 a9 55 1c 3c 48 2c 68 bd 00 06 5e bd 4f c6 86 3d
       0.009541907 -0.056682855 -0.05420494 0.06580793
0001b0 07 ee 89 bd 1b dd 88 bd 8a 3d 30 3c 01 59 84 bc
       -0.06734853 -0.066827975 0.01075686 -0.016155722
0001c0 ed 73 3c bd 7a d0 9d bc 10 48 09 bb 42 1b 1d 3d
       -0.046008993 -0.019264448 -0.0020947494 0.038356073
0001d0 ce 74 49 3c eb b2 fe 3b 02 01 e6 3d 5d d5 12 3d
       0.012295915 0.0077727935 0.11230661 0.03584801
0001e0 cd c3 50 bd 44 7d 8e 3c b6 c3 ef 3d c8 b5 db bb
       -0.05096798 0.017393716 0.11707251 -0.0067050196
0001f0 05 40 0c 3e 8f 1b b3 bd 1b b5 a3 bc 4d b3 07 bd
       0.13696297 -0.08745491 -0.019983819 -0.03312998
000200 c4 2e 7c 3d b2 ad 1b bd 24 ec df 3c 96 fb 6d bd
       0.061568037 -0.038007446 0.02733428 -0.05810126
000210 60 1f 83 ba 2b 77 0f bd 30 17 da bd ba 40 b6 3d
       -0.0010003857 -0.035025757 -0.10648954 0.08899064
000220 01 fb 57 bc 03 1f 52 bc bb 40 66 3d 57 8d 34 3d
       -0.013182403 -0.012824777 0.056214076 0.044080105
000230 f4 7c 8b bd 4e 98 63 bc eb f0 35 3d 11 a8 78 3d
       -0.06810942 -0.013891293 0.04441921 0.060707156
000240 4b 04 9f bd 9c 54 74 3c d0 dc 5a bd 6e 6a 58 bc
       -0.07764491 0.014912751 -0.05343324 -0.013208969
000250 b3 c5 e2 bc 88 85 66 bd 63 bf 10 3e dc 0a 46 bd
       -0.027682161 -0.05627969 0.14135508 -0.0483502
000260 b2 e8 76 bc c4 7a be 3c ee 97 80 bc b0 ed 18 3d
       -0.015070127 0.023251899 -0.015697446 0.03733605
000270 8a b3 1f bd 2e 66 9e 3d 1c 4a a9 3d a5 b7 b4 3d
       -0.03898958 0.07734333 0.08266088 0.0882409
000280 23 3d a7 bd f0 71 8f 3d 92 ae a8 3d 10 80 87 3d
       -0.08165958 0.07004154 0.08236422 0.06616223
000290 f1 a0 83 bd 26 7e 22 3d aa 34 bd 3c d0 62 bb bc
       -0.064271815 0.039671086 0.023096401 -0.022874266
0002a0 ea 7f cf 3d b5 d7 0a 3c 7f e7 81 3c cb 5a 90 bd
       0.101318195 0.00847428 0.015857456 -0.070485674
0002b0 c5 3f 13 3c 85 b8 c8 bc 85 c6 1d bd de 11 ef 3c
       0.008987372 -0.024502048 -0.0385194 0.029183324
0002c0 0c 2c 1d 3d 61 02 84 3d b8 51 17 be 46 57 76 3b
       0.038372084 0.06445766 -0.14777267 0.003758864
0002d0 55 08 2e 3e 27 24 ac 3c 26 56 fa bc a2 ce 83 3d
       0.16995366 0.021013333 -0.030558657 0.064358965
0002e0 6f ce bc 3b 0f 6d 76 bd 8e ff a2 bd b2 a2 de bc
       0.0057619135 -0.0601626 -0.079588994 -0.027177189
0002f0 25 fe be 3d 51 51 c2 3c 85 11 15 3d ca 0e ee ba
       0.09325818 0.023720415 0.03639366 -0.0018162366
000300 6b 94 93 3d 86 a0 02 3e 9b 16 b6 3d 53 59 4f bd
       0.07206043 0.12756547 0.088910304 -0.050622296
000310 f8 1b bf 3d 98 27 44 3d b0 4c be 3c 58 7c 8e 3b
       0.093315065 0.047889322 0.023229927 0.004348319
000320 29 24 9b 3d 2b a6 ab 3d 7a a1 1c bc 0a 7b e1 3c
       0.075752564 0.083813034 -0.009559983 0.02752449
000330 68 a0 73 3c df e3 69 3d 30 ae 19 3d 34 6b 80 3d
       0.014869787 0.05710208 0.037519634 0.062704474
000340 ea c0 53 3d aa d8 ba 3d 01 b5 b9 bb a1 4d 31 3c
       0.05169765 0.09123357 -0.0056673293 0.010821731
000350 fc 93 cc bd b1 7e 3d bd dc db 02 3e 5d 77 18 3d
       -0.09989163 -0.0462634 0.12779182 0.03722321
000360 fc d0 08 3d 6a ca a3 bd 7e cd a6 3b b9 80 75 bd
       0.033402428 -0.07997592 0.0050904145 -0.059937213
000370 09 1c 06 be 80 b4 45 3d 64 02 15 be ff 27 aa 3b
       -0.13096632 0.04826784 -0.14551693 0.005192756
000380 c2 05 e6 3b e7 09 5e bd 6c d5 c6 bc d9 28 86 bd
       0.0070197294 -0.054208662 -0.02427169 -0.0655076
000390 86 59 45 bc da b9 81 bc cb 35 91 3c 45 0f e1 3c
       -0.01204527 -0.015835691 0.017725846 0.027473101
0003a0 27 80 87 bd 76 ec 8a bd c1 db c9 3c 27 a7 49 3b
       -0.0661624 -0.067833826 0.02464092 0.0030769797
0003b0 33 6e 77 3d 0c 3d ad bd 18 1f 22 bd 78 d6 12 bd
       0.06040783 -0.084589094 -0.039580435 -0.035849065
0003c0 80 1e 2c bd a4 9d ab bd 88 76 8d bc 76 93 85 bd
       -0.042021275 -0.08379677 -0.017268434 -0.065222666
0003d0 48 00 d6 3c 04 0c 24 3c 96 b5 e9 3d e0 32 0c 3e
       0.026123181 0.01001263 0.11411588 0.13691282
0003e0 65 3f 53 3d 36 62 b9 3d e0 b5 1d 3c 39 20 c4 3d
       0.05157413 0.090519354 0.009625882 0.095764585
0003f0 c6 76 8d 3c 0f 59 51 3d 71 95 14 3d 38 8e 4e bd
       0.01726855 0.051110324 0.03627533 -0.0504286

ae.encoder.cov02.bias f4 [64]
000000 bb d3 53 bb 44 a7 12 ba 8f 31 98 b8 65 48 07 bb
       -0.0032322246 -0.00055943825 -7.257156e-05 -0.0020642516
000010 48 27 b9 ba 89 28 09 bb 2d de 62 bb f1 10 a2 3a
       -0.0014126087 -0.0020928702 -0.003461729 0.0012364668
000020 ad 78 eb ba 5a 83 00 ba 34 c2 e3 3a 4c 58 94 ba
       -0.0017965041 -0.00049023854 0.0017376603 -0.0011317818
000030 a2 57 48 bb f5 b7 04 bb 06 8d ad ba eb 16 a6 b8
       -0.0030569811 -0.0020251248 -0.0013240881 -7.9197656e-05
000040 10 6e 84 ba 8b a7 07 bc 0a 36 ae b8 bb e0 15 3a
       -0.0010103602 -0.008279691 -8.307032e-05 0.00057173864
000050 e0 cb d9 ba c2 26 8d ba e5 a1 11 39 08 19 58 b9
       -0.0016616546 -0.0010768997 0.00013888588 -0.0002060869
000060 d0 8e 4e bb 38 f2 05 bc 48 92 f9 ba 13 2d 54 3a
       -0.0031518228 -0.008175425 -0.0019040788 0.0008093875
000070 13 bf 5e bb fb fd 87 ba 9e 0b 2a 3a a8 7b f2 ba
       -0.00339884 -0.0010375375 0.00064867164 -0.0018499987
000080 e2 2b 28 3a ca f2 b0 39 17 4c 53 b9 bb 88 d7 ba
       0.00064152305 0.00033750228 -0.00020150874 -0.0016443947
000090 2c b3 42 ba ae 0e 8a 39 33 e8 67 37 b3 88 bf ba
       -0.00074272114 0.00026332348 1.3822736e-05 -0.0014612883
0000a0 0d c9 ba 36 3c cb d2 bb b1 89 14 3a 00 be 3c 3a
       5.5666374e-06 -0.006432919 0.00056662696 0.0007199943
0000b0 3f 74 cb ba ca e7 80 ba 5a 08 81 3a d9 92 16 bb
       -0.0015522315 -0.0009834704 0.0009844408 -0.0022975712
0000c0 e8 39 9b ba f8 89 f5 ba 87 87 a9 bb 7f c5 a7 3a
       -0.0011842819 -0.0018733134 -0.005173627 0.0012799947
0000d0 0a ee 95 39 45 be 46 3a 98 46 81 b9 c5 7c e1 ba
       0.00028596848 0.0007581453 -0.00024657394 -0.0017203322
0000e0 a5 6f 45 bb 2d 24 69 3a ee ff d8 ba 8e 95 da ba
       -0.003012636 0.0008893635 -0.0016555765 -0.0016676651
0000f0 9e 97 45 ba 0b b0 f1 ba 24 9e a4 ba ba 67 24 b9
       -0.00075375463 -0.0018439306 -0.0012559337 -0.000156789

ae.encoder.bn02.weight f4 [64]
000000 4a c4 83 3f cd aa 7c 3f 2b d8 82 3f aa e6 86 3f
       1.0294278 0.9869812 1.0222219 1.0539143
000010 e8 b3 82 3f a5 eb 85 3f 8c f3 7d 3f 09 41 81 3f
       1.0211153 1.0462538 0.9919975 1.0097972
000020 fa b2 80 3f ef c3 7c 3f 88 bc 80 3f 3e 1c 82 3f
       1.0054619 0.9873647 1.0057535 1.0164869
000030 b8 11 85 3f fc d6 7b 3f 1f 83 7e 3f f2 01 7c 3f
       1.0396032 0.98374915 0.99418825 0.9844047
000040 32 2f 7e 3f 3d 95 80 3f 22 62 7b 3f 99 13 7b 3f
       0.99290764 1.0045544 0.98196614 0.9807678
000050 e7 43 76 3f 8b 2e 82 3f 61 be 81 3f 28 b1 7c 3f
       0.9619736 1.0170454 1.0136224 0.9870782
000060 7a 8b 82 3f 02 9d 75 3f 2d 1c 75 3f 13 e0 78 3f
       1.0198815 0.959427 0.9574612 0.9721691
000070 7d 92 81 3f 2a 32 83 3f ed ad 7e 3f 4c 12 7c 3f
       1.012283 1.0249684 0.9948414 0.9846542
000080 13 72 82 3f 5b 9c 81 3f 08 41 81 3f 6f e3 7e 3f
       1.0191063 1.0125841 1.0097971 0.99565786
000090 a0 98 81 3f 06 71 7d 3f ee a0 7e 3f 89 5f 7f 3f
       1.0124702 0.99000585 0.9946431 0.9975515
0000a0 18 b5 80 3f 44 e9 84 3f ea e3 80 3f 96 ac 7b 3f
       1.0055265 1.0383687 1.0069554 0.9831022
0000b0 6e 3b 6f 3f 16 ce 70 3f e3 26 80 3f e9 92 7c 3f
       0.9345006 0.9406446 1.0011867 0.9866167
0000c0 28 60 7d 3f 8e e7 80 3f 3f f7 80 3f 5b 17 82 3f
       0.9897485 1.0070665 1.0075454 1.0163378
0000d0 2c 93 7c 3f c6 b5 7d 3f 44 ad 80 3f 55 90 78 3f
       0.98662066 0.9910549 1.0052876 0.97095233
0000e0 73 25 7a 3f b7 bc 76 3f 89 d6 7b 3f 97 f4 81 3f
       0.9771339 0.96381706 0.9837423 1.0152768
0000f0 d7 82 72 3f c6 3f 82 3f 60 26 84 3f 12 a0 7a 3f
       0.94730896 1.0175712 1.0324211 0.979005

ae.encoder.bn02.bias f4 [64]
000000 3c a9 f3 bc bc 0f 01 bd 2d fb fc bc 80 2c 65 bd
       -0.029743783 -0.031509146 -0.030881489 -0.05595064
000010 ad af 05 bd 90 13 15 bd 9e 33 a0 bd a0 ff a1 3c
       -0.03263824 -0.03639561 -0.07822345 0.019775212
000020 36 b3 40 bd 19 d7 48 bd 71 d7 0e bd f1 87 d1 3c
       -0.04704591 -0.049033258 -0.03487343 0.025577517
000030 40 79 6e bd c6 d2 95 bc f5 54 98 bd fe c8 16 bc
       -0.0582211 -0.018288981 -0.07438079 -0.009203194
000040 99 83 05 bd 9f ae 9e bd 02 1a 91 bc a5 e6 10 bd
       -0.032596204 -0.0774815 -0.017712597 -0.03537621
000050 b2 7f 6f 3b 7e 68 00 bd ac 80 7d ba fa 8b 0d bd
       0.0036544618 -0.03134965 -0.00096703577 -0.03455732
000060 ef 47 39 bd 99 df 6d bd 8c 1b bd bc d9 10 d5 bd
       -0.045234617 -0.058074567 -0.023084424 -0.10403604
000070 d1 fa b8 bc a3 ef 83 bc 83 5c de bc db d4 97 bc
       -0.022580536 -0.016105479 -0.027143722 -0.018534115
000080 ae 83 3e b9 fc 18 67 3b 6f 16 61 bc 55 1b 69 bd
       -0.00018168867 0.0035262695 -0.013738259 -0.05691083
000090 a2 dd 87 bc 39 29 c7 3b d7 c4 13 3b ab 34 30 bd
       -0.016585175 0.006077912 0.0022547746 -0.043018978
0000a0 24 17 0b bd 5b 1b 99 bd 41 d7 a7 3c cc ce 92 bc
       -0.033957615 -0.07475921 0.020488383 -0.017920874
0000b0 38 b4 52 bd 00 dd 2c bd b9 c1 2e bb 1b c8 ff bb
       -0.0514414 -0.04220295 -0.002666576 -0.007805837
0000c0 4a f9 c7 bc 28 ba 1c bd ee 49 76 bd 4e 5f 4d 3c
       -0.024410862 -0.03826347 -0.0601291 0.012534929
0000d0 00 6d 3b 3b 5c d5 17 3c 77 2f db bc 91 99 fc bc
       0.0028598905 0.009267177 -0.026756031 -0.030834945
0000e0 e2 e2 d1 bc 7f 96 2a bc 9a 02 39 bd 95 b9 23 bd
       -0.025620881 -0.010411858 -0.045168497 -0.039971907
0000f0 c7 2c f2 bc 98 15 4d bc 6f 7e 27 bd 4a 79 13 bd
       -0.029562367 -0.012517355 -0.04089206 -0.036004342

ae.encoder.bn02.running_mean f4 [64]
000000 9c 19 9b 3f 7f 37 99 3f a0 ae 9f be 88 e3 88 3e
       1.211719 1.1970061 -0.31187916 0.26736093
000010 ac 42 f6 3e c7 cd 43 3e fc 9d 50 3f 54 6c 30 bf
       0.48097742 0.19121467 0.81491065 -0.68915296
000020 d8 e2 08 3f 4a 43 1d be 13 db 0f be c9 e2 b8 bf
       0.53471136 -0.153577 -0.14048414 -1.4444209
000030 6a f1 c2 3e 01 72 41 bf 28 51 ab 3e ab 67 4a 3f
       0.3807481 -0.7556458 0.33460355 0.79064435
000040 a3 a3 33 be 83 5a db 3e 98 63 17 3f 20 91 ed 3e
       -0.17542891 0.42842492 0.59136343 0.46399784
000050 aa 78 06 c0 31 df 87 3e 4e c8 4b 3f 05 11 02 3f
       -2.1011147 0.2653747 0.79602516 0.5080722
000060 bc dd 34 3f ca 44 75 bf cc 2d 68 bf 74 ce 8c 3f
       0.7065084 -0.9580809 -0.9069488 1.1000504
000070 ea 0b 67 be 57 9e 21 3f 02 5f 48 3f d9 f4 d0 3e
       -0.22563139 0.6313223 0.7826997 0.40811804
000080 05 a7 79 3e 68 b1 79 bf 9b 01 20 3f b3 21 35 3f
       0.24380119 -0.97536325 0.6250245 0.70754546
000090 d3 07 b6 be 4e d1 c6 bf 3c c7 ae be e7 0f 59 3f
       -0.35552844 -1.5532625 -0.3413638 0.8478989
0000a0 eb 06 32 3f 97 ce 83 be 05 be 61 bf 15 a7 0f 3e
       0.69541806 -0.25743553 -0.8818057 0.1402858
0000b0 18 65 76 3f 36 02 50 bf ee f3 5b bf 8f eb 4f bf
       0.96248007 -0.81253374 -0.8591908 -0.8121881
0000c0 81 e0 84 bf 30 0d 9c 3f 81 be 7d 3f 8f 91 4e bf
       -1.0381013 1.2191525 0.9911881 -0.80690855
0000d0 55 5f 20 3f b3 ef d3 bf 45 a6 9c 3f fe bf 6d be
       0.62645465 -1.6557525 1.2238241 -0.2321777
0000e0 8f a5 e1 bf 7f d7 07 bc 44 3c d1 3e 52 da 1f be
       -1.762865 -0.008291124 0.40866292 -0.15610626
0000f0 8b 08 95 bf 4d 6f 60 3f 08 eb 08 3f 75 00 ce 3e
       -1.1643232 0.8766983 0.5348363 0.40234724

ae.encoder.bn02.running_var f4 [64]
000000 0e 18 31 3f bc a4 e5 3f 12 ff 92 3f a6 4a 9e 3e
       0.6917733 1.7940898 1.1484091 0.30916327
000010 d9 4b 77 3f 07 43 13 3f 42 18 5e 3f c3 d7 94 3f
       0.9660011 0.5752415 0.86755764 1.1628345
000020 26 38 96 3f 73 6d f4 3e f7 7e 7c 3f 65 4a 14 40
       1.1735885 0.47739753 0.9863123 2.3170407
000030 63 89 00 3f cf 1b b8 3f a8 99 1d 3f db 94 8b 3f
       0.50209635 1.4383487 0.61562586 1.0904802
000040 81 9f 03 40 f2 71 c6 3e 80 48 c4 3f 4a 9f 00 40
       2.0566103 0.38758808 1.5334625 2.0097222
000050 0a 99 80 40 ac 64 15 3f 10 b5 cb 3f 7b f2 20 40
       4.0186815 0.5835674 1.5914631 2.5147998
000060 84 93 4b 3f a2 54 c8 3e 67 66 03 40 cb f0 7c 3f
       0.79521966 0.3912707 2.0531251 0.9880492
000070 f1 21 00 3f f4 55 94 3f c1 ca 9a 3f 0b 57 61 3f
       0.5005179 1.1588731 1.2093126 0.8802344
000080 6b bf dc 3f e8 a0 61 3f 7e 73 87 3f f1 1a 2b 3f
       1.7245916 0.8813615 1.058212 0.66837984
000090 c1 ab 4a 3f f3 0a b9 3f 22 03 c6 3f d2 86 1c 3f
       0.79168326 1.4456466 1.5469706 0.6114322
0000a0 03 48 e0 3e 47 b5 d4 3d aa 64 b7 3f 8b 25 cd 3f
       0.4380494 0.103861384 1.4327595 1.6027082
0000b0 0c b9 36 3f 34 cb b3 3f a6 27 91 3f 66 4c a1 3f
       0.7137611 1.4046388 1.1340225 1.260144
0000c0 60 13 ba 3f 61 47 af 3f 7d 00 0d 3f d2 ab 0b 40
       1.4537163 1.3693658 0.5507887 2.182362
0000d0 6d 08 47 3f 76 27 b0 40 ab 7b ca 3f 47 87 ed 3f
       0.7774723 5.504817 1.581899 1.8556908
0000e0 e0 a3 5a 40 6f 21 d1 3f c8 c5 90 3f 27 a2 22 3f
       3.4162521 1.6338328 1.1310358 0.63528675
0000f0 6a d0 50 40 82 fb 97 3f 8a e6 7f 3f 9f a1 29 40
       3.2627206 1.1873629 0.9996115 2.6504896

ae.encoder.cov03.weight f4 [32, 64, 3, 3]
000000 5e 16 0a be d5 1a 15 3e 5e 60 c5 bd 51 fa f9 bd
       -0.13485095 0.14561017 -0.09637521 -0.12205947
000010 2f 6a ac bd 0a 37 ad 3d fd 19 14 bd 7f 89 4d 3e
       -0.084186904 0.084577635 -0.036157597 0.20071982
000020 c0 03 52 bd 2f e7 c0 3d 1b 81 b3 3d 07 19 91 3d
       -0.051273108 0.09419095 0.08764859 0.07084852
000030 64 49 f1 bd 4b 4a 06 3d 05 71 af 3d ee ed fb bb
       -0.11781576 0.032785695 0.08566479 -0.0076882755
000040 d9 14 07 3d 82 9d 5d 3c e6 3f 23 bd d1 d9 4a 3d
       0.032978866 0.013526322 -0.03985586 0.049524132
000050 52 b7 0d be 4c ac 21 be 79 e4 c4 3d 8f 62 f3 3d
       -0.13839462 -0.15788382 0.0961389 0.11884033
000060 7c db 46 3d 2e 80 98 3d 59 6c 77 bd 87 70 6e bd
       0.04854916 0.07446323 -0.060406063 -0.058212783
000070 5c 82 f2 3d f9 04 7c 3b 57 20 40 bd 9a 83 cd 3d
       0.1184127 0.0038455112 -0.04690584 0.10034867
000080 32 77 9c 3d a3 a4 22 3d fe 2e 09 be 38 05 f9 3d
       0.07639922 0.03970779 -0.13396832 0.121591985
000090 14 1f 80 bc 19 e0 b0 3b f1 5f 57 3d 21 57 8e 3c
       -0.01563982 0.0053978083 0.05258173 0.01737553
0000a0 d8 58 f8 3d c8 ea 12 3e 05 f0 f4 bc 79 ba d5 bd
       0.121263206 0.14347374 -0.029899606 -0.104359575
0000b0 40 33 de 3c 48 f0 07 be cf 64 25 3d 40 c1 9c bc
       0.027124047 -0.13275254 0.04037934 -0.019135118
0000c0 84 ba bd bd d9 05 83 3d 5d 65 33 be 90 f7 35 3d
       -0.09264091 0.063976 -0.17519136 0.044425547
0000d0 68 96 8f be c8 65 0f be 2b 5d ef 3a d8 4b bf 3d
       -0.28044438 -0.1400367 0.0018262019 0.09340638
0000e0 c7 7a 7b bc 96 6d a8 3d fc 92 75 3d 27 4c 7f 3d
       -0.015349097 0.08224027 0.05995463 0.062328484
0000f0 00 71 52 3d 02 97 e5 3d 96 e7 6c 3d f1 df 6c bb
       0.051377296 0.11210443 0.057838045 -0.0036144222
000100 84 59 05 be da 50 2c 3c a4 c4 bd bd 77 11 60 be
       -0.13022429 0.010517323 -0.09266022 -0.21881662
000110 c0 be fd 3c 68 be 58 bd a4 36 c8 bd 45 1b c5 3d
       0.030974746 -0.05291596 -0.09776047 0.09624342
000120 8d 87 f7 3d b8 8f 95 3d 7d 6c 6c 3d 5c 41 8c 3c
       0.12086401 0.07302803 0.05772065 0.01712101
000130 b8 00 05 3e 09 be db bd 8a b9 94 3c 50 19 01 be
       0.12988555 -0.10729606 0.018154878 -0.12607312
000140 1f 39 ef 3d 9b fd 58 bd a4 72 0b 3e 9d 10 02 be
       0.11680817 -0.052976232 0.1361795 -0.1270165
000150 36 8f a4 3d 74 49 d7 3d 11 93 8c ba b0 e5 ce bd
       0.08035128 0.10512057 -0.0010724982 -0.10102403
000160 00 7e 2b 3a 28 92 9a 3c d2 63 c3 3d f5 5c a7 bc
       0.0006541908 0.01886852 0.095405236 -0.020430068
000170 3d fd d2 3a 7c 16 82 bd 16 1c 85 3d c4 f1 2c bd
       0.0016097199 -0.06351945 0.064994976 -0.042222753
000180 f7 01 c6 3b 08 b2 8e 3d e2 87 06 3e b4 8c 90 3d
       0.0060427147 0.069675505 0.13137773 0.07058087
000190 f7 43 c2 bd 6c 36 ef bb bd 10 c8 3b b9 19 4c 3d
       -0.094856195 -0.0073001888 0.006105511 0.04982922
0001a0 07 fb 2a 3d 91 2e 37 3e 5d 95 9c 3b ca 39 06 3d
       0.041743305 0.17888857 0.0047785477 0.032769956
0001b0 a0 c2 af 3d bf bc 81 bb 55 fd 0c bd 76 83 ff bd
       0.08582044 -0.003959268 -0.034421284 -0.12476246
0001c0 ec 9a 91 bd 6b cd ad 3c e6 e7 ad bd ee 9d 0e 3e
       -0.07109627 0.021216115 -0.08491497 0.13927433
0001d0 b3 04 68 bd ee 41 d4 bd 71 7f 28 3d 43 a6 e4 3d
       -0.056645107 -0.103641376 0.041137163 0.111645244
0001e0 90 14 1a bc 88 8f a3 bd c8 cf bd bd d2 20 c5 3c
       -0.009404317 -0.07986361 -0.09268147 0.024063502
0001f0 88 10 04 be a1 92 09 3e 18 b0 a9 3d 01 a8 aa bc
       -0.12896931 0.1343484 0.0828554 -0.020832064
000200 a9 75 cc 3d 30 ab 5c 3b ad 10 3d 3e 79 dd 01 bd
       0.099833794 0.0033671372 0.18463393 -0.031705353
000210 d0 26 2c 3e 03 32 a7 3c dd 2f 18 3e 15 47 9c 3d
       0.16811681 0.02040959 0.14862008 0.07630745
000220 20 58 cf 3d 53 f3 f6 3d c8 90 9d bb 8b 65 08 be
       0.101242304 0.12058129 -0.004808519 -0.13319986
000230 e2 d7 2e bd e3 b0 91 bd 65 84 5d bc 97 87 9e 3d
       -0.04268635 -0.071138166 -0.013520335 0.077407055
000240 e6 af f2 3c ae d6 1d 3d 76 3d 55 bc 8b f1 df 3d
       0.02962489 0.038534813 -0.013015142 0.109347425
000250 ed f9 6d bc e6 dc 11 be 38 d2 86 3d 07 a6 a2 3c
       -0.014524919 -0.14244422 0.06583065 0.019854559
000260 37 d2 9d 3b 9e ac 26 bd a7 b7 cf bd 4a 4e 5f 3a
       0.0048163193 -0.040691964 -0.10142451 0.0008518441
000270 1c 48 18 3e 63 0c a3 3d de a3 b2 3d f8 89 16 be
       0.14871258 0.07961347 0.087226614 -0.14701068
000280 69 b3 bb bd b7 22 ff bd e0 da b8 bd 11 9f a0 bd
       -0.09165079 -0.12457793 -0.09026122 -0.078428395
000290 bd 1f b4 bd b8 c1 cd bd 92 15 11 bd 6d dd 53 bc
       -0.08795116 -0.100467145 -0.03542096 -0.01293121
0002a0 83 7c 2a 3d 0d 96 01 be e7 71 e7 bd 08 52 b3 bd
       0.04162265 -0.12654896 -0.11301022 -0.087558806
0002b0 83 cc 2e bd 15 e8 8c bd e4 0d b9 bd 91 07 3c 3b
       -0.042675506 -0.06880204 -0.090358526 0.0028691033
0002c0 3a fe 04 bd de c8 90 3d ea 67 bb bd 9b df a7 bc
       -0.03246901 0.070695624 -0.091506794 -0.020492366
0002d0 63 12 be bc 90 33 74 3d ae 19 9e bc 77 e7 ec bd
       -0.023202127 0.059619486 -0.019299354 -0.11567586
0002e0 8e d0 c8 bb 69 5e 99 bd 66 d9 e9 bd 15 dd ab 3c
       -0.0061283773 -0.074887104 -0.114184186 0.020979444
0002f0 f1 96 aa bd 06 64 5b 3d b3 7a 84 3b dc 96 96 3d
       -0.08329571 0.053562187 0.004042947 0.07352993
000300 dd aa cf bd 28 ef 18 bb 71 d8 92 3c b4 ee 71 3d
       -0.101400115 -0.0023335908 0.017925473 0.059065536
000310 00 12 92 bd 08 13 0a bd de cf 13 bc 53 41 02 3d
       -0.071323395 -0.033709556 -0.009021727 0.03180058
000320 e9 43 03 3d 42 5e d1 3c 83 1d 91 bc bb 25 29 bb
       0.032047186 0.025557641 -0.017714268 -0.0025809843
000330 f0 01 04 3e bc 6e da 3c 98 af d1 bc 77 47 a1 bc
       0.12891364 0.02666413 -0.025596425 -0.019687397
000340 33 2b 5a bd 1b dc b4 3d 7e be c4 bb bb 4e 0d bd
       -0.053263854 0.08831044 -0.0060041538 -0.03449891
000350 a7 6a ae 3d b8 e0 cf bc 51 9b bf bc 19 3b 32 3d
       0.08516436 -0.025375709 -0.02338949 0.04351339
000360 25 47 26 bc 80 71 67 3c be 57 80 bc 31 0f 91 3d
       -0.010148798 0.014126182 -0.015666839 0.07082976
000370 f6 fc 01 3e 41 15 30 bd 28 50 4f 3d 01 14 69 3d
       0.12694153 -0.04298902 0.050613552 0.056903843
000380 10 e5 d7 3d 53 d8 31 bd b0 10 9a bd 0a 0c 16 bd
       0.10541737 -0.043419193 -0.07522714 -0.036632575
000390 ec 89 2c be 7f f1 5c 3d c5 f4 b2 bd 6b 72 6a bd
       -0.16849488 0.053941246 -0.08738092 -0.057238024
0003a0 e3 f4 36 bd a5 92 de 3c fa 73 f8 3d d8 44 4d 3d
       -0.044667136 0.027169535 0.12131496 0.050114483
0003b0 99 43 c6 bc 0b 44 55 bd 17 43 2f 3c dc d6 f2 3d
       -0.024202155 -0.052066844 0.010697148 0.118573874
0003c0 9e 33 85 bc cb d6 f4 bd 77 02 b5 3c f4 e2 ca 3d
       -0.016259965 -0.11955031 0.022095902 0.09906569
0003d0 05 2d 62 3d 2a 96 aa bc 32 a7 29 3e 32 13 f5 3c
       0.055218715 -0.020823557 0.16567686 0.02991638
0003e0 c8 41 ec bd f8 0a 10 3d 6b bf 5b bd aa ec 8b bd
       -0.11535984 0.03516671 -0.053649347 -0.068322495
0003f0 8e 41 85 3c d3 b5 7c be b5 27 ed bd 69 2a b6 3b
       0.01626661 -0.24678735 -0.11579839 0.005559255

ae.encoder.cov03.bias f4 [32]
000000 e0 56 fb bb 93 1f 73 bc bb 5d 1b bb 98 b4 89 bb
       -0.0076702684 -0.014839071 -0.002370699 -0.0042024367
000010 f9 b8 a9 bc af ba 32 bb da 93 10 bb 8e e7 ce bb
       -0.020718085 -0.0027271917 -0.0022060783 -0.0063142246
000020 43 20 24 bb f3 32 24 bb 8f 2b 87 bb 8f 2c 21 bb
       -0.0025043644 -0.0025054782 -0.0041250656 -0.002459321
000030 10 e8 ab ba 2d c7 89 bb 48 1e cd ba 9f b8 58 bb
       -0.0013115425 -0.004204652 -0.0015649283 -0.0033069027
000040 e8 bd 3e bb 66 cd 30 bb dc 37 60 bc bd 51 42 bb
       -0.0029104892 -0.0026977896 -0.013685193 -0.002965077
000050 55 28 d2 ba d7 59 5a bc 40 fc 02 bb 64 d1 48 ba
       -0.0016033748 -0.013327084 -0.0019986778 -0.0007660596
000060 57 7b 38 ba da bf d4 ba da b8 d5 b9 02 56 f4 ba
       -0.0007037422 -0.0016231493 -0.0004076425 -0.0018641355
000070 63 ef 4b bb 38 c3 32 bb cc 15 e2 ba 90 34 3d bc
       -0.0031118027 -0.0027277004 -0.0017248928 -0.011548176

ae.encoder.bn03.weight f4 [32]
000000 de 6c 58 3f 1a cf 86 3f 5a 11 67 3f b1 39 61 3f
       0.8454112 1.0531952 0.9026085 0.87978655
000010 71 3d 8e 3f 21 fe 80 3f bd 87 80 3f 42 ea 8d 3f
       1.11125 1.0077554 1.0041424 1.1087115
000020 fc 74 8f 3f 13 1e 86 3f dc b1 73 3f a1 a5 75 3f
       1.1207576 1.0477928 0.95193267 0.95955855
000030 60 46 6a 3f a0 32 8c 3f 9f 62 76 3f 76 8c 89 3f
       0.91513634 1.095295 0.96244234 1.074599
000040 03 f9 80 3f 56 37 71 3f 70 19 71 3f 94 4a 8a 3f
       1.0075992 0.9422506 0.9417944 1.080401
000050 24 9a 8e 3f 08 df 64 3f 29 6a 70 3f 80 0a 66 3f
       1.114079 0.8940282 0.9391199 0.8985977
000060 42 57 7d 3f 04 6b 8f 3f f8 9b 6d 3f d5 a5 7e 3f
       0.9896127 1.1204534 0.92816114 0.9947179
000070 d3 57 68 3f 6a 8c 64 3f ba 49 8a 3f 79 b6 8a 3f
       0.9075901 0.89276755 1.080375 1.0836936

ae.encoder.bn03.bias f4 [32]
000000 54 f8 24 be 54 86 00 be c4 b2 ea bd 15 11 ee bd
       -0.16110355 -0.12551242 -0.11459878 -0.11624352
000010 5a ea 06 be 41 30 83 bd aa 62 7b bd 24 97 83 bd
       -0.13175336 -0.06405688 -0.06137339 -0.06425312
000020 98 5f 53 bd 40 01 9b bd d2 fa d5 bd 2a b5 d6 bd
       -0.051604837 -0.07568598 -0.10448231 -0.10483773
000030 33 8e b1 bd 91 89 80 bd 6f 7d a8 bd 24 c4 87 bd
       -0.086697005 -0.06276239 -0.082270496 -0.06629208
000040 1e 0d b3 bd 85 b8 79 bd e3 8e 1d be e8 ac 2e bd
       -0.08742736 -0.060966987 -0.15386538 -0.042645365
000050 44 ec 55 b9 02 a1 46 be d3 a3 99 bd 9d 3e d9 bd
       -0.00020401279 -0.19397357 -0.0750195 -0.10607646
000060 af f0 28 bd c5 78 e4 bc 86 2f 4f bd 7e f1 8c bd
       -0.04124516 -0.027889619 -0.05058243 -0.068819985
000070 af 9d 82 bd 28 90 b3 bd af 8d b8 bc 1f b3 be bd
       -0.06377732 -0.0876773 -0.022528498 -0.093115084

ae.encoder.bn03.running_mean f4 [32]
000000 3f 2a 63 3e f5 4e 8d 3e e3 3d 74 3e c5 46 84 bd
       0.22184084 0.27599302 0.23851733 -0.06458811
000010 38 ff aa 3e 85 b3 8f 3f fa 61 2d 3f e0 eb 28 be
       0.3339784 1.122666 0.67727625 -0.16496229
000020 cf ef fe 3e 5b 1c 57 be d1 62 91 3c 13 fd 46 3f
       0.49792334 -0.2100691 0.017747315 0.7772991
000030 9b 9b 97 3e 98 68 d5 3e c6 50 c9 3f 2e 00 4f 3e
       0.29610905 0.4168136 1.5727775 0.20214912
000040 12 cf 20 3e ae f3 1f 3f 69 1e 18 3e 70 56 d4 3e
       0.15703991 0.624812 0.1485535 0.41472197
000050 d1 e1 71 3f 3f 39 fc 3e f6 ad 1a 3f 32 40 10 3f
       0.94485193 0.49262425 0.60421693 0.56347954
000060 51 dd a5 3f 73 3a 3a 3f a5 d0 c6 3e b7 5d 1f 3f
       1.2958165 0.72745436 0.38831058 0.6225237
000070 77 75 7e 3e f1 45 94 be 6b 00 92 3f c6 9e 28 3f
       0.24849497 -0.2895961 1.1406378 0.6586727

ae.encoder.bn03.running_var f4 [32]
000000 4e 07 40 40 ed 46 5d 40 35 83 63 41 bb 0b 34 41
       3.0004458 3.457454 14.219533 11.252864
000010 f0 41 8b 3f d5 f4 08 41 f0 4b ff 40 6e 7c ae 3f
       1.0879498 8.559773 7.9780197 1.3631723
000020 28 e4 d4 3f 23 a7 96 40 f1 fe 60 40 6b e3 cf 40
       1.6632128 4.7079024 3.5155604 6.496511
000030 9c cc 94 40 89 ae ab 40 2c 1a d0 40 ae 25 a5 40
       4.6499767 5.3650556 6.503195 5.1608496
000040 25 cd 25 40 f2 ef e9 40 50 9b 85 40 34 0a 3c 40
       2.590646 7.31054 4.175209 2.9381227
000050 e2 64 e9 3f 43 a9 9e 3f 28 2e 18 41 ee ec 11 41
       1.8233912 1.2395405 9.511269 9.120344
000060 f2 65 a0 40 9f c7 35 40 9f fe df 40 99 88 dd 40
       5.0124445 2.840309 6.9998317 6.9229245
000070 62 6a 05 41 42 f5 47 41 18 a2 60 40 d1 7c 75 3f
       8.338472 12.497377 3.5098934 0.9589358

ae.decoder.tr04.weight f4 [32, 64, 3, 3]
000000 bf 21 ff ba a9 d0 90 3d e1 aa 84 3d 1e be da 3d
       -0.0019465013 0.07071049 0.06477905 0.10680793
000010 b4 ed 8c 3d 2e 9c b7 3c 3e e6 12 bd 1a 3f 05 be
       0.06881276 0.02241334 -0.035864107 -0.13012353
000020 34 44 9e bd 91 0a 3a 3d 98 d0 d6 3d 8b 72 ed bd
       -0.077278525 0.045420233 0.10489005 -0.11594113
000030 cf 03 2f be 45 e2 a9 3c e9 33 23 3d 38 04 9e bd
       -0.17091297 0.020737777 0.039844427 -0.077156484
000040 c9 76 47 3d ba 2e dd bc a3 3c ad bd e5 93 ae bd
       0.048697267 -0.02699982 -0.08458831 -0.085243024
000050 17 0f ef 3d e9 ac f6 bd ff 2b 30 3d f1 61 d3 bd
       0.116728 -0.12044699 0.043010708 -0.10321415
000060 25 ec a5 3d ce 36 dc bc 5a f5 a5 bc a7 37 be bd
       0.081016816 -0.026881602 -0.020258594 -0.092879586
000070 97 40 cd bd 0c 0e b0 3d c2 cc ff bc 49 be a0 3d
       -0.10022085 0.08596429 -0.031225566 0.07848794
000080 60 ec 87 bd 07 5c e5 3b d8 c7 39 3d 3d 33 e5 3d
       -0.06636882 0.006999496 0.0453566 0.111914136
000090 73 bc a1 3d 0b 8c 22 bd 90 b7 7f bc 9e 98 10 3e
       0.07897272 -0.039684337 -0.01560773 0.14120719
0000a0 98 49 7d bc 95 ab 2e bd 6e f3 15 3d a6 bf db 3d
       -0.015459441 -0.042644102 0.036609106 0.107299134
0000b0 90 da c9 bc a5 a4 93 3d da 2f c0 3d 12 21 17 bd
       -0.024640352 0.07209138 0.09384127 -0.036896773
0000c0 75 26 08 bd e5 76 2f 3c 3c 5a 92 3c 2e 89 b8 bc
       -0.0332398 0.010709499 0.017865293 -0.02252635
0000d0 c4 93 f1 bd bd 15 af 3b b9 47 6a bd d4 36 01 bc
       -0.11795762 0.0053431676 -0.057197306 -0.007886607
0000e0 4e f2 ed ba 34 96 d5 bd ce 67 13 bd 1b 3b 98 bd
       -0.0018153877 -0.104290396 -0.035987668 -0.074331485
0000f0 f5 46 13 3e d3 ee b7 3d 70 73 1e 3e 67 50 db 3d
       0.14382537 0.08981099 0.15473723 0.10708695
000100 55 d0 b4 3d 88 2f 5f 3c 8f e3 f9 3d 5c 0c 0d bd
       0.08828799 0.013622172 0.122016065 -0.034435615
000110 80 8d 53 bd 1c 30 6d 3d 3b 87 a6 3d 15 ad 03 be
       -0.051648617 0.05790721 0.08131262 -0.12858994
000120 53 15 e1 3c a3 0a 8e 3d de c0 25 3d 7f 06 cd bc
       0.027475988 0.069356225 0.040467136 -0.025027512
000130 9a ee 0c 3e 33 87 ec bd ca 3c 27 3d b7 d9 70 3d
       0.13762894 -0.11549225 0.040829457 0.05880138
000140 d3 3d cb 3c 35 b8 74 bc b7 7f 2c 3d 85 95 16 3c
       0.024809754 -0.0149364965 0.042113986 0.009190922
000150 69 5e 6a 3d 99 1a b2 3c 56 95 fc 3b 89 b7 ba bc
       0.057218943 0.021741198 0.007708232 -0.022792595
000160 9b e4 83 be 98 a3 1d 3d 02 cc 36 3e d7 cb 21 3e
       -0.2576035 0.038486093 0.1785126 0.15800415
000170 6a 55 7c 3b 0f 4b 3b bd 54 95 86 3d 8c 19 87 3d
       0.003850306 -0.04572588 0.06571451 0.065966696
000180 33 7b ec 3c 73 46 0a 3c e3 c4 15 be 2d 0b 28 bd
       0.02886734 0.008439648 -0.14625888 -0.041026283
000190 a5 af bf bc a8 7f 98 3d 4a 0c 9a 3d a5 18 26 bc
       -0.023399184 0.074462235 0.07521875 -0.010137712
0001a0 49 3a 87 3d 76 c9 13 3e d3 a1 05 3d d1 1f 63 bc
       0.06602914 0.1443232 0.03262503 -0.013862566
0001b0 a5 7a 8a bd 40 be 16 3c 99 c8 de 3c 11 24 56 3c
       -0.06761674 0.009200633 0.027195262 0.013070122
0001c0 68 5f c2 3b 69 2e 6f bd 63 bd 7e bd 0a eb 77 bd
       0.0059317835 -0.05839387 -0.062192332 -0.060526885
0001d0 f0 24 ed bd ff a0 06 bc 9d 84 1c bc 45 78 31 bd
       -0.11579311 -0.008217095 -0.009553102 -0.04332759
0001e0 a4 43 eb bd d7 fa 7c 3d f2 7d ff 3c 78 e7 7d bd
       -0.11487511 0.061762657 0.031187985 -0.061988324
0001f0 b9 18 10 3e fe 0b e8 bd c6 9f 18 bd e7 7c bb 3d
       0.14071931 -0.11330412 -0.037261747 0.091546826
000200 b9 e5 55 bd e4 44 f9 3d 0e 7f df bd db 0c 65 3d
       -0.052221034 0.12171343 -0.10912906 0.055920463
000210 02 84 12 bd ab f8 88 3d 76 ac d9 3d 5b 45 80 3c
       -0.035770424 0.06688055 0.106285974 0.015658071
000220 59 8b e7 bc c4 0f bc bc cc f1 85 3d df 29 84 bd
       -0.028264688 -0.022956736 0.0654026 -0.06453299
000230 74 77 b7 bc 53 98 df bc 92 24 38 be 95 05 4c 3d
       -0.022395827 -0.027294314 -0.179827 0.04981001
000240 e2 e9 9a 3c d2 de ed 3d f9 e5 e4 bd 4d 56 a7 bd
       0.018910352 0.11614765 -0.11176676 -0.081707574
000250 e1 fd c2 bd 60 82 1e be 03 aa cc ba fc 96 4c 3e
       -0.0952108 -0.15479422 -0.0015614632 0.19979471
000260 e6 71 6c ba fe 7b a5 3d e6 86 1b 3e 35 a1 b5 3d
       -0.0009019658 0.0808029 0.15188178 0.088686384
000270 20 57 a9 3d 20 8e 57 bc 30 44 40 3c 99 80 0d 3e
       0.08268571 -0.013156444 0.011735007 0.13818587
000280 b6 d0 b1 bd e9 64 0f bd 09 ed 31 be 41 51 a2 3d
       -0.086823866 -0.035008345 -0.17375578 0.07925654
000290 9c 8d 15 be 24 82 99 3d 82 5f 4c 3c 21 ff 87 bd
       -0.14604801 0.074955255 0.012473943 -0.06640459
0002a0 a8 e1 1a 3b 53 7e 3b bd cc c3 d0 3d 35 41 a6 3c
       0.0023633037 -0.04577477 0.10193595 0.020294765
0002b0 94 54 d4 3d 33 92 0a 3e 51 4d 85 3d a3 c8 fc 3c
       0.103676945 0.13532333 0.065088876 0.03085739
0002c0 58 02 90 bd b1 8b e0 3d 43 f8 8d bc 38 5e d6 bd
       -0.07031697 0.10964144 -0.017330294 -0.104671896
0002d0 ab d5 82 3d 1f 3a 4f bd c7 20 58 bc a4 6c df ba
       0.0638841 -0.050592538 -0.0131914085 -0.0017045927
0002e0 55 b3 8b 3d 6a 60 87 bd 79 ae 16 3e d9 69 0e bd
       0.06821314 -0.066101864 0.14714994 -0.034768913
0002f0 c1 99 76 bd c5 da 2a bc 79 70 25 bd 54 3b 78 be
       -0.060205225 -0.010428135 -0.040390465 -0.24241382
000300 71 b4 04 bc de 97 ad 3d 77 d1 7a 3c 9f cd 85 bc
       -0.008099661 0.08476232 0.015308729 -0.0163334
000310 b0 73 12 3e 75 04 4a bd 32 58 b8 bc e3 b2 3d bd
       0.14301944 -0.049320657 -0.022502992 -0.046313178
000320 03 c2 3f bd 4f 6d 94 bc 4f 99 69 3d 48 11 09 3e
       -0.046815883 -0.018118529 0.057030972 0.13385499
000330 6e 13 a8 3d c5 79 81 3d 00 92 4a 3c ff 9a 87 3d
       0.08206831 0.06322054 0.012363911 0.0662136
000340 52 11 68 bd 47 0f f5 3c d9 32 de 3c 2a df 0a be
       -0.056657143 0.029914511 0.027123855 -0.13561693
000350 ba 3e 6f bd 85 0e ff bd f9 a8 83 3d 28 a2 90 3c
       -0.05840943 -0.12453941 0.06428713 0.017655447
000360 c3 2d 9b 3d 34 a7 d3 bb 2e c5 5c 3d 19 67 49 3e
       0.07577088 -0.006459141 0.053898983 0.19668235
000370 79 aa d3 bc e3 f2 d2 bb 06 75 3d 3d 0d 54 88 bd
       -0.025838124 -0.0064376458 0.04625418 -0.066566564
000380 ab 8c e9 bb 99 9b 59 3d c0 27 65 bd 53 6f c1 bd
       -0.0071273646 0.053126905 -0.05594611 -0.094450615
000390 bc 01 2d be 43 20 49 3d 57 9f 6f 3d 5a 19 be 3d
       -0.16895193 0.049103033 0.058501568 0.09282179
0003a0 32 6d ef 3d 32 e1 47 3e 31 49 da bd 14 32 af bd
       0.11690749 0.19519499 -0.106584914 -0.085544735
0003b0 63 21 3f 3c 05 8f ff bd ab 1f 41 bc a1 ac d8 3a
       0.011665675 -0.12478451 -0.011787335 0.001653094
0003c0 01 2a f1 3d 0b 47 58 3e e1 2e 9f bb 75 3e 9c 3d
       0.1177559 0.2112085 -0.0048578833 0.076291
0003d0 51 4f 80 3d 1e dd f8 b9 38 83 95 3d 39 c8 11 be
       0.062651284 -0.0004746699 0.073004186 -0.14236535
0003e0 1c 6e 45 bc 4c 22 d1 bd a3 d5 a6 3d f8 8e f0 3c
       -0.012050178 -0.1021162 0.08146217 0.029365048
0003f0 92 86 58 bd 65 bc ac bc 39 db 1c be 26 c6 8b bd
       -0.05286271 -0.021085927 -0.15318002 -0.06824903
