checkpoint/teacher_checkpoint.pt (torch, 535794 bytes, 32 tensors)

ae.encoder.cov01.weight f4 [64, 144, 1, 1]
0	0xbec88637	-0.39164898
1	0x3c90e83b	0.017688861
2	0x3e0f5202	0.13996127
3	0x3d59b29b	0.053148847
4	0x3e617b3b	0.22019665
5	0xbdbdddd8	-0.09270829
6	0x3e30b73d	0.172574
7	0x3d06ad15	0.032879908
8	0x3e642d3c	0.2228288
9	0xbe24c8b1	-0.16092183
10	0x3cf5c952	0.030003224
11	0x3e17f20e	0.1483843
12	0xbc2054f0	-0.009785876
13	0x3ee4f4e1	0.44718078
14	0xbc149600	-0.009068966
15	0x3eaf35f6	0.34220856
16	0x3d7c2413	0.06155784
17	0x3e023392	0.12714985
18	0xbe6e4a13	-0.23270445
19	0x380ac29d	3.308301e-05
20	0xbe917e96	-0.2841689
21	0xbb9c176d	-0.0047635348
22	0x3dcc14a7	0.099648766
23	0x3e7d9645	0.24764355
24	0x3e35b4bf	0.1774473
25	0x3e0b8863	0.13626246
26	0x3dc340fb	0.095338784
27	0x3e96cd66	0.29453582
28	0x3d208dd2	0.03919775
29	0xbd3f2f0e	-0.046675734
30	0xbecd4361	-0.4009047
31	0x3e7507c6	0.23928747
32	0x3e809f2f	0.25121447
33	0x3d0ddf31	0.03463668
34	0xbdd8b6a5	-0.10581712
35	0xbd452328	-0.04812923
36	0x3e450466	0.19239959
37	0xbbb04718	-0.005379569
38	0xbdd2f9d2	-0.10301556
39	0x3d841383	0.06449034
40	0xbe1255dc	-0.14290565
41	0x3e117c33	0.14207534
42	0xbca18c7f	-0.019720314
43	0x3c850010	0.016235381
44	0xbeb02e18	-0.34410167
45	0x3d948d52	0.07253517
46	0xbca2395f	-0.019802747
47	0x3d922cdf	0.07137465
48	0xbe1d54e4	-0.15364414
49	0x3e0677fa	0.13131705
50	0x3e310b6f	0.17289518
51	0x3b319ac1	0.0027100297
52	0x3da180d3	0.078858994
53	0x3e4d8a6c	0.20072335
54	0xbdbf6b42	-0.0934663
55	0xbe1c4d07	-0.15263759
56	0xbd3d8e06	-0.046278022
57	0x3da6eca3	0.081506036
58	0xbea1e7f1	-0.3162227
59	0x3ee35693	0.44401988
60	0x3d582e43	0.052778494
61	0x3ddb092d	0.106951095
62	0x3db9e80f	0.09077465
63	0xbed7e4d2	-0.42166764
64	0xbedcebae	-0.4314856
65	0x3e6f2eec	0.23357743
66	0x3e00982b	0.12558047
67	0xbc8792b7	-0.016549451
68	0x3d793a75	0.060846765
69	0xbe8be8b1	-0.27325967
70	0xbe74af37	-0.23894964
71	0x3da24ec8	0.079251826
72	0xbb93b0ab	-0.0045071444
73	0x3d49a367	0.0492281
74	0xbdfaa528	-0.12238532
75	0x3d9d1db4	0.07671681
76	0xbd968a3d	-0.073505856
77	0x3c57375b	0.013135756
78	0x3ea2805c	0.31738555
79	0x3e81c796	0.25347584
80	0x3d3c870d	0.046027232
81	0xbe80cee4	-0.25157845
82	0x3e8abfea	0.27099544
83	0xbe90ed88	-0.28306222
84	0x3d01d0b3	0.03169317
85	0x3d7735dc	0.0603541
86	0x3dccea84	0.10005668
87	0x3cd5b3f8	0.026086792
88	0x3d96a3ba	0.07355447
89	0xbe2c67f6	-0.16836533
90	0xbdd53284	-0.10410026
91	0x3e45dcd8	0.19322526
92	0xbdf8d643	-0.12150242
93	0x3c00eac9	0.007868477
94	0x3e949ef0	0.2902751
95	0xbdf42d02	-0.11922647
96	0x3e241846	0.16024885
97	0x3e8b43d3	0.27200183
98	0xbe8cbf83	-0.27489862
99	0x3df95607	0.121746115
100	0x3e8b7495	0.27237383
101	0x3e0ca477	0.13734613
102	0xbe0d962e	-0.1382682
103	0xbca260bb	-0.019821515
104	0xbe33345c	-0.17500442
105	0xbdceb8f2	-0.10093869
106	0x3bd7a16f	0.0065805237
107	0x3dfa0066	0.12207107
108	0xbe1029ea	-0.14078489
109	0xbe4ec8b9	-0.20193757
110	0xbe573373	-0.2101572
111	0xbde718ea	-0.11284049
112	0x3d134385	0.035953064
113	0x3e8f74a5	0.2801868
114	0x3ddf233c	0.10895392
115	0x3e05ed77	0.13078867
116	0x3db1a5af	0.0867418
117	0x3eac8a2c	0.33699167
118	0x3d98a16a	0.07452662
119	0xbe128f0b	-0.14312379
120	0xbd312098	-0.043243974
121	0x3e08534c	0.13313025
122	0x3cefb100	0.029259205
123	0x3dc3d3a1	0.095618494
124	0xbe2e2013	-0.17004423
125	0xbe218bf7	-0.15776049
126	0xbe18c40b	-0.14918534
127	0xbe91ae19	-0.28453138
128	0xbe361b01	-0.17783739
129	0xbce88d73	-0.02838776
130	0x3d652c5a	0.0559505
131	0x3f01e3b2	0.5073806
132	0x3d8c069b	0.068371974
133	0x3dd5af58	0.10433835
134	0x3dc0c76b	0.09413036
135	0x3dbf5613	0.09342589
136	0xbe7bad2e	-0.24577782
137	0xbde413bf	-0.11136579
138	0x3e9bdf3b	0.3044375
139	0xbd20fc40	-0.039303064
140	0xbe9cef75	-0.3065144
141	0x3e02a86b	0.12759559
142	0xbe642e3c	-0.22283262
143	0x3ec332b3	0.38124618
144	0xbe088a97	-0.13334118
145	0xbc8f59e3	-0.017498916
146	0xbdf3b264	-0.1189926
147	0xbb9a9774	-0.0047177617
148	0x3e9aba8e	0.30220455
149	0xbdcdb0a4	-0.10043457
150	0xbe5710f2	-0.21002558
151	0xbe07c753	-0.1325963
152	0xbc36ad48	-0.011149712
153	0xbc80901c	-0.015693717
154	0x3cc3c47f	0.023897408
155	0xbc4f015d	-0.012634602
156	0x3db3febe	0.087888226
157	0xbe362a57	-0.17789589
158	0x3ad8dc8c	0.001654522
159	0xbea2564e	-0.3170647
160	0x3e764e20	0.2405324
161	0xbdc6e2a1	-0.09711195
162	0xbda7876d	-0.08180127
163	0xbe6a45a2	-0.22878125
164	0x3dceab35	0.10091249
165	0xbed0491b	-0.40680775
166	0xbd749a9a	-0.059717752
167	0x3d62cddb	0.0553721
168	0x3d13ba8e	0.036066584
169	0xbe72a5fb	-0.23696129
170	0xbd32b8c7	-0.04363325
171	0x3e2103d4	0.15724117
172	0x3cd1de9c	0.025618844
173	0x3e019007	0.12652598
174	0xbcd26a06	-0.025685322
175	0x3e367ad7	0.17820297
176	0x3e7e7e2d	0.2485282
177	0x3d8ffb44	0.07030347
178	0x3e933af2	0.2875591
179	0xbe1ecdb6	-0.1550816
180	0x3e0fca31	0.14041974
181	0x3e88d152	0.267222
182	0x3c752bec	0.014964085
183	0xbe11395b	-0.14182036
184	0x3d4a0edc	0.049330577
185	0x3cd7df06	0.026351463
186	0x3d939f6a	0.0720814
187	0x3d8faa6a	0.07014926
188	0x3d4a6464	0.049412146
189	0x3de9ad7d	0.114100434
190	0xbdcd3df4	-0.10021582
191	0x3dbd41f3	0.092410944
192	0xbee481f2	-0.4463039
193	0x3dda285c	0.10652229
194	0xbd86dd39	-0.065851636
195	0xbcfb64ea	-0.030687768
196	0xbdc91a1c	-0.09819433
197	0xbda6c7be	-0.081435665
198	0x3e50370b	0.20333497
199	0x3e66a715	0.22524674
200	0xbcd2fc3a	-0.025755037
201	0xbc9b4465	-0.018953511
202	0xbe7fa79d	-0.24966283
203	0x3e6dce84	0.2322331
204	0x3eb0db37	0.34542248
205	0xbe3acbda	-0.18241826
206	0x3e0ae246	0.13562879
207	0x3d502424	0.050815716
208	0xbdb19b86	-0.08672242
209	0xbbff047f	-0.0077825184
210	0x3e087699	0.13326491
211	0x3e39538f	0.18098281
212	0x3ebf8919	0.37409285
213	0xbd868183	-0.06567671
214	0xbd04dbb4	-0.032436088
215	0xbe4d75cb	-0.20064466
216	0x3dbeebf0	0.09322345
217	0x3d9d7524	0.076883584
218	0xbecfaf5d	-0.4056348
219	0xbd1ef535	-0.038808066
220	0xbd5bc090	-0.05365044
221	0x3e92445c	0.2856778
222	0xbe91bca8	-0.28464246
223	0x3d794474	0.060856298
224	0x3db7952e	0.08964001
225	0xbd2518e4	-0.04030694
226	0xbc92a917	-0.017902894
227	0x3ea144e7	0.3149788
228	0xbdcf9eca	-0.101377085
229	0x3e5ab196	0.21356806
230	0xbe180795	-0.14846642
231	0x3dedb959	0.11607618
232	0xbe0f3e76	-0.1398867
233	0x3e49bb88	0.19700444
234	0xbc54f72c	-0.0129983835
235	0x3d8ff845	0.070297755
236	0xbd057b3a	-0.03258822
237	0xbcce490c	-0.025181316
238	0xbd8c96f3	-0.06864729
239	0xbea70bd2	-0.32626206
240	0x3c9108b2	0.017704342
241	0xbc98635b	-0.018602064
242	0xbe89cdb7	-0.2691476
243	0xbf0e5e70	-0.5561285
244	0xbe2cd2a6	-0.16877231
245	0x3d9eb7db	0.077499114
246	0x3d83b3fc	0.06430814
247	0xbdd4e1fa	-0.10394664
248	0xbddad7b2	-0.10685672
249	0xbe0e481e	-0.13894698
250	0xbcac4671	-0.021029683
251	0xbce7ccf7	-0.028295977
252	0x3da5bac8	0.08092266
253	0x3de92b1e	0.11385177
254	0xbd0dee66	-0.034651183
255	0xbdb3508a	-0.08755596

ae.encoder.cov01.bias f4 [64]
0	0xb7b0a4a7	-2.1057507e-05
1	0xba83b111	-0.0010047277
2	0x3a36fee6	0.0006980732
3	0x384ea81b	4.9270788e-05
4	0x3a2259db	0.0006193199
5	0xb995d01a	-0.00028574542
6	0xba985c22	-0.0011624137
7	0x3a039b92	0.0005020435
8	0xb9dbad15	-0.0004189989
9	0xba49afe6	-0.00076937524
10	0xbaa714b3	-0.0012747258
11	0x3a167810	0.00057399366
12	0xb9669a2d	-0.00021991944
13	0x3a17fa02	0.0005797447
14	0x3a13eec2	0.00056431827
15	0x3a7bd297	0.00096062705
16	0x3b4e4df3	0.0031479567
17	0x3ad669f7	0.0016358484
18	0xba171be6	-0.000576435
19	0xbb1e3ecf	-0.0024146324
20	0x3a994867	0.0011694551
21	0xbacb442b	-0.0015507987
22	0xba16ff50	-0.00057600904
23	0xbb1b929c	-0.002373851
24	0xb9c275f9	-0.0003709046
25	0xb905b407	-0.00012750934
26	0xba795caa	-0.0009512404
27	0xbb0098cb	-0.0019622322
28	0xb94002a4	-0.0001831153
29	0xbb1135b5	-0.0022157256
30	0x3aaea31a	0.0013323755
31	0xbb2981f1	-0.0025864805
32	0xbb6a67d5	-0.0035767455
33	0x3a6c1cb4	0.00090069626
34	0xb82e146c	-4.1503852e-05
35	0x3b078ae4	0.002068215
36	0xb9ed9c49	-0.00045320604
37	0x3ac31589	0.0014883737
38	0xbc22afaf	-0.009929582
39	0xbb1b480e	-0.002369407
40	0xbb199801	-0.0023436549
41	0x3a886316	0.0010405506
42	0x3a5d8965	0.00084509543
43	0xb9fa1e79	-0.0004770642
44	0x39cf3f99	0.000395295
45	0xbb3bdb61	-0.0028664696
46	0x39bf4f7b	0.00036489576
47	0x39da6248	0.00041653425
48	0xba0d6cd3	-0.0005394939
49	0xba78cec7	-0.00094912614
50	0x3a6b488e	0.000897535
51	0xbb1c3fe6	-0.0023841797
52	0x3a75d133	0.00093771814
53	0xbb56cdd8	-0.00327765
54	0xb980ed30	-0.0002459078
55	0xbba6b211	-0.005087145
56	0xbb40be99	-0.002941048
57	0xbad6a095	-0.0016374761
58	0x3b4d52a2	0.003132977
59	0xbc063dc1	-0.008193434
60	0x3a38d3f2	0.0007050625
61	0xbaf440bf	-0.0018635018
62	0xb99e38a5	-0.00030178312
63	0x38d62076	0.000102103615

ae.encoder.bn01.weight f4 [64]
0	0x3f7c1c6b	0.9848086
1	0x3f7b09e5	0.9806197
2	0x3f7f46b8	0.99717283
3	0x3f7a89ca	0.978665
4	0x3f805ec5	1.0028921
5	0x3f81fc70	1.0155163
6	0x3f7f16fe	0.9964446
7	0x3f82bb63	1.0213436
8	0x3f7950b7	0.97388786
9	0x3f7bfcee	0.98432815
10	0x3f807794	1.0036492
11	0x3f7e1537	0.9925112
12	0x3f7f8abc	0.99821067
13	0x3f80a42e	1.0050104
14	0x3f7c0b83	0.98455065
15	0x3f81296d	1.0090767
16	0x3f7bee24	0.9841025
17	0x3f8311af	1.0239772
18	0x3f7b3dd8	0.9814124
19	0x3f7bc951	0.9835406
20	0x3f818d03	1.0121158
21	0x3f7c1e6a	0.9848391
22	0x3f80af63	1.0053524
23	0x3f7cdf27	0.98778003
24	0x3f7dd2d6	0.99149835
25	0x3f7f9187	0.9983143
26	0x3f80be88	1.0058146
27	0x3f7b07e8	0.9805894
28	0x3f7b18c7	0.9808468
29	0x3f811b6a	1.0086491
30	0x3f7eeb02	0.99577343
31	0x3f81d8af	1.0144252
32	0x3f837798	1.0270872
33	0x3f804725	1.0021712
34	0x3f806e67	1.0033692
35	0x3f83e60d	1.0304581
36	0x3f7cbfcc	0.9873016
37	0x3f7db882	0.9910966
38	0x3f841196	1.0317867
39	0x3f7af8a6	0.9803566
40	0x3f829ad6	1.0203502
41	0x3f815dac	1.0106711
42	0x3f80f8fd	1.0075985
43	0x3f80462d	1.0021416
44	0x3f7e09b4	0.99233556
45	0x3f7e490a	0.993302
46	0x3f875c0d	1.0574967
47	0x3f7d7cd7	0.99018615
48	0x3f7b7e54	0.98239636
49	0x3f7d8f79	0.99047047
50	0x3f7eac52	0.9948169
51	0x3f82ba1b	1.0213045
52	0x3f810359	1.0079147
53	0x3f7c5ece	0.9858216
54	0x3f8130de	1.0093038
55	0x3f832c9f	1.0247992
56	0x3f801ccb	1.0008787
57	0x3f7d67d0	0.9898653
58	0x3f7fa70e	0.9986428
59	0x3f7deae0	0.99186516
60	0x3f82a961	1.020794
61	0x3f74ed77	0.9567484
62	0x3f7d8ee7	0.99046177
63	0x3f7d1833	0.9886505

ae.encoder.bn01.bias f4 [64]
0	0xba2d55ff	-0.00066122407
1	0xbc995501	-0.01871729
2	0x3c5d1b0d	0.013495219
3	0xbc1ee296	-0.009697577
4	0x3c1e3f0d	0.009658587
5	0xbb2ee4e8	-0.0026686732
6	0xbc757def	-0.014983638
7	0xbc455952	-0.012045221
8	0xbd39fe2c	-0.045408413
9	0xbbbbe476	-0.005734022
10	0xbc7dd1ab	-0.015491883
11	0xbc22c23a	-0.0099340025
12	0xbcdddf14	-0.027083911
13	0x3d005e01	0.03133965
14	0xbc34ea5b	-0.011042203
15	0x3cf7827e	0.03021359
16	0x3c7def39	0.01549893
17	0x3cf7eecb	0.030265233
18	0xbbc76355	-0.0060848393
19	0xbcd1fe22	-0.025633875
20	0x3c8bec7a	0.017080534
21	0xbd066d41	-0.032819036
22	0xbcb0d347	-0.02158512
23	0xbce99be3	-0.028516715
24	0xbbfe1c37	-0.0077548283
25	0xbc5131ce	-0.012768222
26	0xbc498b79	-0.012301319
27	0xbcf6e552	-0.030138645
28	0xbbd0aaef	-0.006368033
29	0x3c7f2ac7	0.015574164
30	0x3bb0158e	0.0053736633
31	0x3c403ffd	0.011734006
32	0xbcceee3c	-0.025260083
33	0x3babbcfc	0.0052410346
34	0xbc8acd9d	-0.016943747
35	0x3cebea79	0.028798329
36	0xbbe82104	-0.007084014
37	0x3ce0d05b	0.027443102
38	0xbd30a320	-0.043124318
39	0xbc25c983	-0.010118845
40	0xbcc274a1	-0.023737254
41	0x3cc8f85d	0.024532491
42	0x3c2451a8	0.010029234
43	0xbcfdca40	-0.03098023
44	0xbb736f59	-0.0037145226
45	0xbd020aa6	-0.031748436
46	0xbbc12c9e	-0.0058952114
47	0xbb41b777	-0.0029558816
48	0xbc520dd4	-0.01282068
49	0xbcc00764	-0.023441024
50	0x3bd39f25	0.0064581805
51	0xbbd423f3	-0.006474012
52	0x3c8ef87a	0.017452467
53	0xbcebdc35	-0.028791526
54	0xbb54bfb8	-0.0032462906
55	0xbc9855d9	-0.018595623
56	0xbcb5b71d	-0.022182042
57	0xbd2ef948	-0.042718202
58	0x3c47b426	0.012188947
59	0xbd72226b	-0.059114855
60	0x3a50ec8f	0.000796982
61	0xbc1edb18	-0.009695791
62	0xbb98e291	-0.0046656807
63	0x3ca021de	0.0195474

ae.encoder.bn01.running_mean f4 [64]
0	0x37a29c62	1.9384726e-05
1	0x3b1a5473	0.002354887
2	0x3bee88c8	0.007279489
3	0x3bd4eefe	0.0064982167
4	0x3b8a5444	0.004221471
5	0x3b884640	0.004158765
6	0xbc1eea2d	-0.009699387
7	0x3c179c3a	0.009253556
8	0x3b00bba2	0.0019643088
9	0x3bcf573f	0.006327539
10	0xbafd5515	-0.0019327725
11	0xbbc57778	-0.0060262047
12	0xbba06cff	-0.004895806
13	0x3be0ea2e	0.006863854
14	0x3b476299	0.003042376
15	0xbc162109	-0.00916315
16	0x3a527047	0.0008027595
17	0x3c26a795	0.010171791
18	0x3b3e6e9a	0.0029057623
19	0xba122ed8	-0.0005576438
20	0x3b6f63a4	0.0036527896
21	0xbc00381d	-0.007825878
22	0xbc38703b	-0.011257227
23	0xbbf80c23	-0.007569806
24	0xbb1471f9	-0.002265094
25	0x3b3e6405	0.0029051316
26	0xbbf51eab	-0.0074804625
27	0xbb291156	-0.0025797687
28	0xbab7b26a	-0.0014014964
29	0xba42aa94	-0.0007425931
30	0x3bb3f726	0.005492109
31	0xb8a67026	-7.936386e-05
32	0xbb368cb8	-0.002785487
33	0xba42de7b	-0.0007433665
34	0x3a842ae3	0.0010083582
35	0xbb36af02	-0.002787531
36	0x3b365dbc	0.0027826866
37	0x3bcbea8a	0.0062230276
38	0xbc208167	-0.009796477
39	0x3998a24b	0.00029112617
40	0x3b02fda2	0.0019987603
41	0xbae05924	-0.001711641
42	0xbbef2337	-0.007297899
43	0xbb0e3f71	-0.0021705294
44	0xbb724c28	-0.0036971662
45	0xbb01f7f3	-0.0019831627
46	0x3a72ab7e	0.0009257122
47	0x3c3292e8	0.010899283
48	0x3af1c23e	0.001844473
49	0xbb4ebd1a	-0.0031545819
50	0x3ab34a19	0.0013678699
51	0xba495c4e	-0.0007681296
52	0xbb20f6c4	-0.0024561146
53	0xbb69952d	-0.0035641894
54	0x3a4f031b	0.0007896886
55	0xbb3b3517	-0.002856558
56	0xbb3bc29e	-0.0028649936
57	0xbb271f93	-0.0025500997
58	0x3c016ac1	0.007898987
59	0xbc0a04e2	-0.008424016
60	0x3aea0788	0.0017855028
61	0xbbc2e510	-0.0059477165
62	0xbc2ad212	-0.010426061
63	0xbc1faa00	-0.009745121

ae.encoder.bn01.running_var f4 [64]
0	0x40a77287	5.2327304
1	0x3f3d41ad	0.7392834
2	0x408086d5	4.016459
3	0x401fb83c	2.4956198
4	0x4113c3c2	9.235292
5	0x3f848574	1.0353227
6	0x407401f9	3.8126204
7	0x4093ffb3	4.6249633
8	0x40ea0e6a	7.3142595
9	0x42000a33	32.00996
10	0x3f42b6fb	0.76060456
11	0x40158018	2.3359432
12	0x3fa0781f	1.2536658
13	0x40a24d02	5.0719004
14	0x4101144f	8.067458
15	0x40f5b63c	7.6784954
16	0x3f9f348e	1.2437913
17	0x40853d3e	4.163726
18	0x419838df	19.02777
19	0x3f876681	1.0578157
20	0x3f2364a9	0.6382547
21	0x40578ed0	3.3680916
22	0x40b1fdfb	5.5622535
23	0x4083a81f	4.1142726
24	0x3e9400a6	0.28906745
25	0x4093b240	4.615509
26	0x402ec985	2.7310498
27	0x3e9f62d3	0.31130084
28	0x3f072afd	0.5279997
29	0x3e81020a	0.25196868
30	0x3fbcb01a	1.4741242
31	0x3f1d8486	0.6153034
32	0x408c4a2d	4.3840547
33	0x3f879f08	1.0595407
34	0x401c1ea7	2.4393709
35	0x4036c0dc	2.8555212
36	0x41effa65	29.997263
37	0x401b7319	2.4289
38	0x3db2f2aa	0.08737691
39	0x3f47a04a	0.77978957
40	0x3f67b26d	0.9050663
41	0x409567c6	4.6689177
42	0x40aaf01d	5.3418107
43	0x4116385e	9.3887615
44	0x405d856f	3.4612691
45	0x3e31473d	0.17312331
46	0x3dcea8fb	0.10090824
47	0x40bfc1de	5.9924154
48	0x40f2b987	7.5851474
49	0x404331af	3.0499074
50	0x3f049b0a	0.5179907
51	0x3e3f2502	0.18666461
52	0x3f3d7160	0.7400112
53	0x3ed6d379	0.41958216
54	0x3e1ece78	0.15508449
55	0x3e3cd4be	0.1844053
56	0x3e510c20	0.20414782
57	0x3f46da69	0.7767702
58	0x3f9f06d3	1.2423958
59	0x3d9406f0	0.07227886
60	0x3e16d228	0.14728606
61	0x3f9ed8ec	1.2409949
62	0x412452af	10.270186
63	0x409c08a9	4.876057

ae.encoder.cov02.weight f4 [64, 64, 3, 3]
0	0xbba2222a	-0.0049479203
1	0x3d425d71	0.047452394
2	0xbdbc8e51	-0.09206832
3	0xbc324717	-0.010881207
4	0xbcc01ab4	-0.023450233
5	0xbd81acf9	-0.0633182
6	0xbda6d1d5	-0.08145491
7	0xbd2bdb2f	-0.041957077
8	0xbb9d66db	-0.004803521
9	0x3d8c8367	0.068610005
10	0xbbd25599	-0.0064188954
11	0x3cb0fcd0	0.021604925
12	0x3cf5e568	0.030016616
13	0xbd3b43ea	-0.045719065
14	0xbcb9cb2a	-0.022679884
15	0x3c9f2022	0.019424502
16	0x3daaf7f4	0.083480746
17	0x3cd33b50	0.025785118
18	0x3d31f1cf	0.043443497
19	0xbe3c3549	-0.18379702
20	0xbda74855	-0.08168093
21	0xbce8d594	-0.028422154
22	0x3cc5ba04	0.02413655
23	0xbcf0a812	-0.029377017
24	0x3dd44dd7	0.10366409
25	0xbda0135a	-0.07816191
26	0xbd0eb553	-0.034840893
27	0xbd4316f3	-0.047629308
28	0xbe08ad8e	-0.13347456
29	0xbca6f95f	-0.020382581
30	0x3d2e5f71	0.04257149
31	0x3d376ef6	0.044783555
32	0x3d4d2503	0.050084125
33	0xbd74c49f	-0.059757825
34	0x3e053e6a	0.1301209
35	0x3d2c936f	0.04213279
36	0xbe300f83	-0.17193417
37	0xbd21b12a	-0.039475597
38	0xbd90bad5	-0.070668854
39	0xbd9852dd	-0.0743768
40	0xbcaaca8e	-0.020848539
41	0x3c34d64e	0.011037422
42	0xbcea734c	-0.028619431
43	0x3d86e39e	0.06586383
44	0x3c0fa337	0.008766941
45	0xbd8c7caf	-0.06859719
46	0x3c5d29cc	0.013498735
47	0xbc4d8e02	-0.012546064
48	0x3cbd8d20	0.023138583
49	0xbcb8104d	-0.02246871
50	0xbc20f35d	-0.009823647
51	0x3dbe1b5d	0.09282563
52	0xbdbd0096	-0.092286274
53	0xbcc193e3	-0.023630088
54	0xbcb5217a	-0.02211069
55	0x3c210643	0.009828153
56	0x3d13e199	0.03610382
57	0xbd12a8e7	-0.03580561
58	0xbad97cd1	-0.0016592984
59	0x3ddb86fc	0.107191056
60	0x3db126e7	0.08649998
61	0x3d708aa5	0.05872597
62	0x3db03729	0.08604271
63	0xbdba170b	-0.09086426
64	0x3c059122	0.008152278
65	0x3cc22272	0.023698065
66	0x3d8198b3	0.06327953
67	0x3e049b0a	0.12949768
68	0xbda8c718	-0.08241099
69	0x3de82078	0.11334318
70	0x3bb08f8d	0.0053882063
71	0xbd8d8100	-0.069093704
72	0x3d97d128	0.0741294
73	0xbcc7fdec	-0.024413072
74	0x3cb4e0c8	0.02207984
75	0xbdbb4b38	-0.09145206
76	0x3dcb7cc4	0.099359065
77	0x3bcddbbc	0.006282298
78	0xbc1026df	-0.00879833
79	0xbdc792da	-0.097448066
80	0xbcf4aafc	-0.029866688
81	0x3d3c8940	0.04602933
82	0x3d244669	0.04010621
83	0xbddaa331	-0.106756575
84	0xbc5bfd9e	-0.013427166
85	0xbe34d524	-0.17659432
86	0xbd4aa6e4	-0.049475566
87	0x3c44a1f2	0.012001501
88	0xbce5296c	-0.027973853
89	0xbc07e4b2	-0.008294271
90	0xbd76b0a4	-0.06022705
91	0xbdab1fe0	-0.08355689
92	0xbd86d1f5	-0.06583015
93	0xbd8431f4	-0.0645484
94	0x3d7f035c	0.062259063
95	0xbd81e170	-0.06341827
96	0xbe0c4da0	-0.13701487
97	0xbc279157	-0.010227523
98	0xbbba9e56	-0.0056951446
99	0xbcd3f7af	-0.02587494
100	0xbe09cd71	-0.13457276
101	0x3d039ea1	0.032133702
102	0xbd34d2a4	-0.044146195
103	0x3d0d39f2	0.03447909
104	0x3ce8bd5b	0.028410604
105	0x3c2c5ca5	0.010520135
106	0x3d1e0594	0.03857954
107	0x3d05a3f3	0.032627057
108	0x3dd97030	0.10617101
109	0xbc894ebd	-0.016761178
110	0xbccc4244	-0.024933942
111	0xba0e43ac	-0.0005426954
112	0x3c028b59	0.007967793
113	0x3dc19afe	0.094533905
114	0x3cc5c2b2	0.02414069
115	0x3cb3f6e9	0.021968322
116	0xbd82ce9d	-0.063870646
117	0xbdfddfe1	-0.12396217
118	0xbc9ad431	-0.018900009
119	0x3d4c41e2	0.04986752
120	0x3d712f75	0.05888315
121	0xbd06ce1c	-0.032911405
122	0x3d38a9d6	0.045083843
123	0x3b54348a	0.0032379949
124	0xbdbdff54	-0.092772156
125	0xbbe32c01	-0.006932736
126	0xbd7f011f	-0.06225693
127	0xbcbcb972	-0.023037646
128	0x3c1a2d39	0.009410196
129	0xbd261195	-0.04054411
130	0xbc73d468	-0.014882185
131	0xbd5e66fb	-0.05429743
132	0xbcf5ec92	-0.030020032
133	0x3c67cade	0.014147488
134	0xbac512b4	-0.0015035481
135	0x3d046d76	0.032330953
136	0x3c368b7c	0.011141654
137	0x3da1b6b9	0.0789618
138	0x3cfa6e70	0.030570239
139	0x3cdc83e4	0.02691836
140	0x3d2b7709	0.041861568
141	0x3d718b9e	0.05897104
142	0xbdae4690	-0.085095525
143	0x3cd9f569	0.026606278
144	0x3d11c6c7	0.03558996
145	0xbd0e3fa5	-0.034728665
146	0xbcf2f83e	-0.029659387
147	0xbc711963	-0.014715525
148	0x3d420391	0.047366682
149	0xbd8f9af7	-0.07011979
150	0xbd0c9aab	-0.03432719
151	0x3d34d807	0.044151332
152	0xbd11b28d	-0.03557067
153	0x3d030efb	0.03199671
154	0xbd8ca359	-0.068670936
155	0x3dd77f47	0.10522323
156	0xbd546128	-0.051850468
157	0x3d4615fd	0.048360813
158	0xbc625e52	-0.013816433
159	0xbda56718	-0.08076304
160	0x3c604607	0.013688571
161	0x3d1fd51b	0.039021593
162	0xbce519fd	-0.027966494
163	0x3c4b2fa0	0.012401491
164	0xbd24f346	-0.040271066
165	0xbbf35584	-0.0074259657
166	0xbd5110a2	-0.051041253
167	0xbd6a3f4f	-0.057189282
168	0x3a6f9bbf	0.00091403344
169	0x3d421f76	0.047393285
170	0x3b7aef9e	0.0038289796
171	0x3d138b7b	0.03602169
172	0xbcb107b0	-0.021610111
173	0x3db0dbef	0.08635699
174	0x3d343903	0.043999683
175	0xbc9a9a4c	-0.018872403
176	0x3d2cb747	0.042166974
177	0xbd03e349	-0.032199178
178	0xbd22fc13	-0.039791178
179	0xbc88acbb	-0.016683927
180	0x3c76180d	0.015020383
181	0xbd224b89	-0.039622817
182	0x3bca7cb2	0.0061794156
183	0xbd295ea6	-0.04135003
184	0xbd99cf19	-0.07510204
185	0x3b2c2734	0.0026268484
186	0xbd63ab91	-0.05558354
187	0xbda71807	-0.0815888
188	0xbd7588a2	-0.059944756
189	0xbca92c7a	-0.02065109
190	0x3d3b0a33	0.045664024
191	0xbd427d51	-0.047482792
192	0xbdcc1884	-0.099656135
193	0xbd1a14cb	-0.037617486
194	0x3d4393c5	0.047748346
195	0xbd4e2892	-0.05033166
196	0x3d368119	0.04455671
197	0x3d386e8e	0.04502731
198	0xbdd4160f	-0.1035577
199	0x3d9334e3	0.07187822
200	0xbdc10967	-0.094256215
201	0x3d84b12f	0.064791076
202	0x3c3cee7e	0.01153147
203	0x3db1f2d2	0.086888924
204	0xbb9321cb	-0.0044901124
205	0x3c62531c	0.01381376
206	0xbd76b651	-0.060232464
207	0x3d66f370	0.056384504
208	0x3c444fa4	0.011981878
209	0xbd3a1dac	-0.045438454
210	0x3d086b04	0.033305183
211	0x3c94de6a	0.018172462
212	0xbd240e9a	-0.040052988
213	0xbd0e3fdc	-0.03472887
214	0x3dad0222	0.084476724
215	0x3cdb32fc	0.02675771
216	0xbd67deab	-0.056608837
217	0x3a882b96	0.0010388966
218	0xbdcf5cab	-0.10125097
219	0xbc4fae6d	-0.012675864
220	0xbd264006	-0.0405884
221	0x3ce36d1d	0.02776199
222	0x3d32ca5d	0.04365002
223	0xbd13fac7	-0.03612783
224	0x3b2fd898	0.002683198
225	0xbda54163	-0.08069112
226	0x3c9eb2c3	0.01937235
227	0xbc66c94c	-0.014086079
228	0xbd847d15	-0.0646917
229	0x3da7b6c0	0.08189154
230	0x3c3c5596	0.011495015
231	0x3adc838d	0.0016823873
232	0xbd218efd	-0.039443005
233	0x3d9065d6	0.07050674
234	0x3c3a0234	0.011353064
235	0x399d00b7	0.00029945906
236	0x3d127582	0.035756595
237	0x3d4325f3	0.047643613
238	0x3d94e96c	0.07271084
239	0x3bfecdc9	0.0077759963
240	0xbcb13a52	-0.021634255
241	0xbc9507f9	-0.018192278
242	0xbe086c18	-0.13322484
243	0x3b6a0064	0.00357058
244	0x3dbc89d8	0.09205979
245	0x3d3f7002	0.04673768
246	0x3e2271d1	0.1586373
247	0xbe05000e	-0.12988302
248	0x3cec3cc6	0.028837573
249	0x3cff02ed	0.031129325
250	0xbd3a74b4	-0.045521453
251	0x3d4a4bc2	0.049388655
252	0x3da8f86f	0.0825051
253	0xba1529b3	-0.00056901126
254	0x3d6cbbab	0.05779616
255	0xbd5dbdbd	-0.054136027

ae.encoder.cov02.bias f4 [64]
0	0xb93f2b18	-0.00018231233
1	0xbb10d6e1	-0.0022100734
2	0xb9f128d2	-0.00045997516
3	0x3b0a5080	0.002110511
4	0x3a63b325	0.00086860574
5	0xbba64d30	-0.0050751194
6	0x3afd5a9e	0.0019329374
7	0x38e6329a	0.0001097668
8	0xba2fd5e5	-0.0006707593
9	0xba6419c6	-0.00087013503
10	0x39f263e7	0.0004623227
11	0x3a2601c8	0.0006332663
12	0x3abb7051	0.0014300441
13	0x3a616dba	0.00085994194
14	0xb83a7669	-4.4456134e-05
15	0x3a47434c	0.00076012756
16	0x3ac78da6	0.001522471
17	0xba713a26	-0.0009202085
18	0x3b0172ee	0.0019752341
19	0xba2ffb5d	-0.0006713176
20	0x3a4acce3	0.0007736219
21	0xbb408155	-0.0029373963
22	0xba4877b1	-0.000764723
23	0xbb436e6c	-0.0029820455
24	0xba47e0a3	-0.0007624721
25	0xba2a3ddf	-0.0006494205
26	0x3a4e8739	0.0007878426
27	0xbbacc246	-0.0052721826
28	0xba32bbdc	-0.00068181544
29	0x3a41ed5d	0.00073977356
30	0x3a1bfe2b	0.0005950655
31	0x385f8393	5.328988e-05
32	0xba522019	-0.0008015647
33	0xbb02fb88	-0.001998635
34	0xba5d87ec	-0.0008450735
35	0xba585aff	-0.00082533056
36	0xba82e2c5	-0.0009985795
37	0xb9e91797	-0.000444588
38	0xb93b2bfd	-0.00017850097
39	0xbae9af8e	-0.0017828809
40	0x3a5a1d37	0.00083203934
41	0xba3af32e	-0.00071315735
42	0xba3e65b6	-0.0007263081
43	0xbb3024ec	-0.0026877476
44	0x3af2b7c6	0.0018517904
45	0xbb0d8121	-0.002159186
46	0xba5c0d4a	-0.0008394314
47	0xbb6168f6	-0.0034394837
48	0xb92d4beb	-0.00016526847
49	0x3af664e8	0.0018798383
50	0x3a916c48	0.0011094892
51	0xb83071c1	-4.206761e-05
52	0xbb7852e2	-0.00378912
53	0xbb33abc1	-0.0027415606
54	0xba958d18	-0.0011409847
55	0xbb02a21b	-0.0019933048
56	0xba81ad7f	-0.0009893625
57	0xbbb5ac36	-0.005544211
58	0x3a5be0c6	0.0008387681
59	0xb8ddde2b	-0.00010579483
60	0xbb4db8bf	-0.0031390635
61	0xbb011a22	-0.0019699414
62	0xbabfdcc0	-0.0014637932
63	0xba461f38	-0.00075577525

ae.encoder.bn02.weight f4 [64]
0	0x3f77b37b	0.9675824
1	0x3f78c4f6	0.9717554
2	0x3f8365a0	1.0265388
3	0x3f800575	1.0001665
4	0x3f815a0c	1.0105605
5	0x3f7e132c	0.99248004
6	0x3f7c64e2	0.98591435
7	0x3f7f5b5b	0.9974877
8	0x3f7fac32	0.99872124
9	0x3f80529b	1.0025209
10	0x3f80c1d8	1.0059156
11	0x3f7a8416	0.978578
12	0x3f821777	1.0163411
13	0x3f8350d1	1.0259038
14	0x3f794fe9	0.9738756
15	0x3f7a3561	0.977377
16	0x3f85066f	1.0392588
17	0x3f833e14	1.025332
18	0x3f7b6461	0.9820004
19	0x3f827672	1.0192397
20	0x3f7b57fc	0.9818113
21	0x3f7c8677	0.9864268
22	0x3f7b5528	0.98176813
23	0x3f77affb	0.967529
24	0x3f7cdde4	0.9877608
25	0x3f819dca	1.0126278
26	0x3f825671	1.018263
27	0x3f83ccb2	1.0296843
28	0x3f7bc182	0.98342144
29	0x3f813c02	1.0096438
30	0x3f81a7fe	1.0129392
31	0x3f7b256e	0.9810399
32	0x3f7f4476	0.9971384
33	0x3f7f48df	0.9972057
34	0x3f7fc968	0.99916697
35	0x3f814558	1.0099287
36	0x3f7cced9	0.98753124
37	0x3f7f49e4	0.99722123
38	0x3f815e7e	1.0106962
39	0x3f80330a	1.0015576
40	0x3f7babf4	0.98309255
41	0x3f7c1e51	0.9848376
42	0x3f7afec6	0.98045003
43	0x3f7f4695	0.99717075
44	0x3f84234e	1.0323274
45	0x3f7bd8a9	0.9837747
46	0x3f7c1b29	0.98478943
47	0x3f7a6fdd	0.9782694
48	0x3f7c0315	0.984422
49	0x3f802515	1.0011317
50	0x3f771c00	0.965271
51	0x3f8396e2	1.0280421
52	0x3f825f04	1.0185246
53	0x3f83851e	1.0274999
54	0x3f809394	1.0045037
55	0x3f78e51a	0.9722458
56	0x3f809eee	1.0048501
57	0x3f84181f	1.0319861
58	0x3f8138cf	1.0095462
59	0x3f7b0eac	0.9806926
60	0x3f7a19a2	0.9769536
61	0x3f800004	1.0000005
62	0x3f808bc5	1.0042654
63	0x3f824011	1.0175802

ae.encoder.bn02.bias f4 [64]
0	0xbbde93f1	-0.0067925383
1	0xbce1679c	-0.027515225
2	0xbcee862c	-0.029116713
3	0xbce9e811	-0.02855304
4	0xbc6375ba	-0.013883049
5	0xbd65c612	-0.056097098
6	0xbd1b5ab5	-0.0379283
7	0xb7b3f683	-2.1453254e-05
8	0x3b4c4016	0.0031166128
9	0xbb92cc55	-0.0044799247
10	0x3b2e7905	0.0026622426
11	0xbd398afa	-0.045298554
12	0xbc836654	-0.016040005
13	0xbcbe2426	-0.023210596
14	0xbcdf4dc6	-0.027258765
15	0xbc9049ea	-0.01761337
16	0xbb8e7256	-0.004347126
17	0xbc73e059	-0.014885032
18	0xbc398a16	-0.011324426
19	0xbd329c9c	-0.043606386
20	0xbb9cd191	-0.0047857244
21	0xbcdb4ddf	-0.02677053
22	0xbc7d0001	-0.015441895
23	0xbd19726a	-0.03746263
24	0xbd3e4751	-0.04645473
25	0xbcb58dfe	-0.022162434
26	0x3ce923a6	0.028459381
27	0xbd4f8633	-0.05066509
28	0xbc54445c	-0.012955751
29	0x3c19ed3d	0.009394941
30	0xbc5a81ab	-0.013336579
31	0x3bac7e12	0.005264052
32	0xbc27dd5e	-0.010245649
33	0x3c6a7090	0.014309064
34	0xbcc8dedb	-0.024520328
35	0xbd0468a3	-0.03232635
36	0xbbb5c13e	-0.005546718
37	0xbc3950c3	-0.011310759
38	0xbc5724b5	-0.01313131
39	0xbd1ff173	-0.039048623
40	0xbcc1b27e	-0.023644682
41	0xbc322c7b	-0.010874863
42	0xbd2dd5fa	-0.042440392
43	0xbd56404d	-0.052307416
44	0x3be6b394	0.0070404503
45	0xbc9863f9	-0.018602358
46	0xbc4875be	-0.012235103
47	0xbd1bc46c	-0.03802912
48	0xbd277941	-0.04088712
49	0x3d1d0d24	0.03834261
50	0xbc74292b	-0.014902393
51	0x3c4abe71	0.012374506
52	0xbca2c2d3	-0.01986829
53	0xbd4c5b9e	-0.04989206
54	0xbd06df0b	-0.032927554
55	0xbc8f39e0	-0.017483652
56	0xbbd2fc0e	-0.0064387387
57	0xbd6bf68c	-0.057608172
58	0x3b88f80c	0.00417996
59	0xbc7f7e42	-0.015594067
60	0xbce5eb54	-0.028066315
61	0xbc75e658	-0.0150085315
62	0xbca5e95c	-0.020252876
63	0x3ad70821	0.0016405621

ae.encoder.bn02.running_mean f4 [64]
0	0xbf765ad6	-0.96232355
1	0xbfaf06f5	-1.3673998
2	0x3f856d86	1.0424049
3	0xbd1067d2	-0.03525526
4	0x3ed1e35b	0.4099377
5	0x3f285b37	0.6576418
6	0x3ec79089	0.3897746
7	0x3f08f06a	0.5349184
8	0x3ee34c15	0.44393983
9	0x3ed0d27e	0.40785593
10	0x3da281a3	0.079348825
11	0x3f10f767	0.56627506
12	0x3d953417	0.07285326
13	0xbec6b7ef	-0.38812205
14	0x3d0684c8	0.032841474
15	0x3f942611	1.1574117
16	0xbf239f65	-0.6391509
17	0xbeb255d7	-0.34831116
18	0xbef0ce80	-0.47032547
19	0x3f3b9811	0.7327891
20	0xbf739fe0	-0.95165825
21	0xbee4a4fb	-0.4465712
22	0xbf571c38	-0.84027433
23	0xbe8cb4ef	-0.2748179
24	0x3cb27966	0.021786403
25	0x3efc3d8c	0.49265707
26	0x3cb513dc	0.022104196
27	0x3f0ad441	0.54230124
28	0x3f833da1	1.0253183
29	0x3eb6d6f4	0.3571087
30	0x3e054ecf	0.13018344
31	0xbe695e63	-0.22789912
32	0xbe8de2eb	-0.27712187
33	0x3f1073b4	0.5642655
34	0x3f241fd9	0.64111096
35	0x3e83120c	0.25599706
36	0x3f120171	0.5703345
37	0x3f8f1d6f	1.1180857
38	0x3f3e4d59	0.74336773
39	0x3f58617c	0.8452375
40	0xbf3298e3	-0.69764537
41	0x3ec7040c	0.38870275
42	0x3ec64ef5	0.38732114
43	0x3f9af4d2	1.2105963
44	0x3eb9c92a	0.36286288
45	0x3f911ca4	1.1336865
46	0x3fdc7d60	1.7225761
47	0xbf8964df	-1.0733908
48	0xbf3de131	-0.7417174
49	0xbd34b9a3	-0.04412235
50	0xbe0a85bc	-0.13527578
51	0x3f7e96bc	0.9944875
52	0x3e87447b	0.26419434
53	0x3e280c05	0.16410835
54	0x3f7cd168	0.9875703
55	0x3f580d75	0.84395534
56	0x3f3da5c3	0.7408106
57	0x3f20bc33	0.6278717
58	0xbfa9b9c1	-1.3259813
59	0xbe95c774	-0.29253733
60	0xbfc9b3aa	-1.5757954
61	0x3d9eef77	0.07760518
62	0x3f813cfd	1.0096737
63	0xbe66e3f3	-0.22547893

ae.encoder.bn02.running_var f4 [64]
0	0x401c8631	2.4456904
1	0x3fc9a7b6	1.5754306
2	0x3f61a6f1	0.8814536
3	0x3ee1f8ee	0.4413523
4	0x3eebddc0	0.4606762
5	0x3f635817	0.8880629
6	0x3f38c10f	0.72169584
7	0x3f191e4d	0.5981186
8	0x401e13aa	2.4699502
9	0x3fa8dd6f	1.3192576
10	0x4004af4c	2.0731993
11	0x3ea52d66	0.322612
12	0x3f0042df	0.5010204
13	0x3fe57396	1.7925899
14	0x3f2c584d	0.67322236
15	0x3f9b2acb	1.2122434
16	0x3f56d758	0.8392234
17	0x3f29aece	0.66282356
18	0x3f11b45a	0.5691582
19	0x3fae6a9a	1.3626282
20	0x408f494e	4.4776983
21	0x3e730eff	0.2373619
22	0x401b2e77	2.424711
23	0x3f0fc0da	0.56153643
24	0x3f0bbcd3	0.54585
25	0x4022d56f	2.544277
26	0x40159d8a	2.3377404
27	0x3eb78da1	0.35850242
28	0x3fba7130	1.4565792
29	0x4015b1cf	2.3389776
30	0x3fc5bfd5	1.5449167
31	0x40357a0c	2.8355742
32	0x3fe00618	1.750186
33	0x3f29d769	0.66344315
34	0x400544ce	2.0823245
35	0x3ff18a68	1.8870363
36	0x40048deb	2.071162
37	0x400fcb65	2.2467892
38	0x3f44f028	0.7692895
39	0x3f263657	0.64926666
40	0x400f91aa	2.2432656
41	0x3f051f8a	0.5200125
42	0x3fb84765	1.4396788
43	0x3f5afa75	0.8553842
44	0x3fe3f71e	1.7809789
45	0x3f6cd331	0.9250975
46	0x4007f06c	2.1240492
47	0x3fa7632d	1.3077141
48	0x3e848e62	0.2588988
49	0x3f813904	1.0095525
50	0x3f910844	1.1330647
51	0x3fb244e3	1.3927273
52	0x3f611061	0.8791562
53	0x3f1894bd	0.59601957
54	0x3f645b26	0.8920158
55	0x3f3613b6	0.71123827
56	0x3f0c55f1	0.54818636
57	0x3f0a74b7	0.5408434
58	0x40e1523d	7.041289
59	0x40196235	2.396619
60	0x3ff0a63c	1.8800731
61	0x3f0f10a3	0.5588476
62	0x3fa4e39a	1.2881958
63	0x3fe01250	1.7505589

ae.encoder.cov03.weight f4 [32, 64, 3, 3]
0	0xbc93c326	-0.01803739
1	0x3e3218db	0.17392294
2	0x3db78633	0.08961143
3	0xbd957ef3	-0.07299604
4	0x3d98519c	0.07437441
5	0x3d6c0b9d	0.057628263
6	0xbe7f5ee9	-0.24938549
7	0x3d9db557	0.077006035
8	0x3b885f9f	0.0041617895
9	0x3db687d8	0.08912629
10	0x3d0325d4	0.032018498
11	0xbd061827	-0.032737877
12	0xbd82348a	-0.06357677
13	0x3d176e00	0.03697014
14	0x3de2a9ef	0.110675685
15	0x3d7dc0d0	0.06195146
16	0x3e0d065a	0.13771954
17	0x3cc31c4b	0.023817202
18	0x3de2c613	0.11072936
19	0xbc6aa0b3	-0.01432054
20	0xbd444e53	-0.04792626
21	0x3df156b7	0.11784118
22	0xbd1fb740	-0.03899312
23	0xbe031b5a	-0.12803403
24	0xbc91836b	-0.01776286
25	0xbce69729	-0.02814825
26	0xbd111076	-0.03541609
27	0xbd8ed583	-0.06974318
28	0xbd2ce20e	-0.04220777
29	0xbbd1584b	-0.006388699
30	0x3a288b1a	0.0006429419
31	0xbdd4b24b	-0.10385569
32	0xbd05e4aa	-0.032688774
33	0xbdc583f6	-0.0964431
34	0xbd9c4428	-0.07630187
35	0xbc7b5284	-0.0153394975
36	0xbcd77f84	-0.026305921
37	0x3dd3138e	0.10306464
38	0x3d58be6c	0.052915975
39	0x3dce9f25	0.10088948
40	0xbb8ebd50	-0.004356064
41	0xbd3affe5	-0.045654196
42	0x3d8f525f	0.06998133
43	0x3d80aa97	0.062825374
44	0x3df31f9c	0.118712634
45	0xbd98955d	-0.07450364
46	0xbe3bbf8f	-0.18334793
47	0x3d6b40a5	0.057434697
48	0xbe099932	-0.13437346
49	0xbdc7211c	-0.09723112
50	0x3ddfee1f	0.1093409
51	0xbda3a5f3	-0.07990637
52	0xbcc43062	-0.023948852
53	0xbdd82e55	-0.10555712
54	0x3d5ac0d8	0.053406566
55	0x3dff844c	0.124764055
56	0xbda60cf7	-0.081079416
57	0x3e059c4d	0.13047905
58	0x3d9fb438	0.07798046
59	0xbd503c60	-0.050838828
60	0xbe4360ce	-0.19079897
61	0x3dd31521	0.103067644
62	0xbd4407c5	-0.047858972
63	0x3d8d8795	0.06910626
64	0x3c9cab71	0.019124718
65	0x3ca750ec	0.020424329
66	0x3e060a0b	0.13089769
67	0x3d992b5d	0.07478974
68	0xbd94b9aa	-0.07261975
69	0xbc22afd2	-0.009929614
70	0xbe1e44b0	-0.1545589
71	0x3c808080	0.015686274
72	0x3d2c39bc	0.042047247
73	0xbd0f15e7	-0.034932997
74	0xbd86da30	-0.06584585
75	0xba4780f0	-0.0007610461
76	0xbd0482a9	-0.03235117
77	0x3da18a62	0.078877226
78	0xbd0baf42	-0.034102686
79	0xbc14379d	-0.009046462
80	0x3dbe0edb	0.09280177
81	0x3e05d665	0.13070066
82	0x3d6ce725	0.057837624
83	0x3b967bec	0.0045924094
84	0x3d65fd32	0.05614967
85	0xbd069be8	-0.032863528
86	0xbe01cde3	-0.12676196
87	0xbd86c3d5	-0.06580321
88	0x3d2addc3	0.041715395
89	0xbe168dca	-0.14702526
90	0x3de7140c	0.112831205
91	0x3caa4ae6	0.020787667
92	0xbc6d9b3f	-0.014502346
93	0xbd597f3e	-0.053099863
94	0x3c591ae9	0.013251045
95	0xbdeee15f	-0.1166408
96	0x3d7bcf94	0.06147726
97	0xbcf329e9	-0.02968307
98	0xbca3a46f	-0.019975869
99	0xbb9df267	-0.0048201564
100	0xbd4c3d54	-0.049863175
101	0x3b78cb48	0.0037962962
102	0x3d314817	0.04328164
103	0x3d64399e	0.05571901
104	0xbdc9f466	-0.098610684
105	0xbd107932	-0.03527183
106	0x3d865dab	0.065608345
107	0x3d5db9a6	0.054132126
108	0x3da5d6ba	0.080975965
109	0x3c7f2d8f	0.015574827
110	0x3c82f751	0.01598707
111	0xbd9f8365	-0.077887334
112	0x3d45a974	0.048257306
113	0xbdd37ce8	-0.10326558
114	0x3d39118e	0.045182757
115	0xbd3949f8	-0.045236558
116	0xbd287398	-0.041125864
117	0x3db0dab9	0.08635468
118	0xbc399427	-0.011326826
119	0x3da01e00	0.07818222
120	0x3cffbbc1	0.031217458
121	0x3d835f2c	0.06414637
122	0xbc12f503	-0.008969548
123	0x3cad01c6	0.02111901
124	0xbd41ad38	-0.047284335
125	0x3d2e12f2	0.042498536
126	0x3d99c327	0.075079255
127	0x3dd0b38b	0.10190495
128	0x3dacec8b	0.084435545
129	0x3c340ca3	0.010989341
130	0x3c8664e0	0.016405523
131	0x3bbd5a70	0.0057786033
132	0x3d87777d	0.066145875
133	0x3d8f54b4	0.06998578
134	0x3d986e21	0.074428804
135	0x3d91e9b3	0.07124653
136	0xbc2a2ffa	-0.010387415
137	0xbd090208	-0.033449203
138	0xbd4bb444	-0.04973246
139	0xbc131650	-0.008977488
140	0x3dc7ce88	0.097561896
141	0xbbfe45ba	-0.007759777
142	0x3dacb402	0.08432771
143	0x3e42a42b	0.19007938
144	0x3cb5dbd1	0.022199543
145	0x3c78cff0	0.015186295
146	0x3d0d0440	0.03442788
147	0x3c8dd3f7	0.017312987
148	0xbd8cae0d	-0.06869135
149	0x3c9879c0	0.018612742
150	0x3c93a1a0	0.018021405
151	0x3d3fbc53	0.04681046
152	0xbda2ed58	-0.07955426
153	0xbc6ca2c9	-0.014443108
154	0x3cd03bb6	0.025419097
155	0x3d43df67	0.047820475
156	0xbe80397b	-0.25043854
157	0x3d4a05b7	0.049321856
158	0xbd15aaf6	-0.036539994
159	0xbe054634	-0.13015062
160	0xbdf77393	-0.12082591
161	0x3d3ff813	0.04686744
162	0xbb99c20f	-0.004692323
163	0x3d93afbf	0.07211255
164	0x3d052c7b	0.032513123
165	0x3d8004c3	0.06250908
166	0xbd00b3eb	-0.031421583
167	0xbe03522b	-0.12824313
168	0xbda0c76d	-0.078505374
169	0xbdc4c3c5	-0.096076526
170	0xbda92fe1	-0.08261085
171	0xbde49327	-0.111608796
172	0x3d365a81	0.044519905
173	0xbd1912a3	-0.03737129
174	0x3bd1d1b3	0.006403172
175	0x3cc26806	0.023731243
176	0xbd9a631e	-0.07538436
177	0x3ac66431	0.001513606
178	0xbdfdd73f	-0.123945706
179	0xbc9a8e19	-0.018866586
180	0x3d24851d	0.04016601
181	0x3b6fbe13	0.00365818
182	0xbdb46ed7	-0.088102035
183	0xbd3c5b9c	-0.045985803
184	0xbccdca4f	-0.025120882
185	0x3cb20616	0.021731418
186	0x3e329913	0.17441206
187	0x3dfbc8cc	0.12294158
188	0x3d8b01af	0.067874305
189	0xbd964076	-0.07336514
190	0xbdaecee1	-0.08535553
191	0xbdb851ed	-0.09000001
192	0xbe08f2d1	-0.13373877
193	0xbc644aa7	-0.013933814
194	0x3d8d5879	0.069016404
195	0x3daeb13b	0.08529898
196	0x3da49a95	0.08037297
197	0x3cf2d2ee	0.029641595
198	0x3d909aa6	0.07060747
199	0x3c247434	0.010037471
200	0xbdfad342	-0.122473255
201	0x3c979813	0.018505132
202	0x3e238a40	0.15970707
203	0x3bb80674	0.0056160036
204	0x3e2797e6	0.16366538
205	0xbcb00b27	-0.021489693
206	0xbd10ee66	-0.035383604
207	0x3d1937d6	0.037406765
208	0xbd98466b	-0.07435306
209	0xbcc0a873	-0.023517823
210	0xbe04e345	-0.12977321
211	0xbca7d0d7	-0.020485325
212	0x3d6146c5	0.05499913
213	0xbe15792f	-0.14597009
214	0x3d7c6667	0.061621096
215	0xb9e561fe	-0.00043751294
216	0x3d37814e	0.04480105
217	0x3dda4dec	0.10659394
218	0x3be55486	0.0069986014
219	0xbdf7399e	-0.120715365
220	0xbdb63247	-0.088963084
221	0xbc6f2e3b	-0.014598425
222	0xbd456c1e	-0.04819881
223	0xbca5eaa5	-0.020253489
224	0xbc51c2ce	-0.012802793
225	0xbdc1600d	-0.09442148
226	0x3d8f9911	0.07011617
227	0xbdc08b3a	-0.09401555
228	0xbd6a6506	-0.05722525
229	0x3d365407	0.04451373
230	0xbcfb3395	-0.030664245
231	0xbe38eff8	-0.18060291
232	0xbaaba80f	-0.001309635
233	0xbcf0bcff	-0.029386995
234	0x3d0c9418	0.03432092
235	0xbd3f126d	-0.04664843
236	0xbbe4bba7	-0.0069803777
237	0x3d9b67c8	0.07588154
238	0x3d7c982f	0.06166857
239	0x3e20dfea	0.15710416
240	0x3c3c76f1	0.011502967
241	0x3d95e602	0.07319261
242	0xbd8704b8	-0.06592697
243	0x3cfbd764	0.030742355
244	0x3d39d9b5	0.045373637
245	0xbe18b2fe	-0.1491203
246	0xbd08c377	-0.033389535
247	0x3c4fda55	0.012686332
248	0xbd622b53	-0.0552171
249	0xbd8713a2	-0.065955415
250	0x3d0a1410	0.03371054
251	0xbd35ed14	-0.04441555
252	0xbd39ef21	-0.045394067
253	0xbe54a90d	-0.20767613
254	0x3dcbf249	0.099583216
255	0xbe08d91e	-0.13364074

ae.encoder.cov03.bias f4 [32]
0	0xbad301b4	-0.001609853
1	0xba64330f	-0.0008705118
2	0x39ff45f2	0.00048689503
3	0xbb3a2df7	-0.0028408745
4	0xbb6da36e	-0.0036260742
5	0xbac6a310	-0.0015154798
6	0xbb895a17	-0.0041916477
7	0xbab134bc	-0.0013519744
8	0xb9cd338e	-0.00039139058
9	0xba8b7c23	-0.0010641854
10	0xbb086bc0	-0.0020816177
11	0xbb7f4bd0	-0.00389551
12	0xbb7040e2	-0.0036659767
13	0xbb0eb481	-0.002177507
14	0xbaaf1e82	-0.0013360532
15	0xbb016bca	-0.0019748085
16	0xbb22a861	-0.00248196
17	0xbb860f10	-0.004091151
18	0xbb576b73	-0.0032870441
19	0xbb5eb4b9	-0.003398223
20	0xbb35ddd6	-0.0027750633
21	0xba91730c	-0.0011096909
22	0xbc64112e	-0.013920112
23	0xbc919edc	-0.017775945
24	0xbc2e8442	-0.01065165
25	0xbb7f1350	-0.0038921423
26	0xba010365	-0.00049214653
27	0xbb79e8c3	-0.0038133122
28	0xbb8ed966	-0.004359412
29	0xbb8a83f3	-0.0042271554
30	0x39b5af91	0.00034653817
31	0xbc15ca3e	-0.009142457

ae.encoder.bn03.weight f4 [32]
0	0x3f72337e	0.9460982
1	0x3f878b30	1.0589352
2	0x3f8beb7f	1.0931243
3	0x3f85a517	1.0441006
4	0x3f749e46	0.95554006
5	0x3f8a6dde	1.0814779
6	0x3f73f88c	0.9530113
7	0x3f746691	0.95469004
8	0x3f7b0ef8	0.98069715
9	0x3f7116a4	0.9417517
10	0x3f81527d	1.0103298
11	0x3f6c806b	0.9238345
12	0x3f6e14da	0.93000567
13	0x3f76c9e4	0.9640181
14	0x3f8adfd4	1.0849557
15	0x3f6cbc7b	0.924751
16	0x3f8624fa	1.0480034
17	0x3f75ca3b	0.96011704
18	0x3f8254bc	1.0182109
19	0x3f8a5b27	1.0809067
20	0x3f6b3d95	0.9189084
21	0x3f843446	1.0328453
22	0x3f7a61b1	0.97805315
23	0x3f6e990f	0.932023
24	0x3f806a50	1.0032444
25	0x3f722a5f	0.94595903
26	0x3f84ab68	1.0364809
27	0x3f88ed49	1.0697414
28	0x3f7116f3	0.9417564
29	0x3f8431a9	1.0327655
30	0x3f8320e6	1.0244415
31	0x3f8b6d9b	1.0892824

ae.encoder.bn03.bias f4 [32]
0	0xbd934e46	-0.07192664
1	0xbcc75b0f	-0.024335412
2	0x3bc68770	0.006058626
3	0xbd1c56c5	-0.038168687
4	0xbd6e9ae5	-0.058253188
5	0x3bf67ab8	0.0075219534
6	0xbd7c2278	-0.06155631
7	0xbd5d957f	-0.05409765
8	0xbcb8828a	-0.022523183
9	0xbd8f6fce	-0.07003747
10	0xbd557b94	-0.052119806
11	0xbdc7e0dc	-0.097596854
12	0xbda6f0a6	-0.08151369
13	0xbd84a8b3	-0.06477489
14	0xbd4f872e	-0.050666027
15	0xbdaf9ba4	-0.08574608
16	0xbd23d447	-0.039997365
17	0xbd8cc08f	-0.06872665
18	0xbd9a2cc2	-0.07528068
19	0xbd88c813	-0.06678786
20	0xbda0d6e1	-0.07853485
21	0xbd5183ca	-0.051151074
22	0xbde82629	-0.113354035
23	0xbde4043f	-0.111336224
24	0xbdbddf08	-0.092710555
25	0xbd8d8f52	-0.06912102
26	0xbd111382	-0.035418995
27	0xbd73d3fe	-0.059528343
28	0xbdd20c87	-0.10256296
29	0xbd70f2d0	-0.058825314
30	0xbce23bfb	-0.027616492
31	0xbdd305d0	-0.10303843

ae.encoder.bn03.running_mean f4 [32]
0	0x3e8aae8b	0.2708629
1	0x3f484c62	0.7824155
2	0x3eae408e	0.34033626
3	0x3d93f076	0.07223599
4	0x3d8f7af2	0.07005872
5	0x3f8a2b4e	1.0794466
6	0xbf1cd877	-0.612678
7	0x3d58bec6	0.05291631
8	0x3e83e621	0.25761512
9	0x3f045d88	0.5170522
10	0x3f04dbe1	0.5189801
11	0x3d25591a	0.040368177
12	0xbe4f6f45	-0.2025729
13	0x3f48e5c7	0.7847561
14	0x3efa024d	0.4882988
15	0x3ed264ea	0.41092616
16	0x3f50594c	0.81386256
17	0x3f49ac46	0.78778493
18	0x3e478b5d	0.19486757
19	0xbd4b52b2	-0.04963941
20	0xbdc9bd0a	-0.098505095
21	0x3f563ba3	0.8368475
22	0x3ed7724e	0.42079395
23	0xbdd64f2f	-0.10464322
24	0x3dbadd4d	0.09124241
25	0x3f254b45	0.6456798
26	0x3f81cbc1	1.0140306
27	0x3e39b1fd	0.18134303
28	0x3db3b8e1	0.08775497
29	0xbd09d7d3	-0.03365309
30	0x3f2556c3	0.6458551
31	0x3e6474fb	0.2231025

ae.encoder.bn03.running_var f4 [32]
0	0x4099d3e5	4.807116
1	0x402a29e2	2.6588063
2	0x4046c7de	3.105949
3	0x3fb18f07	1.3871773
4	0x40e5806d	7.171927
5	0x4025e542	2.5921178
6	0x402bab56	2.6823325
7	0x41085452	8.520586
8	0x40864bde	4.196761
9	0x40f47572	7.6393366
10	0x40a9e271	5.308892
11	0x403d20ff	2.955139
12	0x40ec4249	7.3830914
13	0x40bda30f	5.9261546
14	0x401bf900	2.4370728
15	0x410af0bb	8.683772
16	0x40b96bfa	5.7944307
17	0x40336087	2.8027666
18	0x406a1f90	3.6581764
19	0x4073d57b	3.8099048
20	0x40eb2287	7.347965
21	0x401dac8c	2.4636564
22	0x3f16e45e	0.5894221
23	0x3fe37f23	1.7773174
24	0x40a12c27	5.0366397
25	0x40b0bb45	5.52286
26	0x408ae32e	4.340232
27	0x4056ba78	3.3551311
28	0x404e96bc	3.22795
29	0x406d4e53	3.7079055
30	0x40499231	3.1495478
31	0x3fa38f96	1.2778194

ae.decoder.tr01.weight f4 [32, 64, 3, 3]
0	0xbdaac081	-0.083374985
1	0x3dd3bbaf	0.10338532
2	0xbd396b66	-0.04526844
3	0xbc043900	-0.0080702305
4	0xb8a27dff	-7.7482306e-05
5	0xbdc3b1b1	-0.09555376
6	0xbd006a59	-0.03135142
7	0xbc7a53c3	-0.015278759
8	0xbe0c652e	-0.13710472
9	0xbddce550	-0.107859254
10	0xbdb31839	-0.087448545
11	0xba97d2ec	-0.0011583245
12	0xba240994	-0.0006257531
13	0x3bcfeecf	0.006345607
14	0xbd0f89ad	-0.035043407
15	0xbd7ba6d6	-0.061438404
16	0xbd216a0e	-0.039407782
17	0xbcdf474c	-0.027255677
18	0x3da75b4d	0.08171711
19	0x3dc19918	0.094530284
20	0x3e024f1c	0.1272549
21	0xbbaf3a19	-0.005347502
22	0xbddd5349	-0.10806901
23	0x3d12a60b	0.035802882
24	0x3d48f3eb	0.049060743
25	0xbd697db6	-0.057004653
26	0xbccca7ae	-0.0249823
27	0xbe1a762c	-0.15084141
28	0xbcd82f39	-0.026389705
29	0xbcdb3235	-0.026757339
30	0x3cfb242b	0.030656895
31	0xbc9cfb37	-0.019162757
32	0xbd80ac88	-0.06282908
33	0x3e01f01c	0.1268925
34	0x3cae8f38	0.021308526
35	0xbd56239b	-0.05228005
36	0xbc7ae0ac	-0.015312355
37	0x3d17e2b3	0.03708143
38	0xbd23413f	-0.039857145
39	0xbce83a40	-0.028348088
40	0x3c46e7da	0.012140239
41	0xbe26aa29	-0.16275848
42	0xbd90c613	-0.0706903
43	0x3d8a451d	0.067514636
44	0xbe271b89	-0.16319098
45	0xbd8553e3	-0.06510141
46	0xbd71df0c	-0.059050605
47	0x3cacaf30	0.02107963
48	0x3d82afa4	0.06381157
49	0xbd8ebd69	-0.06969721
50	0xbd5974b3	-0.05308981
51	0x3da65a6a	0.08122714
52	0x3da3ce5c	0.07998344
53	0xbca75d40	-0.020430207
54	0x3c35a630	0.0110869855
55	0xbda677ea	-0.081283405
56	0xbbd85e82	-0.006603063
57	0xbdb9641d	-0.09052298
58	0xbc8a788c	-0.016903184
59	0x3d199b07	0.03750136
60	0x3d1594e1	0.036518935
61	0xbd4f5c24	-0.05062498
62	0x3c8782c9	0.016541855
63	0x3e2aae33	0.16668014
64	0x3c8b97de	0.01704019
65	0x3e0a08b0	0.13479877
66	0x3d050a81	0.03248072
67	0xbd17b911	-0.037041727
68	0x3d4489f4	0.047983125
69	0xbe062c4b	-0.13102834
70	0x3e4ab26a	0.19794622
71	0x3c86600c	0.01640322
72	0x3d8a7c1c	0.06761953
73	0xbdbf104a	-0.09329279
74	0xbd8ffe91	-0.070309766
75	0x3cead2cc	0.028664969
76	0x3d14bcab	0.03631274
77	0x3d2abedb	0.04168592
78	0x3d6be22a	0.057588734
79	0xbe1824ff	-0.14857863
80	0x3d8a39f3	0.06749334
81	0x3d9a7cbf	0.07543325
82	0x3d1edee9	0.038786802
83	0xbdee1670	-0.11625373
84	0xbd0600cc	-0.032715604
85	0x3d92cd07	0.07168012
86	0x3cc2a3f1	0.023759814
87	0x3d6c5a77	0.05770346
88	0x3d3adc2e	0.045620136
89	0x3c1c283c	0.009531077
90	0x3d3f47b1	0.04669923
91	0xbdda2b9f	-0.10652851
92	0xbd7661a1	-0.0601517
93	0x3de2de18	0.11077517
94	0xbe9ec4f3	-0.31009635
95	0x3d32f0d6	0.04368671
96	0xbd900d52	-0.07033791
97	0x3b114f8a	0.0022172653
98	0xbb418c94	-0.0029533254
99	0xbc012a40	-0.007883608
100	0xbe012f49	-0.12615694
101	0xbdd6297b	-0.104571305
102	0xba717bf2	-0.00092118897
103	0x3d44b236	0.048021518
104	0x3df4e9d7	0.11958664
105	0xbe2c33ee	-0.16816685
106	0xbdeab2d8	-0.11459893
107	0xbda3ef28	-0.080046
108	0x3c911978	0.01771234
109	0xbe90e884	-0.28302395
110	0xbd446d83	-0.047956
111	0xbd05a7c0	-0.032630682
112	0xbca2f018	-0.019889876
113	0x3db20297	0.086919
114	0xbdb56e6b	-0.08858951
115	0x3ddff4f8	0.10935396
116	0xbca7d2a8	-0.02048619
117	0xbdcad504	-0.09903911
118	0xbc1fec39	-0.00976091
119	0xbcd89279	-0.026437031
120	0x3cc81df1	0.02442834
121	0xbd6054b1	-0.054768268
122	0x3c2f018c	0.010681521
123	0xbd9daaaf	-0.07698571
124	0xbd4b5348	-0.04963997
125	0xbd3b644a	-0.04574994
126	0xbdb47188	-0.08810717
127	0x3d611e7b	0.05496071
128	0x3d856faf	0.065154426
129	0x3d623ae4	0.055231944
130	0xbdf62f06	-0.12020688
131	0xbdc2998d	-0.09501944
132	0x3e3b7b2f	0.1830871
133	0x3d8428bd	0.06453083
134	0xbdec7ef3	-0.11547651
135	0x3d30cbce	0.043163113
136	0x3d070146	0.0329602
137	0xbdae198a	-0.08500965
138	0xbe1ab6bc	-0.1510877
139	0xbd971d44	-0.07378629
140	0xbe372be5	-0.17887838
141	0x3e1196bd	0.14217658
142	0xbcc5222f	-0.024064152
143	0xbdd1905d	-0.10232613
144	0xbd9fe3c7	-0.07807117
145	0x3e086a3f	0.1332178
146	0xbe5bb167	-0.21454392
147	0x3d9a5a4b	0.07536753
148	0xbbe35778	-0.0069379173
149	0x3dad44ac	0.08460364
150	0xbcc0524b	-0.02347674
151	0x3d6fc32f	0.05853575
152	0xbe0d52ba	-0.13801089
153	0x3e1e0ed0	0.15435338
154	0xbd06af01	-0.03288174
155	0xbe089048	-0.13336289
156	0xbdce3c61	-0.1007011
157	0xbcdb3169	-0.026756959
158	0xbdbf41cb	-0.09338721
159	0x3d0a25f4	0.0337276
160	0xbd027036	-0.031845294
161	0xbd65b023	-0.05607618
162	0x3e362783	0.1778851
163	0x3dbc6781	0.09199429
164	0x3c801960	0.0156371
165	0xbdf9e564	-0.12201956
166	0x3cde35f6	0.02712534
167	0xbde9fd66	-0.11425285
168	0xbda21640	-0.079144
169	0xbcd62d6b	-0.026144704
170	0xbdb5f712	-0.088850155
171	0x3dc8d2b3	0.09805813
172	0xbcd6fb39	-0.02624284
173	0x3dadb308	0.08481413
174	0xbdaa8364	-0.08325842
175	0x3da5172d	0.08061061
176	0x3cf9efc5	0.030509839
177	0xbda0d6f0	-0.07853496
178	0x3cb695a5	0.022288153
179	0xbd5be37a	-0.053683735
180	0xbcea23b1	-0.028581472
181	0xbd5052aa	-0.050860085
182	0xbddc0508	-0.10743147
183	0x3d27ddcd	0.04098301
184	0xbddf63b4	-0.10907689
185	0x3d91108b	0.070832334
186	0x3dc17fd3	0.09448209
187	0x3e10b5c8	0.14131844
188	0xbd25c49f	-0.040470716
189	0x3dc27264	0.094944745
190	0x3c0f8e0f	0.008761897
191	0xbca49f58	-0.020095512
192	0x3dab3853	0.08360352
193	0x3cf80a6a	0.030278403
194	0xbdc7e1c0	-0.09759855
195	0xbdb953b4	-0.09049168
196	0xbd7157f7	-0.05892178
197	0xbda19bf9	-0.078910775
198	0xbdcffb22	-0.10155322
199	0xbc12407e	-0.008926509
200	0x3d1d62b4	0.03842421
201	0xbe489684	-0.19588667
202	0xbc7d7891	-0.01547064
203	0xbe44401b	-0.1916508
204	0x3c93e7d4	0.01805488
205	0xbd1ae1e6	-0.03781309
206	0xbd981b1e	-0.07427047
207	0xbe1e73c5	-0.1547385
208	0x3d9e1460	0.0771873
209	0xbd24791b	-0.040154558
210	0xbdce8f92	-0.100859776
211	0xbc2c3273	-0.010510075
212	0x3c54ebe9	0.0129956985
213	0x3c865033	0.016395664
214	0x3cf1f728	0.029536799
215	0xbdaa2a9e	-0.0830891
216	0xbdc985da	-0.09839983
217	0x3d208808	0.03919223
218	0xbd358990	-0.044320643
219	0xbdf16bdd	-0.117881514
220	0x3d909370	0.070593715
221	0x3ded6820	0.11592126
222	0x3e05c6b7	0.13064085
223	0xbd912c38	-0.07088512
224	0x3da64846	0.08119254
225	0xbd48a1f5	-0.04898258
226	0x3d7b8f74	0.061416104
227	0xbcfc7674	-0.030818202
228	0x3ce4cddf	0.027930198
229	0xbe3f0fd3	-0.1865838
230	0x3dab8615	0.083751835
231	0xbd5992ec	-0.05311863
232	0x3ceb3bf9	0.02871512
233	0x3dbd2603	0.09235766
234	0x3b8950d1	0.0041905423
235	0x3dfa4944	0.122210056
236	0x3e164b15	0.14677079
237	0x3e29f70e	0.1659815
238	0xbd863566	-0.06553154
239	0xbe15b3ec	-0.14619416
240	0xbd4fc541	-0.050725225
241	0xbe26df16	-0.16296038
242	0xbd45c99f	-0.048287984
243	0xbd590660	-0.052984595
244	0x3d2cbb39	0.042170737
245	0x3e0c78a8	0.13717902
246	0xbe0011e2	-0.12506822
247	0x3ca2aa94	0.019856729
248	0x3d58339a	0.052783586
249	0xbe131b5c	-0.14365906
250	0xbd2cba23	-0.0421697
251	0x3c8fcc81	0.01755357
252	0xbc0812da	-0.008305276
253	0xbd2a4726	-0.04157176
254	0x3c32b54b	0.010907481
255	0xbb8575f3	-0.0040728985

ae.decoder.tr01.bias f4 [64]
0	0x3886c678	6.4265856e-05
1	0xb8955b56	-7.121886e-05
2	0x3788ab10	1.629212e-05
3	0xb848aa29	-4.784219e-05
4	0xb802750e	-3.110343e-05
5	0xb818bd61	-3.6415997e-05
6	0xb9658fdf	-0.00021892738
7	0x38cd6672	9.794244e-05
8	0xb8190ddb	-3.6490947e-05
9	0x38755f3d	5.850125e-05
10	0xb79942b9	-1.8270091e-05
11	0x382b124b	4.0786614e-05
12	0xb90da1ca	-0.00013507079
13	0xb825784d	-3.9451104e-05
14	0xb75c1c7a	-1.3119652e-05
15	0x3964bcea	0.0002181415
16	0xb73c1945	-1.1211557e-05
17	0x357dbdce	9.4526047e-07
18	0x38d2d9a4	0.00010054119
19	0xb85d5992	-5.2773925e-05
20	0x38261474	3.9596533e-05
21	0xb7271051	-9.957775e-06
22	0x390f737e	0.00013680567
23	0xb6a5d521	-4.9421947e-06
24	0xb86e3175	-5.6789682e-05
25	0xb88bde99	-6.6694985e-05
26	0x36d6cd4b	6.4015962e-06
27	0x38c61621	9.4454976e-05
28	0x38baebb2	8.913073e-05
29	0xb73bb98b	-1.1189269e-05
30	0x38a96ee7	8.079205e-05
31	0x38451ce3	4.6995363e-05
32	0xb935680c	-0.00017300266
33	0x390ceacb	0.00013438908
34	0x3815f9f7	3.5757166e-05
35	0x39e182e2	0.0004301286
36	0x392b8519	0.00016357414
37	0xb90ccd98	-0.0001342803
38	0xb921fe3b	-0.00015448865
39	0x385f7a25	5.32811e-05
40	0xb8337d5f	-4.2793687e-05
41	0x3944a405	0.00018753119
42	0x38646835	5.4456486e-05
43	0xb7fbce71	-3.0017663e-05
44	0x38f032f4	0.000114535826
45	0x36f0b416	7.173522e-06
46	0x390ecc5a	0.00013618302
47	0x3864cb94	5.4549033e-05
48	0x38698025	5.5670873e-05
49	0x38208de7	3.827913e-05
50	0x3904df10	0.00012671598
51	0x385712c4	5.127747e-05
52	0xb7450ba4	-1.1744825e-05
53	0x371e7c25	9.4464385e-06
54	0x3700e3bb	7.682417e-06
55	0x37ea32ad	2.7918572e-05
56	0xb8bb6833	-8.9362635e-05
57	0xb8c87fe2	-9.560563e-05
58	0xb818ba22	-3.6412974e-05
59	0xb7e10530	-2.6824506e-05
60	0xb8f8ffb1	-0.00011873188
61	0xb8a9e98f	-8.102052e-05
62	0xb945629c	-0.00018824119
63	0x362c14ff	2.5642219e-06
