checkpoint/teacher_checkpoint.pt (torch, 532794 bytes, 26 tensors)

ae.encoder.cov01.weight f4 [64, 144, 1, 1]
-0.1879856 0.13437366 -0.04605775 0.04548856 0.17793752 -0.058181133 0.15732141 -0.0515738
0.03708212 0.24836123 -0.029106438 -0.040685274 0.10006524 0.09854746 -0.06782475 0.017395064
-0.080544695 -0.026774406 0.27794337 -0.19229998 -0.12057218 0.12794866 -0.31360555 0.41534266
-0.19179992 -0.16122814 -0.1207796 -0.23521811 -0.044014137 -0.29118618 -0.13463682 0.07790901
-0.36142787 -0.037276104 -0.26622266 0.27431107 -0.2557432 0.040915843 -0.060271163 0.04146006
-0.41792855 0.00029664513 0.049549863 0.023602027 -0.0011012726 0.19148064 -0.0053770244 0.10576098
-0.085142426 0.363858 0.19436283 0.030773334 0.1789082 -0.0025122936 0.1568498 -0.07161924
0.0016681723 -0.30813256 -0.3059786 -0.04728593 -0.27143168 0.135625 0.012360719 0.053593367
-0.08085133 -0.020436322 -0.21619266 0.14514075 -0.019998599 -0.00997561 0.2997067 -0.6168386
0.3471544 -0.33756298 0.1533649 -0.053233758 0.07890837 0.22215797 -0.12548856 -0.007830067
-0.008426328 -0.15140574 -0.08115511 -0.16418946 0.0608687 -0.20648645 0.07738604 -0.12054749
0.01381982 -0.027343115 -0.3043633 0.067226484 0.031641703 -0.2624372 -0.16039044 0.060003124
0.14449784 0.014374588 -0.22386898 0.1040376 0.17320979 -0.0728153 -0.14377145 0.24985564
-0.23701876 -0.124939 -0.0050536906 -0.088215746 -0.21529652 -0.034981333 -0.06943513 -0.25609937
0.22003011 -0.08920436 0.21574779 0.06811086 0.16301961 0.16999999 0.10367323 0.4694933
-0.31653294 0.46087098 -0.43290538 0.00440615 -0.30256853 0.113599956 0.04503831 0.18280783
-0.036602452 0.34188965 -0.010874384 -0.25116855 -0.075198896 0.094427 0.2682104 0.06605123
-0.07559256 0.32448447 -0.029673317 -0.2394615 0.0042622695 0.18190579 0.04424542 -0.16061367
0.11405215 0.4711753 0.19522259 0.029183237 0.06947027 0.11122872 0.14847492 0.22946887
-0.09802043 0.112341516 -0.23077862 -0.031910762 -0.13138841 0.20786884 -0.1055039 0.3453163
0.18286566 -0.2188448 -0.033015396 0.018973833 -0.087615825 0.009465168 0.042069025 0.06690114
-0.09946206 -0.040023368 0.03993486 -0.021473808 -0.023951832 -0.012622227 -0.005082111 0.0085836975
0.0027781765 0.023395855 0.06581929 0.10199753 -0.1626786 0.054411422 -0.35213846 0.109616
-0.13512583 -0.25293788 0.0066313553 -0.06371212 0.12887728 0.13514774 -0.01608645 0.0014573744
-0.26055917 0.25499973 -0.03721693 -0.016809998 -0.06995637 -0.059477203 -0.12531695 -0.57288796
-0.08505573 -0.010888783 0.13662861 -0.31321818 -0.18079509 -0.045132708 0.14106871 0.12014791
-0.2784079 -0.3404055 -0.15618505 -0.11521956 -0.22595441 0.08742446 0.11181776 0.07128367
-0.06397099 0.47136873 -0.241193 0.110834256 0.14325358 -0.027850177 0.21988085 -0.1875368
0.012722546 -0.12946029 -0.17037752 -0.0831528 -0.036417626 0.13272823 -0.02486128 0.008798854
-0.0979357 0.13926311 -0.14483601 0.22389056 -0.03762565 -0.1448635 0.13265179 0.18375047
0.081768095 0.3056301 -0.14758119 -0.09307629 0.023862755 -0.009801989 0.0061236885 -0.034665033
0.14583284 0.2505926 0.149526 0.120575435 -0.27042234 -0.11829664 -0.09000297 -0.031068556
00000000: 4c7f 40be 4099 093e 0da7 3cbd 3652 3a3d
00000010: 4135 363e 574f 6ebd dd18 213e 0d3f 53bd
00000020: 6ce3 173d 6852 7e3e a070 eebc 9aa5 26bd
00000030: 01ef cc3d 40d3 c93d b4e7 8abd 1880 8e3c
00000040: 9ef4 a4bd 0056 dbbc 984e 8e3e 49ea 44be
00000050: 8cee f6bd f904 033e e890 a0be cba7 d43e
00000060: 3367 44be fd18 25be 4c5b f7bd 04dd 70be
00000070: 2b48 34bd 5b16 95be 3cde 09be c28e 9f3d
00000080: 130d b9be d4ae 18bd 564e 88be 8072 8c3e
00000090: c6f0 82be 5f97 273d e5de 76bd 06d2 293d
000000a0: bbfa d5be 0987 9b39 ccf4 4a3d 0a59 c13c
000000b0: 9458 90ba 8013 443e c031 b0bb 3699 d83d
000000c0: 275f aebd 994b ba3e 0d07 473e 5c18 fc3c
000000d0: b633 373e 4ba5 24bb 3c9d 203e 1cad 92bd
000000e0: 93a6 da3a 8dc3 9dbe 3aa9 9cbe e4ae 41bd
000000f0: 18f9 8abe 48e1 0a3e 9d84 4a3c b884 5b3d
00000100: 6295 a5bd 136a a7bc 9c61 5dbe c79f 143e
00000110: 1ad4 a3bc be70 23bc 2873 993e 22e9 1dbf
00000120: 39be b13e 0ed5 acbe b00b 1d3e a40b 5abd
00000130: b69a a13d 617d 633e 1380 00be ae49 00bc
00000140: 950e 0abc 1b0a 1bbe a634 a6bd 4821 28be
00000150: 7551 793d 2f71 53be 927c 9e3d 9ae1 f6bd
00000160: 876c 623c abfe dfbc 82d5 9bbe 0aae 893d
00000170: bb9a 013d 2b5e 86be 643d 24be d6c5 753d
00000180: 3ef7 133e 6483 6b3c e93d 65be aa11 d53d
00000190: e85d 313e 3020 95bd d338 13be 28da 7f3e
000001a0: 0cb5 72be 05e0 ffbd 6e99 a5bb 75aa b4bd
000001b0: b176 5cbe 9648 0fbd 0134 8ebd 751f 83be
000001c0: 934f 613e c7b0 b6bd fdec 5c3e b57d 8b3d
000001d0: 9dee 263e 7a14 2e3e a152 d43d 6d61 f03e
000001e0: 9b10 a2be 48f7 eb3e c6a5 ddbe 7761 903b
000001f0: 43ea 9abe 18a7 e83d 177a 383d fa31 3b3e
00000200: 74ec 15bd 290c af3e 792a 32bc 2a99 80be
00000210: e101 9abd f162 c13d e052 893e de45 873d
00000220: 46d0 9abd d422 a63e 7515 f3bc 6535 75be
00000230: 82aa 8b3b 8345 3a3e af3a 353d e977 24be
00000240: 2c94 e93d e43d f13e 6ee8 473e af11 ef3c
00000250: 6e46 8e3d e2cb e33d cf09 183e e3f9 6a3e
00000260: efbe c8bd 4f13 e63d 3b51 6cbe dcb4 02bd
00000270: af8a 06be 92db 543e 6e12 d8bd 4ccd b03e
00000280: 2341 3b3e da18 60be 273b 07bd 036f 9b3c
00000290: ed6f b3bd cb13 1b3c 9250 2c3d 7703 893d
000002a0: c4b2 cbbd 8bef 23bd bc92 233d d7e9 afbc
000002b0: a236 c4bc 75cd 4ebc d687 a6bb a3a2 0c3c
000002c0: 1112 363b aaa8 bf3c 44cc 863d 15e4 d03d
000002d0: 3895 26be 83de 5e3d 7e4b b4be 5a7e e03d
000002e0: 6d5e 0abe 1381 81be d74b d93b 807b 82bd
000002f0: 68f8 033e 2b64 0a3e bbc7 83bc 5f05 bf3a
00000300: 0368 85be 538f 823e c870 18bd 1fb5 89bc
00000310: 4945 8fbd 5e9e 73bd 1653 00be c9a8 12bf
00000320: b331 aebd de66 32bc 5fe8 0b3e 225e a0be
00000330: 5922 39be 13dd 38bd 5174 103e 1c10 f63d
00000340: 7b8b 8ebe a149 aebe f9ee 1fbe 3cf8 ebbd
00000350: 9860 67be 980b b33d b600 e53d 2cfd 913d
00000360: 3903 83bd 3e57 f13e 4cfb 76be 12fd e23d
00000370: 11b1 123e 0e26 e4bc 7228 613e a609 40be
00000380: 3a72 503c 3d91 04be 7277 2ebe 044c aabd
00000390: a62a 15bd e9e9 073e e2a9 cbbc 1229 103c
000003a0: 8392 c8bd fd9a 0e3e e44f 14be 9143 653e
000003b0: 5b1d 1abd 1957 14be dfd5 073e 1529 3c3e
000003c0: 0876 a73d 8c7b 9c3e 861f 17be c89e bebd
000003d0: d37b c33c 8698 20bc 39a9 c83b ecfc 0dbd
000003e0: 3455 153e ac4d 803e 581d 193e 41f0 f63d
000003f0: cc74 8abe 8245 f2bd 7a53 b8bd 7c83 febc

ae.encoder.cov01.bias f4 [64]
-0.000113654074 0.0010942435 -9.320323e-05 0.0008818504 0.00039402238 -0.0028687883 -0.0027137569 0.00060107035
0.0037317774 0.0027343782 -0.00034940938 0.00069542025 0.001400908 -0.00134432 -0.0010504929 -0.00048729032
0.0029244707 -0.0011171359 -0.00041980826 -0.00088848796 0.00047500883 0.0019112454 -0.00079486036 -6.310605e-05
-8.6550324e-05 -2.106847e-05 -0.0029208283 0.0007124289 0.0015325083 -0.0013296703 0.0021275666 -0.00067448686
0.0007800007 -0.0014538766 0.0008017822 -0.00060948933 -0.00015141792 0.0011509865 -0.0031729105 -0.0014568539
0.0022158052 -0.0014763166 0.00046594942 0.0016171571 0.00021973407 0.0011397968 0.00027314696 0.0010507127
0.0010579863 0.0010653179 -0.0050820904 -0.00040450154 -0.001865407 -0.0005046584 0.002030648 -0.00081444514
0.00040076376 -0.00016740069 0.0008942498 -0.0026370543 8.791252e-05 0.0012404833 0.0009988773 0.00010084587
00000000: 9159 eeb8 b86c 8f3a 1a76 c3b8 fb2b 673a
00000010: ca94 ce39 4802 3cbb 49d9 31bb 2691 1d3a
00000020: d690 743b 4133 333b ef30 b7b9 dd4c 363a
00000030: ac9e b73a e533 b0ba b1b0 89ba 007b ffb9
00000040: 7aa8 3f3b dc6c 92ba b619 dcb9 6be9 68ba
00000050: 9b0a f939 c182 fa3a 2d5e 50ba cd57 84b8
00000060: 5a82 b5b8 32bc b0b7 5e6b 3fbb 4bc2 3a3a
00000070: 72de c83a 5548 aeba a56e 0b3b 0cd0 30ba
00000080: f678 4c3a 0190 beba b12e 523a 23c6 1fba
00000090: f0c5 1eb9 b3dc 963a 9bf0 4fbb e8f3 beba
000000a0: 0b37 113b f780 c1ba ac4a f439 caf6 d33a
000000b0: 6a68 6639 3c65 953a 2a35 8f39 11b8 893a
000000c0: 21ac 8a3a 23a2 8b3a aa87 a6bb 4713 d4b9
000000d0: ac80 f4ba 0d4b 04ba 9f14 053b 7d80 55ba
000000e0: 9a1d d239 4888 2fb9 176c 6a3a 6ed2 2cbb
000000f0: ad5d b838 b697 a23a c3ec 823a 377d d338

ae.encoder.bn01.weight f4 [64]
0.9945268 0.9874995 0.9955433 0.9966716 1.0051094 1.0308776 0.98041993 1.0210735
1.0019909 1.0084797 1.0043505 1.0061759 0.9913173 0.98613614 0.99527836 1.003662
1.0094669 1.0272783 1.0020825 1.0027864 1.0022974 1.0139028 1.0041239 1.0119946
0.99000734 0.9906723 0.98476213 0.9840781 1.0006381 1.0020514 1.0057982 0.9938337
1.01579 1.0036821 0.9884315 1.0002294 0.99795365 1.0022873 0.98920363 0.98738056
1.0146917 0.9931085 0.9884304 0.9909249 1.0126791 0.98732644 1.0231314 0.9967458
1.0051978 0.97896916 1.0258255 0.98757154 1.012924 0.99001586 1.0048571 0.99778336
1.003758 0.9952232 0.9890313 0.9778832 0.98967564 1.0004437 0.9969055 0.99187833
00000000: 4f99 7e3f c4cc 7c3f eddb 7e3f df25 7f3f
00000010: 6da7 803f ccf3 833f cdfc 7a3f 89b2 823f
00000020: 3d41 803f dd15 813f 8f8e 803f 5fca 803f
00000030: f8c6 7d3f 6b73 7c3f 90ca 7e3f ff77 803f
00000040: 3636 813f db7d 833f 3d44 803f 4e5b 803f
00000050: 484b 803f 91c7 813f 2287 803f 0a89 813f
00000060: 1f71 7d3f b39c 7d3f 5f19 7c3f 8bec 7b3f
00000070: e914 803f 3843 803f ffbd 803f e36b 7e3f
00000080: 6805 823f a878 803f d909 7d3f 8407 803f
00000090: e479 7f3f f34a 803f 733c 7d3f f9c4 7c3f
000000a0: 6be1 813f 5c3c 7e3f c609 7d3f 41ad 7d3f
000000b0: 789f 813f 6dc1 7c3f f8f5 823f bc2a 7f3f
000000c0: 52aa 803f b99d 7a3f 404e 833f 7dd1 7c3f
000000d0: 7ea7 813f ae71 7d3f 289f 803f bb6e 7f3f
000000e0: 247b 803f f3c6 7e3f 2831 7d3f 8e56 7a3f
000000f0: 625b 7d3f 8a0e 803f 3335 7f3f bdeb 7d3f

ae.encoder.bn01.bias f4 [64]
-0.00043328523 -0.008874934 -0.031787846 0.007177108 0.00840477 -0.0026980834 -0.010443791 0.00041389436
0.009547186 -0.002076505 0.0060547707 -0.0058401483 0.0028191889 -0.006895935 0.011774814 -0.0013095731
0.031825095 0.001206657 -0.02324083 -0.017254788 -0.003097956 0.034200013 0.028165303 0.01070961
-0.012462796 0.013024724 -0.011336584 0.011833367 0.008878531 -0.01230598 0.009769366 -0.002731252
0.022368958 -0.013438143 0.005858862 0.013323945 -0.026598956 -0.004754921 -0.023236942 -0.0139106875
-0.006729926 -0.013067903 0.011335675 0.011205395 -0.013997574 -0.018810937 0.020890445 0.0026851788
-0.007808054 0.016078182 -0.038857963 -0.014785909 -0.0054234737 0.0035154521 0.0042890296 0.00591871
-0.0008621014 0.004577242 0.01995893 -0.027584773 -0.0063869134 0.021236481 0.02004711 -0.0050202785
00000000: 8f2a e3b9 2c68 11bc f933 02bd f22d eb3b
00000010: 29b4 093c 54d2 30bb 6f1c 2bbc f6ff d839
00000020: cd6b 1c3c f915 08bb 1967 c63b b75e bfbb
00000030: 24c2 383b 4cf7 e1bb 26eb 403c fba5 abba
00000040: 085b 023d b128 9e3a 8e63 bebc ea59 8dbc
00000050: 1407 4bbb 5015 0c3d ecba e63c 5c77 2f3c
00000060: c130 4cbc a765 553c 14bd 39bc bde0 413c
00000070: 4277 113c 059f 49bc b10f 203c cefe 32bb
00000080: 1b3f b73c a82b 5cbc b2fb bf3b ad4c 5a3c
00000090: 0ee6 d9bc 2bcf 9bbb 665b bebc a7e9 63bc
000000a0: b686 dcbb c21a 56bc 44b9 393c d596 373c
000000b0: 1556 65bc 6519 9abc 7022 ab3c d3f9 2f3b
000000c0: b4da ffbb 64b6 833c 8729 1fbd 9940 72bc
000000d0: 65b7 b1bb 8063 663b fd8a 8c3b bdf1 c13b
000000e0: a5fe 61ba b0fc 953b e980 a33c 76f9 e1bc
000000f0: 5049 d1bb 21f8 ad3c d639 a43c 2681 a4bb

ae.encoder.bn01.running_mean f4 [64]
-0.00287195 -0.00033527685 0.00022586655 0.003824486 0.00029286923 -0.0031933128 -0.0035046544 -0.0038836147
0.0045690183 -0.0027200605 0.0029320028 0.0061668092 0.00056599587 -0.002245996 -0.0019702627 0.0010127779
0.0056761247 -0.0022235187 0.00036813607 0.003081948 -0.00055280555 -0.002561234 0.00091769226 -0.0027350085
-0.00075265346 0.0015077599 -0.004894578 0.0020521085 -0.00025534254 -0.005339194 -0.00019583228 -0.004287224
0.0011589949 -0.0030109982 -0.0036888274 0.0015942737 -0.0023518312 0.0027190903 -0.002208641 0.00091963535
0.0044207727 -0.00067002553 0.0024643647 0.0040002395 0.0025334565 0.0001799413 0.00072651164 -0.0077747726
0.0063024694 0.0012153818 -0.004735115 0.0057448423 -0.0009154341 0.00088118063 0.00291102 0.0005948631
0.0066816737 0.008125113 0.0031928385 -0.004147713 0.0013994141 0.0055976068 0.00655304 0.00018289126
00000000: 5337 3cbb 19c8 afb9 97d6 6c39 3aa4 7a3b
00000010: 3e8c 9939 e646 51bb 58ae 65bb 3e84 7ebb
00000020: b4b7 953b 0b43 32bb d826 403b f212 ca3b
00000030: 575f 143a 8f31 13bb 861f 01bb 30bf 843a
00000040: c9fe b93b 74b8 11bb 6302 c139 82fa 493b
00000050: 27ea 10ba 60da 27bb 4991 703a d43d 33bb
00000060: b84d 45ba 07a0 c53a b262 a0bb ab7c 063b
00000070: 7fdf 85b9 68f4 aebb 5458 4db9 d77b 8cbb
00000080: 6ae9 973a 2b54 45bb 41c0 71bb f3f6 d03a
00000090: 2e21 1abb c432 323b d9be 10bb af13 713a
000000a0: 21dc 903b a7a4 2fba 2e81 213b 7114 833b
000000b0: 5908 263b a0ae 3c39 5f73 3e3a 85c3 febb
000000c0: f284 ce3b 724d 9f3a 0629 9bbb 3b3f bc3b
000000d0: bef9 6fba 08ff 663a d0c6 3e3b 96f0 1b3a
000000e0: f1f1 da3b 321f 053c f13e 513b 8ae9 87bb
000000f0: 8c6c b73a 216c b73b e2ba d63b 80c6 3f39

ae.encoder.bn01.running_var f4 [64]
2.6113377 1.357741 0.11930539 2.120401 0.25080562 0.07830257 5.142699 5.1345515
0.15842173 7.5541945 2.74733 8.935549 2.1395693 16.296993 0.65412706 2.9653168
4.1108966 0.9456218 1.1383251 4.7882338 1.0524737 4.1467056 6.5809364 1.8802958
2.7200325 2.1134737 0.6664974 4.5877004 1.6751566 4.1240153 1.7058837 3.2471693
0.12547068 5.125688 4.921302 2.1344202 2.9048722 6.5140495 0.47365808 1.5123391
2.4540563 1.6363373 7.7900443 1.317959 4.019128 1.4519333 0.28375205 23.8304
6.7718635 0.8958754 0.17556201 19.058002 0.10494407 0.3236495 1.995916 0.47662956
10.243409 14.196484 7.654464 2.8406997 3.34007 4.6834655 7.878758 3.439223
00000000: 2820 2740 75ca ad3f 6256 f43d a6b4 0740
00000010: 9869 803e 195d a03d fd90 a440 3f4e a440
00000020: 4e39 223e f6bb f140 41d4 2f40 02f8 0e41
00000030: b4ee 0840 3e60 8241 df74 273f c0c7 3d40
00000040: 778c 8340 4514 723f a3b4 913f 3639 9940
00000050: 75b7 863f d0b1 8440 0897 d240 88ad f03f
00000060: 0315 2e40 2743 0740 939f 2a3f 71ce 9240
00000070: 886b d63f eff7 8340 665a da3f 9fd1 4f40
00000080: 637b 003e a305 a440 4e7b 9d40 579a 0840
00000090: 6de9 3940 1873 d040 5083 f23e 5494 c13f
000000a0: 420f 1d40 8073 d13f 0b48 f940 e1b2 a83f
000000b0: b29c 8040 f3d8 b93f f347 913e a9a4 be41
000000c0: 1bb3 d840 1758 653f 87c6 333e ca76 9841
000000d0: ebec d63d 63b5 a53e 2d7a ff3f ca08 f43e
000000e0: 01e5 2341 cc24 6341 5ef1 f440 06ce 3540
000000f0: b5c3 5540 f3de 9540 c91e fc40 3b1c 5c40

ae.encoder.cov02.weight f4 [64, 64, 3, 3]
0.050643254 -0.033257425 -0.05198238 -0.028265467 -0.011843272 -0.0131961955 0.094691776 0.04683889
-0.010332199 -0.044748075 -0.059386242 0.026239056 0.05498086 -0.037719768 -0.05293487 0.03245169
-0.0012252554 0.056769293 0.016107393 0.023695162 -0.025505643 -0.035925597 -0.019326966 -0.018984798
-0.02349896 -0.021763617 -0.020506553 0.020963088 0.046749827 0.02834226 0.024219366 -0.02591639
-0.07515886 -0.11224981 0.001508598 -0.030551177 -0.08417761 -0.029649021 -0.03594377 0.02686648
-0.04957127 -0.11875282 -0.09590264 -0.032321047 -0.027798854 0.029969001 -0.009199288 -0.009468578
0.020322416 0.15462679 0.012851963 0.033495042 -0.0077014887 0.019899007 -0.01788327 0.03058466
-0.036879677 -0.022906685 -0.036194883 -0.029673526 0.01845755 0.07323023 -0.034824867 0.050942335
0.006141448 -0.095017746 -0.014008204 0.041818045 0.025092257 -0.10229112 0.06243083 0.0692673
-0.07209108 -0.036645032 0.03984655 0.052091703 0.03637489 0.07816672 0.011353595 -0.010247837
0.048761617 0.008228289 0.108509995 0.029629577 0.079788946 0.08428201 -3.124056e-05 -0.037214663
-0.005169359 0.09707494 -0.053386424 0.027509324 0.014637962 -0.05508676 -0.010601643 -0.03345563
-0.029762201 0.0004008219 -0.03944885 -0.04251971 0.035042718 -0.06335211 -0.0034212978 -0.13452515
0.007135598 -0.06110588 -0.06761002 0.0830313 -0.035339706 -0.043179207 0.040018953 -0.008082082
-0.051120933 -0.04987231 -0.0034143908 0.015803 -0.020735426 0.008619765 0.09645398 0.05308987
-0.068169944 -0.00092945807 0.1358414 -0.0034055514 0.16091783 -0.074072056 -0.022483498 -0.033001114
0.057764124 -0.015534737 0.049019005 -0.04503126 0.050242614 0.0006277766 -0.09930863 0.081165604
-0.020561015 -0.012495075 0.02579017 0.014725083 -0.1034014 -0.056679722 0.007091422 0.01854018
-0.065437466 0.01214817 -0.048782986 -0.005495321 -0.037610564 -0.051014174 0.1502634 -0.046003286
0.0041722613 0.0033734571 -0.044423256 0.02670081 -0.05830348 0.06850539 0.094785646 0.08586125
-0.08383954 0.057422858 0.073543124 0.038026974 -0.082198985 0.025962811 -0.009425257 -0.053609125
0.07597077 -0.044910707 -0.015439382 -0.060594298 0.0004923759 -0.023903385 -0.033486165 0.026068237
0.042616293 0.06802036 -0.15133645 0.030180825 0.1898788 0.021663828 -0.033857446 0.05535238
-0.024602402 -0.04939528 -0.064790405 -0.016905157 0.10378754 -0.0074952696 0.019671578 0.0050412635
0.05880093 0.13373414 0.107643336 -0.05803147 0.0919473 0.05751483 0.02872412 -0.0058981427
0.07881509 0.08522476 -0.02299326 0.028384835 0.020686211 0.058951147 0.051331192 0.060586624
0.042863686 0.09684559 0.004875349 0.019930596 -0.063829586 -0.019725276 0.1619872 0.036732208
0.028630279 -0.093194164 0.03364497 -0.056085296 -0.12540379 0.07499209 -0.118408725 0.052587435
0.02471544 -0.039529134 -0.028154723 -0.06290527 -0.003754942 -0.026411206 0.020078814 0.041632336
-0.062405344 -0.05044957 0.0068521346 -0.011394892 0.074494965 -0.0768802 -0.031627 -0.008684762
-0.025968492 -0.054544076 -0.0053027608 -0.06725895 0.009731841 0.01365924 0.10266214 0.1147261
0.0553387 0.089438096 0.01712191 0.10298479 0.020542827 0.047777586 0.039608326 -0.07052696
00000000: 4d6f 4f3d f038 08bd 7aeb 54bd fb8c e7bc
00000010: 480a 42bc db34 58bc c3ed c13d 23da 3f3d
00000020: 6248 29bc c249 37bd fd3e 73bd 4af3 d63c
00000030: 9c33 613d 0b80 1abd 3cd2 58bd 10ec 043d
00000040: c098 a0ba eb86 683d a7f3 833c 5b1c c23c
00000050: 36f1 d0bc b826 13bd 9653 9ebc 0286 9bbc
00000060: e480 c0bc 9d49 b2bc 5cfd a7bc c8ba ab3c
00000070: bf7c 3f3d 072e e83c b167 c63c 9c4e d4bc
00000080: e3ec 99bd 3ae3 e5bd 26bc c53a 7646 fabc
00000090: 5065 acbd 81e2 f2bc c639 13bd 1817 dc3c
000000a0: 3e0b 4bbd ae34 f3bd 9a68 c4bd 1363 04bd
000000b0: 6cba e3bc 8d81 f53c 9cb8 16bc 1822 1bbc
000000c0: 327b a63c 7c56 1e3e 0a91 523c 1932 093d
000000d0: c55c fcbb 3e03 a33c ef7f 92bc ae8c fa3c
000000e0: 250f 17bd cda6 bbbc 1641 14bd e515 f3bc
000000f0: 4a34 973c bbf9 953d 85a4 0ebd e9a8 503d
00000100: 333e c93b aa98 c2bd ab82 65bc 6649 2b3d
00000110: 478e cd3c 027e d1bd 78b7 7f3d 04dc 8d3d
00000120: 7da4 93bd 1a19 16bd 2336 233d 1c5e 553d
00000130: d6fd 143d e015 a03d 6e04 3a3c 8be6 27bc
00000140: 43ba 473d f2cf 063c 7d3a de3d bab9 f23c
00000150: 6368 a33d 0c9c ac3d 4c08 03b8 676e 18bd
00000160: ba63 a9bb 3acf c63d b9ab 5abd 3c5b e13c
00000170: 10d4 6f3c a8a2 61bd 83b2 2dbc c508 09bd
00000180: dccf f3bc 6825 d239 1e95 21bd 2629 2ebd
00000190: f488 0f3d c0be 81bd da37 60bb f6c0 09be
000001a0: bcd1 e93b 294a 7abd 1f77 8abd 500c aa3d
000001b0: 5ec0 10bd aedc 30bd eaea 233d b56a 04bc
000001c0: 2f64 51bd e846 4cbd f9c3 5fbb 4b75 813c
000001d0: 57dd a9bc ea39 0d3c aa89 c53d c374 593d
000001e0: af9c 8bbd e0a6 73ba 021a 0b3e ac2f 5fbb
000001f0: a5c7 243e 17b3 97bd 502f b8bc 2d2c 07bd
00000200: 139a 6c3d 6985 7ebc 27c8 483d b372 38bd
00000210: 33cb 4d3d 6091 243a 5362 cbbd 273a a63d
00000220: 936f a8bc 25b8 4cbc e845 d33c 7941 713c
00000230: 1dc4 d3bd ff28 68bd 295f e83b 93e1 973c
00000240: 1404 86bd 1e09 473c abd0 47bd 1812 b4bb
00000250: 890d 1abd 3df4 50bd a6de 193e f16d 3cbd
00000260: 77b7 883b 3815 5d3b 29f5 35bd a8bb da3c
00000270: a1cf 6ebd 8e4c 8c3d fa1e c23d 06d8 af3d
00000280: 11b4 abbd 3b34 6b3d c79d 963d 2cc2 1b3d
00000290: f157 a8bd f6af d43c 656c 1abc 3e95 5bbd
000002a0: 9096 9b3d 4af4 37bd 76f5 7cbc ba31 78bd
000002b0: ca12 013a 08d1 c3bc ca28 09bd 0e8d d53c
000002c0: 6c8e 2e3d 424e 8b3d f1f7 1abe c73d f73c
000002d0: 976f 423e 5778 b13c 1bae 0abd 2db9 623d
000002e0: fa8a c9bc b552 4abd d5b0 84bd af7c 8abc
000002f0: 908e d43d e19a f5bb 4a26 a13c 2f31 a53b
00000300: 3ed9 703d 9af1 083e 1c74 dc3d 68b2 6dbd
00000310: de4e bc3d ac94 6b3d d94e eb3c 3545 c1bb
00000320: ce69 a13d 528a ae3d 5c5c bcbc 5087 e83c
00000330: 2176 a93c c276 713d a840 523d ae29 783d
00000340: d591 2f3d fb56 c63d 64c1 9f3b 7d45 a33c
00000350: 16b9 82bd e796 a1bc f9df 253e 8374 163d
00000360: 0c8a ea3c 95dc bebd 4fcf 093d b2b9 65bd
00000370: da69 00be 7495 993d 4680 f2bd ec65 573d
00000380: 0978 ca3c 4de9 21bd bca4 e6bc 7ad4 80bd
00000390: 7915 76bb 505c d8bc 537c a43c ab86 2a3d
000003a0: bf9c 7fbd 35a4 4ebd df87 e03b a4b1 3abc
000003b0: d190 983d 5e73 9dbd 508b 01bd 884a 0ebc
000003c0: e0bb d4bc 9c69 5fbd c8c2 adbb 0fbf 89bd
000003d0: 4d72 1f3c 01cb 5f3c 8740 d23d 84f5 ea3d
000003e0: d5aa 623d 522b b73d 3f43 8c3c b1e9 d23d
000003f0: 6e49 a83c 6eb2 433d 573c 223d 7070 90bd

ae.encoder.cov02.bias f4 [64]
0.0005286538 4.382012e-05 -7.747986e-05 -0.00028620026 -0.0032383697 -0.0010587877 -0.0013083569 -0.00051119004
0.00026027785 -0.001525345 0.003086562 0.0004591958 -0.00168862 0.003038338 -0.0033338147 -0.0010185114
-0.0015452368 0.0013798862 0.001960123 0.0032830702 -0.0014265137 -0.0022345101 0.00081607845 0.0014832933
-0.000350562 -0.0010344699 -0.0022145847 0.00016071145 8.571126e-05 -0.0027356916 -0.0025678738 -0.004238143
-0.0016634354 0.0003403559 -0.0011686493 -8.494563e-05 -0.000416423 0.0005087761 0.0012835448 -0.0027871376
-0.00068522315 -0.0082759755 0.00033083904 -0.002731902 0.00022962508 -0.0026808965 -0.000651852 -0.0004255486
-0.0033285418 -0.0032421397 0.0010331828 0.0011565748 -0.0006327133 0.0006094163 -0.0014362697 -0.0019281966
-0.002835906 0.00034482425 -0.00062642165 0.004262043 0.00044390568 -0.00034309967 -9.8513134e-05 -0.00040002423
00000000: 5b95 0a3a 7fcb 3738 af7c a2b8 260d 96b9
00000010: d43a 54bb 05c7 8aba 2c7d abba 6201 06ba
00000020: e775 8839 16ee c7ba eb47 4a3b 38c0 f039
00000030: af54 ddba da1e 473b 217c 5abb 927f 85ba
00000040: 8b89 caba 4cdd b43a 6875 003b c728 573b
00000050: dbf9 baba dc70 12bb 19ee 553a 106b c23a
00000060: a3cb b7b9 0d97 87ba 9122 11bb a784 2839
00000070: e2bf b338 4a49 33bb c649 28bb 1fe0 8abb
00000080: a107 daba cc71 b239 5d2d 99ba d624 b2b8
00000090: 5953 dab9 635f 053a 9e3c a83a 69a8 36bb
000000a0: 8ca0 33ba f597 07bc 7774 ad39 b609 33bb
000000b0: 83c7 7039 fbb1 2fbb 0ce1 2aba 2b1c dfb9
000000c0: aa23 5abb 147a 54bb dd6b 873a 3698 973a
000000d0: acdc 25ba 3cc1 1f3a 3741 bcba 8bbb fcba
000000e0: 9cda 39bb 87c9 b439 7236 24ba 9ca8 8b3b
000000f0: 03bc e839 0fe2 b3b9 d698 ceb8 58ba d1b9

ae.encoder.bn02.weight f4 [64]
1.0051109 0.9986743 1.0304691 1.0429975 1.0282859 1.0163413 0.986735 0.9941879
0.9798596 1.0024956 1.037739 0.9979197 1.0214067 1.0035241 0.95955676 0.99345016
0.9995992 0.9997965 0.99949 0.9875211 1.0051007 0.9796141 1.01079 1.0027308
0.9874203 0.9972161 0.9729117 0.9764885 0.992925 1.0033413 1.0017633 1.0003566
1.0160158 1.0404744 1.0210413 1.0062065 1.0165448 1.0022454 1.0012739 0.9837785
1.0135244 0.98847616 1.0252564 0.9858204 0.9866596 0.978668 0.9926588 0.9925751
1.0454031 0.97926396 0.9632857 1.0300543 0.9794481 0.98868686 1.0079355 0.9717202
0.97808206 0.98525566 0.97948116 1.0063975 0.99705696 1.0120857 1.0188793 0.9818244
00000000: 79a7 803f 1ea9 7f3f 69e6 833f f180 853f
00000010: df9e 833f 7917 823f aa9a 7c3f 1983 7e3f
00000020: 14d8 7a3f c751 803f a2d4 843f aa77 7f3f
00000030: 74bd 823f 7a73 803f 83a5 753f c052 7e3f
00000040: bce5 7f3f aaf2 7f3f 94de 7f3f 2fce 7c3f
00000050: 24a7 803f fdc7 7a3f 9161 813f 7c59 803f
00000060: 94c7 7c3f 8e49 7f3f be10 793f 26fb 793f
00000070: 5530 7e3f 7d6d 803f c839 803f af0b 803f
00000080: ce0c 823f 442e 853f 7bb1 823f 60cb 803f
00000090: 241e 823f 9449 803f be29 803f e8d8 7b3f
000000a0: 2bbb 813f c60c 7d3f 9a3b 833f ba5e 7c3f
000000b0: b995 7c3f fc89 7a3f e31e 7e3f 6719 7e3f
000000c0: c5cf 853f 0bb1 7a3f e499 763f d2d8 833f
000000d0: 1cbd 7a3f 951a 7d3f 0804 813f a8c2 783f
000000e0: 9663 7a3f b739 7c3f 47bf 7a3f a2d1 803f
000000f0: 203f 7f3f 068c 813f a36a 823f d858 7b3f

ae.encoder.bn02.bias f4 [64]
0.0035759686 -0.032724433 -0.026009519 -0.012649305 -0.006545499 0.0046829293 -0.017883629 -0.0069979364
-0.03431456 -0.010842929 0.017556699 -0.0023748109 -0.0064993673 0.008623775 -0.01851992 -0.011400147
-0.008530549 0.017873906 0.010095145 -0.011738823 -0.025691641 -0.0049296883 -0.0048216553 2.339573e-05
-0.0130336955 -0.03918296 -0.03754939 -0.016884718 0.0058060577 -0.014896859 -0.013976175 -0.04920288
-0.01081831 0.037484135 -0.018568728 -0.009024561 0.0035629882 0.015513736 -0.0014870986 -0.028264616
-0.020408796 -0.05976306 0.024440177 -0.018094435 -0.007046144 -0.028892716 -0.014611304 -0.009360866
-0.010424073 -0.023698589 -0.038087416 0.016031036 -0.020817509 -0.0049194493 -0.011949379 0.011030784
-0.024989733 -0.0011872362 -0.013823662 0.023179397 0.0016669089 -0.01175469 -0.013897883 -0.007906693
00000000: cc5a 6a3b 0e0a 06bd ea11 d5bc 083f 4fbc
00000010: a07b d6bb 4273 993b b080 92bc f24e e5bb
00000020: 6d8d 0cbd 8aa6 31bc 11d3 8f3c b7a2 1bbb
00000030: a5f8 d4bb bc4a 0d3c 16b7 97bc afc7 3abc
00000040: b7c3 0bbc 4c6c 923c 1b66 253c 3154 40bc
00000050: 4777 d2bc 3989 a1bb fafe 9dbb f341 c437
00000060: 488b 55bc 507e 20bd 64cd 19bd d251 8abc
00000070: be40 be3b f511 74bc 54fc 64bc f688 49bd
00000080: 483f 31bc f788 193d 721d 98bc c1db 13bc
00000090: 0681 693b 532d 7e3c c0ea c2ba 328b e7bc
000000a0: 5930 a7bc 1cca 74bd c436 c83c c83a 94bc
000000b0: 57e3 e6bb 6bb0 ecbc 4064 6fbc 515e 19bc
000000c0: bbc9 2abc 8b23 c2bc 8d01 1cbd 8553 833c
000000d0: 7b89 aabc 5533 a1bb 54c7 43bc 76ba 343c
000000e0: 45b7 ccbc 099d 9bba a47c 62bc b8e2 bd3c
000000f0: 2e7c da3a be96 40bc f2b3 63bc 138b 01bc

ae.encoder.bn02.running_mean f4 [64]
0.30658573 0.6698395 0.10196204 -0.0074930335 0.18477628 0.55524397 -0.26428327 0.28803283
0.12718444 -0.005040255 -0.3886517 -0.67150366 0.20554203 -0.8023312 -0.21061732 0.67466384
0.11163801 -0.24880897 -0.03027522 -0.68136686 -0.73506474 -0.08764199 0.50575936 -0.26416072
0.34174994 0.2152371 -0.8552535 0.81688064 -1.4390858 -0.027907401 0.6863835 0.22173242
0.80131155 -0.49372154 0.21664038 0.6895506 0.031585883 -0.8322327 0.088968456 -0.096804395
0.53107107 -0.4877086 -0.7029243 -0.15497662 -0.16003425 -0.68325794 -0.4679023 0.22391108
-0.20836481 0.2621263 0.3079443 -0.15608132 -0.041368674 -1.5321723 0.5274897 -0.6374201
-1.3359052 -0.64499927 0.38633615 -0.8980863 -1.5375355 0.6537698 0.3195456 -0.4450405
00000000: cef8 9c3e 9a7a 2b3f 79d1 d03d 1f88 f5bb
00000010: fe35 3d3e 7824 0e3f 2350 87be 0a79 933e
00000020: a33c 023e b928 a5bb 5bfd c6be aae7 2bbf
00000030: 9c79 523e 9465 4dbf 11ac 57be c5b6 2c3f
00000040: 78a2 e43d c7c7 7ebe bd03 f8bc 0f6e 2ebf
00000050: 342d 3cbf a57d b3bd 7279 013f 1340 87be
00000060: d9f9 ae3e 1d67 5c3e e5f1 5abf 171f 513f
00000070: f733 b8bf 109e e4bc d4b6 2f3f d30d 633e
00000080: c122 4d3f 12c9 fcbe fad6 5d3e 6386 303f
00000090: 3360 013d 340d 55bf 1835 b63d 6241 c6bd
000000a0: 46f4 073f f1b4 f9be d9f2 33bf 31b2 1ebe
000000b0: 05e0 23be fee9 2ebf e490 efbe f248 653e
000000c0: 965d 55be 6b35 863e e0aa 9d3e c8d3 1fbe
000000d0: 3372 29bd 391e c4bf 9109 073f f72d 23bf
000000e0: f1fe aabf ac1e 25bf dacd c53e fce8 65bf
000000f0: f7cd c4bf 755d 273f 7b9b a33e 59dc e3be

ae.encoder.bn02.running_var f4 [64]
2.4089642 0.5008277 1.0788378 0.4968928 0.7529481 1.7014948 1.453488 1.3609595
1.8066406 1.3950675 0.24927749 1.956011 0.6906794 1.4573687 0.9130525 1.1372947
0.9895059 0.5178559 1.7941185 2.8187418 1.0722139 1.7383306 2.0603135 2.3535116
1.5611964 0.7303859 0.8534463 2.4537873 3.377009 0.64409125 0.99955183 0.31380102
2.0409439 0.5946409 0.44671205 3.5962155 0.47293708 2.3141162 1.4996186 1.1385602
1.2962221 0.14954194 0.57183945 1.856151 2.6214998 0.86567664 0.57256734 1.859539
0.24674015 0.80215275 1.9625405 0.82878256 1.0515206 5.261939 1.0728157 1.3745786
0.4104969 3.184697 0.8753958 1.512837 2.2901936 2.4120996 0.9251253 4.4700303
00000000: 782c 1a40 3f36 003f 5b17 8a3f bc68 fe3e
00000010: 35c1 403f 95ca d93f e50b ba3f ec33 ae3f
00000020: 0040 e73f 9291 b23f 9942 7f3e 925e fa3f
00000030: 5dd0 303f 0f8b ba3f cfbd 693f df92 913f
00000040: 4250 7d3f 3492 043f ada5 e53f 4466 3440
00000050: 4e3e 893f 9e81 de3f 2ddc 0340 ef9f 1640
00000060: 49d5 c73f 92fa 3a3f 757b 5a3f da0a 1d40
00000070: ea20 5840 2ae3 243f a1e2 7f3f 87aa a03e
00000080: d39e 0240 633a 183f 71b7 e43e 6528 6640
00000090: cf24 f23e 7b1a 1440 81f3 bf3f 57bc 913f
000000a0: 9bea a53f 8621 193e 1264 123f 5b96 ed3f
000000b0: a7c6 2740 fc9c 5d3f c693 123f 6005 ee3f
000000c0: 73a9 7c3e e259 4d3f 8734 fb3f 182b 543f
000000d0: 3a98 863f ce61 a840 0652 893f 31f2 af3f
000000e0: a62c d23e 13d2 4b40 f019 603f a5a4 c13f
000000f0: 8892 1240 d75f 1a40 03d5 6c3f 7d0a 8f40

ae.encoder.cov06.weight f4 [64, 64, 3, 3]
-0.09388416 0.120492056 -0.05789248 -0.08178418 -0.059627052 0.05576251 -0.029257167 0.12789671
-0.052633494 0.042578604 0.047022473 0.03662519 -0.11005029 0.0043494217 0.046463452 -0.035390466
-0.010543916 -0.010451335 -0.008091042 0.056895465 -0.069818705 -0.09787732 0.08997828 0.11039107
0.05515138 0.07685006 -0.015685527 -0.0061257924 0.1172563 0.033450883 0.0013534183 0.10619685
0.08836487 0.062776186 -0.061503153 0.12475102 -0.020190008 0.0028894749 0.037552617 0.016296497
0.0883228 0.10864227 -0.021031285 -0.07380301 0.02617191 -0.053586796 0.0816093 0.03724367
-0.026757857 0.089726746 -0.084559605 0.070034325 -0.16237782 -0.055914674 -0.045680527 0.020716611
-0.054066863 0.01874166 -0.006990976 -0.0030534645 -0.003061209 0.03505691 0.0071426006 -0.004162496
-0.08155561 0.010253932 -0.06109579 -0.15528852 0.021919537 -0.034341957 -0.06955455 0.059897806
0.08199238 0.062205367 0.055669434 0.0017452032 0.082890265 -0.07401151 0.0021425658 -0.10805774
0.077617325 -0.03287822 0.10455718 -0.08282611 0.06873202 0.08328198 0.01599044 -0.060508143
0.008128909 0.01773169 0.068401895 -0.020129938 -0.017265804 -0.060465187 0.019216634 -0.059121925
-0.0053691026 0.027493613 0.07139321 0.02812488 -0.097508155 -0.036084976 -0.03391741 -0.010108654
-0.017224776 0.102631345 -0.020921402 -0.009389706 0.044775568 -0.033874217 -0.0412814 -0.10447895
-0.07665058 -0.008684547 -0.07091895 0.07991942 -0.058671985 -0.08459377 -0.004774617 0.047999404
0.0052296207 -0.08359548 -0.07620326 0.022340214 -0.10587634 0.09655363 0.037634242 -0.047036815
0.035075307 -0.03417231 0.1094783 -0.04207834 0.07638476 -0.026161866 0.07684943 0.03553198
0.07337553 0.08653321 -0.010443068 -0.09769035 -0.029322974 -0.07118556 -0.029505273 0.045897968
0.005508727 0.017517734 -0.03806761 0.06794608 -0.018738614 -0.11964167 0.05169784 0.018707123
-0.014750095 -0.033791665 -0.06423899 -0.001518937 0.10908012 0.07176832 0.063210204 -0.10735714
-0.06913453 -0.1110201 -0.08283986 -0.06348201 -0.08344249 -0.06714612 -0.024172792 -0.0064861136
0.02731942 -0.10130689 -0.092717044 -0.07048244 -0.031289883 -0.033773318 -0.06257099 -0.0034944413
-0.012721763 0.05303512 -0.075261675 -0.014302787 -0.013762411 0.04524961 -0.026931698 -0.08932746
-0.013318176 -0.075652584 -0.07778619 0.002713864 -0.08296229 0.033155166 8.689067e-05 0.05998877
-0.08645309 -0.013367633 0.0032154068 0.05241939 -0.050188664 -0.03534064 0.006833793 0.039155208
0.05369107 0.0235425 -0.006215281 0.018574195 0.09345395 0.023345362 -0.002065828 -0.021503076
-0.024704756 0.07119626 0.0022202241 -0.014871969 0.06883655 -0.013304124 -0.006123825 0.046058264
-0.0086818 0.012624491 -0.007858425 0.040638346 0.080101386 -0.018855294 0.02929185 0.030838927
0.06507215 -0.021308541 -0.063184835 -0.040884882 -0.111948624 0.030732758 -0.07554458 -0.005960953
0.0009814219 0.06051391 0.07435036 0.024428997 -0.047184166 -0.05453448 -0.026616475 0.042898916
-0.029883422 -0.11636715 -0.03220928 0.03878198 0.021338321 -0.015844606 0.084535696 0.001473348
-0.08532322 0.009378322 -0.046934586 -0.043441042 0.03638341 -0.14862366 -0.073776454 0.02991671
00000000: 5746 c0bd 8ac4 f63d aa20 6dbd 777e a7bd
00000010: 7f3b 74bd 3b67 643d baac efbc 5bf7 023e
00000020: 3896 57bd e766 2e3d a39a 403d 4c04 163d
00000030: 0c62 e1bd 9885 8e3b 7650 3e3d 98f5 10bd
00000040: 64c0 2cbc 143c 2bbc 4a90 04bc 380b 693d
00000050: 1cfd 8ebd e873 c8bd 8846 b83d b714 e23d
00000060: 6ae6 613d 9063 9d3d ef7e 80bc dfba c8bb
00000070: 1224 f03d cb03 093d 2f65 b13a bc7d d93d
00000080: a4f8 b43d cd90 803d bbea 7bbd 767d ff3d
00000090: 8465 a5bc 585d 3d3b c6d0 193d 3b80 853c
000000a0: 96e2 b43d d77f de3d cd49 acbc 0826 97bd
000000b0: 7966 d63c d47d 5bbd c722 a73d d28c 183d
000000c0: 4b33 dbbc a8c2 b73d 962d adbd 286e 8f3d
000000d0: 5f46 26be c906 65bd 811b 3bbd e2b5 a93c
000000e0: 3775 5dbd 1c88 993c 8f14 e5bb a21c 48bb
000000f0: 919e 48bb d697 0f3d 7a0c ea3b 8c65 88bb
00000100: a106 a7bd 1c00 283c 943f 7abd f403 1fbe
00000110: 9a90 b33c 27aa 0cbd 9e72 8ebd 6757 753d
00000120: 9feb a73d 0ecb 7e3d a205 643d 4dbf e43a
00000130: 5fc2 a93d 5993 97bd 4a6a 0c3b 604d ddbd
00000140: d5f5 9e3d 50ab 06bd 1322 d63d bca0 a9bd
00000150: 60c3 8c3d be8f aa3d 62fe 823c 63d7 77bd
00000160: 1e2f 053c 0d42 913c 4b16 8c3d 8ae7 a4bc
00000170: 0471 8dbc 58aa 77bd 346c 9d3c d529 72bd
00000180: 4cef afbb 493a e13c 9a36 923d 2666 e63c
00000190: 5bb2 c7bd d7cd 13bd fbec 0abd c59e 25bc
000001a0: f91a 8dbc 6230 d23d 5c63 abbc 48d7 19bc
000001b0: 9666 373d b1bf 0abd af16 29bd 0ff9 d5bd
000001c0: fbfa 9cbd a149 0ebc f43d 91bd cbac a33d
000001d0: 0952 70bd 803f adbd 6474 9cbb 069b 443d
000001e0: 3d5d ab3b 1b34 abbd 7410 9cbd d302 b73c
000001f0: b2d5 d8bd e9bd c53d 5d26 1a3d ada9 40bd
00000200: 20ab 0f3d 44f8 0bbd 2936 e03d 565a 2cbd
00000210: 9d6f 9c3d 6951 d6bc 3c63 9d3d fb89 113d
00000220: e945 963d 5338 b13d 6719 2bbc e111 c8bd
00000230: bc36 f0bc bcc9 91bd 0bb5 f1bc 82ff 3b3d
00000240: 8d82 b43b 5a81 8f3c c8ec 1bbd 5027 8b3d
00000250: b981 99bc b106 f5bd 1dc1 533d ae3f 993c
00000260: 62aa 71bc 2169 0abd bb8f 83bd 1117 c7ba
00000270: 6665 df3d 45fb 923d 5a74 813d 0fde dbbd
00000280: 6896 8dbd 825e e3bd f2a7 a9bd db02 82bd
00000290: e5e3 aabd e883 89bd 0506 c6bc 7789 d4bb
000002a0: facc df3c fd79 cfbd 6fe2 bdbd 1959 90bd
000002b0: d229 00bd e455 0abd 3825 80bd ff02 65bb
000002c0: f16e 50bc 5b3b 593d cb22 9abd 3d56 6abc
000002d0: bc7b 61bc a857 393d dd9f dcbc 51f1 b6bd
000002e0: 7b34 5abc beef 9abd 5e4e 9fbd 15db 313b
000002f0: 22e8 a9bd b6cd 073d 1339 b638 c9b6 753d
00000300: 510e b1bd eb03 5bbc 93b9 523b b7b5 563d
00000310: a192 4dbd 59c1 10bd 03ee df3b 3661 203d
00000320: 2beb 5b3d 33dc c03c 8ea9 cbbb e928 983c
00000330: c964 bf3d c63e bf3c d862 07bb 3827 b0bc
00000340: a161 cabc 58cf 913d 2e81 113b 8fa9 73bc
00000350: 2dfa 8c3d 8af9 59bc 5eaa c8bb 97a7 3c3d
00000360: 1c3e 0ebc f4d6 4e3c a0c0 00bc 6574 263d
00000370: 320c a43d 6b76 9abc 76f5 ef3c eba1 fc3c
00000380: 8c44 853d 408f aebc 0d67 81bd e876 27bd
00000390: 5245 e5bd 44c3 fb3c 1eb7 9abd 1954 c3bb
000003a0: 0ea3 803a 6fdd 773d 0045 983d 521f c83c
000003b0: 2f44 41bd 8c5f 5fbd cb0a dabc c6b6 2f3d
000003c0: 14ce f4bc e651 eebd e1ed 03bd dad9 1e3d
000003d0: b4cd ae3c 8ccc 81bc 0d21 ad3d 5b1d c13a
000003e0: f1bd aebd 89a7 193c 7b3e 40bd 3cef 31bd
000003f0: c506 153d cd30 18be 1c18 97bd e313 f53c

ae.encoder.cov06.bias f4 [64]
-0.0006549265 -0.0006303618 0.0023989466 -0.002553493 -0.0017165222 -0.0028512701 -8.077565e-05 0.0040329974
0.00025291342 -9.69813e-05 -0.0014288062 0.0005582378 -0.0008065523 0.00017084145 -0.0026066382 -0.0009680642
-0.0007600916 -0.0012088951 0.002708069 -0.00064867863 0.004144891 0.0019559143 -2.3175919e-05 -0.0015566631
0.00046188995 -0.00017317441 -0.0011931274 -0.0015151637 0.0002520845 0.0028041927 -0.00017911792 -0.0013481906
-0.00035614028 0.0054999506 0.00037036272 0.0005209833 -0.00082259264 -0.0017933263 -8.151486e-05 -0.0005455887
-0.0014006412 -0.010085916 -0.0025714573 -0.001098467 -0.0016586465 -0.0020354216 -0.0014909013 0.00063829985
-0.0002489518 1.6993286e-05 -0.0011033168 7.238098e-05 -0.00044684796 -0.0043387297 -0.00046794346 -0.00054057967
0.0011292173 -0.00088810496 -0.0029459472 0.00080810563 0.0008631335 -0.00063362205 -0.0020352048 -0.0059265574
00000000: 60af 2bba dd3e 25ba a537 1d3b 8158 27bb
00000010: edfc e0ba 60dc 3abb 1966 a9b8 3c27 843b
00000020: 7799 8439 7062 cbb8 c846 bbba b456 123a
00000030: cf6e 53ba e723 3339 22d4 2abb b0c5 7dba
00000040: e240 47ba ca73 9eba dc79 313b 160c 2aba
00000050: ded1 873b cc2e 003b e869 c2b7 f208 ccba
00000060: d229 f239 2796 35b9 b662 9cba 7598 c6ba
00000070: 352a 8439 8cc6 373b 9ad1 3bb9 c5b5 b0ba
00000080: 57b8 bab9 ee38 b43b 3e2d c239 9992 083a
00000090: 42a3 57ba 0c0e ebba f5f2 aab8 d605 0fba
000000a0: b895 b7ba 663f 25bc e585 28bb 70fa 8fba
000000b0: f166 d9ba b564 05bb 596a c3ba 9453 273a
000000c0: bf85 82b9 ce8c 8e37 2b9d 90ba 3ecb 9738
000000d0: eb46 eab9 e72b 8ebb 4f56 f5b9 b0b5 0dba
000000e0: 3f02 943a b7cf 68ba cb10 41bb 0dd7 533a
000000f0: e943 623a a819 26ba 1261 05bb 9133 c2bb

ae.encoder.bn06.weight f4 [64]
1.0037154 1.0189762 0.97779393 0.97471625 0.9716685 1.0046237 0.97135675 0.98798674
0.97688574 1.0229926 1.0233229 1.0121764 1.03824 0.96635073 1.0166456 1.0272352
1.0128001 0.9864793 1.0099721 1.006679 1.0174012 1.0135597 0.9421509 1.007362
0.9785428 0.9675251 0.9765864 0.97791666 0.9437678 1.0069779 1.0214424 0.97474146
0.99958324 1.025509 1.0080135 1.0057389 0.9532669 1.0140259 0.98089087 0.96510214
1.0147157 1.1100806 0.9842008 0.98253965 0.9889309 0.97205085 0.9372354 1.0002652
1.0073323 1.0147744 1.0133879 1.0304315 1.0334258 0.991959 1.0293965 0.98801184
1.0409287 0.9597461 0.9796844 0.98106956 0.98380446 1.0027196 0.97827214 0.94503504
00000000: bf79 803f d06d 823f b450 7a3f 0187 793f
00000010: 44bf 783f 8297 803f d6aa 783f b3ec 7c3f
00000020: 2f15 7a3f 6cf1 823f 3ffc 823f ff8e 813f
00000030: 0ce5 843f c362 773f 7121 823f 717c 833f
00000040: 6fa3 813f e889 7c3f c446 813f dcda 803f
00000050: 343a 823f 53bc 813f cd30 713f 3df1 803f
00000060: c881 7a3f baaf 773f 9101 7a3f bf58 7a3f
00000070: c49a 713f a7e4 803f a0be 823f a888 793f
00000080: b0e4 7f3f e143 833f 9606 813f 0dbc 803f
00000090: 4d09 743f 9acb 813f aa1b 7b3f ef10 773f
000000a0: 34e2 813f 1f17 8e3f 95f4 7b3f b887 7b3f
000000b0: 932a 7d3f 53d8 783f a9ee 6f3f b108 803f
000000c0: 44f0 803f 21e4 813f b2b6 813f 2ee5 833f
000000d0: 4c47 843f 06f1 7d3f 44c3 833f 58ee 7c3f
000000e0: 273d 853f ecb1 753f 99cc 7a3f 6027 7b3f
000000f0: 9cda 7b3f 1e59 803f 0b70 7a3f d1ed 713f

ae.encoder.bn06.bias f4 [64]
-0.030368587 -0.041633938 -0.021063987 -0.051563017 -0.050166745 -0.05806793 -0.043343216 -0.024971645
-0.035143323 -0.041660413 -0.019704768 -0.029171525 -0.0026676336 -0.024569524 -0.03918708 -0.022688946
0.025988173 -0.009838947 0.003664535 -0.016337965 0.01890237 0.0006343971 -0.05391259 0.013288913
-0.013758128 -0.025848854 -0.00095099956 -0.020676937 -0.034952216 0.0066424916 -0.017813606 -0.037872687
-0.010869517 0.014310633 0.005757085 0.004968473 -0.042592216 -0.053900547 -0.029864158 -0.031178586
-0.056976795 -0.07609195 -0.029269362 0.010193859 -0.02496332 -0.042897485 -0.043849144 0.04604524
-0.010933704 -0.012003126 -0.02419639 -0.014198287 -0.016708948 -0.046815045 -0.016944116 -0.042511128
-0.009033413 -0.032438915 -0.02866908 0.0018023255 -0.01316931 -0.030893605 -0.036108192 -0.07903456
00000000: 8bc7 f8bc 5988 2abd 628e acbc be33 53bd
00000010: a57b 4dbd a3d8 6dbd a888 31bd 5691 ccbc
00000020: 72f2 0fbd 1ca4 2abd e56b a1bc 1ff9 eebc
00000030: 77d3 2ebb 0746 c9bc a282 20bd 2bde b9bc
00000040: 26e5 d43c 8933 21bc b228 703b 32d7 85bc
00000050: 25d9 9a3c ab4d 263a 73d3 5cbd beb9 593c
00000060: c569 61bc fac0 d3bc 804c 79ba ae62 a9bc
00000070: 0e2a 0fbd 42a9 d93b d7ed 91bc 6420 1bbd
00000080: 0f16 32bc 2577 6a3c eea5 bc3b 93ce a23b
00000090: 2d75 2ebd d2c6 5cbd aea5 f4bc 3c6a ffbc
000000a0: 8060 69bd 19d6 9bbd 4dc6 efbc 2504 273c
000000b0: e07f ccbc 46b5 2fbd 299b 33bd ef99 3c3d
000000c0: 4723 33bc c2a8 44bc 8237 c6bc ef9f 68bc
000000d0: 34e1 88bc 22c1 3fbd 63ce 8abc 2620 2ebd
000000e0: e100 14bc abde 04bd 6bdb eabc 023c ec3a
000000f0: 17c4 57bc 9614 fdbc 2fe6 13bd dfdc a1bd

ae.encoder.bn06.running_mean f4 [64]
0.060586736 0.44219542 0.575539 0.22230782 0.5675858 0.904862 0.028859891 -0.37095588
0.16312513 -0.4544627 0.4519621 0.24804659 0.1326229 0.82228947 0.8347475 0.0067538843
-0.15343423 -0.746812 -0.0412517 0.22011517 -0.20588742 -0.015987065 0.0032790632 -0.080175765
-0.28721273 -0.16426069 0.0032750492 0.12168338 -0.379917 -0.26256853 -0.22140567 0.058060013
-0.13928835 -0.3846824 -0.22105306 -0.18500394 -0.47954893 0.25319284 0.3396851 0.25186637
0.118127316 0.028870836 0.062138777 0.30765453 0.4627291 -0.6357104 -0.5930954 0.29664928
0.29561046 0.2124415 0.29051933 0.25720817 0.07064094 -0.44611222 -0.0637289 -0.019868584
0.124864 0.33914396 -0.1959561 -0.7014582 0.07000437 0.25169295 0.18993358 -0.2085311
00000000: cc29 783d 7067 e23e 8656 133f a9a4 633e
00000010: 4e4d 113f 09a5 673f 946b ec3c eeed bdbe
00000020: 460a 273e 56af e8be 9467 e73e edff 7d3e
00000030: 4cce 073e 9081 523f 03b2 553f b04f dd3b
00000040: dd1d 1dbe 122f 3fbf 8bf7 28bd df65 613e
00000050: 27d4 52be 4ef7 82bc 8de5 563b 3133 a4bd
00000060: 8c0d 93be f433 28be 35a2 563b 2335 f93d
00000070: 7b84 c2be 626f 86be 2bb8 62be 56d0 6d3d
00000080: 9ba1 0ebe 17f5 c4be bc5b 62be ac71 3dbe
00000090: 7087 f5be 7ea2 813e 35eb ad3e a1f4 803e
000000a0: bcec f13d 8882 ec3c 3b85 7e3d e584 9d3e
000000b0: d4ea ec3e ebbd 22bf 1ad5 17bf 6ae2 973e
000000c0: 415a 973e 448a 593e f3be 943e cab0 833e
000000d0: 32ac 903d d268 e4be 4c84 82bd 71c3 a2bc
000000e0: b2b8 ff3d 47a4 ad3e b7a8 48be c492 33bf
000000f0: 735e 8f3d e6dd 803e f37d 423e 2d89 55be

ae.encoder.bn06.running_var f4 [64]
2.264203 2.1667519 3.3739734 2.6900756 2.4848597 2.1371992 3.4243915 1.4383146
1.8158292 2.3098295 1.8876501 1.4405448 2.8027432 2.3529937 2.622775 2.3478212
1.994381 3.937241 1.4985987 2.198121 1.3673567 1.8753242 2.1988406 4.6312203
4.2841096 3.7705007 4.216126 2.391193 5.081239 1.7717637 2.0993965 4.096449
1.0257478 1.2321517 1.6775954 2.165461 3.8391757 2.1989825 3.5807645 3.4060884
2.3576145 0.32493052 3.0212004 2.2499053 3.6289947 2.7385633 1.3327259 4.044047
1.4676825 1.8006331 2.2034562 1.5147336 1.7955037 0.27648762 2.3596501 2.0471187
1.366678 2.8884897 2.4171019 5.877575 1.5736316 1.7771684 2.0670033 0.6557735
00000000: b4e8 1040 10ac 0a40 2eef 5740 332a 2c40
00000010: f107 1f40 dfc7 0840 3b29 5b40 b11a b83f
00000020: 176d e83f 3fd4 1340 859e f13f c663 b83f
00000030: 2560 3340 7397 1640 8cdb 2740 b442 1640
00000040: e047 ff3f c2fb 7b40 15d2 bf3f 04ae 0c40
00000050: 8b05 af3f a00a f03f ceb9 0c40 f532 9440
00000060: 6d17 8940 e24f 7140 81ea 8640 4e09 1940
00000070: 8399 a240 27c9 e23f 835c 0640 1c16 8340
00000080: b44b 833f 26b7 9d3f 72bb d63f ea96 0a40
00000090: 0eb5 7540 21bc 0c40 3f2b 6540 5afd 5940
000000a0: 28e3 1640 4b5d a63e 595b 4140 73fe 0f40
000000b0: 7341 6840 9f44 2f40 c396 aa3f d568 8140
000000c0: 05dd bb3f 257b e63f 6d05 0d40 cae2 c13f
000000d0: 11d3 e53f c98f 8d3e 8204 1740 fe03 0340
000000e0: 4eef ae3f 04dd 3840 ccb1 1a40 1815 bc40
000000f0: c36c c93f 417a e33f c849 0440 c6e0 273f

ae.decoder.tr01.weight f4 [64, 64, 3, 3]
0.030839503 0.08733627 0.08279932 0.056648105 0.04084089 0.01632818 0.0141367195 -0.056794412
-0.0065357294 0.05391911 0.09983647 -0.061791588 -0.08303237 0.04402661 0.04960676 -0.05756573
0.039807208 -0.02105459 -0.037137866 -0.04345582 0.093571685 -0.059289023 0.049146887 -0.060003705
0.061645504 -0.013909722 -0.0140839415 -0.07825452 -0.081118055 0.046880715 -0.036493327 0.044394296
-0.062287968 -0.007110548 0.02103165 0.06541499 0.06747233 -0.009912072 0.008339907 0.096192375
-0.011707954 -0.023649825 0.036879648 0.10220846 0.010608343 0.036541056 0.04861164 -0.041842643
-0.045275487 -0.015541405 -0.006445517 -0.020691436 -0.09196207 -0.0069686086 -0.05086446 -0.026155833
-0.021896422 -0.087623686 -0.048406128 -0.07369228 0.08652554 0.045601986 0.09830002 0.07735396
0.0818551 0.06452707 0.07659619 -0.008933851 0.004197679 0.039601836 0.07314715 -0.0695062
0.036431495 0.06381473 0.052614 -0.029412638 0.08439505 -0.07828187 -0.0020126116 0.03406103
0.025973946 0.0021538774 0.02281979 -0.0026929472 0.05903475 0.028449642 0.014967541 0.0014126177
-0.17115624 0.035334878 0.11256716 0.09917684 0.0024792182 -0.061444916 0.024328167 0.03251762
0.0100290105 0.003766939 -0.10268572 -0.04918194 -0.027892798 0.030598158 0.03383841 -0.023027979
0.018080765 0.069261394 -0.012332491 -0.063783035 -0.0748788 0.016239405 0.014123389 0.0006949356
0.024101254 -0.038585823 -0.075616956 -0.04508814 -0.08802034 -0.031195527 -0.017042095 -0.04577143
-0.11928931 0.017706038 -0.0040617357 -0.05406997 0.09950381 -0.09538189 -0.03343475 0.039027944
-0.05548571 0.06917172 -0.11468258 0.010211461 -0.018959433 0.031326685 0.06760576 0.024852581
-0.010720567 -0.014241829 0.0690786 -0.029220307 -0.009630519 -0.024276534 -0.14473313 0.0029586821
0.0035493104 0.070999674 -0.10070275 -0.071045645 -0.08620778 -0.14445905 -0.023224296 0.11243255
-0.03713838 0.056141436 0.113858186 0.058850836 0.064712405 0.00057896087 0.0071902047 0.10431594
-0.047519695 -0.026577039 -0.11177554 0.0662764 -0.094410144 0.06972863 0.035843752 -0.021782234
0.01867013 -0.007778629 0.09787305 0.041208617 0.102403745 0.1336165 0.015303533 -0.0095034875
-0.054131344 0.060552523 -0.017253762 -0.050694916 0.05141389 -0.020883612 0.012444318 0.0050594085
0.058534976 -0.033388227 0.09982488 -0.029128345 -0.046923153 -0.01896577 -0.023749888 -0.15908551
-0.013640247 0.05621624 0.0134781925 -0.017680237 0.10300043 -0.014683494 0.008207923 -0.01258288
-0.024397636 -0.036348898 0.029221335 0.08465044 0.0431556 0.041494343 0.00012999713 0.055969205
-0.03271955 0.0006272213 0.054201603 -0.06201292 -0.040313847 -0.114983805 0.028575663 -0.029864488
0.050939698 -0.017036162 0.01817848 0.122939244 -0.044839647 -0.030233547 0.015407345 -0.06837105
-0.023913506 0.03536311 -0.028126769 -0.057703856 -0.10987073 0.05387527 0.057323325 0.062932186
0.09288563 0.14745536 -0.04456234 -0.035241343 0.004597699 -0.0836356 -0.0064994036 -0.016639788
0.0817075 0.14399186 -0.027291544 0.0577522 0.06532278 0.043174397 0.046675082 -0.09495712
0.025412647 -0.11490766 0.036366343 0.012656371 -0.032000557 -0.0058378703 -0.1140475 -0.049136825
00000000: 20a3 fc3c 5cdd b23d b192 a93d d807 683d
00000010: c748 273d adc2 853c b39d 673c 42a1 68bd
00000020: ac29 d6bb 49da 5c3d 1077 cc3d 2d19 7dbd
00000030: e00c aabd 3f55 343d 7530 4b3d 0bca 6bbd
00000040: e20c 233d ad7a acbc e01d 18bd bbfe 31bd
00000050: 83a2 bf3d 0cd9 72bd 3f4e 493d 72c6 75bd
00000060: ff7f 7c3d 9ae5 63bc 55c0 66bc e843 a0bd
00000070: 3921 a6bd fe05 403d 077a 15bd cbd6 353d
00000080: ab21 7fbd 9aff e8bb 914a ac3c 4bf8 853d
00000090: ef2e 8a3d 3e66 22bc 1ba4 083c 8200 c53d
000000a0: b8d2 3fbc 47bd c1bc 1d0f 173d ab52 d13d
000000b0: 9ece 2d3c 13ac 153d 001d 473d 3163 2bbd
000000c0: ca72 39bd 61a1 7ebc ea34 d3bb 1681 a9bc
000000d0: 9c56 bcbd ed58 e4bb 4157 50bd c244 d6bc
000000e0: 2060 b3bc 0c74 b3bd 8145 46bd faeb 96bd
000000f0: 4d34 b13d 26c9 3a3d 8551 c93d c16b 9e3d
00000100: a6a3 a73d c526 843d 77de 9c3d 495f 12bc
00000110: af8c 893b 8935 223d 2cce 953d 4459 8ebd
00000120: 3139 153d 4cb1 823d c781 573d c6f2 f0bc
00000130: 50d7 ac3d 3f52 a0bd 05e6 03bb 9483 0b3d
00000140: 50c7 d43c 1128 0d3b 91f0 ba3c 287c 30bb
00000150: 6cce 713d 390f e93c 6b3a 753c 9627 b93a
00000160: 9543 2fbe 4ebb 103d 9c89 e63d 3a1d cb3d
00000170: 617a 223b aaad 7bbd dd4b c73c 3231 053d
00000180: b850 243c c0de 763b e44c d2bd 0073 49bd
00000190: 707f e4bc fda8 fa3c 259a 0a3d 2ca5 bcbc
000001a0: 1d1e 943c ebd8 8d3d 370e 4abc aea0 82bd
000001b0: 0e5a 99bd 8008 853c c965 673c 572c 363a
000001c0: fe6f c53c 2b0c 1ebd 10dd 9abd 57ae 38bd
000001d0: 0244 b4bd c38d ffbc dd9b 8bbc d37a 3bbd
000001e0: f44d f4bd 410c 913c 4f18 85bb 7978 5dbd
000001f0: a7c8 cb3d 9557 c3bd e0f2 08bd c4db 1f3d
00000200: fc44 63bd e7a9 8d3d b3de eabd f94d 273c
00000210: d050 9bbc 6950 003d e474 8a3d a497 cb3c
00000220: 51a5 2fbc 8f56 69bc 1579 8d3d 6d5f efbc
00000230: 53c9 1dbc 95df c6bc ec34 14be 73e6 413b
00000240: 8c9b 683b 4768 913d 3e3d cebd 6180 91bd
00000250: b48d b0bd 13ed 13be e140 bebc 0943 e63d
00000260: 6a1e 18bd 90f4 653d 7b2e e93d 930d 713d
00000270: f087 843d 68c5 173a cf9b eb3b 98a3 d53d
00000280: 03a4 42bd 17b8 d9bc 93ea e4bd ecbb 873d
00000290: 1b5a c1bd e2cd 8e3d e6d0 123d a870 b2bc
000002a0: 1af2 983c dfe3 febb aa71 c83d 5eca 283d
000002b0: 0eb9 d13d c4d2 083e abbb 7a3c 84b4 1bbc
000002c0: d4b8 5dbd ec05 783d c357 8dbc 79a5 4fbd
000002d0: 5f97 523d 1c14 abbc 41e3 4b3c 65c9 a53b
000002e0: 5fc2 6f3d 18c2 08bd fd70 cc3d 919e eebc
000002f0: 7e32 40bd 1a5e 9bbc 208f c2bc 50e7 22be
00000300: 587b 5fbc 0043 663d a3d3 5c3c 25d6 90bc
00000310: e4f1 d23d 0a93 70bc 867a 063c 6d28 4ebc
00000320: 8ddd c7bc 95e2 14bd 9561 ef3c 365d ad3d
00000330: edc3 303d f9f5 293d d74f 0839 f73f 653d
00000340: ef04 06bd 1c6c 243a 8002 5e3d 4201 7ebd
00000350: 2220 25bd a17c ebbd 8217 ea3c 5fa6 f4bc
00000360: 25a6 503d 6c8f 8bbc 09eb 943c 92c7 fb3d
00000370: c7a9 37bd 58ac f7bc 176f 7c3c 1f06 8cbd
00000380: 42e6 c3bc e9d8 103d 1c6a e6bc e15a 6cbd
00000390: e803 e1bd 51ac 5c3d ddcb 6a3d 97e2 803d
000003a0: d23a be3d 8afe 163e 0087 36bd 3a59 10bd
000003b0: 4ba8 963b 2449 abbd f3f8 d4bb 2a50 88bc
000003c0: 4356 a73d 9a72 133e 8492 dfbc 928d 6c3d
000003d0: f3c7 853d a3d7 303d 5f2e 3f3d e178 c2bd
000003e0: 2f2e d03c b554 ebbd e0f4 143d ab5c 4f3c
000003f0: 0413 03bd 9b4b bfbb bc91 e9bd b243 49bd
