checkpoint/teacher_checkpoint.pt (torch, 642098 bytes, 32 tensors)

ae.encoder.cov01.weight f4 [64, 63, 1, 1]
00000000: 75ed 4abe f6e4 cd3d dc02 bbbd 7e63 f83c
00000010: 76dc 2c3e 04be 55bd 02e7 2d3e a7a0 23bd
00000020: b7cb 383d bca1 853e f6d8 68bc 9cd4 0bbd
00000030: ed4f c33d f513 a33d 6ccf c6bd 2f77 cfbc
00000040: 9cf2 f8bd 4cd3 95bd e7ce 783e 14bb 5cbe
00000050: c8cb 0dbe f3e0 e33d d976 a4be b7ed d13e
00000060: 0021 4ebe 7a11 27be 1dcf f1bd e718 6bbe
00000070: 5e4c 2bbd e389 8fbe b659 0dbe a572 813d
00000080: 338f c1be 05f5 7dbd 49ed 84be 5fc9 943e
00000090: f68c 6abe 3eb6 9a3d f577 d6bc d9cc 873d
000000a0: 19a5 c6be 1e82 d13c be71 903d 85d1 183d
000000b0: f079 d4ba 5a76 3e3e 51a2 56bc eb82 a93d
000000c0: bf64 ccbd b72f ab3e d95c 253e 073b 8fbc
000000d0: fed9 123e 515f 83bd 343a c03d 30d2 01be
000000e0: ba28 2ebd daa0 b2be 41ab 95be 1aff a5bd
000000f0: 8cf6 a5be 2859 643d 1117 abbd 676e 283c
00000100: 1af8 35be 8ce2 f2bd f3f5 a7be 413b 733d
00000110: 326f 54bd 6ef0 80bd 4dc0 6c3e f22e 34bf
00000120: 7f15 783e cdda e0be 2d72 5f3d 73ec 05be
00000130: 4ea6 183d 2aef 4d3e 061b ffbd f773 16bc
00000140: 1905 dabb 7c0f 22be 2870 d4bd d246 58be
00000150: a847 833c bc21 89be 7e16 753c d489 34be
00000160: 13f9 17bd 7fff 85bd 9724 aebe 42dd 0f3d
00000170: 4b00 813b d5b8 8ebe 2d0a 2cbe b9af 983d
00000180: 11d6 383e 99ea 2c3d f27e 4bbe 2cb2 e33d
00000190: 8ca7 2c3e db84 acbd 3d7b 1dbe b5cc 6d3e
000001a0: 04dc 84be 2a25 11be ae37 b5bc c4e6 d3bd
000001b0: b9df 6ebe f304 25bd 19b9 b0bd 74b2 89be
000001c0: 866c 523e e7e6 c0bd fccc 523e f94a 533d
000001d0: 9537 243e cfbd 253e 2a4c c93d 9944 d13e
000001e0: 083d 98be 1e83 c23e a206 d1be 75b3 80bc
000001f0: 45c0 9dbe 6d22 e33d a078 9c3d 32f4 bc3e
00000200: 5be9 f23d 9492 fa3e 70c7 243e f669 2bbe
00000210: a526 86bc 6091 e03d 6c22 973e 4545 263d
00000220: cbde edbd c52d 853e b2c4 9bbd 6a9d 96be
00000230: 24f5 cabc 097e 2b3e 6c03 383d c60b 23be
00000240: 5d16 013e 7654 f63e a50c 363e da2d e0ba
00000250: 0406 e83d cac3 ff3d 67e3 2b3e ae05 633e
00000260: 660e 5abd ae1f 163e ab7f 4cbe bc6a 5fbc
00000270: 4198 00be aad4 673e a2af 14be ba56 9e3e
00000280: 690a 383e 57ee 53be 59b7 77bc d01e 233d
00000290: c424 74bd 86c1 f23c 9855 6f3d c64e a33d
000002a0: 8bd0 bcbd c4ae 12bd 3e7c 433d 0be3 52bc
000002b0: f2e1 cebc 0a11 acbb 354d 82bc b12e 163c
000002c0: 3f9f b3bb f0db 7c3c 664b 673d bf97 cd3d
000002d0: d682 25be 7bb8 f93c 73ad a4be ad00 893d
000002e0: 9ef8 04be 4e5b 73be 04ad 443b 75ad e6bd
000002f0: e041 e63d e412 033e 3a2f b7bd 054a b6bd
00000300: 88a4 a4be 70b0 293e 48eb 9abd c355 4abd
00000310: 4456 a1bd c067 80bd ef39 00be e476 0fbf
00000320: bf93 c1bd 9dff 06bd 5357 9e3d 0a6c c4be
00000330: 6e1b 82be 6da1 ebbd 3da0 aa3d f13f af3d
00000340: 1438 90be abbf a7be 8705 15be def3 cfbd
00000350: 22ef 5bbe 6504 9e3d 7fd6 d23d 6500 8a3d
00000360: 8403 84bd 473f e23e 9045 8abe b972 4f3d
00000370: a2d7 aa3d ddbb a4bc fbf7 943e 6d7e cfbd
00000380: e1d2 843d b358 b7bd dc27 07be 155d 23bd
00000390: 8f4a 7fbd c747 253e 9d14 d63a e292 c13c
000003a0: b9ac afbd 9b2d 053e 1646 24be 2f52 503e
000003b0: 4a3a 54bd 29cc 10be 77d2 0c3e 2c5c 2e3e
000003c0: fd80 793d 1052 973e 68f4 59be 3b18 02be
000003d0: b425 cfbc b142 613c 0ab0 553b 59c0 a1bd
000003e0: 8b5b e23d 61be 4c3e f2a9 0e3e e382 933c
000003f0: 88c4 50be 6bba 3cbe 20b7 38be 1dd0 fabd
-0.19817145 0.100534365 -0.09131405 0.03032088 0.16880974 -0.052183166 0.16982654 -0.039948132
0.045116153 0.26099956 -0.014211884 -0.034138307 0.09536729 0.07962791 -0.09707531 -0.025325386
-0.12155649 -0.07315692 0.24297677 -0.2155574 -0.13847268 0.1112689 -0.32121924 0.41001675
-0.20129776 -0.1631526 -0.11807082 -0.22958718 -0.041820876 -0.28034887 -0.13803753 0.06320695
-0.37804565 -0.062001247 -0.25962284 0.29059884 -0.22905335 0.07554291 -0.026180247 0.066308685
-0.38797835 0.02557474 0.070529446 0.03730919 -0.0016210657 0.18599835 -0.013100223 0.08276924
-0.09980153 0.3343484 0.161487 -0.017484201 0.1434097 -0.064146645 0.09386101 -0.12677836
-0.04251931 -0.34888345 -0.2923222 -0.081052974 -0.32414663 0.05574909 -0.08354009 0.010280228
-0.17770424 -0.11859617 -0.32804832 0.05938268 -0.051863857 -0.06295858 0.23120232 -0.7038413
0.2422695 -0.43916932 0.054552246 -0.1307848 0.037267976 0.20110765 -0.12456326 -0.009182922
-0.0066534397 -0.1582622 -0.103729546 -0.21120766 0.01602538 -0.2678355 0.014958976 -0.17630702
-0.03710277 -0.06542873 -0.3401229 0.035123117 0.0039368025 -0.2787539 -0.16800757 0.074553914
0.1805041 0.042215917 -0.19872645 0.11117968 0.16860789 -0.08423778 -0.15379043 0.23222621
-0.2594911 -0.14174333 -0.022121277 -0.103467494 -0.23327531 -0.040287923 -0.086290546 -0.2689396
0.20549211 -0.09419041 0.20586008 0.05158517 0.16036828 0.16185687 0.0982898 0.40872648
-0.29734063 0.3799066 -0.40825373 -0.015710572 -0.30810753 0.110905506 0.07640195 0.36905056
0.11860915 0.48939955 0.16091704 -0.1673964 -0.016375849 0.10965228 0.2951845 0.040593404
-0.1161476 0.26011482 -0.07605876 -0.29416972 -0.024775095 0.16747297 0.04492514 -0.1592246
0.12606187 0.48111314 0.17778261 -0.0017103509 0.113292724 0.12488516 0.16785966 0.22170135
-0.053236388 0.14660522 -0.19970576 -0.013636287 -0.1255808 0.22639719 -0.14520124 0.30925542
0.17972721 -0.20696388 -0.015119397 0.039824307 -0.059605375 0.029633295 0.058431238 0.07974009
-0.09219464 -0.0358112 0.04772591 -0.012871514 -0.025254223 -0.0052510547 -0.015905956 0.009166406
-0.00548163 0.015433297 0.05646839 0.10038709 -0.16163191 0.030483475 -0.3216358 0.06689582
-0.12985465 -0.23765299 0.0030010352 -0.11263553 0.112430334 0.12800175 -0.089445546 -0.08900837
-0.32156777 0.16571212 -0.075644076 -0.049398195 -0.07877782 -0.06269789 -0.125221 -0.5604079
-0.094520085 -0.032958616 0.077314995 -0.38363677 -0.25411552 -0.11505399 0.08331344 0.08557118
-0.28167784 -0.3276342 -0.1455289 -0.10153936 -0.2147794 0.07715682 0.10294818 0.067383565
-0.06445983 0.44188902 -0.27006197 0.050646517 0.0834191 -0.020109111 0.29095444 -0.10131536
0.064855345 -0.08952465 -0.13198799 -0.03988369 -0.062326964 0.16140662 0.0016333048 0.02362961
-0.08577866 0.13005678 -0.1604236 0.2034385 -0.0518134 -0.14140381 0.13752161 0.17027348
0.06091403 0.29554796 -0.2128464 -0.12704556 -0.025286533 0.013748811 0.0032606148 -0.078980155
0.11052617 0.19994499 0.13932016 0.018006748 -0.2038747 -0.18430488 -0.18038607 -0.12246726

ae.encoder.cov01.bias f4 [64]
00000000: 9e89 923b 12eb 033b 8204 183b e593 e0b8
00000010: 5c63 163b 819e 68bb d488 babb 6753 3c3b
00000020: f2dc 12bb 387c 003a ba93 ba3a 7baa 193b
00000030: 15b8 893b 7dcb 413b 96c8 0fba 2037 4a3b
00000040: efac 4f3b 880a e2b9 2fa3 13bc da06 bfba
00000050: fc2c 20bb ecfc 4f39 666f fe3b 3595 f5ba
00000060: 458f 04bb 1f3f 023c 0778 413a e1c3 a639
00000070: a741 debb 7137 52bc d76b 423c b05a ff3a
00000080: 24cb 3d3c a99a b73b 771a bab9 4531 5c3b
00000090: 9601 dcbb caed 5ebb aeb1 253a 5f55 b23b
000000a0: 2e1d 98ba 60aa 693b 9f02 713a 2e64 f0ba
000000b0: cc80 803a 67bf 81bb 5740 47ba 611e 033b
000000c0: e98d 1d3b e396 053c 9709 83bb ada8 25bb
000000d0: afbf 7fbb 4cee 12bb 8bdc bfbb 0827 063a
000000e0: 48db 073b 30ac ec3a 0be1 ddba 10c9 38bb
000000f0: 0ee5 2d3b d311 33bb b0b2 713b 645e c4ba
0.0044719717 0.0020129126 0.0023196046 -0.000107087 0.0022947406 -0.0035494866 -0.0056925807 0.0028736235
-0.0022409526 0.00049013225 0.00142347 0.0023447562 0.0042028525 0.0029570751 -0.0005484907 0.003085561
0.003168877 -0.00043113925 -0.009011074 -0.0014574185 -0.0024440875 0.00019835279 0.0077647446 -0.0018736484
-0.0020226997 0.00794962 0.0007380251 0.00031807928 -0.0067827287 -0.012830601 0.011866531 0.0019481983
0.011584077 0.0056031537 -0.00035496402 0.0033598703 -0.0067140562 -0.0034016245 0.0006320727 0.005442306
-0.0011605376 0.003565453 0.0009193811 -0.0018340403 0.000980401 -0.0039595845 -0.0007600835 0.002000712
0.0024040884 0.00815365 -0.003998946 -0.002527754 -0.0039024164 -0.0022419868 -0.005855148 0.00051175104
0.0020730067 0.0018056687 -0.001692803 -0.0028196014 0.0026534232 -0.0027323856 0.0036880188 -0.0014981744

ae.encoder.bn01.weight f4 [64]
00000000: 7fcd 743f 73eb 793f 72c7 833f 3985 853f
00000010: ce96 863f 19a4 7a3f 41a4 753f 74f1 813f
00000020: 997c 813f 1d54 753f 2b1d 7a3f b8c0 873f
00000030: 7bda 7d3f c2b5 7f3f 22f1 7b3f 3c75 7b3f
00000040: 8d3b 7c3f afca 7e3f b8d4 803f c41b 7a3f
00000050: ae66 803f b14f 7c3f 5be7 753f 16d6 7c3f
00000060: 289d 803f 1725 693f 393a 7d3f 85dc 7e3f
00000070: b396 813f 7fb5 823f 7727 7f3f e8ac 833f
00000080: 0317 843f c51d 823f 1d61 823f 32e7 813f
00000090: ffcd 793f 3561 7e3f 2b56 823f affc 7c3f
000000a0: 298c 803f aeb7 823f 25fc 823f 4849 863f
000000b0: 3e28 7d3f f498 803f b9e0 803f b69d 7d3f
000000c0: 6f76 883f 5448 833f 7dec 7a3f 4f4e 793f
000000d0: 81e1 803f 61e4 7c3f 5b08 823f d469 7e3f
000000e0: 9e3d 833f faa2 773f ca93 773f fe16 783f
000000f0: dbac 7c3f e819 733f 4fd8 823f cbc5 803f
0.9562606 0.9762489 1.0295241 1.0431281 1.0514772 0.97906643 0.95953757 1.0151811
1.0116149 0.9583147 0.97700757 1.0605688 0.991615 0.99886715 0.98414814 0.9822576
0.9852837 0.9952802 1.0064917 0.97698617 1.0031335 0.985591 0.96056145 0.9876417
1.004796 0.9107222 0.98916966 0.99555236 1.0124115 1.0211638 0.99669594 1.0287142
1.0319523 1.0165335 1.0185887 1.014868 0.9757995 0.99367076 1.0182546 0.98823065
1.0042773 1.0212305 1.0233198 1.0491114 0.9888953 1.0046678 1.006858 0.9906877
1.0661143 1.0256448 0.980171 0.97385114 1.0068818 0.9878598 1.01588 0.9938023
1.0253179 0.9673306 0.96709883 0.96910083 0.98701257 0.94961405 1.0222262 1.0060362

ae.encoder.bn01.bias f4 [64]
00000000: 0888 a5bd e040 243d 72d9 323d 83ff a93d
00000010: 1fb8 6abd acd7 41bd edc2 f3bd fe42 ae3c
00000020: 8dd5 6cbd 44c7 64bd 3efd 853d 52fe a83d
00000030: 7b76 7b3d 1c20 d43d 86fb 933d e726 ae39
00000040: 4d25 bb3c 4a72 75bc 3f09 04be 1d6f 64bc
00000050: 9f42 21bd 564b 133d efc9 ba3d 4d75 adbc
00000060: 3f10 af3c 72af 303e 3e01 32bc 9aa0 be3c
00000070: 406c 49bd 7538 a5bd 70ee f73c 42dc 87bb
00000080: 6e50 353c fdd6 fb3d 0c39 23bd f933 973c
00000090: 3996 cbbd 2d0d 08be 60c1 023d 6424 74bc
000000a0: dda6 11bd edc9 2e3d f9dd ea3b 9ba2 5bbd
000000b0: ed59 35bd 7ee6 00be 300b 093d 00ff e2bb
000000c0: 11e8 f2bb 7917 3638 04d8 7a3c 3d55 c3bd
000000d0: 0ac9 58bc 03eb 29bd 5a5a dcbd 3510 853b
000000e0: eb02 253d 88d7 853d 1b44 53bd f24d d4bd
000000f0: bc5b 353d cad5 72bd 5f3e 02bd 0f31 22bd
-0.080825865 0.040100932 0.043664403 0.08300688 -0.057304498 -0.04732482 -0.119024135 0.021272179
-0.057820845 -0.055854097 0.06542443 0.08251633 0.06139229 0.10357687 0.07225709 0.0003321685
0.022844935 -0.014980862 -0.12894152 -0.013942507 -0.039370175 0.035960518 0.09120547 -0.021174097
0.021370051 0.17254427 -0.010864554 0.02326994 -0.0491755 -0.08067409 0.030265063 -0.00414613
0.011066539 0.12296865 -0.039849326 0.0184574 -0.09940762 -0.13286276 0.031922698 -0.014901254
-0.035559524 0.04267304 0.0071675745 -0.05362187 -0.044275213 -0.12587926 0.033457935 -0.006927371
-0.0074129184 4.3414042e-05 0.015310291 -0.09537742 -0.013231525 -0.04148389 -0.10759421 0.00406077
0.040285986 0.0653525 -0.051578622 -0.103664294 0.044276938 -0.059285916 -0.031797763 -0.039597567

ae.encoder.bn01.running_mean f4 [64]
00000000: a55c 0d3b 1384 69bb 184b f63b dbec 99bb
00000010: 594b c13a 3c66 43ba 4142 16bc c2e8 f93b
00000020: b90e b4b9 450d 033b 83d0 073b adfe 503a
00000030: 464e b63b 40ea 45bb 3ade 87ba b98c 4dba
00000040: cf8e 313a c0aa 86bb a126 20bc 1cf3 003b
00000050: d83b 833a a5bd 66bb bcf0 f43b a900 6839
00000060: cf8a 02ba ba45 f73b c64e 1b3b 0fec d33a
00000070: 23d4 cebb 972c 60bc 015f 413c c9d2 c93b
00000080: 600f 4b3c 5551 b63a db23 ec39 640f c03b
00000090: 286a a3bb b7a3 4fba 345d ef3a 2c83 913b
000000a0: 94cb 3fbb f833 bc3b 3edc 5f3b e696 92bb
000000b0: 9351 863b 06ca 62bb 175f 29bb 22a7 263b
000000c0: d141 51ba a0c8 e53b 31f5 2ebb da0d ac3a
000000d0: 87c9 9dba 2bd1 69bb aeb6 5ebb eef8 c739
000000e0: e74e af3b 64e2 5f3b a30f 85ba 62f1 dbba
000000f0: c2af 963b e6e8 9ebb 4ce7 d93b 5e94 703b
0.0021570113 -0.00356317 0.007516276 -0.004697425 0.0014747187 -0.0007453894 -0.00917107 0.007626624
-0.00034343245 0.0019996923 0.0020723648 0.000797252 0.00556353 -0.0030199438 -0.0010365911 -0.00078410987
0.00067732943 -0.0041097105 -0.009774835 0.0019676154 0.0010012342 -0.0035208252 0.007474987 0.0002212549
-0.00049797905 0.007546154 0.0023698076 0.0016168373 -0.0063119098 -0.013682506 0.011802436 0.0061591608
0.012393802 0.0013909737 0.00045040142 0.0058612097 -0.00498702 -0.0007920819 0.001826203 0.0044406857
-0.002926563 0.0057435 0.0034158374 -0.004473555 0.00409908 -0.0034605279 -0.0025844031 0.0025429209
-0.00079825247 0.0070124418 -0.0026696438 0.0013126687 -0.0012038209 -0.0035677652 -0.0033983397 0.00038141705
0.005349982 0.003416204 -0.0010151755 -0.0016780312 0.0045985887 -0.004849541 0.006649887 0.0036709527

ae.encoder.bn01.running_var f4 [64]
00000000: 3d51 0140 9574 f740 536d 1041 2eaf bd40
00000010: 77a7 163f 1c8b 1840 c128 1540 e19f d540
00000020: e000 3b3f ced7 0f40 7900 173f 4189 9a3f
00000030: 4fd0 fc3e adf7 3d41 483c 193f 550c 1f40
00000040: 69e9 3640 4491 ac40 d029 8b3e 92c7 4540
00000050: 6d14 9b40 ad69 5b40 8c0b 903f 40ec 1140
00000060: 2509 d33f 308e ce3e 4f36 f33f 5401 2640
00000070: 78ac b83f e157 853e 64a6 873f bb84 bd40
00000080: 2125 373f dc25 c140 2676 cf3f c7cb e440
00000090: 2355 e03f 3d38 853f 6e2d dc3f eea8 b33f
000000a0: f80a 1940 ad9b 883f 5d73 1c40 6e65 fd3f
000000b0: 5548 b83f 877a 5d3f b92d 5a40 d7ce c23f
000000c0: 1c23 1e40 8635 f93f 0e54 6b3f bb3f bf40
000000d0: c970 db3f e776 393f db86 1d40 9731 0c3f
000000e0: a054 8940 688b a53f b607 f040 e0cd de40
000000f0: 7c2d 493f 8d59 ec3f 475d dd3f 8bab 9e40
2.0205834 7.732981 9.0266905 5.9276342 0.5884928 2.3834906 2.3306124 6.6757665
0.7304821 2.2475467 0.58985096 1.2073137 0.49377677 11.872968 0.59857607 2.4851277
2.8579962 5.3927326 0.27180338 3.0903058 4.8462434 3.428325 1.1253524 2.2800446
1.6487166 0.40342855 1.9000949 2.593831 1.4427633 0.2604361 1.0597653 5.9224524
0.7154103 6.0358715 1.6207931 7.149875 1.7525982 1.0407788 1.7201364 1.4035928
2.3912945 1.0672508 2.4445412 1.9796579 1.4397074 0.86515087 3.4090407 1.5219373
2.470893 1.9469459 0.9192513 5.9765296 1.7143794 0.72447056 2.461356 0.5476317
4.29158 1.2933168 7.5009413 6.962631 0.7858503 1.8464829 1.7294091 4.9584403

ae.encoder.cov02.weight f4 [64, 64, 3, 3]
00000000: c7fc 9f3d fcf4 03bd b8ce 76bd c4ca 08bd
00000010: a45c 68bd d030 7bbd d699 7c3d 1751 acbc
00000020: 52e2 9ebd 837d b9bc 06d4 32bd ff37 1f3d
00000030: 7e40 6d3d b57e cbbc 60bf ddbc 76a7 1e3c
00000040: c062 b8bc 5e55 403d 8f01 ca3c cac1 123d
00000050: 28d4 863c 0b1d 5ebc bb1e 06bc 6ac3 843a
00000060: 05f3 a9bb 1584 89bc d9b1 69bc 05ee 0cbc
00000070: 5629 513c 3c7d 05bd 4fdf ad3b b45a 0cbd
00000080: 4351 e1bd d5ed cabd d9e9 8a3b 6e89 22bd
00000090: 13d2 b5bd 92d8 2bbd 83b2 16bb 72d4 32bc
000000a0: 382b b1bd a6b4 cbbd 3f00 cdbd 2a48 3bbd
000000b0: b913 60bc 175f 283d 98d1 24bc 27b6 d63a
000000c0: c3ff 583d df79 293e 58e0 243c 7c01 6c3d
000000d0: 68c5 0b3c 0aaa a3bc e89a 273d 3088 3d3d
000000e0: 693a 53bc e960 8abc 16c7 bcbc aa00 793c
000000f0: ba97 e53c 53d1 963d c9e5 b93c 9d6d 233d
00000100: 8995 4fb9 5f55 b2bd b12a 4dbc 6193 f93c
00000110: 806e c4bb 3eca 06be 6d76 0a3d 3009 fa3c
00000120: dab7 18bd 6fc3 dabc 730a 383d 3635 8c3d
00000130: 5f86 d43c e88d 663d 6474 583d 8529 db3c
00000140: c812 7e3d e8a1 ae3b b8a4 d83d cd48 163d
00000150: 3e65 873d 49ff 603d f4d5 cdbc 0047 6dbd
00000160: fdb4 1dbd 1a2b 9e3d 3392 89bd e7f1 a93c
00000170: e000 fb3c e353 6cbd 3e91 69bc b1e0 a5bc
00000180: 3e4d 00bd 2eef 9bbc a434 2ebd 7729 8ebd
00000190: d147 a53c e69f e0bd 8d71 f4bc 25ad 06be
000001a0: 50bc 8fbc ae2a 2ebd 59ae 19bd 5681 963d
000001b0: 1cd6 04bc e804 0ebd 0b8c ab3d f13d 5b3c
000001c0: f8cb 3cbd 1008 01bd ddda 0f3d 726d 8d3d
000001d0: a52b b23c 177c 7d3b 8b8f d53d 760f 053d
000001e0: ad48 83bd 485d a33c c4b2 0f3e cf3e 27bc
000001f0: 2573 183e 254a a7bd 70bd 52bc 0c05 07bd
00000200: 0cea 713d c0cc 9ebc 624e 3d3d 27a0 04bd
00000210: 5086 5c3d 2abe cb3c 538c 78bd d9c0 103e
00000220: 83c2 cdbb a565 d4bb 1408 643d 1785 b4bb
00000230: f499 e5bd f05f 9dbc 9596 82bc a4b3 563c
00000240: b57a 0bbc ecec d03c 77ae 2bbd bef6 3d3d
00000250: 9c80 2abd d100 5ebd d4f9 4d3e 5ff1 66bd
00000260: 44e9 62bc 41fd dbbc 9989 98bd 9d19 d3bc
00000270: 0b66 bcbd 4a75 f33c 61d0 2d3d 4798 0e3d
00000280: 399a 0dbe df3b 443c f2cd f43d ab62 af3d
00000290: feca 1cbd 6be3 563d 13ab 4d3d fa34 ca3c
000002a0: 3575 fe3d fc68 133d f201 a03d 0377 ccbc
000002b0: cefa 063d a4a1 bcbb 71eb 37bb 442f 223d
000002c0: a73b 573d c05d e33d d4ca e1bd 77e1 403d
000002d0: eb90 4c3e 91c4 113d 1247 12bd 4c8d a63d
000002e0: cf66 f83b 8389 49bd 2992 8fbd 3e06 8dbc
000002f0: 0bc7 ab3d 3e4e 233d 4587 1b3c 65ea 08bc
00000300: 1c47 8f3d fa53 c43d 441f 7d3d d594 80bd
00000310: 5d16 dd3c dc8d 80bc 02e1 343c f275 98bc
00000320: c8da 593d 6c51 9c3d 59cc 2bbc 639d a03c
00000330: 9aeb 113d 39bf 903d 536f 7a3d 6b2c db3c
00000340: 4255 8cbc f23d 5d3d fd25 3dbb a5ab 30bc
00000350: d915 d0bd 8b5c 0fbd 4c71 f93d f40b 683b
00000360: c541 453c 70fa c0bd 7a44 dc3c 3062 65bd
00000370: 3a66 07be 1107 803d 20e6 16be e31c 393c
00000380: 2fb5 6dbc 247d 80bd 18db 4dbd d2c4 d2bd
00000390: 0299 0ebd 4d73 fbbc cc7d 77bc 2fff febb
000003a0: bd85 92bd 3e68 82bd 817e 4b3c 39a8 1abc
000003b0: de69 9d3d 96c2 90bd 55a2 38bd 43de c7bc
000003c0: 3cc8 06bd a20d 95bd 9e8b d5bc 2630 67bd
000003d0: 2f30 923c abd3 12bc ef1d db3d d069 c93d
000003e0: 5030 423d 5f5f a93d 2603 6fbc 1bd2 9f3d
000003f0: 40e9 48bb 20e2 e03c 928f 2b3d 6ff4 9bbd
0.07811885 -0.032216057 -0.060255736 -0.033396497 -0.056728974 -0.061325848 0.061670147 -0.02103476
-0.07758011 -0.022642856 -0.043659233 0.03887176 0.057922833 -0.024840692 -0.027068794 0.0096834805
-0.022508025 0.046956412 0.024658946 0.035829343 0.016458586 -0.013556729 -0.008186038 0.0010129039
-0.005186441 -0.016786614 -0.014263594 -0.00860167 0.012766203 -0.032590136 0.0053061615 -0.03426619
-0.110018276 -0.09908644 0.0042393026 -0.039681844 -0.08877959 -0.041954584 -0.0022994585 -0.010914909
-0.086508214 -0.09946565 -0.100098126 -0.045723118 -0.013676577 0.04110631 -0.010059737 0.001638119
0.05297829 0.16550396 0.010063253 0.057618603 0.008530952 -0.019978542 0.040919214 0.046272457
-0.012892344 -0.016891913 -0.02304415 0.015197912 0.02802645 0.07364144 0.022692578 0.039899457
-0.00019796765 -0.087076895 -0.012522385 0.030465784 -0.005994618 -0.13163087 0.033804346 0.030521959
-0.03728471 -0.026704518 0.04493184 0.06846087 0.02594298 0.056287676 0.052845374 0.026753196
0.06202963 0.0053293593 0.105782926 0.036690522 0.06611107 0.05493096 -0.025126435 -0.05792904
-0.038502682 0.07723065 -0.067173384 0.02074523 0.030640066 -0.057697188 -0.01425582 -0.020248743
-0.031323664 -0.019034948 -0.04253067 -0.069415025 0.020175846 -0.10967998 -0.029839301 -0.13151987
-0.01754585 -0.04252117 -0.037519787 0.073488876 -0.008107688 -0.034672648 0.083763205 0.013381467
-0.046092957 -0.03150183 0.035120834 0.06905641 0.021749327 0.00386787 0.10427769 0.032485448
-0.06410346 0.01994194 0.14033037 -0.010207846 0.14887674 -0.08168439 -0.012862548 -0.032963797
0.059061095 -0.019384742 0.04621733 -0.032379296 0.053839028 0.02487095 -0.0606807 0.14136066
-0.006279291 -0.0064818435 0.055671766 -0.0055090296 -0.11211005 -0.019210786 -0.015940944 0.013104353
-0.008513142 0.025503598 -0.04191443 0.04637789 -0.041626558 -0.054199997 0.20114833 -0.056382533
-0.01384956 -0.02685416 -0.0744812 -0.02576905 -0.09199151 0.029719014 0.042435054 0.03481319
-0.13828363 0.011977165 0.119533435 0.08563741 -0.038279526 0.052462976 0.050211977 0.024683464
0.12424699 0.035988793 0.07812871 -0.024959093 0.03295403 -0.0057565738 -0.0028063918 0.039595857
0.052547123 0.11101866 -0.110250145 0.04709002 0.19977157 0.03558785 -0.03571231 0.08132419
0.007580615 -0.049203407 -0.070103 -0.01721489 0.08387574 0.03986954 0.0094927 -0.008356665
0.06995985 0.0958633 0.061797395 -0.062783875 0.026988203 -0.015692644 0.011039974 -0.018610928
0.05318716 0.076327175 -0.010485732 0.019606298 0.035625078 0.07067723 0.061141323 0.026754579
-0.017130498 0.054014154 -0.0028861754 -0.010783111 -0.10160417 -0.035000365 0.12179813 0.0035407515
0.012039606 -0.09422767 0.02688812 -0.056001842 -0.1322259 0.06251348 -0.14736223 0.011298391
-0.01450853 -0.06273869 -0.050257772 -0.10291447 -0.03481389 -0.030694628 -0.015105676 -0.007781885
-0.07154415 -0.06367539 0.012420298 -0.0094395215 0.07686208 -0.07068364 -0.045076687 -0.024397975
-0.032905802 -0.07277991 -0.026067551 -0.056442402 0.017845241 -0.008961598 0.10699069 0.09834635
0.047409356 0.08270144 -0.014588153 0.07803746 -0.0030656606 0.027451575 0.041884966 -0.076149814

ae.encoder.cov02.bias f4 [64]
00000000: f3d4 513a c6f8 6dbb 64f7 d63a 45bc 64bb
00000010: ab0e 2fb9 4b39 91bb 344a c5bb 0b5d 433a
00000020: 6672 f939 3f0d 0cbc dcf2 06bb b955 04bc
00000030: 5a9c 6fba 5327 383b 323e 11bc 5d4c 813a
00000040: 22c4 053a 81f3 e9bb d97b cfba 1477 bbbb
00000050: 148e 81bb c6af 673b 4d35 03bc eaa9 be3a
00000060: 1ac7 61bb cc43 1ebb 5ba1 44bb 89d8 253b
00000070: 1679 dcb8 e992 e1bb 05c4 e9bb 5148 58bc
00000080: 6ccb 94bb 1f1d 21bb 9244 24ba 22b8 3d39
00000090: 13e6 00bb 4480 8c3b a0be a33a e975 5c3a
000000a0: b058 493a af5d 7aba 359f 253a 8235 9bbb
000000b0: cc2e 55ba 04df 55bb 9b2d 6d3a 3b8f 92ba
000000c0: aa7a 6f39 5f3b 0ebb b5b7 d6bb a72b 76bc
000000d0: c111 87b8 4ca5 97bb 94fa 9eb9 6cf7 0738
000000e0: 7662 3cbc 7922 55bb 6c2d 82ba f093 363a
000000f0: 3a2a 46bb 916d 0eba 6135 6dbc c3ea debb
0.0008004449 -0.003631161 0.0016400632 -0.0034902256 -0.00016694765 -0.0044318787 -0.0060208086 0.0007452524
0.00047578214 -0.00854808 -0.0020591533 -0.0080770785 -0.00091404247 0.002809961 -0.008864926 0.0009864677
0.00051027734 -0.0071396236 -0.0015829756 -0.0057209823 -0.0039537046 0.0035352572 -0.008008313 0.0014546488
-0.003445095 -0.0024149297 -0.0030003402 0.0025306067 -0.000105129715 -0.006883968 -0.007133963 -0.013200835
-0.0045408513 -0.0024584008 -0.0006266321 0.0001809304 -0.0019668385 0.0042877514 0.0012492724 0.0008409904
0.0007680757 -0.0009550703 0.0006317974 -0.0047366032 -0.00081322785 -0.0032634148 0.0009047628 -0.0011181602
0.00022838512 -0.0021702868 -0.0065526613 -0.015025056 -6.4406086e-05 -0.004627859 -0.00030322804 3.2416938e-05
-0.011498084 -0.0032521768 -0.000993175 0.00069647934 -0.0030237571 -0.0005433197 -0.014478059 -0.006802888

ae.encoder.bn02.weight f4 [64]
00000000: aa71 803f 69d3 673f 81c6 873f e07a 813f
00000010: 9c3b 763f ebde 813f d9f1 803f e600 7e3f
00000020: 941c 773f 0199 743f f875 783f efa9 8d3f
00000030: 5daa 863f f465 803f 5154 963f f601 7f3f
00000040: 40d1 783f d13a 843f e9bb 7f3f b2a9 733f
00000050: 18cb 7e3f 4ea0 7f3f 61fc 813f a27f 813f
00000060: d734 843f 5eff 7f3f bc00 773f 30a0 6b3f
00000070: 1b80 763f ac7b 823f 82e5 813f da4b 833f
00000080: 7c39 803f 4cf0 733f fca1 793f b5d9 743f
00000090: fa1d 7d3f 1350 793f b8eb 7e3f 04e1 803f
000000a0: ed31 7f3f b049 763f bc7e 7d3f 9d37 863f
000000b0: ecb9 6f3f 3a2c 743f d88e 803f 8027 643f
000000c0: c6ce 6d3f b8f2 823f 5d5b 823f 33ca 743f
000000d0: 808d 733f 8203 763f bc23 6f3f 8afa 783f
000000e0: 4a2d 7f3f b6f6 7c3f 4cfd 823f 22f7 773f
000000f0: 9704 8d3f 78d9 7b3f e561 833f 09b6 803f
1.0034688 0.9055696 1.0607454 1.0115623 0.96184707 1.0146154 1.0073806 0.9922012
0.9652798 0.95545965 0.97055006 1.1067485 1.0520741 1.0031114 1.1744481 0.9961237
0.9719429 1.0330449 0.99896103 0.9518081 0.99528646 0.9985398 1.0155145 1.0117075
1.0328625 0.99999034 0.96485496 0.920413 0.96289223 1.0193992 1.0148165 1.0257523
1.0017543 0.9528854 0.97512794 0.95644695 0.98873866 0.9738781 0.9957843 1.0068669
0.99685556 0.9620619 0.99021506 1.0485722 0.9364307 0.95379984 1.0043592 0.8912277
0.92893636 1.0230322 1.0184132 0.9562103 0.95137787 0.960991 0.934139 0.9725729
0.9967848 0.9881395 1.023355 0.9686147 1.1017026 0.98378706 1.026425 1.0055553

ae.encoder.bn02.bias f4 [64]
00000000: 5ffb 37bd 7278 7cbd ec86 8a3d b9fb 603c
00000010: ad48 86bc f9b4 1abd 87c5 00be 5d27 8b3d
00000020: c045 37bd 2612 cfbd 2b48 9fbb 4964 d6bd
00000030: 419d c43c 1a10 24bd d03d 5cbe 52e9 923c
00000040: 0f17 dc3c ef70 a8bd d8a0 5fbb 6c14 bebd
00000050: 690c bfbd 806c 6d3d 1210 bfbd e858 c0bc
00000060: ff3c 1fbd 6ba1 7ebd ef6a 68bc 5833 063d
00000070: 20ba 43bd b7ca 08be 4156 0dbe 4929 84bd
00000080: 416c dbbc 9237 f3bd 9767 dabc ff4f f8bc
00000090: e722 08bd cbb1 bf3c aca9 7f3c 5949 a63b
000000a0: 7f84 51bc 6ce9 77bd 4c95 3b3d 8307 f7bd
000000b0: af2e 603d f39c 71bc a91e c8bc 8ab1 7abd
000000c0: e00b eb3b e9ad 3ab9 c70c c7bc 95b2 debd
000000d0: 2d9a 3ebd 3e09 f1bd cbb7 d1bd 92d2 ee3a
000000e0: b410 23be 61c9 9d3c 0487 10bc 887b 9fbd
000000f0: a0cf 02be 8a33 5c3c d3aa 43be adce 9cbd
-0.04491746 -0.061638303 0.067640156 0.01373189 -0.016392076 -0.037770245 -0.1257535 0.06794617
-0.044744253 -0.101108834 -0.004860898 -0.104683466 0.024000766 -0.04005442 -0.21507955 0.017933521
0.026866464 -0.082246654 -0.003412297 -0.09281239 -0.09328539 0.0579648 -0.09329237 -0.023479894
-0.03887653 -0.06216566 -0.014185651 0.03276381 -0.047784925 -0.1335858 -0.13802435 -0.06453187
-0.026785018 -0.118758336 -0.026660724 -0.030311583 -0.03323641 0.023400208 0.015604418 0.0050746617
-0.012787937 -0.060525343 0.045796677 -0.120619796 0.05473202 -0.014746892 -0.024428682 -0.06120447
0.0071730465 -0.00017803129 -0.024298085 -0.108739056 -0.046533752 -0.11769341 -0.10240134 0.0018220714
-0.1592434 0.019261064 -0.008821253 -0.077872336 -0.12774515 0.013440022 -0.19108133 -0.07656608

ae.encoder.bn02.running_mean f4 [64]
00000000: e949 d5bd b814 bfbe 8884 53bf f7ab 30be
00000010: 9ab0 813f 4c41 a73e 4b82 b13e c1bf cbbf
00000020: 9b75 ea3e 47a2 dabe 811a d8bf e53e 963e
00000030: a462 f0be c019 0b3f 7418 523d 9a1e 023f
00000040: 0cec edbf c912 e6bd 095a cf3e c5c5 d1bf
00000050: 327b bebe 645a a3bf 34b4 143f 8c3c 633f
00000060: 07c9 4e3e 9a0f 773f 61c4 5f3d 8429 f53d
00000070: d6ed 5abf 3355 81be 6e68 4e3f 0ce7 c43e
00000080: abe2 333e c764 40bf e342 04be 7b08 b8be
00000090: a0fa ccbe 2944 63bf 9fe6 e93e fb73 36bf
000000a0: cfa0 d03f 1902 c8bf c2ba cabf c621 783e
000000b0: ded6 fa3e 5a61 f0bf b22f 21be 600e 0b3f
000000c0: c64c a7bf f13a 1b3f 415e e43e 848d a7bf
000000d0: 213c cdbf 5e28 19c0 f8be 513e 9d8d ebbe
000000e0: b92a b5be 2e46 193f c84f ce3e e543 7abf
000000f0: 994a bfbd b613 383f 2166 cebe ec88 3ebe
-0.10414488 -0.37320495 -0.826241 -0.172531 1.013202 0.32667005 0.34669718 -1.5917894
0.4579285 -0.42701933 -1.6883088 0.2934486 -0.46950257 0.54336166 0.05129285 0.50827944
-1.8587661 -0.11234052 0.4049838 -1.638848 -0.37203366 -1.276196 0.5808747 0.8876426
0.20193873 0.9650818 0.05463064 0.11970809 -0.8551916 -0.25260314 0.806281 0.38457525
0.17566936 -0.75153774 -0.1291614 -0.3594397 -0.40034962 -0.8877588 0.45683762 -0.7127072
1.6299075 -1.562564 -1.5838244 0.24231634 0.48992056 -1.8779709 -0.1574085 0.5431881
-1.3070304 0.6063681 0.4460316 -1.3090062 -1.6033975 -2.3930888 0.20483005 -0.4600648
-0.35384157 0.5987271 0.40295243 -0.9775985 -0.093404 0.71905077 -0.40312293 -0.18606919

ae.encoder.bn02.running_var f4 [64]
00000000: b42c 823f 5fd6 b73f c4e3 7a3f 91a0 ef3f
00000010: e3f6 e33f e616 f73f bcf0 433f da3f ee40
00000020: 4732 5340 321d aa3f 27b7 e140 96f6 2c3f
00000030: 9fe1 cf40 d2eb 3d40 bc3f e13e 43ee b140
00000040: c3a6 1941 cd39 113f 945d 6f40 2d2d 4540
00000050: 6ec0 b93f eaa7 2341 8fc9 433f 6dca 6540
00000060: e41b e63f 969a 1e40 3dcd 5a40 04dd 0f40
00000070: 3bdd ae40 829b 313f 0cc9 b33f 93ac 823f
00000080: a114 a83f 2f9c 573f 4d1e 5341 a32d 1841
00000090: 6593 3c3f 258d 3640 7624 ca40 628c ed40
000000a0: bf13 1341 b168 a640 473b 7240 b122 1e3f
000000b0: 1fce 2940 3310 ef40 4cef 0d40 ddb1 ab3f
000000c0: a760 0241 c87f 8240 7791 d63f a87c a53f
000000d0: d00c 7b40 7fb3 7040 cae8 4640 baa7 fb40
000000e0: ba61 303f 2015 a040 8ce3 8d40 9bb4 7c40
000000f0: 0252 0440 e0f0 8840 afc4 133f f12f 4640
1.0169892 1.4362296 0.9800379 1.8720876 1.7809719 1.9303863 0.76539207 7.4452944
3.2999437 1.329016 7.0536075 0.6756376 6.4962916 2.9675183 0.43993938 5.5603347
9.603213 0.5672882 3.7400866 3.0808823 1.451185 10.228495 0.7647943 3.59048
1.7977262 2.4781852 3.4187768 2.2478647 5.4645057 0.6937791 1.404573 1.0208915
1.3131295 0.8422269 13.194898 9.511142 0.73662406 2.8523648 6.316951 7.4233866
9.192321 5.2002797 3.784868 0.61771685 2.6532056 7.4707274 2.2177305 1.3413655
8.148597 4.0780983 1.6763142 1.2928667 3.922657 3.7609556 3.1079583 7.8642244
0.6889912 5.0025787 4.4340267 3.9485233 2.0675054 4.2794037 0.5772199 3.096676

ae.encoder.cov03.weight f4 [64, 64, 3, 3]
00000000: 0035 57bd af8b ba3d daeb 78bd 4acf 73bd
00000010: 7637 90bd 4b4a 6c3d 6044 29bc 1b02 f33d
00000020: 7410 c5bc 3261 883d 439f 3f3d c408 1b3d
00000030: b694 a4bd 0089 cebb 255b 853d f821 acbb
00000040: 92a3 5f3b dea6 0e3d 8575 8dbd 5307 06bd
00000050: 45ed 15be cc3b 2abe debd 5139 d71a 2e3d
00000060: 0b4e 5fbc bf29 2bbc a02b bbbd 6244 b7bc
00000070: 6c26 b93d e030 ac3c 7dca 74bc 4b3e 9f3d
00000080: d51d 803d f8a4 b23d 251a 56bd 6b87 eb3d
00000090: f64f 293c f667 c7bb 784c 003d abcf d93b
000000a0: dc5f 763d f837 983d 4498 a4bc ba06 a0bd
000000b0: a1cf 84bb 49b7 46bd 03a3 503d b06a 643c
000000c0: 28d0 ccbc 3bd8 913d a07a b9bd c5b5 8f3d
000000d0: 1044 18be f841 4bbd 17a8 183d 55ca 9f3d
000000e0: 1d8d 833b 05af 253d 8592 943c e544 2f3d
000000f0: 2203 833d 1008 bd3d 2784 ad3d e375 833b
00000100: c93e bdbd 8652 8d3c 52b0 3cbd 0802 1ebe
00000110: 4f87 0d3d 2444 52bc 4db1 7dbd e1d1 cf3d
00000120: 580b b13d 400a 783d 5674 6b3d d721 91bc
00000130: 831e 823d b9a3 aabd 80db 4f3c a47a bfbd
00000140: c755 943d 8401 5abb 5276 a83d 7f35 20bd
00000150: d99f 4b3d 6f8c 0e3d e725 423c 495d 17bd
00000160: f1bb 8bbb 9f03 9e3c d50a 863d d0fb 9fbc
00000170: 73e0 b23b 2091 5dbd 25ba bb3c 4fcf cdbc
00000180: 33ce 9c3b 3480 413d f306 ec3d bc3d 86bc
00000190: 103e 01be 510b 4fbd 975c aebd 4135 92bd
000001a0: c10c 06bd 8efc 78ba d79b c8bd 6bb6 47bd
000001b0: e679 3b3d b5be a5bc 339b 47bd 1686 f5bd
000001c0: d922 94bd b76b 9bbc 89f3 b5bd e3ac a93d
000001d0: 837b 9bbd 45f0 e3bc b35e 403c cff1 9c3d
000001e0: ea35 b03c c13b c9bd 2c61 c1bd 3a8c 043d
000001f0: d677 d1bd 614c 7a3d b8d9 393e e2d0 643d
00000200: f465 1a3e 5c54 a03d 0ddd 353e 760d 2c3d
00000210: df53 633e dec9 9d3d de31 323e be34 fb3c
00000220: 53c5 7b3d b863 8d3d f4b2 65bc 36a9 c0bd
00000230: 1d2c 29bd 9f93 3cbd 8b84 80bc be5b 323d
00000240: 49f9 19bc 7d92 f33b 4ffa 55bd f3fe 453d
00000250: 0fb4 e1bc 0d8d 11be 5def f03c e00b abbb
00000260: c3f4 3bbd 8578 213d 264f 0ebd 92bc 263d
00000270: 9604 e83d dc66 3e3d 84c0 863d 1d9b 8abb
00000280: ff08 a4bc 633c 6dbd d14d 24bd e8e6 76bd
00000290: b1b4 a0bd 39cb 3dbd 0c81 d1bc edb4 95bb
000002a0: 16c4 f73c 0166 b1bd 601a 93bd 7930 a7bd
000002b0: 111a 3cbd d4f4 33bd 371b abbd 2372 edbc
000002c0: 3b7e b7bc c835 1f3d 501c abbd 7d84 2cbc
000002d0: a0f4 db3c 23b4 873d 5680 b93b bdfa ddbb
000002e0: d1a4 293d 6669 d5bc 0c66 fabb 3aa2 603d
000002f0: 6e91 60bc 667b f33c a2e3 2dbc 4f56 803d
00000300: f90a c2bd c4ad 09bd ec62 023c e22f 2b3d
00000310: 56f8 9fbd 9f98 e7bc 4e7b 9bbc d477 dd3c
00000320: baa9 0b3d 2851 443c b4a2 d73b df89 cf3c
00000330: 4bdc 7a3d 539c 883c df1e b8bc ab9b bbbb
00000340: 9034 cbbc 811b 753d df23 79bc 5b62 07bd
00000350: 025e 483d 4181 2ebb 1ba8 3bbc c6b8 113d
00000360: 74b4 953c 3384 b93c 0600 a8bc e5d5 ca3c
00000370: 50a8 7c3d 26c0 2bbd 6f4b 523d 3621 2b3d
00000380: a30a b13d bb39 f0bb afac 94bd aa86 24bd
00000390: c142 c6bd a523 943c e489 bbbd a06d 503c
000003a0: bf90 59bc 9055 0b3d 7c93 af3d ca45 c83c
000003b0: 4982 1ebd d443 4bbd ad44 82bc 692e 813d
000003c0: 3485 183c 57ab 99bd db45 aa3c fdb7 e73c
000003d0: 8d90 663c 30a1 ef3c 8487 2c3d 44eb f3bc
000003e0: 5d73 56bd 585c 15bd 6f67 98bd 4856 9f3b
000003f0: bfc4 373d ca72 0ebe f510 5cbd 03d4 253d
-0.05254078 0.09108674 -0.0607718 -0.059523858 -0.07041828 0.05768804 -0.010331243 0.11865636
-0.024055697 0.066591635 0.046782743 0.037850156 -0.08036177 -0.0063029528 0.06511525 -0.005253073
0.0034124595 0.034827106 -0.06907181 -0.03272183 -0.14641292 -0.16624373 0.00020002524 0.042506065
-0.013629447 -0.010446965 -0.0913918 -0.022371475 0.090405315 0.0210194 -0.014940855 0.07775553
0.0625569 0.087228715 -0.052271027 0.11500438 0.010334006 -0.006085391 0.031322926 0.0066470704
0.060150012 0.0743255 -0.020092137 -0.07813783 -0.0040530716 -0.048514638 0.05093671 0.013941452
-0.0250016 0.07121321 -0.09056592 0.07017092 -0.14869714 -0.04962346 0.037269678 0.07802264
0.0040146247 0.040450115 0.018136272 0.042790312 0.06397082 0.092300534 0.08472472 0.004011856
-0.09240491 0.017251264 -0.04606659 -0.15430462 0.03455287 -0.012833629 -0.061936665 0.10147453
0.08644742 0.06055665 0.057483993 -0.017716331 0.06353476 -0.08332009 0.01268661 -0.09349564
0.07242923 -0.0033265064 0.08225693 -0.039113518 0.04971299 0.034801897 0.011849857 -0.036954198
-0.0042643477 0.019288836 0.06545035 -0.019529253 0.0054588853 -0.05409348 0.022915909 -0.025123267
0.004785323 0.047241405 0.11524763 -0.01638686 -0.12621331 -0.0505479 -0.08513754 -0.071390636
-0.032727007 -0.0009498083 -0.09795349 -0.04875795 0.04577055 -0.020232538 -0.048731994 -0.119884655
-0.07233209 -0.01897226 -0.08884341 0.08284929 -0.07591917 -0.02782453 0.011741328 0.07663309
0.021510083 -0.0982585 -0.09442362 0.032360293 -0.10227935 0.061107997 0.1814946 0.05586327
0.15077955 0.0782859 0.17760105 0.042005025 0.22199963 0.07704519 0.17401835 0.030664798
0.06146748 0.069037855 -0.0140197165 -0.094072744 -0.041301835 -0.04603922 -0.015688201 0.043544523
-0.009397813 0.0074332342 -0.052240666 0.04833884 -0.027551679 -0.14213963 0.029411012 -0.0052199215
-0.04588772 0.039421577 -0.03474345 0.04070718 0.11329 0.046484813 0.06579688 -0.0042299167
-0.02002382 -0.057918917 -0.040113274 -0.060278803 -0.07846964 -0.046336386 -0.02557423 -0.004568687
0.030244868 -0.08662034 -0.07182765 -0.08163542 -0.045923296 -0.04393466 -0.083548 -0.028985089
-0.022399059 0.03886965 -0.083550096 -0.010529635 0.026850045 0.06626155 0.005661051 -0.006774275
0.041416947 -0.026051234 -0.0076415595 0.05484221 -0.013706548 0.029721927 -0.010613354 0.06266462
-0.09474749 -0.03361298 0.007958155 0.04179371 -0.07811038 -0.028271018 -0.018979695 0.027034678
0.03409741 0.01198224 0.006580675 0.025334297 0.061245244 0.016676104 -0.022475658 -0.005725344
-0.024805337 0.059840683 -0.015206306 -0.033052783 0.048917778 -0.0026627334 -0.011453654 0.035576604
0.018274523 0.022646045 -0.020507824 0.024760196 0.061683953 -0.041931294 0.05134147 0.04177972
0.08644607 -0.0073311008 -0.07259499 -0.04016749 -0.09680701 0.018083403 -0.0915716 0.012721449
-0.013279139 0.034017146 0.08573052 0.02444734 -0.03869847 -0.049625233 -0.015901888 0.0630768
0.009309102 -0.075033836 0.020785263 0.028285975 0.0140725495 0.029251665 0.042121425 -0.02977527
-0.052356113 -0.03646502 -0.074416034 0.0048625804 0.044865366 -0.13910976 -0.05372711 0.040485393

ae.encoder.cov03.bias f4 [64]
00000000: fc05 973a 2ae9 0bbb f83c 13bb ea22 38ba
00000010: 5edb 26ba fc5b 5938 24bd d8bb 040a d93a
00000020: 30dd 04b9 ee81 d0ba 2d0f a3bb c443 f4b9
00000030: 477e c5b9 e95f a3bb 707f d239 1370 3139
00000040: be8a 89b8 fd11 83ba a17a 0eba a725 23ba
00000050: 98d5 183b f3f5 2a3b a068 01bb 8c45 07bb
00000060: ec5a 1eba 45ab 7bbd 3fcf 363b 8dd3 c9bb
00000070: afeb ceba 39b4 863b 8c94 86bd 7f88 8a3a
00000080: 978d abba b9ae 69bb ebb1 833a 32e5 9ab9
00000090: ed3b 9dbb e60a acbb a687 eaba 3f50 503b
000000a0: 7a4a 39bc 939e 6e3b 0dd0 93bb e202 a8ba
000000b0: 4200 a3ba bc70 05bc 2550 093b f36c f739
000000c0: a02b 0bbb dd4e b7ba 06b7 933a 7093 b83a
000000d0: 4705 95bb b380 683a 05dd 48bb a753 313b
000000e0: ee8e 79bb 04ba c5ba 9b7b 34bb bee0 463a
000000f0: 6f5e c939 76b6 e8b9 328c 59bb 4743 97ba
0.0011522169 -0.0021348693 -0.002246676 -0.00070242456 -0.0006365086 5.18225e-05 -0.006614344 0.0016558771
-0.000126709 -0.0015907863 -0.0049761743 -0.00046589796 -0.00037668852 -0.0049857986 0.0004014927 0.00016921786
-6.558512e-05 -0.0009999868 -0.0005435143 -0.0006223567 0.0023320671 0.0026086539 -0.00197462 -0.0020640818
-0.000604077 -0.061442632 0.0027894524 -0.006159252 -0.0015786792 0.0041108397 -0.06571302 0.0010569243
-0.0013088462 -0.0035657121 0.001004753 -0.00029543933 -0.0047984035 -0.0052503226 -0.001789321 0.0031786112
-0.0113092605 0.0036410436 -0.0045108856 -0.0012818242 -0.001243599 -0.008144554 0.002095231 0.00047192685
-0.002123572 -0.0013985295 0.0011269755 0.0014082026 -0.0045477482 0.00088692753 -0.0030649316 0.0027057917
-0.0038079577 -0.0015085344 -0.0027539495 0.000758659 0.00038408066 -0.00044386432 -0.0033195135 -0.0011540436

ae.encoder.bn03.weight f4 [64]
00000000: 1377 3d3f a4bc 4f3f d244 5b3f 7918 3a3f
00000010: 23d7 6e3f 0a65 863f b300 833f 8e88 603f
00000020: 32f9 813f b022 643f c4f1 7a3f 84ec 5d3f
00000030: 7611 563f 7923 483f e3c0 393f 9773 9f3f
00000040: ffd6 623f a5a9 613f 83d5 6d3f 4ebc 533f
00000050: 1ef2 653f 2ba3 683f 0b46 a73f 5065 603f
00000060: 0301 553f be4a 933f 4cae 5c3f 36ba 703f
00000070: 497c 573f 2996 843f a6a8 8d3f 61e8 563f
00000080: f724 6b3f 69de a03f 615f 5a3f 8a52 6e3f
00000090: 7dae 603f 6740 5e3f 4d70 433f bccc 583f
000000a0: a482 963f f138 603f 93b4 9d3f dac7 4c3f
000000b0: ea1b 873f 821b 803f 8d18 723f 8800 553f
000000c0: 8f1f 4f3f 64df 573f d9a7 713f 4f9c 7e3f
000000d0: 1b52 943f a319 633f c5fe 523f ad6f 683f
000000e0: cab0 673f 7ef9 603f 2619 723f e30e 663f
000000f0: 5445 533f 95a7 5a3f 43ce 923f ff60 473f
0.7400982 0.8114722 0.85651886 0.7269359 0.9329702 1.0499585 1.0234588 0.87708366
1.0154173 0.8911543 0.98025155 0.8668902 0.83620393 0.78179127 0.72559947 1.245715
0.8860931 0.8814948 0.9290392 0.82709205 0.89822567 0.90873975 1.306825 0.8765459
0.8320467 1.1507185 0.86203456 0.94034135 0.8417402 1.0358325 1.1067092 0.8394833
0.9185328 1.2567874 0.85301787 0.93094695 0.8776625 0.8681702 0.7634323 0.846874
1.1758618 0.87586886 1.2320732 0.7999245 1.0555394 1.0008395 0.9456871 0.83203936
0.8090753 0.8432524 0.9439674 0.9945726 1.1587557 0.88710994 0.8242 0.90795404
0.90504134 0.87880695 0.94569623 0.89866465 0.8252766 0.8541196 1.1469196 0.7788238

ae.encoder.bn03.bias f4 [64]
00000000: 50ba 31bd 7318 9dbd 5c7b 91bd dce8 41be
00000010: 4c27 efbd 3ec3 b6bd 5929 14be 32ed a3bd
00000020: c77b 3dbd ce32 d1bd 06a6 1abe 90a3 98bd
00000030: 520d 5fbd 9c46 2bbd 166a 21bd 247c 07be
00000040: da43 43bd 7492 1dbe de08 dbbd 8bab 63bd
00000050: 2189 a6bd 5fe6 e5bc f913 7bbd b69b 15be
00000060: 3557 fdbd 12d1 cebe a3c1 98bd 9769 0ebe
00000070: 692e 30be 1b60 e5bc 86fb f5be e6a0 02bd
00000080: 98b7 c6bd 0aa7 9bbd b17a 4bbd bfc6 b7bd
00000090: 8335 37be 4b92 63be ed4c 99bd e2ee abbd
000000a0: 30c1 0abe d6d6 43bd 565a 0bbe b865 81bd
000000b0: 23af b8bc 2baa 24be 9a65 7abd cb2c 80bd
000000c0: 3f28 4fbd 5789 1bbd e688 6fbd c805 a8bd
000000d0: c7de a5bd 25e4 0abe 0705 45be 2415 04bd
000000e0: 3d0b 2abe 4221 85bc 4c18 d7bd f197 9ebd
000000f0: 6816 2fbe 8ccc bebc 7407 83bd 41c7 e1bc
-0.043390572 -0.07670679 -0.07103607 -0.18936485 -0.11677417 -0.08923958 -0.14468898 -0.08004226
-0.04626062 -0.10214768 -0.15102395 -0.07453072 -0.054456063 -0.041815385 -0.039407812 -0.1323095
-0.04767213 -0.15387899 -0.10695051 -0.055583518 -0.08131624 -0.028063951 -0.061298344 -0.1461018
-0.12370149 -0.40393883 -0.07458808 -0.13907467 -0.17205204 -0.027999928 -0.4804346 -0.031891726
-0.097029865 -0.076002195 -0.049677555 -0.08973455 -0.17891507 -0.22223775 -0.074853756 -0.08395173
-0.13550258 -0.047812305 -0.13608679 -0.063182294 -0.02254445 -0.16080539 -0.06113205 -0.062585436
-0.05057549 -0.037972774 -0.058480166 -0.08204228 -0.08099132 -0.13563593 -0.19240199 -0.032246724
-0.1660585 -0.01625121 -0.10502681 -0.07743824 -0.17098391 -0.023290895 -0.06397906 -0.027560832

ae.encoder.bn03.running_mean f4 [64]
00000000: 7ebb e9bd 2bfb 87be ad81 85bd 5138 8f3c
00000010: 263a dfbe d543 823e 56de 6e3c 4735 36bf
00000020: 55bb e03d 073d 7bbf 0eca d5bd 5cbb dabe
00000030: 3e3c 8cbd d804 f3be 1b51 dabc 083d c13d
00000040: 28b5 d0be 27a4 05bf a96d 78be e296 53bd
00000050: 8bdf c1be 2f1f 42be 81b0 1f3e 93f4 52bf
00000060: 5973 5c3d dea0 27bb 7827 5fbe 2a8b 293e
00000070: 718d 91bf d834 883d 3091 11be 2ed2 b0be
00000080: 50ae d5be 1dd1 e53d ad83 acbe b025 a3be
00000090: bb94 9dbf f912 88bf d1ef cbbe e05d 15bf
000000a0: db7c d03d 6e3b 08bf 64d8 533e 2d50 01bf
000000b0: 5920 d13d a324 433e 90a0 a3be 87c8 34be
000000c0: e967 cbbe 970d 13be 8357 82bc 1b6e c5bb
000000d0: 5d64 5c3e d76f 47bf 4907 6bbf a6a8 e2be
000000e0: ce05 4ebf c28d e6be 6cd9 893e 0edd 13bf
000000f0: df31 21bf 15a2 fabe 0157 203e 00fc 56be
-0.114127144 -0.26558813 -0.06518874 0.017482908 -0.4359905 0.25442377 0.014579376 -0.71175045
0.10973231 -0.98139995 -0.104389295 -0.4272107 -0.06847428 -0.47464633 -0.026650002 0.09435469
-0.4076321 -0.522036 -0.24260582 -0.051657565 -0.37865862 -0.18957208 0.15594675 -0.8240444
0.05382094 -0.0025578062 -0.217924 0.16556993 -1.137129 0.06650704 -0.14215541 -0.34535354
-0.41734552 0.11221526 -0.3369421 -0.3186469 -1.2311014 -1.063079 -0.39831403 -0.58346367
0.10180064 -0.5321568 0.20688015 -0.50512964 0.10211248 0.19056945 -0.31958437 -0.1765462
-0.39727715 -0.14360653 -0.01591087 -0.0060250885 0.2152266 -0.7790503 -0.9180799 -0.44269294
-0.8047761 -0.45030028 0.26923692 -0.5775918 -0.6296672 -0.48951784 0.1565819 -0.20994568

ae.encoder.bn03.running_var f4 [64]
00000000: 5f30 b340 45a0 d340 154c 9a40 037d 9340
00000010: 474f 2341 9192 da3f 70eb 0940 a6a7 d441
00000020: 725d 2740 b9f1 b441 e57f 4b40 b226 7641
00000030: 80f4 a940 3ee2 da40 87d7 cf40 2ed4 543f
00000040: 860c 5741 04b3 fb40 ebaf 7140 e454 8940
00000050: e1f2 8e41 cc05 8041 bc6f 3a3f 5efe 8541
00000060: 5f70 0141 8db8 313e 26c9 8041 5530 4f40
00000070: 226e 3641 8a96 0a40 fbdf 113e f92a ad40
00000080: bdff 5740 4580 513f c7ef b940 d48f 9940
00000090: 0b04 9c41 8884 2b41 9100 c040 56b5 b141
000000a0: e1e0 5c3f 1761 8a41 f378 4d3f 2f0d a940
000000b0: 1a22 2640 7200 0740 1c5c 8d41 b0d0 7a40
000000c0: 90f9 7c40 964c 9d40 40d6 2640 c981 4940
000000d0: 2d4a c83f b55e 2b41 8fe9 2241 4d6a 7a41
000000e0: 5584 1741 0bbb a940 10a3 2a40 f965 9141
000000f0: f4c9 9b41 18cb b740 9c0b e33f f82d 8940
5.5996547 6.613314 4.8217874 4.60901 10.206855 1.7075979 2.154995 26.58186
2.6150784 22.618029 3.179681 15.384447 5.311096 6.8401175 6.4950595 0.8313626
13.4405575 7.8656025 3.7763622 4.2916126 17.868593 16.00283 0.72826743 16.749203
8.089934 0.17355557 16.098217 3.237325 11.401888 2.1654382 0.14245598 5.4114957
3.374984 0.8183635 5.8105197 4.798807 19.501974 10.719856 6.000069 22.213543
0.8628064 17.297407 0.8026268 5.2828593 2.5958314 2.1094022 17.669975 3.9189873
3.952732 4.915599 2.6068268 3.1485465 1.5647637 10.710622 10.182021 15.650952
9.469808 5.3040824 2.6662025 18.174791 19.47361 5.7435417 1.7737918 4.2868614

ae.decoder.tr01.weight f4 [64, 64, 3, 3]
00000000: 057f 223c 8e5a 763d c042 a43d 1bdd 703d
00000010: 0f44 fe3c 54f3 d63c 54bd c43b 9612 7bbd
00000020: 36ac 2dbd 19e3 4b3d 89e5 b03d 0774 7bbd
00000030: e259 9abd 6ae2 133d 7d61 513d 46c6 eebc
00000040: 7cc1 613d 3565 97bc 1481 dbbc bf9a 64bd
00000050: bd30 a73d cd0f 96bd d00d 1e3d 6fe1 25bd
00000060: e21a c93d 998d 5cbc ebef 14bc 75f4 b0bd
00000070: 1d5a 36bd 73be 533d e9c1 823b 07e8 ee3d
00000080: 7ef0 27bd a877 78bc 1cd1 243d 1866 ac3d
00000090: cd86 843d 8eda c3bc 05a4 c0bc eaea c63d
000000a0: f34a e1bc 9441 3fbd d769 463d 540e bf3d
000000b0: a3b2 f13b 4959 3b3d 6617 733d 5623 1bbd
000000c0: daea 2ebd 4a4a 5cbc 8eef 2cbc 96f4 c4bc
000000d0: 1ec3 bfbd ce60 f4bb f722 7cbd bc11 51bc
000000e0: de1f 6ebd 3130 f7bd fe9f 59bd f5e8 8fbd
000000f0: 484a b23d d290 803d 43eb b23d 8d92 9b3d
00000100: 9ec7 263d 54e6 7e3d 3829 c03d 07f9 80bc
00000110: 14d0 9a3c 8752 5b3d a294 8b3d de26 79bd
00000120: cc95 913d 0455 2a3d df89 79bc 0701 9ebb
00000130: 8dc7 693d 9820 c5bd 1af1 d33d d9fc 213d
00000140: c41a b53c bab3 823c 6f77 123d 0368 c03a
00000150: bea4 623d 6930 4e3d b654 a73c 977e d53a
00000160: a9f0 26be cd77 cc3c 613c 103e dd1b da3d
00000170: a59a 733b 79a2 61bd 3016 6f3c 3e64 5e3d
00000180: c12e 9d3c a438 053a 534f cbbd 5fbd ebbc
00000190: 9dc2 9fbc b283 8a3d fc5f ac3d 1f7d cebc
000001a0: 246e fa3c 98d5 863d fd46 9cbc e4f0 f4bc
000001b0: 622a 94bd cbca 203d 9861 c23c e370 92ba
000001c0: a990 283d fa5d 0cbd 6132 c4bd d07b 42bd
000001d0: b56a 8dbd 458c cbbb 778f d0ba 00b0 04bd
000001e0: 1ad2 b3bd 934f e23c 1971 7a3c 7452 8abc
000001f0: fade 053e 6105 87bd 60c1 34bc 32fb 4e3d
00000200: 112b 1cbd 1f7a 9e3d 98dc c1bd 74f4 8e3c
00000210: 6271 133c 0d34 6e3d 0b3d bb3d 32d3 9e3c
00000220: d6af dcbc 4750 96bb 1e3f 7b3d 3689 f6bc
00000230: 94e3 c1bb 37a3 78bc 2373 1abe cc2e 2cbc
00000240: 8985 943b 2ca8 c23d e8cd b1bd 9220 5dbd
00000250: 3b56 efbd 8de1 32be 3213 3bbc cfe2 b83d
00000260: dcae 20bd af4d 8b3d 00a8 0f3e 30a3 fa3d
00000270: 17c0 e53d 3192 35bb 283b 8ebc 7267 bf3d
00000280: 3ba9 96bd 517e 25bc d0c0 9fbd bf06 1c3d
00000290: 651a eabd c23c a43d bc47 c73c fd21 15bd
000002a0: b4f5 0b3d 502a 063c 73b9 be3d 7a58 3e3c
000002b0: a6c1 833d e411 db3d 94f7 9bbc 6ede f3bc
000002c0: 2eb6 85bd 57ab 0d3d c5ba 30bd fec4 53bd
000002d0: b955 b93c b8ed 63bd 8209 91bc f2e7 a2bc
000002e0: a219 103d 6883 65bd 09e7 ae3d d2e8 2cbd
000002f0: 34f3 60bd 87d0 64bd bf9e 08bc 5d96 28be
00000300: 9f66 31bd 8668 823c 351f 7bbd 1131 29bd
00000310: 0e51 d23c 07db 98bb 0ab7 813c 3dd4 a93b
00000320: 58c0 0dbc 9598 57bc d02a 493d 549c de3d
00000330: 89d7 843d 480b 683d 0a5b ca3c 5e6e 433d
00000340: 7beb 00bd ccf2 fb3b a63d 573d 255a 49bd
00000350: ad05 0bbd 56fb cdbd 49b2 283d 5184 78bc
00000360: f58d 263d cc86 a4bc 0499 373c 41b5 e93d
00000370: fbe4 40bd 9965 14bd d4e0 66bb 2a3a 92bd
00000380: 5f00 e0bc b609 643d 3da0 8cbc d063 16bd
00000390: 0dc8 a5bd e4ed 923d 054f 543d babb 9d3d
000003a0: 11b8 bf3d e93a 183e 4dd7 89bd cdb2 62bd
000003b0: d4f7 7fbb d393 8ebd 3bf6 61bc fc14 b1bc
000003c0: 4c1e ab3d f7e1 133e 5c48 47bd d299 0e3d
000003d0: 56a5 433d 819a 3e3d db90 093c eca7 dbbd
000003e0: 7576 823c 8a29 efbd d686 b2bc 69a3 683d
000003f0: 6215 1dbc cb54 5b3b d209 d9bd 2201 31bd
0.009917979 0.060144953 0.08020544 0.058804613 0.031038312 0.026239075 0.006004015 -0.06129702
-0.04240056 0.049777124 0.0863753 -0.06138995 -0.07536675 0.036104597 0.051118363 -0.029147279
0.05511616 -0.018480876 -0.026794948 -0.05581164 0.08163593 -0.073272325 0.03858739 -0.040498193
0.098195806 -0.013461494 -0.009090404 -0.086403765 -0.044519532 0.0516953 0.003990401 0.116653495
-0.041000836 -0.015165247 0.040238485 0.0841791 0.06471024 -0.023907926 -0.02351571 0.09712775
-0.027501559 -0.0466934 0.04844078 0.09328905 0.0073760315 0.045739446 0.059348486 -0.037875496
-0.04270444 -0.013445446 -0.010555161 -0.024042409 -0.093633875 -0.007457829 -0.061556783 -0.012760576
-0.05813586 -0.12069739 -0.053131096 -0.07026855 0.08705574 0.06277622 0.08736279 0.07596312
0.040717714 0.062231377 0.09382862 -0.015743745 0.018898048 0.0535455 0.06815459 -0.060828082
0.071086496 0.041584983 -0.015230625 -0.0048219 0.057075072 -0.096253574 0.10348721 0.039547775
0.02210749 0.01595484 0.035758432 0.0014679435 0.05533289 0.050339136 0.020426136 0.0016288337
-0.16302742 0.02495947 0.14085533 0.10649846 0.0037171033 -0.055086587 0.014592692 0.054294817
0.019187333 0.00050819875 -0.09927239 -0.028776823 -0.019501979 0.067634 0.08416745 -0.025206147
0.030570097 0.065837085 -0.019076819 -0.029900022 -0.072346464 0.0392559 0.023728177 -0.0011172559
0.041153584 -0.03426931 -0.095799215 -0.047481358 -0.069051184 -0.00621179 -0.0015911896 -0.03239441
-0.08780308 0.027625835 0.015285754 -0.01688502 0.1307334 -0.06592823 -0.011032432 0.050532527
-0.03812701 0.077381365 -0.09465903 0.017450549 0.008999201 0.05815511 0.091425024 0.019387815
-0.026939314 -0.0045872065 0.06133949 -0.030094724 -0.005917022 -0.015175632 -0.15082984 -0.010509204
0.00453252 0.095047325 -0.086818516 -0.05398614 -0.11686369 -0.17468853 -0.011418151 0.09027635
-0.03922926 0.06801926 0.1402893 0.12238157 0.11218279 -0.0027705545 -0.017362192 0.093459025
-0.07356497 -0.010100917 -0.07800448 0.03809237 -0.114308156 0.08019401 0.024326198 -0.036409367
0.034169868 0.008188799 0.093127154 0.011617774 0.0643342 0.10696772 -0.019038953 -0.029769149
-0.06528889 0.03458723 -0.043146867 -0.05170154 0.022623884 -0.05564663 -0.017704729 -0.01988599
0.035180695 -0.056033522 0.0854016 -0.042214222 -0.054919437 -0.05586293 -0.008338629 -0.16463609
-0.043310758 0.015918981 -0.06130906 -0.04130656 0.025673416 -0.004664782 0.01583435 0.0051827715
-0.008651815 -0.013158937 0.049113095 0.10869661 0.064864226 0.056651384 0.024701614 0.047712676
-0.03147457 0.0076888558 0.052549027 -0.049158234 -0.03394096 -0.10057704 0.04118565 -0.015168265
0.040662725 -0.020083807 0.011205915 0.114115246 -0.047093373 -0.036229704 -0.0035229223 -0.0714
-0.027343927 0.055673324 -0.017166251 -0.036716282 -0.08094797 0.0717428 0.05183317 0.077018216
0.0936128 0.14866222 -0.067305185 -0.0553463 -0.003905763 -0.06961789 -0.013791616 -0.021616451
0.08355388 0.14441667 -0.04865299 0.034814663 0.0477651 0.046534065 0.008396353 -0.10725388
0.015925625 -0.11677845 -0.02179281 0.056796465 -0.009587618 0.0033467289 -0.10597576 -0.04321397

ae.decoder.tr01.bias f4 [64]
00000000: cb02 73ba 40cf d937 29b3 cb38 0ca3 6cb8
00000010: 0cad e2b6 36ca 3139 945d ffb9 eca0 4ab8
00000020: dd64 8ab9 de13 24b5 40a5 21ba 78c0 8cb7
00000030: a49d d2b9 0d33 4bb6 4491 d238 18c0 5637
00000040: e2ed 21b9 b641 b638 3e97 2bb8 00d9 823a
00000050: ef1e ae38 86f5 86b8 3d28 b7b9 0a06 1e39
00000060: dd9c b6b7 3710 9bb8 c2f4 6139 985c 8eb8
00000070: 72a5 09b9 18bb c8b7 43ac 9637 d52c 9438
00000080: 2c01 68b8 5d02 1c39 e2c3 c7b7 76ff 7eb8
00000090: 4a9d fe38 5687 c939 369c 6e38 fcc2 bc36
000000a0: 596c 08ba 1db8 afb8 10c8 93b9 8661 5238
000000b0: cca7 ad38 dc08 e7b8 1889 9138 1a42 1239
000000c0: 5b91 06bb 6b24 2339 645d 33b9 a25d 48b9
000000d0: fb1f 973a 3639 dd37 ba9a df37 4b73 43b7
000000e0: 2595 fbb7 43e8 b7b8 25fb a83a a037 f838
000000f0: 2cdb 41b8 e06c b63a 2b97 033b b02b d636
-0.00092701305 2.5964924e-05 9.7131655e-05 -5.6418634e-05 -6.75547e-06 0.00016955365 -0.0004870711 -4.8310423e-05
-0.0002639656 -6.112367e-07 -0.0006166287 -1.6778926e-05 -0.00040171773 -3.0279073e-06 0.00010040638 1.2800119e-05
-0.00015442775 8.690676e-05 -4.0910432e-05 0.0009982884 8.3027284e-05 -6.43535e-05 -0.0003493446 0.00015070304
-2.1769136e-05 -7.393996e-05 0.00021548852 -6.7883346e-05 -0.00013126971 -2.392898e-05 1.7961609e-05 7.0655406e-05
-5.53142e-05 0.000148782 -2.3813864e-05 -6.0796236e-05 0.00012140961 0.0003843854 5.6889105e-05 5.625536e-06
-0.00052041333 -8.378944e-05 -0.00028187083 5.0158727e-05 8.2805374e-05 -0.000110165885 6.9396745e-05 0.0001394827
-0.0020533416 0.00015558458 -0.00017105561 -0.00019108367 0.0011529917 2.6371894e-05 2.6655722e-05 -1.16497495e-05
-2.9990983e-05 -8.769382e-05 0.001289223 0.000118359225 -4.6218905e-05 0.0013917945 0.0020079117 6.382783e-06
