checkpoint/teacher_checkpoint.pt (torch, 683890 bytes, 32 tensors)

ae.encoder.cov01.weight f4 [64, 144, 1, 1]
0	0x3d8cd55c	0.068766326
1	0xbe5a8833	-0.21341018
2	0x3d6b281d	0.057411302
3	0xbed97feb	-0.42480406
4	0xbe07a9c5	-0.13248356
5	0x3e97d2b0	0.2965293
6	0xbe98d3f5	-0.2984921
7	0xbda5cf2c	-0.080961555
8	0x3d0af7d8	0.03392777
9	0xbe533969	-0.20627369
10	0x3d63b02a	0.055587925
11	0xbcc9a023	-0.024612492
12	0x3dcef65e	0.101055846
13	0xbd0a106b	-0.033707064
14	0xbe20c2d3	-0.1569932
15	0x3e38dc4f	0.18052791
16	0xbe0fad3e	-0.1403093
17	0xbd455826	-0.048179768
18	0xbd65d811	-0.05611426
19	0xbe17bd0f	-0.14818214
20	0x3daef42e	0.08542667
21	0x3c0f59dd	0.008749452
22	0x3e9826d9	0.29717138
23	0x3dc54908	0.0963307
24	0xbc92a0a3	-0.017898863
25	0xbe91d8f0	-0.28485823
26	0x3d6603c4	0.056155935
27	0xbda370a7	-0.07980471
28	0xbe31a002	-0.17346194
29	0xbd0d1fe5	-0.034454245
30	0x3ec4eba9	0.38461044
31	0x3e324046	0.17407331
32	0xbd633c32	-0.05547733
33	0x3e5a3a78	0.21311367
34	0xbd111af3	-0.03542609
35	0xbebba060	-0.36645794
36	0xbc9d5f80	-0.019210577
37	0xbc0cc218	-0.008591197
38	0x3e49e319	0.19715537
39	0xbe4c56dc	-0.19955009
40	0x3e88db7a	0.26729947
41	0xbe146370	-0.14491057
42	0x3cd139f7	0.025540335
43	0x3ea661d0	0.324965
44	0xbea0c6da	-0.31401712
45	0x3e9fda86	0.31221408
46	0xbde88d0f	-0.1135503
47	0x3d73123c	0.05934356
48	0x3e17ccc6	0.14824209
49	0x3e54d295	0.20783456
50	0x3e2ccaa9	0.16874184
51	0x3a8ac15f	0.0010586194
52	0xbe3a8a7c	-0.1821689
53	0xbda932ee	-0.08261667
54	0x3ddb16df	0.10697722
55	0x3ea8a311	0.3293691
56	0x3dca0f87	0.09866243
57	0xbe0132eb	-0.1261708
58	0x3d93f04f	0.072235696
59	0x3d8e4b0a	0.06947906
60	0xbe93113c	-0.28724086
61	0xbd0e17f3	-0.03469081
62	0x3dab9970	0.08378875
63	0xbe87135d	-0.2638196
64	0x3d6fb845	0.058525342
65	0xbcdff060	-0.0273363
66	0x3dcde24b	0.100529276
67	0xbd109ba9	-0.0353047
68	0xbb9e4235	-0.00482967
69	0x3e1e1268	0.15436709
70	0xbe8ce846	-0.2752096
71	0xbebacf0a	-0.36486083
72	0xbce079c4	-0.027401812
73	0x3e866b91	0.26253942
74	0xbe39b078	-0.18133724
75	0x3de9a915	0.11409203
76	0x3e2fa827	0.17153989
77	0x3e0ba3d5	0.13636716
78	0xbdd0c190	-0.10193169
79	0x3e19ea2b	0.15030734
80	0x3e23903b	0.15972988
81	0x3e4ac53d	0.19801803
82	0x3c701e00	0.01465559
83	0x3e029797	0.1275314
84	0xbdc6e4dc	-0.0971162
85	0xbde57af1	-0.1120509
86	0xbe181185	-0.14850433
87	0xbe2794fe	-0.1636543
88	0xbdf63e0f	-0.120235555
89	0x3e2fceed	0.1716878
90	0x3e0f502b	0.13995425
91	0x3e889ad0	0.26680613
92	0x3d429428	0.047504574
93	0xbd7806c8	-0.060553342
94	0x3ca2589e	0.019817647
95	0xbdc3e225	-0.09564618
96	0xbe15f512	-0.14644268
97	0x3e8edb57	0.27901718
98	0x3e87f355	0.26552835
99	0x3da2bb5e	0.07945894
100	0x3e2b0d4d	0.16704293
101	0x3eb0b809	0.34515408
102	0x3cc586c8	0.02411212
103	0x3e122ff4	0.14276105
104	0x3ddeefd9	0.10885591
105	0xbdcd1bfc	-0.10015103
106	0x3d3e2e87	0.04643109
107	0x3e414ae8	0.1887623
108	0xbd86bea0	-0.065793276
109	0xbd850b3c	-0.064962834
110	0xbce56af5	-0.028005103
111	0xbe86e38b	-0.26345477
112	0x3d5871d5	0.052842934
113	0x3d6c52e8	0.057696253
114	0x3e7c138e	0.24616835
115	0xbdffe0b6	-0.12494032
116	0x3e8106e1	0.2520056
117	0xbc44bc1a	-0.0120077375
118	0x3e068a1e	0.13138625
119	0x3db5ccce	0.08876954
120	0xbe3c493a	-0.18387309
121	0xbdfbda0f	-0.12297451
122	0x3e9fd317	0.31215736
123	0xbe4924f5	-0.19643004
124	0xbdee2c45	-0.116295375
125	0x3dad762c	0.08469805
126	0xbe42c84e	-0.19021723
127	0x3b199d54	0.0023439722
128	0xbeac989e	-0.33710188
129	0xbe653891	-0.2238486
130	0xbe13827e	-0.14405248
131	0x3b79a8f9	0.00380951
132	0x3e6db80c	0.2321474
133	0x3e55573b	0.20834057
134	0x3e9581db	0.29200634
135	0x3be3544f	0.0069375406
136	0x3ded9e65	0.11602477
137	0xbdd92488	-0.10602671
138	0xbca954cc	-0.020670317
139	0xbe895272	-0.26820713
140	0x3e35ead4	0.17765361
141	0xbdb31c6a	-0.08745654
142	0x3e6ed530	0.23323512
143	0x3e7cd13b	0.2468919
144	0xbe1c9f55	-0.15295155
145	0xbcb9065f	-0.022586046
146	0xbe1e324b	-0.15448873
147	0x3f04bad6	0.5184759
148	0x3e888249	0.266619
149	0xbe3cc3f9	-0.18434133
150	0x3e39a6ee	0.18130085
151	0x3dfd10a7	0.12356692
152	0xbd86cd70	-0.06582153
153	0x3d769f27	0.060210373
154	0xbe15458e	-0.14577314
155	0xbd92f361	-0.07175327
156	0x3df35c82	0.11882879
157	0xbe8e8354	-0.2783457
158	0x3d5d6b5e	0.05405747
159	0x3e0bd8b7	0.13656889
160	0x3e509b82	0.20371822
161	0x3ccbb723	0.0248676
162	0x3d3aaf5f	0.045577403
163	0xbc940515	-0.01806883
164	0xbe5511d3	-0.2080758
165	0xbdb1ed67	-0.08687859
166	0x3e2f09a2	0.17093518
167	0xbdc27630	-0.09495199
168	0xbd2e58a7	-0.042565014
169	0x3e5f74cb	0.21821897
170	0xbe8b1c2b	-0.27169928
171	0xbe8ae679	-0.27128962
172	0x3e5a90f1	0.21344353
173	0x3cb993fa	0.022653569
174	0x3eccb212	0.39979607
175	0xbe86bbae	-0.26315063
176	0xbe80c114	-0.25147307
177	0xbdf50dfa	-0.119655564
178	0x3e988bea	0.29794246
179	0xbe25d6de	-0.16195247
180	0xbc79d28f	-0.015247955
181	0xbe0c59b3	-0.13706093
182	0xbd9b6cdd	-0.075891234
183	0xbdd1c07b	-0.10241791
184	0xbdb271b9	-0.08713097
185	0xbddcddf5	-0.107845224
186	0x3eb92dd5	0.3616778
187	0xbd9d572e	-0.07682644
188	0xbe33c316	-0.17554888
189	0x3db4b9dc	0.08824512
190	0xbd9ed477	-0.07755368
191	0xbe18589d	-0.14877553
192	0x3e2cb5fa	0.16866294
193	0x3df69a6a	0.12041171
194	0x3decfe8c	0.115719885
195	0xbda4039f	-0.08008503
196	0xbe73fd51	-0.23827101
197	0x3df382a5	0.11890153
198	0x3ccea12c	0.025223337
199	0xbd3d8dda	-0.04627786
200	0xbe65d7a3	-0.2244554
201	0xbdfaea34	-0.12251702
202	0xbec9edee	-0.39439338
203	0x3ae0b801	0.0017144681
204	0xbe204acd	-0.15653534
205	0x3e6dd3eb	0.23225372
206	0x3c21649a	0.009850645
207	0x3dc70d52	0.097193375
208	0x3e4ed71a	0.20199242
209	0x3d32b2b8	0.04362747
210	0xbe275f15	-0.16344865
211	0xbc24d7c6	-0.01006121
212	0x3d2c0e5a	0.042005874
213	0x3dc2b98c	0.095080465
214	0x3d39d9c7	0.045373704
215	0x3e8c20dc	0.2736882
216	0xbd310699	-0.043219183
217	0xbcda6161	-0.026657762
218	0xbdf8f768	-0.12156564
219	0xbe86aefb	-0.26305375
220	0xbdf1723a	-0.11789365
221	0xbecc26ad	-0.39873257
222	0xbe176bae	-0.1478717
223	0x3e00ee4e	0.12590906
224	0x3ce2b4d0	0.027674109
225	0xbd5eea0e	-0.05442243
226	0x3ca6c650	0.020358235
227	0x3e58aeb4	0.21160394
228	0x3c6862e4	0.014183734
229	0xbdb2e119	-0.0873434
230	0xbdf7415f	-0.120730154
231	0x3a50f8ed	0.0007971663
232	0xbe53e854	-0.20694095
233	0xbda39406	-0.079872176
234	0x3e179625	0.1480337
235	0xbd065f75	-0.03280588
236	0x3e0adb4e	0.1356022
237	0x3e839cb4	0.25705492
238	0xbe311aa5	-0.1729532
239	0xbda1df29	-0.079038925
240	0xbe04df91	-0.12975909
241	0xbe110547	-0.1416217
242	0x3e19cd6b	0.15019767
243	0x3e7376a5	0.23775728
244	0x3dd2e1cb	0.10296973
245	0x3ed588a0	0.417058
246	0x3dd46cef	0.1037234
247	0xbbc2b370	-0.005941801
248	0xbdcfb937	-0.10142749
249	0xbdf435e1	-0.11924339
250	0x3e306d3d	0.17229171
251	0x3e15cfc4	0.14630038
252	0xbd490c58	-0.049084038
253	0x3d1681c5	0.03674485
254	0xbda0c7a9	-0.07850582
255	0x3e0aa569	0.13539661

ae.encoder.cov01.bias f4 [64]
0	0x3a1d353e	0.00059970084
1	0xbaedac19	-0.0018132954
2	0x3b20f2c4	0.0024558762
3	0x3a37fe56	0.0007018795
4	0x3a41c485	0.00073916494
5	0xba1c732a	-0.00059680885
6	0xbb091658	-0.002091786
7	0xb9774552	-0.0002358158
8	0xb8c41b7f	-9.35113e-05
9	0xbb2f8803	-0.002678395
10	0xba414335	-0.00073723804
11	0xbae815fb	-0.0017706746
12	0xba806313	-0.0009795151
13	0x3a36d9a5	0.00069751806
14	0xbaa1a776	-0.0012333232
15	0xba5e07e6	-0.0008469805
16	0x3a580616	0.0008240653
17	0xbb8a0832	-0.0042124027
18	0xb99bfb08	-0.00029750937
19	0xba764555	-0.00093944866
20	0xb8f6dcfd	-0.000117713564
21	0x3b894ae8	0.0041898377
22	0xba4ccf1c	-0.0007812844
23	0x38f9f9ee	0.00011919798
24	0x3a05bb39	0.0005101446
25	0xbbcdf1f8	-0.0062849484
26	0xba989b13	-0.0011642895
27	0xba225041	-0.00061917683
28	0x3a233a65	0.0006226658
29	0x3a1cbac3	0.00059787574
30	0x3a5fb8ea	0.0008534329
31	0xba32c23c	-0.00068191043
32	0x3aa52ce3	0.0012601878
33	0xbb9974e0	-0.004683122
34	0xbb03d701	-0.0020117166
35	0x39ffd66c	0.00048797147
36	0x3bf40cce	0.0074478155
37	0x39218d77	0.00015406856
38	0x3a1c96f1	0.000597342
39	0xbab8054c	-0.0014039665
40	0x3a0c9cb5	0.00053639273
41	0x3a879787	0.0010344841
42	0xbb233c1f	-0.002490766
43	0xbb1014fb	-0.0021985162
44	0x38f77756	0.00011800106
45	0x3a9fb879	0.0012185714
46	0x3a2aaaba	0.00065104256
47	0xba0b1f16	-0.00053070614
48	0x3ad6856e	0.001636667
49	0xb9de6398	-0.00042417343
50	0xba7e7306	-0.0009706471
51	0x3b32246f	0.002718236
52	0xbab23025	-0.001359467
53	0xba7a3ab8	-0.0009545493
54	0x38050ef5	3.17236e-05
55	0x39fd83a0	0.0004835399
56	0x3aa1ea6b	0.0012353187
57	0xbafa4f5c	-0.0019097137
58	0x3b08145f	0.0020764095
59	0xbb6d3185	-0.0036192846
60	0xbb5a03d4	-0.0033266442
61	0x3847dd09	4.7651152e-05
62	0xb8480de3	-4.769665e-05
63	0x3aba08ba	0.0014193275

ae.encoder.bn01.weight f4 [64]
0	0x3f7e4171	0.99318606
1	0x3f7d0225	0.988314
2	0x3f831d2f	1.0243281
3	0x3f7c1aee	0.9847859
4	0x3f7e4f25	0.99339515
5	0x3f80d09a	1.006366
6	0x3f7c5e41	0.9858132
7	0x3f7a9c77	0.97894996
8	0x3f7a80a6	0.9785255
9	0x3f8037d2	1.0017035
10	0x3f7d2cd7	0.98896545
11	0x3f80215b	1.0010179
12	0x3f80a488	1.0050211
13	0x3f837ce2	1.0272486
14	0x3f811705	1.008515
15	0x3f7bb6e7	0.9832596
16	0x3f829d0b	1.0204176
17	0x3f7df765	0.9920562
18	0x3f7e68f4	0.99378896
19	0x3f7f977b	0.99840516
20	0x3f7bac68	0.98309946
21	0x3f80218d	1.0010239
22	0x3f7c5ba6	0.98577344
23	0x3f8222c6	1.0166862
24	0x3f7d5dae	0.9897107
25	0x3f8329b6	1.0247104
26	0x3f82e703	1.0226749
27	0x3f7d8cfe	0.9904326
28	0x3f798359	0.97466046
29	0x3f7f22ce	0.9966248
30	0x3f813f5b	1.009746
31	0x3f7ae718	0.9800887
32	0x3f7debab	0.99187726
33	0x3f80b080	1.0053864
34	0x3f8017da	1.0007279
35	0x3f802fc7	1.001458
36	0x3f838162	1.027386
37	0x3f7f17ab	0.9964549
38	0x3f7d00a6	0.98829114
39	0x3f823204	1.0171514
40	0x3f82dd22	1.0223734
41	0x3f7f8d44	0.9982493
42	0x3f81e237	1.014716
43	0x3f7a69c8	0.9781766
44	0x3f7d4082	0.98926556
45	0x3f7c6d49	0.98604256
46	0x3f7a02d2	0.97660553
47	0x3f7caa67	0.98697513
48	0x3f80d0e6	1.0063751
49	0x3f7cec64	0.98798203
50	0x3f7786a1	0.966898
51	0x3f81def2	1.0146163
52	0x3f808b0a	1.0042431
53	0x3f7deffb	0.99194306
54	0x3f80e09f	1.0068549
55	0x3f82106a	1.0161259
56	0x3f812c78	1.0091696
57	0x3f7db124	0.9909842
58	0x3f7f3611	0.99691874
59	0x3f7dc4c3	0.9912836
60	0x3f805ed2	1.0028937
61	0x3f80c1e3	1.005917
62	0x3f7e0b59	0.99236065
63	0x3f7e8ff7	0.9943842

ae.encoder.bn01.bias f4 [64]
0	0x3a279d75	0.00063940074
1	0xbcfbaee0	-0.030723035
2	0xbc573d0c	-0.013137113
3	0x3ce523aa	0.027971108
4	0x3c8cd701	0.017192366
5	0xbc0de13b	-0.008659656
6	0xbbfd832a	-0.0077365832
7	0xbbbbb79e	-0.005728676
8	0xbc9a4d9e	-0.018835839
9	0xbd0cd047	-0.034378316
10	0x3b49112c	0.0030680401
11	0xbcaf86dc	-0.02142661
12	0xbc07078e	-0.008241547
13	0x3d008f24	0.03138651
14	0xbcd02bc5	-0.025411496
15	0xbcc0c81d	-0.023532921
16	0xbcc7b858	-0.024379894
17	0xbc89b3ef	-0.016809432
18	0xbc9e1313	-0.019296205
19	0xbc4cb048	-0.012493201
20	0xbc3e23d9	-0.011605226
21	0x39b46d12	0.0003441354
22	0xbc1ceafb	-0.009577508
23	0x3c796f9f	0.015224366
24	0x3c4ea9cc	0.012613725
25	0xbd36c9dc	-0.0446261
26	0x3ba3c3bd	0.004997699
27	0xbc95bbcd	-0.018278027
28	0x3c05c85f	0.008165448
29	0x3adefe9b	0.0017013134
30	0xbc0f6657	-0.008752427
31	0xbcc8a778	-0.024493918
32	0xbbefb938	-0.007315781
33	0xbcfa20ee	-0.03053328
34	0xbcc636e8	-0.024196103
35	0x3d3fd800	0.046836853
36	0x3d1708b1	0.036873523
37	0x3c09e93b	0.008417423
38	0xb9b6dfbe	-0.00034880446
39	0xbca75e68	-0.020430759
40	0x3c8580b4	0.016296722
41	0x3c1e964b	0.009679387
42	0xbcc596ce	-0.02411976
43	0xbd787286	-0.060656093
44	0x3c2e7d9f	0.010650068
45	0xbc09704f	-0.008388593
46	0x3cd64d43	0.026159888
47	0xbcba6663	-0.0227539
48	0x3ccafec0	0.024779677
49	0xbc0ac0df	-0.008468836
50	0xbc904377	-0.017610295
51	0x3cb7daca	0.022443194
52	0xbd10a607	-0.035314586
53	0xbbe19ad1	-0.0068849106
54	0xba9967d2	-0.0011703914
55	0xbbafcb59	-0.005364817
56	0x3b6e991a	0.0036407174
57	0xbcb1b522	-0.021692816
58	0x3bdf0f8a	0.0068072723
59	0xbd0bca9b	-0.034128767
60	0xbcf2c9a8	-0.029637173
61	0x3b26af92	0.0025434238
62	0x3aabf471	0.0013119114
63	0x3c99ccec	0.018774472

ae.encoder.bn01.running_mean f4 [64]
0	0x37524e94	1.2535271e-05
1	0xbb55426a	-0.0032540807
2	0x3af1c3e1	0.0018445217
3	0x3ac8d633	0.0015322625
4	0x3afcebb8	0.0019296324
5	0xbba47599	-0.0050189015
6	0xbb5124df	-0.0031912846
7	0xbacdb6d4	-0.0015694746
8	0xbab5d6ef	-0.0013873259
9	0xbb29ec50	-0.0025928207
10	0x3aa73668	0.0012757303
11	0xbaace956	-0.0013192098
12	0xbacf8224	-0.0015831632
13	0x3796c0f5	1.7971246e-05
14	0x3b3fa455	0.0029242237
15	0xbb9dbc25	-0.0048136883
16	0xba5c35d4	-0.0008400355
17	0xbb2a6c37	-0.0026004442
18	0x3aad1ab3	0.001320681
19	0x39aa8ce8	0.0003252991
20	0xbaac519c	-0.001314688
21	0x3b89d29e	0.0042060157
22	0x3a0852ff	0.00052003557
23	0xbb5ae4d9	-0.0033400564
24	0x3a907897	0.0011022267
25	0xbbbb159e	-0.005709364
26	0x3a624a19	0.0008632257
27	0xbab36d45	-0.0013689181
28	0x3af85523	0.0018946271
29	0xb78b1783	-1.658104e-05
30	0xbaea0105	-0.0017853087
31	0xbb460f5d	-0.003022156
32	0x3b41ca22	0.0029569943
33	0xbb2914f6	-0.0025799847
34	0x3a1bbc58	0.0005940846
35	0xbadbc40d	-0.0016766802
36	0x3bf898df	0.007586583
37	0xba0eede7	-0.00054523203
38	0xba9b9cce	-0.0011872293
39	0xb98326f7	-0.00025015298
40	0xb926ddf0	-0.00015913672
41	0x3b3f7a9a	0.0029217363
42	0xbb97d55d	-0.004633589
43	0xbb8b1ee8	-0.0042456277
44	0x3b1dd7fa	0.002408503
45	0x3982f013	0.00024974401
46	0x3b3d2651	0.002886195
47	0x3b13c382	0.0022546952
48	0x3ab92b40	0.0014127269
49	0x3ac42bcb	0.0014966665
50	0xbb6f3fa6	-0.0036506443
51	0x3b0b35b7	0.0021241733
52	0xbb5fce68	-0.0034150127
53	0x3a7d99a1	0.00096740766
54	0x3b572b1e	0.0032832096
55	0xba6d2ad9	-0.00090472173
56	0x3b293805	0.0025820744
57	0xbb6130d6	-0.0034361384
58	0x3b09fb20	0.0021054223
59	0xbb5105fb	-0.0031894434
60	0xbb470a66	-0.0030371188
61	0xbb2231e7	-0.0024748982
62	0xba0b83f1	-0.000532209
63	0x3b08c032	0.002086651

ae.encoder.bn01.running_var f4 [64]
0	0x409a5cfd	4.823851
1	0x3f217cdb	0.6308114
2	0x3eee49f4	0.46540797
3	0x414af056	12.683676
4	0x40b5d6b2	5.682458
5	0x41880da1	17.006655
6	0x3fb4d5d6	1.4127758
7	0x41110707	9.064216
8	0x410bcc0b	8.737315
9	0x3f4716fc	0.77769446
10	0x4118f645	9.560124
11	0x3f29495d	0.6612757
12	0x3e98ecf2	0.29868275
13	0x3e7d9d5f	0.24767064
14	0x4173947a	15.223749
15	0x4227342b	41.800945
16	0x3fcf18d3	1.6179451
17	0x3ece67ea	0.40313655
18	0x4086cfa9	4.212849
19	0x3f8e2563	1.110516
20	0x410e809f	8.906402
21	0x3e481f32	0.1954315
22	0x4099024a	4.7815294
23	0x403ab8bc	2.9175253
24	0x40b417b6	5.6278944
25	0x3dd20697	0.10255163
26	0x3fa09401	1.2545167
27	0x40d32576	6.598323
28	0x4169e859	14.6192255
29	0x3fb1ab3e	1.3880384
30	0x414555b0	12.33342
31	0x40517892	3.272984
32	0x3fdb5bcc	1.7137389
33	0x3ff41c2b	1.9071096
34	0x401d5397	2.458227
35	0x3fed7db7	1.855399
36	0x3e81aa99	0.25325468
37	0x3f2d1e5a	0.6762444
38	0x3fe51f42	1.7900164
39	0x3fb891a9	1.4419452
40	0x3dc59b4f	0.096487634
41	0x3fa242e4	1.2676663
42	0x40008d3d	2.0086205
43	0x406d2830	3.7055779
44	0x419f28f0	19.894989
45	0x40cb3514	6.3502293
46	0x40bc313a	5.881009
47	0x40e25d20	7.073868
48	0x40389e83	2.8846748
49	0x413370e5	11.215062
50	0x4125e40e	10.368177
51	0x3e33f6cf	0.17574619
52	0x41101528	9.005165
53	0x3f71d034	0.9445832
54	0x41049ac8	8.287788
55	0x4097199e	4.721877
56	0x3e9f9888	0.3117106
57	0x40122eba	2.284102
58	0x3fa1d68c	1.26436
59	0x3e691105	0.22760399
60	0x3e5ead09	0.21745695
61	0x40368e9e	2.8524547
62	0x40d7afd1	6.740212
63	0x3f755255	0.95828754

ae.encoder.cov02.weight f4 [64, 64, 3, 3]
0	0xbd0b4d08	-0.03400901
1	0xbd7fc760	-0.062446
2	0x3d0eae70	0.034834325
3	0xbdc64838	-0.096817434
4	0xbd510807	-0.051033046
5	0xbd5f7343	-0.05455328
6	0x3d12c8e4	0.035836115
7	0x3a896245	0.0010481557
8	0x3d27447f	0.040836807
9	0xbbab30e3	-0.0052243336
10	0x3d155b83	0.036464226
11	0x3d914bc4	0.07094529
12	0x3ce7a457	0.028276606
13	0xbd1efc1e	-0.038814656
14	0x3c8f67fc	0.017505638
15	0xbd506ef8	-0.050887078
16	0x3cd6c7bb	0.026218286
17	0x3c881d15	0.01661543
18	0x3d0bf4e9	0.03416911
19	0x3d701fb4	0.058623984
20	0xbdaaf597	-0.08347624
21	0xbbbe799c	-0.005812837
22	0x3bda6f74	0.0066661183
23	0x3e052fa8	0.1300646
24	0x3d424a46	0.047434114
25	0x3c88a619	0.016680764
26	0x3daf6554	0.08564249
27	0x3da45b8b	0.08025273
28	0x3a24fb88	0.00062935846
29	0xb99f060a	-0.00030331343
30	0xbc9857ee	-0.018596616
31	0xbd71a537	-0.05899545
32	0xbd8d45b9	-0.06898064
33	0xbd88e720	-0.066847086
34	0x3c95ab41	0.018270137
35	0x3cb1eb89	0.021718757
36	0x3d95e59f	0.073191874
37	0xbcb37428	-0.021905974
38	0xbd4c4ca4	-0.049877778
39	0x3c139860	0.009008497
40	0x3ca45206	0.020058643
41	0xbd509da3	-0.050931584
42	0xbdc23d58	-0.09484357
43	0x3c148bdb	0.009066547
44	0xbc8ba788	-0.017047659
45	0x3c74a464	0.014931772
46	0xbd59d9ed	-0.053186346
47	0x3dabc97e	0.08388041
48	0xbb9e864c	-0.004837787
49	0x3cd7942e	0.026315775
50	0x3cef9a6f	0.029248444
51	0x3d2f872b	0.042853516
52	0x3d95420b	0.07287987
53	0xbd73d0f0	-0.05952543
54	0x3cf9ff7a	0.030517329
55	0x3d7a3503	0.061085712
56	0x3da983b8	0.082770765
57	0xbd3097ff	-0.043113705
58	0xbce6b4e7	-0.028162433
59	0x3c33b046	0.01096732
60	0xbd87c49d	-0.06629298
61	0x3bda0f81	0.0066546802
62	0xbbb26e13	-0.005445251
63	0x3cd78aac	0.026311241
64	0xbd1bc09c	-0.038025483
65	0x3cc36a0b	0.023854276
66	0x3d5faa26	0.054605626
67	0xbce8ba80	-0.028409243
68	0xbc94dca6	-0.01817162
69	0x3cc61d4f	0.024183897
70	0xbcc31e81	-0.023818256
71	0xbd059876	-0.0326161
72	0x3c1d5038	0.009601645
73	0xbbd8ca08	-0.006615881
74	0xbd8a391f	-0.06749176
75	0xbd92ff24	-0.071775705
76	0x3db5d931	0.088793166
77	0xbc246521	-0.010033877
78	0x3da509d2	0.08058514
79	0x3ddc12a1	0.10745741
80	0xbc1ac114	-0.0094454475
81	0xbda50b00	-0.08058739
82	0x3e37d9c1	0.1795416
83	0xbdca9f41	-0.098936565
84	0xbc583085	-0.013195162
85	0xbd3b3afc	-0.04571055
86	0x3df8d8fa	0.1215076
87	0x3d1cdd19	0.038296793
88	0x3d34ffc5	0.044189233
89	0x3c2356e1	0.009969444
90	0x3cd340aa	0.02578767
91	0xbd762b36	-0.060099803
92	0xbdfe41d9	-0.12414903
93	0x3d82e155	0.06390635
94	0x3cb8c85d	0.022556478
95	0xbd5227d0	-0.0513075
96	0xbd908efa	-0.070585206
97	0xbd7508f1	-0.05982298
98	0x3d064042	0.032776125
99	0xbb878aac	-0.004136404
100	0x3db4c537	0.08826678
101	0xbe1b338f	-0.15156387
102	0x3d8c861c	0.06861517
103	0x3d4879db	0.048944335
104	0x3d038f07	0.032118823
105	0xbd9806fa	-0.07423206
106	0x3d8e6c0b	0.06954201
107	0x3ccd1132	0.025032613
108	0x3d48163b	0.048849326
109	0x3d8d8f32	0.06912078
110	0x3dbbea85	0.091755904
111	0xbda26f1a	-0.07931347
112	0xbd95b618	-0.07310122
113	0xbe32d0e6	-0.17462501
114	0x3daa3101	0.08310128
115	0x3d30512b	0.043046158
116	0xbd8f451c	-0.069956034
117	0x3d8c122e	0.06839405
118	0xbd250041	-0.040283445
119	0xbcd567a6	-0.0260504
120	0xbab7d43f	-0.0014025046
121	0xbbd81195	-0.006593893
122	0x3ccebf97	0.025237842
123	0xbb285407	-0.002568485
124	0x3d24c832	0.040229984
125	0x3d09ae5a	0.03361354
126	0xbca7a047	-0.020462168
127	0xbc5bc09f	-0.013412624
128	0x3a083dac	0.0005197178
129	0x3c8e203d	0.017349357
130	0xbd701eee	-0.058623247
131	0x3ccdb959	0.025112795
132	0xbcb0679f	-0.021533785
133	0x3c2874d0	0.0102817565
134	0x39ac5446	0.00032869185
135	0x3ca3c048	0.019989148
136	0x3dd327d6	0.103103325
137	0x3d66bdbb	0.056333285
138	0xbc4a9b22	-0.012366088
139	0x3c6e44e6	0.014542794
140	0x3dafc83e	0.08583115
141	0x3cdf0a31	0.02722654
142	0xbd211d37	-0.039334502
143	0x3d088476	0.03332945
144	0x3de1a884	0.1101847
145	0xbd6deb28	-0.05808559
146	0x3d5fcfb5	0.054641444
147	0xbcbb4003	-0.022857672
148	0x3cb374eb	0.021906337
149	0x3d1e0efb	0.038588505
150	0x3b6ac39a	0.0035822154
151	0xbd06f5ec	-0.032949373
152	0xbccc7733	-0.024959182
153	0xbd47405a	-0.048645355
154	0xbc19f440	-0.009396613
155	0xbe1ef942	-0.15524772
156	0x3cec6a18	0.028859183
157	0x3cd89e8f	0.026442794
158	0x3d3c6419	0.045993898
159	0x3d1251e0	0.035722613
160	0xbd067dba	-0.032834746
161	0xbd4520e7	-0.04812708
162	0xbd324083	-0.043518554
163	0xbd575fe0	-0.052581668
164	0x3c8039a9	0.015652495
165	0x3d1d586f	0.038414415
166	0x3dabe511	0.083933
167	0x3bbfc327	0.0058521214
168	0xbc8072c6	-0.015679728
169	0x3c480bc9	0.012209841
170	0x3d9a0ede	0.07522367
171	0x3d901505	0.07035259
172	0xbd328f63	-0.043593775
173	0xbbf353c0	-0.0074257553
174	0x3d9d7f3e	0.07690285
175	0xbd3a7265	-0.04551925
176	0x3ce4acdc	0.027914457
177	0xbd4057be	-0.046958677
178	0x3cc05572	0.023478243
179	0x3c87f163	0.016594594
180	0xbd63344a	-0.05546979
181	0xbd6b822f	-0.0574972
182	0x3da7a5b3	0.081859015
183	0x3db3d8a0	0.08781552
184	0xbd6d0ae2	-0.057871707
185	0x3d44e15e	0.04806649
186	0x3d4a3b38	0.04937288
187	0xbaaf8bf8	-0.0013393154
188	0xbc1e816e	-0.009674413
189	0x3da6bc81	0.08141423
190	0x3d046ca2	0.032330163
191	0xbd4b5dad	-0.049649883
192	0xbc104188	-0.008804686
193	0xbdcbf54a	-0.099588946
194	0xbc30bbc6	-0.010786956
195	0x3d9f484f	0.07777464
196	0xbd839467	-0.0642479
197	0xbd67b144	-0.056565538
198	0xbc7d351d	-0.015454558
199	0x3d00f870	0.03148693
200	0x3d584cad	0.0528075
201	0x3de567cc	0.11201438
202	0xbc5aa2d6	-0.013344487
203	0x3db0034d	0.085943796
204	0x3df648b6	0.12025587
205	0x3d930a45	0.07179693
206	0x3db6fb4e	0.08934651
207	0x3d17314d	0.03691225
208	0x3c39b08b	0.011333595
209	0xbdd3f422	-0.10349299
210	0xbbb9c46c	-0.0056691673
211	0xbcf56bc4	-0.029958613
212	0xbc9122ce	-0.017716791
213	0x3de5b5e2	0.11216332
214	0x3d2157d2	0.039390393
215	0x3c840c33	0.016119098
216	0x3d112db5	0.03544398
217	0x3d7de8fa	0.061989762
218	0xbd3d41b1	-0.046205226
219	0x3c128636	0.008943131
220	0x3e0ca617	0.13735233
221	0x3d1f5e13	0.038908076
222	0x3d9c1485	0.07621101
223	0x3d55b206	0.05217173
224	0x3d88a1a4	0.066714555
225	0x3ddb4a63	0.107075475
226	0x3d013246	0.031542085
227	0x3d6b43df	0.057437774
228	0x3dead0d9	0.11465616
229	0xb9daf9ea	-0.000417664
230	0x3dd04406	0.101692244
231	0xbd7d6b7a	-0.061870076
232	0x3d06243a	0.032749392
233	0xbb9c402a	-0.004768391
234	0x3be1492b	0.0068751774
235	0xbc986ac4	-0.018605597
236	0xbd1381db	-0.03601251
237	0xbc11cbdf	-0.008898704
238	0x3c074c1d	0.008257893
239	0xbc2cd31a	-0.010548377
240	0x3d690479	0.05688903
241	0x3d6f7ab3	0.058466624
242	0xbdfb9b08	-0.12285429
243	0xbdce6bff	-0.10079192
244	0x3c9a5af0	0.01884219
245	0xbd0d5b86	-0.03451111
246	0x3c42e6ba	0.01189583
247	0x3dc9d7e1	0.09855629
248	0xbd6baa9b	-0.05753575
249	0x3d2287cc	0.039680287
250	0x3cae6dbf	0.021292565
251	0xbd2323bd	-0.039829005
252	0x3c3fb65c	0.011701193
253	0xbca5e2ce	-0.02024975
254	0xbca03d9c	-0.019560628
255	0x3c8b312c	0.01699122

ae.encoder.cov02.bias f4 [64]
0	0xbb26fab9	-0.0025479032
1	0x3a40d151	0.00073554093
2	0xba42d940	-0.00074328855
3	0xbadba5c6	-0.0016757778
4	0x3a098964	0.0005246608
5	0xbaf11f79	-0.001839622
6	0x3aba140d	0.001419665
7	0x3ab12c15	0.0013517166
8	0xbadf9b73	-0.0017059877
9	0xb9162e98	-0.00014322472
10	0xbaa10510	-0.0012284834
11	0x3b12c0b2	0.0022392687
12	0xba9916a5	-0.0011679722
13	0xbb0d1bb7	-0.0021531412
14	0x3ab5519f	0.0013833529
15	0xbad03674	-0.0015885369
16	0xbb173bb3	-0.0023076355
17	0xba9fcecb	-0.0012192366
18	0x3b42ea0b	0.0029741551
19	0xbb064644	-0.002048866
20	0x3a264495	0.0006342617
21	0xba1caa4a	-0.0005976303
22	0xbb81fdd0	-0.0039670244
23	0xbb1c8b4a	-0.0023886734
24	0xb9e5a65b	-0.00043802228
25	0xb9beda68	-0.0003640235
26	0x398bbc47	0.00026652424
27	0x3a8b72c3	0.001063906
28	0xbc2bd7f2	-0.010488497
29	0x393d2a30	0.0001804016
30	0xb998e57e	-0.00029162684
31	0xbb4ac3b3	-0.00309394
32	0xbb5a2696	-0.003328716
33	0x3a022264	0.0004964231
34	0x3a0f5d4b	0.0005468919
35	0xba14b2a2	-0.00056723703
36	0xba01abbc	-0.000494655
37	0x3a8cd6b2	0.0010745137
38	0x3ac4197c	0.0014961208
39	0xba9e04ef	-0.0012055914
40	0x3a935d76	0.0011243063
41	0xbb98cda9	-0.0046631885
42	0x394e2378	0.00019658904
43	0x3a730243	0.00092700514
44	0xba8d6f96	-0.0010790701
45	0x3a4174c1	0.00073797634
46	0xba26235c	-0.00063376664
47	0x38073559	3.2236192e-05
48	0xbb79df7a	-0.0038127587
49	0xba678313	-0.0008831482
50	0x385d9dcd	5.283747e-05
51	0xba07309b	-0.0005157084
52	0xba90bb9d	-0.0011042241
53	0xb9add905	-0.00033158823
54	0xba254f88	-0.00063061016
55	0xbb201b3a	-0.002443029
56	0x3a2fb21e	0.0006702262
57	0xba57e40e	-0.0008235582
58	0x39ea218b	0.0004465695
59	0x3ab69c43	0.0013932068
60	0xba8b73b8	-0.0010639345
61	0xbad6277c	-0.0016338672
62	0xbb95ed01	-0.004575372
63	0xbb42467f	-0.002964407

ae.encoder.bn02.weight f4 [64]
0	0x3f7c5508	0.9856725
1	0x3f82e2ca	1.022546
2	0x3f75ab42	0.95964444
3	0x3f7e0130	0.9922056
4	0x3f79e634	0.9761689
5	0x3f813070	1.0092907
6	0x3f7a32b0	0.97733593
7	0x3f7e581b	0.9935319
8	0x3f80d253	1.0064186
9	0x3f7dd7bb	0.99157304
10	0x3f82aebc	1.0209575
11	0x3f7ee1f3	0.9956352
12	0x3f7b21c0	0.98098373
13	0x3f7b0737	0.98057884
14	0x3f7c45d1	0.9854403
15	0x3f7f38d2	0.99696076
16	0x3f83777b	1.0270838
17	0x3f7e0ef6	0.9924158
18	0x3f81d7ef	1.0144023
19	0x3f81f7fc	1.0153804
20	0x3f827870	1.0193005
21	0x3f806dac	1.0033469
22	0x3f80d2f7	1.0064381
23	0x3f7acaf2	0.9796592
24	0x3f77ede8	0.9684739
25	0x3f823a34	1.0174012
26	0x3f80d443	1.0064777
27	0x3f8181eb	1.0117773
28	0x3f8755b9	1.0573035
29	0x3f7f51a7	0.99733967
30	0x3f80bfc8	1.0058527
31	0x3f7f2011	0.99658304
32	0x3f84a6ab	1.0363363
33	0x3f8275b2	1.0192168
34	0x3f7c2ce7	0.98506016
35	0x3f7d3968	0.9891572
36	0x3f7ab8eb	0.9793841
37	0x3f8017b4	1.0007234
38	0x3f7e42b0	0.9932051
39	0x3f8100b7	1.0078343
40	0x3f7bb7ef	0.98327535
41	0x3f81d267	1.0142335
42	0x3f7a121c	0.9768388
43	0x3f8000d6	1.0000255
44	0x3f7b048f	0.9805383
45	0x3f81c040	1.0136795
46	0x3f85a54a	1.0441067
47	0x3f7cec41	0.98797995
48	0x3f823ac3	1.0174183
49	0x3f7e216b	0.9926974
50	0x3f7a677c	0.97814155
51	0x3f7d9c51	0.99066645
52	0x3f817ba8	1.0115862
53	0x3f7d13a0	0.9885807
54	0x3f7d6efa	0.9899746
55	0x3f80c04f	1.0058688
56	0x3f7d7304	0.99003625
57	0x3f7d420b	0.989289
58	0x3f7e654a	0.99373305
59	0x3f7d89f4	0.99038625
60	0x3f7c6d6f	0.9860448
61	0x3f7ee5fe	0.9956969
62	0x3f80a097	1.0049008
63	0x3f831d9e	1.0243413

ae.encoder.bn02.bias f4 [64]
0	0xbc72d546	-0.014821356
1	0x3cb2a94d	0.021809245
2	0x3ac95655	0.0015360812
3	0xbcf4b26a	-0.02987023
4	0xbcf0e30b	-0.029405138
5	0xbc865ed0	-0.016402632
6	0xbb79862d	-0.003807436
7	0x3c0cd298	0.008595131
8	0xbd3b3ca7	-0.04571214
9	0xbc8c3cce	-0.017118838
10	0xbd11088f	-0.035408553
11	0x3b3f7eff	0.0029219983
12	0xbd14d050	-0.036331475
13	0xbc752155	-0.01496156
14	0x3c184382	0.009293439
15	0xbc0d2ad9	-0.008616173
16	0xbd194978	-0.03742358
17	0xbd3e20f9	-0.046418164
18	0x3c2b49aa	0.010454575
19	0xbd003a41	-0.031305555
20	0x3b44bb84	0.0030018995
21	0xbcdea365	-0.027177522
22	0xbd789083	-0.060684692
23	0xbccb250f	-0.024797944
24	0xbd5309fc	-0.051523194
25	0xbc7a90cc	-0.015293311
26	0xbba75a79	-0.0051072207
27	0x3d0a7c55	0.03380998
28	0xbd8c2604	-0.068431884
29	0xbd3da239	-0.046297286
30	0x3bdaa7bf	0.006672829
31	0xbcae9fec	-0.021316491
32	0xbd4b004a	-0.049560823
33	0xbd0fd33a	-0.03511355
34	0x3b672cfd	0.0035274618
35	0xbd19d6a4	-0.037558213
36	0xbb895af4	-0.0041917507
37	0xbc12bc98	-0.008956097
38	0xbc89871f	-0.016788064
39	0xbd4b2bf9	-0.049602482
40	0xbd0753b8	-0.033038825
41	0xbd461f9e	-0.048369996
42	0xbd00b1de	-0.031419627
43	0xbbc7cbb0	-0.0060972795
44	0xbb5bd948	-0.0033546258
45	0x3bbac9c8	0.0057003237
46	0xbd39286c	-0.045204565
47	0xbc4b24ac	-0.01239888
48	0xbd8516ab	-0.06498464
49	0xbc18faad	-0.0093371095
50	0xbbad192f	-0.005282543
51	0xbb913e62	-0.0044324854
52	0x3c3d1199	0.01153984
53	0x3bbb7eee	0.0057219183
54	0xbcf70fd5	-0.030158916
55	0xbc2d228a	-0.010567317
56	0xbc099c6c	-0.00839911
57	0x3bf1033f	0.0073551233
58	0xbc8f895a	-0.017521549
59	0x3c1c2cab	0.009532134
60	0xbbad1f89	-0.0052833003
61	0xbbf2f125	-0.0074140006
62	0xbd96e993	-0.073687695
63	0xbd7189bf	-0.058969256

ae.encoder.bn02.running_mean f4 [64]
0	0x3fb4c16b	1.4121526
1	0x3ef62572	0.48075444
2	0xbf29026f	-0.6601934
3	0x3ed5605c	0.4167508
4	0x3f0208a7	0.5079445
5	0x3f3f3cda	0.7470223
6	0xbf7cebed	-0.98797494
7	0xbf5ee651	-0.87070185
8	0x3f2f04cc	0.68366694
9	0xbf3528ab	-0.7076518
10	0x3f91987d	1.1374661
11	0xbf46a5d8	-0.7759681
12	0x3ee3ed5c	0.44517028
13	0xbfabab01	-1.3411561
14	0xbfcb7782	-1.5895846
15	0xbf960dcb	-1.1722959
16	0xbee615ec	-0.449386
17	0x3efa9e84	0.48949063
18	0xbf9930e9	-1.1968051
19	0x3f32e195	0.6987546
20	0x3e169474	0.14705068
21	0x3f4c4bc6	0.7980312
22	0x3fa2ebc0	1.2728195
23	0xbf9f7f67	-1.2460755
24	0x3f831f3a	1.0243905
25	0xbf1f14fa	-0.6214138
26	0x3e76c1fe	0.2409744
27	0xbfa19e66	-1.2626464
28	0x3f4b6a98	0.79459524
29	0x3f0f6599	0.560144
30	0xbf9c5f78	-1.2216635
31	0x3e17cb69	0.14823689
32	0x3f3b4494	0.73151517
33	0x3ec7b804	0.3900758
34	0xbdadee49	-0.08492715
35	0x3f09cfbc	0.538326
36	0xbee17c41	-0.4404011
37	0x3f19a1e6	0.6001266
38	0xbf4a1348	-0.7893567
39	0x3e0bc01a	0.136475
40	0xbf06d318	-0.52665854
41	0x3f19e7d2	0.60119355
42	0x3f98ae52	1.1928198
43	0xbf269e18	-0.6508498
44	0xbf7e14fd	-0.99250776
45	0xbedaeee5	-0.42760387
46	0x3e2c3e43	0.16820626
47	0xbf935957	-1.1511639
48	0x3f48e1fa	0.7846981
49	0x3db676d9	0.08909387
50	0x3f0cee2d	0.5505093
51	0x3e9bc130	0.30420828
52	0xbedeb328	-0.4349606
53	0xbf1187fc	-0.5684812
54	0x3f76c4da	0.9639412
55	0xbea77446	-0.32705897
56	0x3ef24517	0.47318336
57	0x3cf352d4	0.029702581
58	0x3f484292	0.7822658
59	0xbe1cd3b0	-0.15315127
60	0xbf2dcd99	-0.6789184
61	0xbd4cea46	-0.050028108
62	0x3e79cc00	0.24394226
63	0x3ddd4656	0.10804431

ae.encoder.bn02.running_var f4 [64]
0	0x3f6d60d5	0.9272588
1	0x3f9aaaac	1.2083335
2	0x3f548e7c	0.83029914
3	0x3f0c2793	0.54747885
4	0x3f50293a	0.81312907
5	0x3f869743	1.0514911
6	0x3fed5691	1.8542043
7	0x3f7b7bd6	0.98235834
8	0x3f137ee2	0.5761548
9	0x401a9272	2.4151883
10	0x3f2d411e	0.67677486
11	0x3f3913b4	0.7229569
12	0x3f2ff72e	0.6873654
13	0x3fde1e7b	1.7353052
14	0x409a054b	4.813146
15	0x3fb8a62c	1.4425712
16	0x3ec0d9bb	0.37666115
17	0x3fc4e549	1.5382472
18	0x3f7af982	0.9803697
19	0x3f8407b9	1.0314857
20	0x3fa755ed	1.3073097
21	0x3fd1e8be	1.6399152
22	0x3f246f54	0.64232373
23	0x3ee9e29c	0.45680702
24	0x3f2ef5e0	0.68343925
25	0x3f73c44d	0.95221406
26	0x3f066d6f	0.5251073
27	0x401c3c85	2.4411938
28	0x3ecc9dbf	0.399641
29	0x3ed103bc	0.40823162
30	0x3f79e0b2	0.9760848
31	0x3fc22e51	1.5170385
32	0x3efea910	0.4973836
33	0x3f4be0df	0.7964
34	0x3f1e89cb	0.61929005
35	0x3f806df8	1.003356
36	0x3f608cb9	0.87714726
37	0x3fc18324	1.5118146
38	0x3f7a7487	0.97834057
39	0x3fcf3091	1.6186696
40	0x3ecc141a	0.39859086
41	0x3f113dea	0.567351
42	0x3faaa8f7	1.3332814
43	0x3f28acca	0.65888655
44	0x40b5d7e4	5.682604
45	0x3fc3c915	1.529574
46	0x3ecfa4c6	0.405554
47	0x3fcdd48d	1.608049
48	0x3e801ff6	0.25024384
49	0x3f79cf92	0.9758235
50	0x3f61d350	0.8821306
51	0x4061998e	3.5249972
52	0x3fc619fa	1.5476677
53	0x3fd1b177	1.6382283
54	0x3f8eb426	1.1148727
55	0x3eb28020	0.34863377
56	0x3ec54871	0.3853183
57	0x3f590714	0.84776425
58	0x407833c2	3.878159
59	0x40776ed2	3.866139
60	0x402830f4	2.6279879
61	0x3fc5a99c	1.5442386
62	0x3ef381e7	0.47560045
63	0x3ec46679	0.3835943

ae.encoder.cov03.weight f4 [64, 64, 3, 3]
0	0x3c7d3079	0.015453451
1	0xbd23d4fd	-0.039998043
2	0xbc326d44	-0.010890309
3	0x3cadb439	0.0212041
4	0xbd2ae8f4	-0.041726068
5	0xbb48e6aa	-0.0030655065
6	0xbd955810	-0.07292187
7	0xbc85e6bb	-0.016345372
8	0xbdb1c85e	-0.08680795
9	0x3cf2e87a	0.02965187
10	0xbc321d69	-0.01087127
11	0xbd1b1028	-0.037857205
12	0x3cc3638a	0.023851175
13	0xbc075195	-0.008259197
14	0xbda23eba	-0.079221204
15	0x3cae4dd0	0.021277338
16	0x3d5839f5	0.052789647
17	0xbc66117a	-0.014042253
18	0xbd88beea	-0.06677039
19	0xbd38b1a0	-0.04509127
20	0xbd3b5993	-0.04573972
21	0x3d95db6d	0.07317243
22	0xbd31e9be	-0.043435805
23	0xbd03c89b	-0.032173734
24	0xbd14ea88	-0.03635648
25	0xbc383da7	-0.011245168
26	0x3c884868	0.016636088
27	0x3de1ac27	0.110191636
28	0x3caf5e8b	0.021407386
29	0xbbae676b	-0.005322387
30	0x3d9565ba	0.072947934
31	0xbd33d687	-0.04390576
32	0xbcc0aa32	-0.023518655
33	0x3c7e9339	0.01553803
34	0x3d148c5c	0.03626667
35	0x3d9ae10b	0.07562455
36	0x3b712389	0.0036794862
37	0xbbb1b248	-0.005422864
38	0xbda1ec44	-0.07906392
39	0x3c03b5f4	0.0080389865
40	0xbcb4b612	-0.022059474
41	0xbd113faf	-0.035461124
42	0xbd56a366	-0.052401923
43	0xbdb7b141	-0.089693554
44	0xbdc3d9dd	-0.095630385
45	0xbdd1a54a	-0.102366045
46	0x3ccf41f3	0.025300002
47	0x3b464ca2	0.003025808
48	0xbe23c13e	-0.15991685
49	0xbcc5ad8f	-0.02413061
50	0x3bc429b9	0.005986419
51	0x3d39521e	0.04524433
52	0xbd53a87e	-0.05167436
53	0x3dab014c	0.08349857
54	0xbe0b8f9d	-0.13629003
55	0x3d058deb	0.032606047
56	0x3cca1576	0.024668436
57	0xbd522a12	-0.051309653
58	0xbc8fa780	-0.017535925
59	0xbd66f27c	-0.056383595
60	0xbd6fd9b7	-0.05855724
61	0xbcb16aa7	-0.021657301
62	0x3de3baac	0.11119589
63	0x3cf4ac81	0.029867413
64	0xbcdfc38c	-0.027314924
65	0xbd60d662	-0.05489195
66	0xbcf3bd6b	-0.029753407
67	0xbd555f8a	-0.052093066
68	0x3dc6a965	0.09700278
69	0xbd8e3790	-0.069441915
70	0x3c1537e4	0.009107564
71	0x3db23438	0.08701366
72	0x3d5d5d14	0.054043844
73	0xbdc89f29	-0.097959824
74	0x3d6b1c01	0.057399753
75	0x3d23d170	0.039994657
76	0xbce295cb	-0.027659317
77	0x3d510b08	0.05103591
78	0xbd4fef1d	-0.050765146
79	0x3d694a55	0.056955654
80	0xbdbdc8ff	-0.092668526
81	0xbdcba681	-0.099438675
82	0xbd95cc6c	-0.07314381
83	0x3ce48ed7	0.027900143
84	0x3cab122b	0.020882687
85	0x3d9727ec	0.07380661
86	0x3ca308f8	0.019901738
87	0x3c8cf995	0.017208854
88	0xbc4fdf0b	-0.012687455
89	0x3bd84281	0.0065997248
90	0x3d9b8b07	0.07594877
91	0x3ca6b5bd	0.020350331
92	0x3d3af7a8	0.04564634
93	0x3cc6b3e8	0.024255708
94	0xbdaa966e	-0.083294734
95	0xbcdfe801	-0.027332308
96	0x3c612150	0.0137408525
97	0xbd8566cf	-0.0651375
98	0xbcdfe5c3	-0.027331239
99	0x3c915ef7	0.017745478
100	0xbd3b1c29	-0.045681152
101	0xbd2dcec9	-0.042433534
102	0xbcfd251f	-0.03090149
103	0x3d7120bf	0.05886912
104	0x3d94efcd	0.07272301
105	0x3d86ff63	0.0659168
106	0xbb44cbcb	-0.0030028697
107	0xbd43e98b	-0.047830146
108	0xbc8ef591	-0.01745108
109	0xbc9fa892	-0.01948956
110	0x3cdbbd97	0.026823802
111	0xbcbc3ff3	-0.022979712
112	0x3df23546	0.11826567
113	0x3dfdfd16	0.12401788
114	0x3da23351	0.07919944
115	0x3dd5311d	0.10409758
116	0x3d1f7b20	0.03893578
117	0x3be808a4	0.007081108
118	0xbda88604	-0.082286865
119	0xbdbdd4e6	-0.09269123
120	0xbd2df7ec	-0.042472765
121	0xbd380ed4	-0.044936016
122	0x3d16d596	0.036824785
123	0xbdaf171a	-0.08549328
124	0x3d719698	0.058981508
125	0xbc887ad4	-0.016660132
126	0x3df30527	0.11866217
127	0xbd015bb5	-0.0315816
128	0x3d5b9e93	0.053618025
129	0x3cf91ab8	0.030408248
130	0x3b9dd7f1	0.004817002
131	0x3cf7e8de	0.030262407
132	0x3d23044f	0.03979903
133	0xbd509fb2	-0.050933547
134	0xbd4c9152	-0.049943276
135	0xbdff7599	-0.12473602
136	0x3d8b9fd9	0.06817598
137	0xbd01f3aa	-0.031726517
138	0xbc447dd4	-0.01199289
139	0x3d5861df	0.052827712
140	0xbc19a612	-0.009377973
141	0xbb004b0b	-0.001957598
142	0x3d784569	0.06061307
143	0x3d6c2298	0.05765018
144	0xbe108fbd	-0.14117332
145	0x3baff9ee	0.00537037
146	0xbd0132b5	-0.0315425
147	0x3d0c94b7	0.034321513
148	0x3cb0197b	0.021496525
149	0xbd486fea	-0.048934855
150	0xbd025a0a	-0.03182415
151	0xbe338777	-0.17532144
152	0xbd45c5d3	-0.048284363
153	0x3d3222e8	0.04349032
154	0x3b69b517	0.0035660916
155	0xbd28c288	-0.041201144
156	0xbc732941	-0.014841379
157	0xbd9e4876	-0.077286646
158	0x3d789b1b	0.060694795
159	0x3ca0b6d7	0.019618435
160	0x3cf310bf	0.029671071
161	0x3c48b3a8	0.012249865
162	0x3c046ca4	0.008082543
163	0xbc2beebb	-0.0104939295
164	0xbdfbb36c	-0.122900814
165	0x3cb73082	0.022361998
166	0x3da0b728	0.07847434
167	0x3cb5166e	0.022105422
168	0x3c06cae0	0.00822708
169	0x3cbc29fd	0.02296924
170	0xbda982b6	-0.08276884
171	0x3c8a8db0	0.016913265
172	0x3dae5c87	0.08513742
173	0x3c26a935	0.010172178
174	0xbc80a8cd	-0.01570549
175	0xbd150288	-0.036379367
176	0x3daf0e92	0.08547701
177	0xbb4119ff	-0.0029464958
178	0xbc60e20b	-0.013725768
179	0xbbbb85d3	-0.00572274
180	0xbc125e15	-0.008933564
181	0x3d083bfb	0.033260327
182	0xba150912	-0.00056852505
183	0x3d9ad699	0.075604625
184	0x3cd92038	0.02650462
185	0x3d523811	0.051323
186	0xba7e5054	-0.0009701301
187	0x3d63c2da	0.055605747
188	0x3d7c0a8f	0.061533507
189	0xbda54059	-0.08068914
190	0xbca38ee7	-0.019965602
191	0xbce47e61	-0.027892293
192	0x3db1c389	0.086798735
193	0xbd9b9393	-0.07596507
194	0xbcce081b	-0.02515035
195	0x3bb8f6a4	0.005644636
196	0x3c808328	0.01568754
197	0xbcba9ee2	-0.02278084
198	0xbd858a6a	-0.06520541
199	0x3d17dff0	0.037078798
200	0xbcecc594	-0.028902806
201	0xbd88f01a	-0.06686421
202	0xbd688bb1	-0.056773845
203	0xbdd00122	-0.10156466
204	0x3d01e5bf	0.031713244
205	0x3d419d5a	0.047269203
206	0x3ca5dbc1	0.020246388
207	0x3db252ba	0.08707185
208	0x3d4e0efd	0.050307263
209	0xbd44e590	-0.04807049
210	0x3dc1a60c	0.09455499
211	0xbd09f85c	-0.03368412
212	0x3d532b97	0.051555242
213	0x3d3dedde	0.046369426
214	0x3c13b3ec	0.009015065
215	0x3d1e9bce	0.038722806
216	0x3d1e127b	0.038591843
217	0x3e08e884	0.13369948
218	0x3d89e195	0.067324795
219	0xbc4d9977	-0.012548796
220	0xbbb5a4c7	-0.0055433246
221	0x3dbd2a3a	0.0923657
222	0x3cbeed43	0.023306495
223	0xbbac861c	-0.0052650105
224	0x3dd88cc6	0.105737254
225	0xbde865c8	-0.11347538
226	0x3d0dd1d4	0.034623936
227	0x3cd03835	0.025417427
228	0x3d9a8e7c	0.07546708
229	0x3d85004f	0.064941995
230	0x3d22eef3	0.03977866
231	0xbca75046	-0.02042402
232	0x3dbc8b3b	0.092062436
233	0xbdb288ba	-0.08717485
234	0x3d10b38f	0.03532749
235	0xbd0eec72	-0.03489346
236	0x3c09e6bb	0.008416827
237	0x3d71d245	0.05903842
238	0x3d1b18ab	0.037865322
239	0x3daf9920	0.08574128
240	0xbc20cefd	-0.009814975
241	0x3dad2e93	0.08456149
242	0x3c94f3a3	0.018182581
243	0x3dc822bb	0.09772249
244	0xbd09a523	-0.033604752
245	0x3d0c2bbe	0.034221403
246	0x3d320935	0.04346581
247	0x3c758e44	0.014987532
248	0x3c8c06ec	0.017093144
249	0x3cb8f664	0.022578426
250	0xbdb3fa41	-0.087879665
251	0x3b3872c8	0.0028144587
252	0x3d9bdc9e	0.07610439
253	0x3cd3c61e	0.025851306
254	0xbd3320d5	-0.043732483
255	0xbdc7e9d3	-0.09761395

ae.encoder.cov03.bias f4 [64]
0	0xbc109cb3	-0.0088264225
1	0xbb8bed27	-0.004270214
2	0xbbb00096	-0.0053711636
3	0xbbd44092	-0.006477424
4	0xbb8714c1	-0.004122347
5	0xbb4c205b	-0.0031147215
6	0xbc2b6f45	-0.01046354
7	0xbb2df2af	-0.0026542356
8	0xbb07c72f	-0.0020718088
9	0xbb3de217	-0.0028973871
10	0xbb27e221	-0.002561696
11	0xba937754	-0.0011250773
12	0xbb89ab6f	-0.0042013447
13	0xbc3d5138	-0.011555009
14	0xbb8bcf1c	-0.0042666327
15	0xbadff9f6	-0.0017088044
16	0xbab0bb7a	-0.0013483607
17	0xbafbe6eb	-0.0019218599
18	0xbb2f0c98	-0.0026710387
19	0xbb54a2ab	-0.003244559
20	0xbc051949	-0.008123704
21	0xbb63c4dc	-0.0034754789
22	0xbb2a3d92	-0.002597664
23	0xbbbcf9a4	-0.005767064
24	0xbafef7cf	-0.0019452515
25	0xbb3b34be	-0.0028565372
26	0xbab83c6c	-0.0014056093
27	0xbafd6d77	-0.0019334991
28	0xbb052604	-0.0020316849
29	0xbaafc792	-0.0013410917
30	0xbb00dc09	-0.0019662401
31	0xbb27a740	-0.0025581867
32	0xbb69e186	-0.00356874
33	0xba860135	-0.0010223748
34	0xbb3f857a	-0.0029223845
35	0xbb8679ea	-0.0041038888
36	0xbb1da2fb	-0.0024053443
37	0xbbaa74fc	-0.005201934
38	0xbb3b5343	-0.0028583563
39	0xba6c9ce4	-0.0009026064
40	0xbb8e4bae	-0.004342518
41	0xbb378650	-0.002800364
42	0xb86c626e	-5.6358454e-05
43	0xbac3b56d	-0.0014931388
44	0xba886f6d	-0.0010409184
45	0xbb41e01d	-0.0029583045
46	0xbb3f062b	-0.0029147964
47	0xbb960575	-0.0045782872
48	0xbae50c03	-0.0017474893
49	0xbb3e6af8	-0.0029055458
50	0xbb00e868	-0.0019669775
51	0xbad43c63	-0.0016192313
52	0xba82c18e	-0.0009975897
53	0xbbf39491	-0.007433482
54	0xbc7fcd81	-0.015612961
55	0xbb7df8a7	-0.0038752945
56	0xbb3b9f6e	-0.0028628963
57	0xbb79cdaf	-0.0038116982
58	0xbbacc665	-0.005272674
59	0xbbd9afa7	-0.006643254
60	0xbc546269	-0.012962916
61	0xb9d1b242	-0.000399964
62	0xb9a73d8c	-0.00031898578
63	0xbb1d4922	-0.002399989

ae.encoder.bn03.weight f4 [64]
0	0x3f8aee13	1.0853904
1	0x3f620f2e	0.8830441
2	0x3f7d6006	0.98974645
3	0x3f82ad96	1.0209224
4	0x3f7a8e2c	0.9787319
5	0x3f8de47f	1.1085356
6	0x3f6c6144	0.92335916
7	0x3f88baca	1.0682003
8	0x3f763ef4	0.9618981
9	0x3f897c0b	1.074098
10	0x3f894802	1.07251
11	0x3f807587	1.0035866
12	0x3f889498	1.0670347
13	0x3f815a75	1.010573
14	0x3f6a5a96	0.91544473
15	0x3f757aa9	0.9589029
16	0x3f722edb	0.94602746
17	0x3f7e6fa0	0.99389076
18	0x3f880a6a	1.0628178
19	0x3f8a220f	1.0791644
20	0x3f6f852b	0.93562573
21	0x3f5c1131	0.8596373
22	0x3f87c917	1.0608243
23	0x3f89725c	1.0738025
24	0x3f80d618	1.0065336
25	0x3f8bf14c	1.0933013
26	0x3f8580cb	1.042993
27	0x3f6e81d2	0.9316684
28	0x3f8d40f0	1.1035442
29	0x3f84619a	1.0342286
30	0x3f87e1ac	1.0615745
31	0x3f80e418	1.0069609
32	0x3f8b67c5	1.0891043
33	0x3f827ae1	1.019375
34	0x3f6c73b3	0.92364043
35	0x3f63eed5	0.89036304
36	0x3f7c5f95	0.98583347
37	0x3f736b16	0.95085275
38	0x3f71ca92	0.9444972
39	0x3f8443ef	1.0333232
40	0x3f705e1c	0.938936
41	0x3f8a82b6	1.082114
42	0x3f8559dd	1.0418049
43	0x3f6f1686	0.93393743
44	0x3f754dd5	0.9582189
45	0x3f5f1b96	0.8715147
46	0x3f8d0420	1.1016884
47	0x3f7e06db	0.9922921
48	0x3f88339c	1.064075
49	0x3f856b11	1.0423299
50	0x3f66ff9b	0.90233773
51	0x3f8122df	1.0088767
52	0x3f8bca18	1.0921049
53	0x3f8aa2ad	1.0830895
54	0x3f6fc08f	0.93653196
55	0x3f5f9158	0.8733115
56	0x3f7cba00	0.98721313
57	0x3f6c4278	0.92288923
58	0x3f8b6c32	1.0892394
59	0x3f8e5eac	1.1122642
60	0x3f89b85f	1.075939
61	0x3f83e692	1.030474
62	0x3f81d9f6	1.0144641
63	0x3f6fdb9b	0.93694466

ae.encoder.bn03.bias f4 [64]
0	0xbd83a132	-0.0642723
1	0xbdca59da	-0.09880419
2	0xbdea5ebf	-0.11443853
3	0xbdfa5e98	-0.122250736
4	0xbdfd81d0	-0.123782754
5	0xbd7c9835	-0.061668593
6	0xbdac8204	-0.08423236
7	0xbd182d4e	-0.03715258
8	0xbd4028e3	-0.046913993
9	0xbd0c4da7	-0.034253743
10	0xbd882841	-0.06648303
11	0xbd8d437e	-0.06897639
12	0xbd12ff59	-0.03588805
13	0xbdb8f19e	-0.0903046
14	0xbdc391f6	-0.09549324
15	0xbd8a8ee0	-0.067655325
16	0xbd35be21	-0.044370774
17	0xbd3d8373	-0.046267938
18	0xbd6f4629	-0.05841652
19	0xbd6ca04d	-0.057770062
20	0xbe119a5e	-0.14219043
21	0xbdff6e0b	-0.12472161
22	0xbd83f10b	-0.0644246
23	0xbd80cfd0	-0.06289637
24	0xbd40e84e	-0.047096543
25	0xbd838d9f	-0.064234965
26	0xbd8181ed	-0.063236095
27	0xbd6213e2	-0.055194743
28	0xbd7a478a	-0.06110338
29	0xbd55e7a3	-0.05222286
30	0xbcb1f73c	-0.021724336
31	0xbd829dcb	-0.06377753
32	0xbd6a19a9	-0.057153378
33	0xbd4730fa	-0.048630692
34	0xbdbced26	-0.0922492
35	0xbdb334e6	-0.08750324
36	0xbd73c358	-0.059512466
37	0xbde8f9b9	-0.11375756
38	0xbd381794	-0.04494436
39	0xbd2f57fd	-0.04280852
40	0xbdd88c65	-0.10573653
41	0xbd3411b3	-0.04396219
42	0xbcde863a	-0.027163614
43	0xbda54864	-0.08070448
44	0xbd3a9080	-0.045547962
45	0xbde5604c	-0.11200008
46	0xbd582c3f	-0.05277657
47	0xbdd02d3a	-0.10164876
48	0xbd449a67	-0.047998812
49	0xbd4d0da8	-0.05006185
50	0xbdd88f6c	-0.105742306
51	0xbd4868e3	-0.048928153
52	0xbd0567c8	-0.032569677
53	0xbde30147	-0.11084228
54	0xbdfaa6de	-0.12238859
55	0xbe051dbc	-0.12999624
56	0xbda8f9b0	-0.08250749
57	0xbda07d32	-0.07836379
58	0xbd97f9dc	-0.07420704
59	0xbdac2231	-0.08404959
60	0xbe139e39	-0.14415826
61	0xbd0db245	-0.03459384
62	0xbd0e8a20	-0.034799695
63	0xbd792cc1	-0.060833696

ae.encoder.bn03.running_mean f4 [64]
0	0x3f3dd4e4	0.7415297
1	0xbe4993e2	-0.19685319
2	0x3d8861c9	0.06659276
3	0x3da6792a	0.08128579
4	0xbd29a698	-0.04141864
5	0x3e602d9e	0.21892402
6	0x3e5c34f8	0.21504581
7	0x3e846dc2	0.2586499
8	0x3f17b45f	0.592596
9	0x3eea9c48	0.45822358
10	0x3de0d5ca	0.10978277
11	0x3f0a2084	0.53955865
12	0x3eaedaf4	0.34151423
13	0x3e6c43a1	0.23072673
14	0xbda96a3a	-0.08272214
15	0x3ee870ad	0.45398465
16	0x3efb30ee	0.49060768
17	0x3e7137ff	0.23556517
18	0x3ea94247	0.33058378
19	0x3f008a17	0.5021071
20	0x3ee777be	0.45208544
21	0xbf104437	-0.5635409
22	0x3d1b69f7	0.037942853
23	0x3f2b1429	0.66827637
24	0x3f94f0ba	1.1635964
25	0x3f17245e	0.59039867
26	0x3e531c86	0.2061635
27	0x3f1db4fb	0.6160428
28	0x3e29a7c6	0.16567907
29	0x3e8a5606	0.27018756
30	0x3fb4cc87	1.4124917
31	0x3e9a39c9	0.30122212
32	0x3eee8a36	0.46589822
33	0x3ec2697c	0.37971103
34	0xbe7dba8e	-0.24778196
35	0xbcf0c5e3	-0.029391235
36	0x3f9dfd94	1.2343011
37	0x3e1c24e7	0.15248452
38	0x3f086cb2	0.53290856
39	0x3f4d3be5	0.80169517
40	0x3e97056a	0.29496318
41	0x3f1b1733	0.60582274
42	0x3e551c28	0.20811522
43	0xbe971f64	-0.29516137
44	0x3f8a2f15	1.0795618
45	0x3e78d652	0.24300507
46	0x3ee7b3f8	0.45254493
47	0x3e34c071	0.17651536
48	0x3f8918e8	1.0710726
49	0x3e91529e	0.28383344
50	0x3d42d877	0.04756972
51	0x3f26da2f	0.6517667
52	0xbd30a74b	-0.043128293
53	0x3e889c9c	0.26681983
54	0x3d2dd939	0.042443488
55	0x3c8d55e1	0.017252864
56	0x3e4f70fc	0.20257944
57	0xbe8012a7	-0.2501423
58	0x3de416c1	0.111371525
59	0x3ea171b5	0.31532064
60	0x3ebed6fb	0.37273392
61	0x3f053ed6	0.52049005
62	0x3ee36d6a	0.44419414
63	0x3e8c1f9b	0.27367863

ae.encoder.bn03.running_var f4 [64]
0	0x3f11b12b	0.5691096
1	0x40775c7c	3.8650198
2	0x40007001	2.0068362
3	0x400b8a7c	2.1803274
4	0x400ec8e3	2.2310112
5	0x3fdf41aa	1.7441914
6	0x3f90f2e5	1.1324126
7	0x3f77ce06	0.9679874
8	0x3fe3e290	1.7803516
9	0x3fc0871c	1.5041232
10	0x3ff49420	1.9107704
11	0x3fdb2b6e	1.7122629
12	0x3f721a5e	0.94571483
13	0x3ecc5bf6	0.3991391
14	0x40240311	2.5626872
15	0x40009741	2.0092318
16	0x4051e0af	3.2793386
17	0x402ec26e	2.730617
18	0x4029c4ad	2.6526291
19	0x3f304983	0.6886217
20	0x3eb4e16d	0.35328236
21	0x40a27fcb	5.0780997
22	0x3fe99025	1.8247114
23	0x3f6a5111	0.9152995
24	0x400a1f0a	2.1581445
25	0x3ff60315	1.921969
26	0x4001dceb	2.0291088
27	0x408757b7	4.2294574
28	0x401a36e7	2.409601
29	0x3fb6dc5f	1.4286002
30	0x3ff0d914	1.8816247
31	0x404a9b2b	3.1657207
32	0x3f8249a8	1.0178728
33	0x402f9e4e	2.7440372
34	0x3fd0e850	1.6320896
35	0x4020b238	2.5108776
36	0x3ffaf202	1.9605105
37	0x400371e9	2.0538275
38	0x404020d9	3.0020049
39	0x3ff81c8f	1.9383715
40	0x40309bc9	2.7595084
41	0x3f665d21	0.89985853
42	0x3ffb36da	1.9626114
43	0x409c0eb1	4.8767934
44	0x40155cd2	2.3337903
45	0x3fbc0f64	1.4692197
46	0x3fec61cf	1.8467349
47	0x403bb791	2.933079
48	0x3fcdca05	1.6077276
49	0x402717f2	2.6108365
50	0x3fab6fe8	1.3393526
51	0x3fa0d3ab	1.2564596
52	0x3f077bd1	0.52923304
53	0x3f5afece	0.8554505
54	0x3f0caf98	0.54955435
55	0x3f959d38	1.1688604
56	0x3ff074fe	1.8785703
57	0x40533beb	3.300532
58	0x3f12f756	0.57408655
59	0x3ee5e4f2	0.44901234
60	0x3f03c892	0.5147792
61	0x3fea1135	1.8286501
62	0x4003c671	2.058987
63	0x40037a40	2.0543365
