checkpoint/teacher_checkpoint.pt (torch, 494002 bytes, 32 tensors)

ae.encoder.cov01.weight f4 [64, 63, 1, 1]
0.38425526 -0.07511942 0.03500385 0.21564198 0.08047782 -0.1523237 0.107101865 0.07134093
-0.044495624 -0.24261254 0.13873953 -0.069220334 -0.10854167 0.038141325 0.20058379 0.12022864
-0.34782118 0.13691024 0.041165516 0.39529866 -0.045958817 0.07298705 0.1013518 -0.0041340115
-0.17053054 -0.22835909 -0.14796339 0.11034744 0.07856916 -0.04279297 0.3359111 -0.017084809
0.17971456 -0.046295576 0.048149716 -0.2776764 -0.19065282 -0.07284423 -0.03157159 -0.26516622
0.09656622 0.02387389 0.21634753 -0.07484305 -0.15915012 -0.27568868 -0.16716091 -0.2664759
0.112906314 0.2861997 -0.07042063 0.14670293 -0.02630274 -0.14786108 -0.065424025 -0.004361581
0.039267216 0.059906524 -0.010536709 -0.3546217 -0.024931591 -0.12420971 0.080895536 -0.07857287
-0.2159442 -0.18549466 -0.03912998 0.013186785 -0.12266857 0.04623043 0.13521697 -0.15058613
-0.20864257 -0.30527544 -0.14831133 -0.14111963 0.021968152 0.48251435 0.15349595 0.020964464
0.024966868 0.23015082 -0.2986685 -0.11502631 0.13438763 0.14459653 -0.22781445 -0.0064594313
0.11775587 0.30413014 -0.26154467 0.12879103 -0.11644311 -0.06979318 -0.0779716 0.12472001
-0.04870244 -0.11481911 0.29770696 0.19459853 0.025010666 0.1881683 0.119888924 -0.2176702
-0.21326087 0.18541275 -0.11878506 -0.2751033 -0.49274096 -0.10613544 -0.01667049 -0.088951595
0.032065988 0.003868998 -0.16698758 -0.0910518 -0.04770567 -0.05871134 -0.10669968 0.12571058
0.13222586 0.0013488901 -0.005768374 0.13470091 0.111381866 0.047672812 0.036811583 0.07789582
-0.39461365 0.051101483 0.18139994 -0.05012939 -0.1669731 -0.25431463 -0.060676523 0.029198522
-0.37495238 -0.024758346 -0.23102458 -0.004382616 0.16348878 0.02977761 -0.26834106 -0.06215987
0.14172949 -0.061431505 0.07826819 0.018221954 -0.015570791 -0.07625274 0.22892216 -0.15332347
-0.025692398 -0.2504128 -0.23887281 -0.121777795 -0.15360567 0.08631215 0.116948016 0.05865138
0.2342171 0.30022418 0.29562604 -0.09358448 -0.27690035 0.056898102 -0.23113582 -0.28512812
0.11647637 -0.059150163 -0.14820418 -0.06262479 0.1813815 -0.106467925 0.10265743 -0.18492413
-0.07876114 -0.21642195 0.1244207 0.1299388 0.041665252 0.22258408 -0.041656267 -0.22821088
-0.10309112 0.24129634 -0.28948012 0.1450566 -0.14119406 0.04027706 0.13140595 0.17804292
0.13380444 0.10625447 0.3854748 -0.1412654 0.3840047 0.12865874 0.28817177 0.11993993
0.21144225 -0.12006747 -0.067595065 -0.18173547 0.02993194 -0.015867718 -0.07288776 -0.121244185
-0.0021624384 -0.11804545 -0.023768054 -0.19101605 -0.035173636 0.23504297 -0.22416036 0.109699585
0.115289606 0.04194587 0.39132833 0.19535108 0.22691096 -0.04432467 -0.21307597 0.07349839
0.0678527 0.21308932 0.029431622 0.049421128 0.21295911 0.09939775 0.078191936 0.32896435
-0.03886508 -0.0059956596 -0.055726025 -0.17690186 -0.24951775 0.39424482 0.2632862 0.07286986
-0.19777115 -0.0062811286 0.29797426 0.3030112 -0.13207287 -0.20088156 0.030555042 0.009074414
0.09359431 -0.14221741 0.34562182 0.24238916 -0.21761082 -0.031343967 -0.071280934 0.184353
00000000: 1bbd c43e 36d8 99bd 3260 0f3d 40d1 5c3e
00000010: 8ed1 a43d befa 1bbe 3958 db3d 321b 923d
00000020: 0b41 36bd 6c6f 78be bc11 0e3e 64c3 8dbd
00000030: 184b debd 143a 1c3d d665 4d3e 6f3a f63d
00000040: 9e15 b2be 3332 0c3e 2c9d 283d 9664 ca3e
00000050: 503f 3cbd 3c7a 953d 8891 cf3d 9a76 87bb
00000060: 8f9f 2ebe f7d6 69be b783 17be d7fd e13d
00000070: dee8 a03d ae47 2fbd 8afc ab3e 71f5 8bbc
00000080: 1807 383e 6ea0 3dbd a338 453d 9a2b 8ebe
00000090: 7e3a 43be 5b2f 95bd 3651 01bd dec3 87be
000000a0: 83c4 c53d 2d93 c33c 358a 5d3e 5047 99bd
000000b0: 40f8 22be 1127 8dbe 3b2c 2bbe 876f 88be
000000c0: 6d3b e73d c488 923e b138 90bd 4b39 163e
000000d0: d878 d7bc e568 17be 08fd 85bd 98eb 8ebb
000000e0: a9d6 203d 8b60 753d 29a2 2cbc fa90 b5be
000000f0: 563d ccbc a961 febd 8fac a53d d0ea a0bd
00000100: 7a20 5dbe 50f2 3dbe c246 20bd 630d 583c
00000110: a939 fbbd 1f5c 3d3d 5176 0a3e 4033 1abe
00000120: 66a6 55be 104d 9cbe edde 17be aa81 10be
00000130: 8ef6 b33c 1f0c f73e 0b2e 1d3e abbd ab3c
00000140: 5187 cc3c a8ac 6b3e 14eb 98be ea92 ebbd
00000150: e99c 093e 1d11 143e 3148 69be a3a9 d3bb
00000160: fd29 f13d f2b6 9b3e 2fe9 85be cce1 033e
00000170: ba79 eebd baef 8ebd 93af 9fbd 346d ff3d
00000180: 367c 47bd 4826 ebbd 0c6d 983e d644 473e
00000190: 2be3 cc3c 31af 403e 5388 f53d f0e4 5ebe
000001a0: 0f61 5abe d7dc 3d3e 9545 f3bd 57da 8cbe
000001b0: 8b48 fcbe 8a5d d9bd 8d90 88bc 412c b6bd
000001c0: a057 033d 048f 7d3b cbfe 2abe 5e79 babd
000001d0: 0567 43bd 4d7b 70bd 5d85 dabd 46ba 003e
000001e0: 3766 073e 3ecd b03a a104 bdbb 09ef 093e
000001f0: 2d1c e43d 9144 433d bec7 163d d887 9f3d
00000200: cd0a cabe ca4f 513d e8c0 393e 7a54 4dbd
00000210: fffa 2abe 8735 82be f287 78bd bd31 ef3c
00000220: c2f9 bfbe 04d2 cabc b591 6cbe 0c9c 8fbb
00000230: 9a69 273e 2df0 f33c 0064 89be 599b 7ebd
00000240: 8921 113e 9a9f 7bbd 134b a03d 3546 953c
00000250: a21c 7fbc 662a 9cbd 926a 6a3e d400 1dbe
00000260: dd78 d2bc 1b36 80be 139b 74be a366 f9bd
00000270: ce4a 1dbe 6dc4 b03d 7182 ef3d 6e3c 703d
00000280: 9cd6 6f3e fcb6 993e 4c5c 973e 38a9 bfbd
00000290: e2c5 8dbe fc0d 693d deae 6cbe 50fc 91be
000002a0: 2a8b ee3d 7147 72bd d6c2 17be 6d41 80bd
000002b0: 12bc 393e db0b dabd 0f3e d23d c05c 3dbe
000002c0: 854d a1bd b79d 5dbe 48d0 fe3d ad0e 053e
000002d0: 2fa9 2a3d 15ed 633e c39f 2abd 1db0 69be
000002e0: 7021 d3bd 6316 773e bd36 94be b889 143e
000002f0: 2d95 10be 8ff9 243d 488f 063e e250 363e
00000300: 0804 093e f29b d93d f45c c53e e1a7 10be
00000310: 449c c43e 1ebf 033e 408b 933e 11a3 f53d
00000320: 5184 583e efe5 f5bd 486f 8abd dd18 3abe
00000330: d433 f53c 04fd 81bc 2e46 95bd df4e f8bd
00000340: b2b7 0dbb d0c1 f1bd 39b5 c2bc b699 43be
00000350: 3b12 10bd 1baf 703e 4b8a 65be 2daa e03d
00000360: f51c ec3d 6fcf 2b3d 305c c83e 1d0a 483e
00000370: 595b 683e c98d 35bd 9630 5abe 5386 963d
00000380: 5bf6 8a3d 1634 5a3e 961a f13c cf6d 4a3d
00000390: f411 5a3e 0c91 cb3d 1823 a03d 046e a83e
000003a0: fd30 1fbd 3d77 c4bb f940 64bd c325 35be
000003b0: 9581 7fbe 75da c93e 73cd 863e cb3c 953d
000003c0: 8584 4abe edd1 cdbb 1590 983e 4924 9b3e
000003d0: 1c3e 07be e5b3 4dbe 914e fa3c daac 143c
000003e0: 60ae bf3d 71a1 11be 58f5 b03e dd34 783e
000003f0: 5fd5 5ebe 8862 00bd bdfb 91bd 08c7 3c3e

ae.encoder.cov01.bias f4 [64]
7.7873774e-05 -0.0014788976 0.0077022063 -0.00097189297 -0.00082023727 -0.0017595392 0.0033023723 -0.004350128
-0.0052148844 0.0015640814 -0.0021423937 0.0009141675 0.000636476 -0.002218787 -0.00547021 -0.0052941716
0.0022780464 -0.0032137812 0.0015420662 -0.0039022877 -0.0012415926 -0.0013711046 4.2392836e-05 -0.001510865
-0.0024280713 -0.0015038797 6.568774e-05 -0.0083463015 -0.0021299922 0.00032435043 -0.002919991 -0.0023353198
-0.0012534527 0.00043504243 0.0008942492 0.0005152271 0.0044995095 -0.00075014675 -0.0036497135 -0.0012430216
-0.0037914277 0.0038164898 -0.0028054125 -0.0003396124 -0.002879957 -0.0006483686 0.0003444901 -0.0005686587
-0.00068911526 0.0012377684 0.0010967024 0.0017708875 -0.0002671975 -0.003758481 0.008339686 0.00061559316
-0.0024216725 -0.002909371 0.0002710956 -0.002385733 -0.0011194239 0.0013215285 0.0048514237 -0.0024765858
00000000: 2a50 a338 92d7 c1ba ca62 fc3b a2c6 7eba
00000010: 3105 57ba 57a0 e6ba 9d6c 583b 858b 8ebb
00000020: 9fe1 aabb dd01 cd3a 6767 0cbb bea4 6f3a
00000030: 2ed9 263a 1269 11bb 733f b3bb bb7a adbb
00000040: 474b 153b 4d9e 52bb 281f ca3a 86bd 7fbb
00000050: efbc a2ba a3b6 b3ba f6ce 3138 3808 c6ba
00000060: 4720 1fbb d41d c5ba d6c1 8938 edbe 08bc
00000070: 5797 0bbb 940d aa39 525d 3fbb 2a0c 19bb
00000080: e54a a4ba 6816 e439 0c6c 6a3a 4e10 073a
00000090: 9f70 933b 7fa5 44ba 0830 6fbb e2ec a2ba
000000a0: 9a79 78bb 131e 7a3b 03db 37bb 010e b2b9
000000b0: a9bd 3cbb 48f7 29ba ae9c b439 0a12 15ba
000000c0: bea5 34ba 9e3c a23a 3abf 8f3a 201d e83a
000000d0: a416 8cb9 d950 76bb 2ea3 083c c25f 213a
000000e0: ecb4 1ebb 25ab 3ebb d621 8e39 f559 1cbb
000000f0: a2b9 92ba 2337 ad3a b1f8 9e3b 374e 22bb

ae.encoder.bn01.weight f4 [64]
1.0079277 1.0376761 1.0054908 1.0141943 0.9635023 1.0010839 0.95503604 0.98272085
1.008961 0.9677821 1.0071526 0.97908336 1.046803 1.0200353 0.9919321 0.9900351
1.0137731 1.0246359 1.0167208 0.9917038 1.0023044 1.0456896 1.0131396 0.97325903
1.035664 1.0089232 0.9655618 1.032706 1.0234561 0.9646158 1.014666 0.9669327
0.994467 1.0261822 0.993213 0.9774055 1.0013521 0.9370888 1.0778512 0.99499255
0.98092747 0.9902107 0.9797428 1.0506067 0.9663918 1.0095637 0.9534675 0.9889021
0.9910113 0.9942896 1.0135801 1.0101467 0.99663734 1.0274289 0.989294 1.0011648
1.0113196 0.9643463 1.0191851 0.98666453 1.0150709 0.9849319 1.010195 0.9950583
00000000: c603 813f 92d2 843f ecb3 803f 1ed1 813f
00000010: 16a8 763f 8423 803f 3e7d 743f 9893 7b3f
00000020: a225 813f 91c0 773f 60ea 803f 35a5 7a3f
00000030: a4fd 853f 8490 823f 43ef 7d3f f172 7d3f
00000040: 51c3 813f 4527 833f e823 823f 4de0 7d3f
00000050: 834b 803f 28d9 853f 8fae 813f 8127 793f
00000060: a390 843f 6524 813f 0f2f 773f b62f 843f
00000070: 9c00 833f 10f1 763f 93e0 813f e788 773f
00000080: 6495 7e3f f059 833f 3543 7e3f 3f37 7a3f
00000090: 4e2c 803f 0de5 6f3f 07f7 893f d5b7 7e3f
000000a0: 101e 7b3f 737e 7d3f 6dd0 7a3f 487a 863f
000000b0: 7465 773f 6239 813f 7216 743f b028 7d3f
000000c0: ebb2 7d3f c389 7e3f febc 813f 7d4c 813f
000000d0: a023 7f3f ca82 833f 5f42 7d3f 2b26 803f
000000e0: ec72 813f 66df 763f a874 823f 0c96 7c3f
000000f0: d8ed 813f 7f24 7c3f 124e 813f 24bc 7e3f

ae.encoder.bn01.bias f4 [64]
-0.0077867713 0.0018699294 0.1474282 -0.06982595 -0.07709301 0.0002418724 0.11055167 -0.016628964
-0.04819392 0.08827181 -0.044075202 -0.002945919 0.024824081 -0.072277695 -0.11791897 -0.09408201
0.011729693 -0.05211255 0.03123303 -0.09499193 -0.059098125 -0.03404255 0.006413226 -0.07524574
-0.039869983 -0.04351804 -0.028276158 -0.07224482 -0.0052409857 0.009218717 -0.06747512 -0.047583032
-0.026235634 0.0046736086 -0.0049546594 -0.01721083 0.09613957 -0.024370112 -0.050614502 -0.031691004
-0.040360373 0.024996923 -0.09811189 0.043275602 -0.028484916 -0.020264251 0.022481168 0.0056780432
-0.008694187 -0.021799434 0.00096547883 0.018732999 -0.05482257 -0.06980309 0.13048331 -0.00589301
-0.030027991 -0.09588946 -0.020667257 -0.06170222 -0.0016466138 -0.0017273461 0.08014362 -0.057887886
00000000: 2c28 ffbb 6b18 f53a 6bf7 163e e800 8fbd
00000010: f1e2 9dbd 219f 7d39 ea68 e23d 7739 88bc
00000020: fd66 45bd dac7 b43d 3388 34bd 5210 41bb
00000030: df5b cb3c 5406 94bd 807f f1bd 12ae c0bd
00000040: e62d 403c f873 55bd 69dc ff3c 218b c2bd
00000050: e010 72bd 3370 0bbd 0a26 d23b 701a 9abd
00000060: b54e 23bd f93f 32bd 67a3 e7bc 18f5 93bd
00000070: 93bc abbb 1a0a 173c 6530 8abd 6de6 42bd
00000080: 1dec d6bc 1225 993b b25a a2bb bafd 8cbc
00000090: d3e4 c43d d4a3 c7bc 2751 4fbd 6dce 01bd
000000a0: eb50 25bd 59c6 cc3c e3ee c8bd c241 313d
000000b0: 3359 e9bc 3701 a6bc 6d2a b83c e10e ba3b
000000c0: 1072 0ebc ba94 b2bc 3018 7d3a f275 993c
000000d0: a28d 60bd ecf4 8ebd 6b9d 053e 271a c1bb
000000e0: 43fd f5bc b161 c4bd 614e a9bc 78bb 7cbd
000000f0: 31d3 d7ba 1e68 e2ba 5722 a43d d91b 6dbd

ae.encoder.bn01.running_mean f4 [64]
0.022084637 0.0013039092 0.0047622 -0.015071542 0.0140698105 -0.015524473 0.0156125305 -0.008579893
0.012152607 -0.012941733 -0.021765906 0.008046347 -0.023480428 0.014725948 -0.030240573 -0.022067428
0.0032480112 -0.002514848 0.027837085 -0.00662917 0.0047501894 0.023645226 0.0102796815 0.021906497
-0.008847611 -0.035418138 0.016792059 -0.018885683 -0.01422175 -0.008999831 -0.03137105 -0.015183797
0.011535743 0.0051367027 0.013170129 -0.016984528 0.016954606 -0.0029835422 -0.0019323622 0.030841405
0.0030157273 -0.0033719921 -0.02120883 -0.006877619 0.015503669 0.034744974 -0.012751271 -0.013269463
-0.023910241 0.02346063 -0.018348653 -0.025358273 6.563589e-05 -0.020530459 0.00990642 0.012715016
0.0019813115 -0.008964073 0.008688583 -0.03167485 0.010736108 -0.0065939445 -0.0048531913 0.013633392
00000000: d7ea b43c efe7 aa3a 3b0c 9c3b a1ee 76bc
00000010: 1085 663c 5c5a 7ebc b3cb 7f3c ae92 0cbc
00000020: ba1b 473c 9009 54bc 6a4e b2bc d3d4 033c
00000030: 075a c0bc 1a45 713c 14bb f7bc c0c6 b4bc
00000040: 96dc 543b 26d0 24bb 990a e43c 8239 d9bb
00000050: 7aa7 9b3b a2b3 c13c 1c6c 283c 4175 b33c
00000060: 92f5 10bc 9c12 11bd 808f 893c 26b6 9abc
00000070: 5802 69bc 0774 13bc ee7e 00bd 76c5 78bc
00000080: 6a00 3d3c c951 a83b 86c7 573c 2323 8bbc
00000090: 63e4 8a3c 8887 43bb 5147 fdba 1da7 fc3c
000000a0: 82a3 453b a4fc 5cbb 24be adbc a65d e1bb
000000b0: 1a03 7e3c bf50 0e3d b5ea 50bc 2968 59bc
000000c0: 69df c3bc 8230 c03c ea4f 96bc 27bc cfbc
000000d0: 00a6 8938 7e2f a8bc 894e 223c a452 503c
000000e0: e4d8 013b 0cde 12bc 8f5a 0e3c 7dbd 01bd
000000f0: 80e6 2f3c 0412 d8bb 8507 9fbb 975e 5f3c

ae.encoder.bn01.running_var f4 [64]
3.9605763 0.3697485 1.8675984 3.99358 1.7369665 3.5449004 1.0925051 0.17052987
1.8321056 5.363784 1.9248978 3.2744823 4.111816 2.3947234 4.1414127 1.4278644
2.5327573 2.4206216 4.47396 1.5591313 4.6668186 5.2853055 1.7265532 5.720726
4.1725197 8.767477 2.9650917 0.6069289 8.793669 4.0510697 4.8564963 1.6110837
0.9209089 0.44458064 7.624208 2.1771858 1.4001153 2.4367778 0.24418306 7.111282
2.9530733 0.7625962 1.7164799 1.8090798 1.7392217 8.023832 5.7204323 5.271144
3.1011982 4.639199 7.3137517 6.494397 2.7199407 1.3950242 0.16897589 3.2496583
2.4432085 0.84324104 1.0387676 5.0475335 1.9288539 2.511003 2.2102306 2.0559237
00000000: 157a 7d40 ad4f bd3e 770d ef3f d196 7f40
00000010: eb54 de3f a6df 6240 35d7 8b3f 629f 2e3e
00000020: 7082 ea3f 1ea4 ab40 0d63 f63f 1e91 5140
00000030: ff93 8340 2643 1940 7486 8440 43c4 b63f
00000040: b218 2240 77eb 1a40 ae2a 8f40 9d91 c73f
00000050: 9456 9540 3921 a940 b2ff dc3f 3010 b740
00000060: 4885 8540 9647 0c41 10c4 3d40 b15f 1b3f
00000070: deb2 0c41 5da2 8140 6b68 9b40 fe37 ce3f
00000080: b0c0 6b3f 13a0 e33e 83f9 f340 0357 0b40
00000090: fa36 b33f 2bf4 1b40 200b 7a3e 9f8f e340
000000a0: 27ff 3c40 8139 433f 9db5 db3f ed8f e73f
000000b0: d19e de3f 9e61 0041 c80d b740 36ad a840
000000c0: 087a 4640 5174 9440 410a ea40 1ad2 cf40
000000d0: 8213 2e40 2790 b23f 0408 2d3e 67fa 4f40
000000e0: 875d 1c40 a5de 573f 56f6 843f 6585 a140
000000f0: afe4 f63f 46b4 2040 6b74 0d40 4194 0340

ae.encoder.cov02.weight f4 [64, 64, 3, 3]
-0.07932718 -0.017253289 -0.077841625 0.012818098 -0.059090003 0.04577382 0.020963697 -0.06254223
0.11529005 -0.04510017 0.0073672677 -0.14074944 -0.014830051 0.026373638 -0.09533752 0.00071505026
-0.09281308 -0.06726793 -0.050456442 -0.033281256 -0.11426131 -0.07984681 0.0748932 0.012589158
-0.0865713 0.058511477 -0.08149833 -0.06427177 -0.056918792 -0.051045474 -0.029196179 -0.08248814
-0.09712913 -0.0005471649 0.030010201 0.04012047 0.008595934 0.035241764 -0.045314148 0.009492367
0.024150874 -0.0040412587 -0.08528334 0.03374903 0.03537924 -0.08732906 0.09089928 -0.04756944
-0.03871496 0.04727468 -0.03479962 -0.07724672 0.005258381 -0.10545202 0.0692813 0.037754476
0.009135954 -0.05731593 0.0152846025 -0.022778802 -0.018611558 -0.032848064 -0.0055669295 0.07636854
0.06302952 -0.051193353 0.029875098 -0.038736228 0.010339578 -0.029067496 -0.015931595 0.060670488
0.08124773 -0.043279488 0.0050587733 -0.03314515 0.009367319 0.09479676 0.081419416 0.04726366
0.013345481 0.062006794 -0.0047916453 -0.0030571707 -0.035745516 0.03642446 -0.024594164 0.07082502
-0.00088765146 0.050353587 -0.020030133 0.03498225 -0.013582474 -0.16152707 -0.064873695 0.05128117
-0.0016231216 0.033901744 -0.043087047 -0.025196752 0.05950243 -0.042833596 -0.0373407 -0.052746538
0.06341884 -0.0797605 -0.016285589 0.07196766 0.028748924 0.08368562 -0.05612646 0.017901491
0.028092965 0.021570105 -0.048784368 0.097914405 -0.04187176 0.100424856 0.024169207 0.07584207
0.04863884 -0.010048778 0.02985145 0.1166259 -0.0023757967 0.08774078 -0.030380525 -0.035269268
0.06805486 0.089640796 0.02548527 -0.077861354 0.032864477 0.016555313 0.020714236 0.0051107598
-0.06781348 0.057872932 -0.035421368 -0.019725919 0.06449669 -0.026756193 -0.006134167 -0.0037774295
0.01220169 0.0032585831 -0.044327002 -0.0033928005 0.019246528 -0.008701025 -0.061618067 -0.060512688
0.003998747 -0.036747143 -0.03162593 -0.0012741478 0.098167375 0.06507555 -0.0643594 -0.07744972
-0.13385013 -0.11147108 0.018654298 0.0024860946 0.094016224 -0.026857508 0.026710035 -0.06334403
0.021311434 -0.04550151 -0.019535474 -0.022687275 0.00012748178 -0.048060182 0.032669235 -0.080565006
-0.08464595 -0.08353279 0.047484275 0.012295631 -0.0996548 0.10628102 0.025576798 -0.074488014
-0.059961945 0.026545824 -0.022961259 0.060779054 0.16239168 0.047745712 0.05035079 0.08382009
0.06123345 -0.024190951 -0.027032128 0.0018419323 -0.018169643 0.11003055 -0.032701198 0.020873655
0.024626082 -0.023679905 -0.01889485 -0.006475056 -0.10129518 -0.037663378 -0.046989374 0.11345769
-0.017018842 0.047222648 0.011957593 -0.045498278 0.0036102403 0.048993107 -0.04393261 0.04726055
-0.07670131 0.08121289 0.052812815 0.019715374 0.0017990145 -0.085605204 -0.07474003 0.024743227
-0.0847394 -0.05624488 -0.0033181075 0.0018713487 -0.053065453 -0.024401423 0.015447271 -0.0014868621
-0.017702276 -0.027121956 -0.03242139 -0.03968477 -0.018938873 0.08397733 -0.039038066 -0.059875973
-0.08563247 0.04063168 0.058543958 -0.006221505 -0.04970062 -0.033354063 0.12420582 0.02617858
-0.030537661 0.022976395 0.03259311 0.036902986 -0.10895627 -0.044536687 -0.021875791 0.007987141
00000000: 4a76 a2bd c556 8dbc 6e6b 9fbd 0003 523c
00000010: 5c08 72bd 547d 3b3d 0fbc ab3c 2416 80bd
00000020: 311d ec3d f5ba 38bd 1f69 f13b 9f20 10be
00000030: bef9 72bc 870d d83c 5140 c3bd 3672 3b3a
00000040: c914 bebd c5c3 89bd 6aab 4ebd ed51 08bd
00000050: d501 eabd b986 a3bd 9b61 993d c142 4e3c
00000060: 4b4c b1bd bba9 6f3d 99e8 a6bd eba0 83bd
00000070: ae23 69bd 0f15 51bd d32c efbc 8bef a8bd
00000080: a3eb c6bd 9d6f 0fba f4d7 f53c 5d55 243d
00000090: f6d5 0c3c ab59 103d 549b 39bd df85 1b3c
000000a0: 0ed8 c53c 896c 84bb 08a9 aebd 6c3c 0a3d
000000b0: d2e9 103d 94d9 b2bd 6729 ba3d 2cd8 42bd
000000c0: 9493 1ebd 18a3 413d 0c8a 0ebd 8733 9ebd
000000d0: 7f4e ac3b 3bf7 d7bd 5be3 8d3d 70a4 1a3d
000000e0: f8ae 153c 1cc4 6abd 456c 7a3c 9c9a babc
000000f0: 4477 98bc b18b 06bd ca6a b6bb 1c67 9c3d
00000100: 9f15 813d 1fb0 51bd 9fbc f43c e1a9 1ebd
00000110: 5567 293c f51e eebc fa82 82bc 9e81 783d
00000120: 3665 a63d d545 31bd 11c4 a53b 35c3 07bd
00000130: 6279 193c ce24 c23d 39bf a63d 8a97 413d
00000140: 01a7 5a3c d6fa 7d3d 3c03 9dbb d05a 48bb
00000150: e469 12bd d131 153d b379 c9bc b50c 913d
00000160: 48b1 68ba 903f 4e3d 3c16 a4bc 8c49 0f3d
00000170: 0689 5ebc 5a67 25be 80dc 84bd 340c 523d
00000180: ecbe d4ba 8edc 0a3d 0b7c 30bd 6b69 cebc
00000190: d2b8 733d 4872 2fbd 90f2 18bd c10c 58bd
000001a0: bde1 813d 7959 a3bd 5b69 85bc c863 933d
000001b0: dd82 eb3c 5e63 ab3d dce4 65bd 26a6 923c
000001c0: 3823 e63c cab3 b03c 1ed2 47bd 5987 c83d
000001d0: b981 2bbd 8cab cd3d 80fe c53c 1653 9b3d
000001e0: 8539 473d a1a3 24bc 078b f43c 8fd9 ee3d
000001f0: 41b3 1bbb 70b1 b33d 94e0 f8bc 8276 10bd
00000200: 5960 8b3d 9895 b73d 7cc6 d03c c675 9fbd
00000210: e79c 063d 029f 873c e7b0 a93c 2978 a73b
00000220: cbe1 8abd 2b0c 6d3d ff15 11bd 4098 a1bc
00000230: d716 843d ce2f dbbc 1f01 c9bb c08e 77bb
00000240: 99e9 473c f48d 553b 3b90 35bd bf59 5ebb
00000250: e5aa 9d3c be8e 0ebc 3a63 7cbd 27dc 77bd
00000260: ec07 833b 2c84 16bd 318a 01bd 4e01 a7ba
00000270: fa0b c93d 5446 853d dcce 83bd f59d 9ebd
00000280: 0210 09be f34a e4bd e6d0 983c bfed 223b
00000290: 948b c03d 4704 dcbc 01cf da3c 84ba 81bd
000002a0: 5195 ae3c cb5f 3abd dc08 a0bc aada b9bc
000002b0: a1ac 0539 c1da 44bd 2dd0 053d 44ff a4bd
000002c0: db5a adbd 3d13 abbd df7e 423d 9d73 493c
000002d0: d117 ccbd dda9 d93d 6f86 d13c 2c8d 98bd
000002e0: a89a 75bd a176 d93c 4019 bcbc 75f3 783d
000002f0: 014a 263e 0291 433d a13c 4e3d dea9 ab3d
00000300: edcf 7a3d 1a2c c6bc 7b72 ddbc fe6c f13a
00000310: 81d8 94bc b257 e13d b1f1 05bd 3aff aa3c
00000320: a3bc c93c 5cfc c1bc 5fc9 9abc b52c d4bb
00000330: d973 cfbd ea44 1abd ee77 40bd 815c e83d
00000340: 196b 8bbc 896c 413d c8e9 433c 675c 3abd
00000350: c899 6c3b ffac 483d aef2 33bd 4794 413d
00000360: 9415 9dbd f252 a63d 4052 583d 2382 a13c
00000370: e9cc eb3a c851 afbd 4d11 99bd 4fb2 ca3c
00000380: da8b adbd 0861 66bd 9b74 59bb 0b48 f53a
00000390: 295b 59bd 7ee5 c7bc 8d16 7d3c d0e2 c2ba
000003a0: 5d04 91bc dd2e debc 4bcc 04bd 7f8c 22bd
000003b0: b225 9bbc 4efc ab3d 61e6 1fbd 8240 75bd
000003c0: 1460 afbd 686d 263d cacb 6f3d c4dd cbbb
000003d0: e192 4bbd 459e 08bd 9f5f fe3d 7674 d63c
000003e0: 1e2a fabc fe38 bc3c 5a80 053d 9627 173d
000003f0: 7724 dfbd 1a6c 36bd dc34 b3bc 7fdc 023c

ae.encoder.cov02.bias f4 [64]
-0.011711687 -0.0013080786 -0.0059623155 -0.0021417136 -0.0018959189 0.00028214065 -0.0016860577 -0.0030484442
-0.0009024482 -0.01274065 -0.0050492496 -0.0011683882 4.198451e-05 0.00052072277 -0.006477393 -0.00093595305
-0.0019532843 -0.005031929 -0.0018408211 -0.0008194063 -0.0017438323 -0.0035896813 -0.0016348253 -0.004121544
-0.005380533 -0.0005638983 0.0001380164 -0.0033878298 0.0025228807 -0.008553253 -0.019784953 0.000117809795
-0.000105698295 -0.0033302975 -0.0019875267 -0.0030720981 -0.00048508277 -0.0013545506 -0.004122592 -0.007782835
-0.006724418 0.0010330089 -0.0012773882 -0.00058537966 0.0004369834 -0.0010123145 -0.0006716391 -0.0049525336
-0.0009123189 -0.0015246469 0.0005420725 -0.0061984044 -0.002203989 0.0012114318 -0.0014664539 -0.00068359997
-0.00042102422 0.0061483504 -0.000991751 -0.0012577617 -0.0027165979 -0.0072268555 0.002110208 -0.0007320473
00000000: 60e2 3fbc d673 abba 875f c3bb fe5b 0cbb
00000010: 7b80 f8ba 47ec 9339 b5fe dcba 68c8 47bb
00000020: 4692 6cba 29be 50bc 2d74 a5bb 9a24 99ba
00000030: 8618 3038 1d81 083a 5040 d4bb bf5a 75ba
00000040: ac02 00bb e1e2 a4bb b547 f1ba 6dcd 56ba
00000050: 4d91 e4ba dc40 6bbb a247 d6ba 040e 87bb
00000060: 2f4f b0bb 93d2 13ba 7fb8 1039 5a06 5ebb
00000070: ea56 253b f122 0cbc 0e14 a2bc a710 f738
00000080: 57aa ddb8 1f41 5abb 2a41 02bb 4155 49bb
00000090: b552 feb9 2d8b b1ba cf16 87bb 2707 ffbb
000000a0: 8258 dcbb 0766 873a 096e a7ba 2a74 19ba
000000b0: eb1a e539 a3af 84ba f010 30ba dd48 a2bb
000000c0: af28 6fba a9d6 c7ba df19 0e3a fc1b cbbb
000000d0: cd70 10bb e8c8 9e3a 0736 c0ba 9e33 33ba
000000e0: eabc dcb9 1a78 c93b a4fd 81ba 7bdb a4ba
000000f0: f308 32bb 42cf ecbb 6a4b 0a3b dde6 3fba

ae.encoder.bn02.weight f4 [64]
1.1050225 1.0040182 0.9746743 0.9438868 1.0302105 0.9925421 0.98779243 1.0437578
0.97319114 0.9935712 0.99770075 1.0357071 0.9985635 0.9955644 1.0268235 0.98588985
1.0226085 0.9742213 0.96268433 0.99697655 0.97138935 0.98235095 0.97211844 1.0123526
0.9466935 1.0149815 1.0263275 0.97597736 1.0251426 0.98638934 1.0030762 1.0102544
0.9449044 1.0498244 1.0134381 0.946582 0.9937708 1.0086664 0.94985574 0.98131835
0.9802564 1.027661 0.9981324 0.96696395 1.0234809 0.9750893 0.9571986 1.0476025
0.9926807 1.0045109 0.96437985 0.9849924 0.9575893 1.0330579 0.98889273 0.98248595
1.0188427 1.0273286 0.9546901 0.99620634 0.96064395 0.9848218 1.0015196 1.011107
00000000: 6171 8d3f ab83 803f 4184 793f 91a2 713f
00000010: f0dd 833f 3d17 7e3f f7df 7c3f db99 853f
00000020: 0e23 793f af5a 7e3f 5169 7f3f 0d92 843f
00000030: dca1 7f3f 4fdd 7e3f f46e 833f 4763 7c3f
00000040: d6e4 823f 9166 793f 7b72 763f db39 7f3f
00000050: f9ac 783f 5a7b 7b3f c1dc 783f c594 813f
00000060: 815a 723f eaea 813f b35e 833f a7d9 793f
00000070: df37 833f 0384 7c3f cd64 803f 0450 813f
00000080: 41e5 713f a560 863f 57b8 813f 3353 723f
00000090: c367 7e3f fb1b 813f bf29 733f ae37 7b3f
000000a0: 15f2 7a3f 658a 833f 9b85 7f3f f38a 773f
000000b0: 6c01 833f 749f 793f f80a 753f d717 863f
000000c0: 5320 7e3f d093 803f 99e1 763f 7628 7c3f
000000d0: 9324 753f 3e3b 843f 1328 7d3f 3384 7b3f
000000e0: 7069 823f 817f 833f 9266 743f 6107 7f3f
000000f0: c3ec 753f 481d 7c3f cb31 803f f46b 813f

ae.encoder.bn02.bias f4 [64]
-0.17137735 -0.017567271 -0.09024204 -0.039129768 0.029076066 -0.0112698795 -0.03494944 -0.011123621
-0.055762682 -0.16373467 -0.12219777 0.028929584 0.031058237 -0.017345723 -0.14409412 -0.033075925
-0.032471266 -0.10193496 -0.08990826 -0.036125354 -0.008486305 0.01802703 -0.057891876 -0.066390514
-0.12624744 0.033875093 0.0027316173 -0.02045693 -0.0046152687 -0.16820705 -0.19565912 0.030327598
-0.035608795 -0.038385455 -0.043788128 -0.14062616 0.01854815 -0.05274453 -0.0147615615 -0.15548968
-0.10330539 0.023331724 0.020224785 -0.054734003 0.0013438814 -0.07081982 -0.0147929685 -0.116534844
-0.121666566 -0.027388677 -0.03184996 -0.0726546 -0.11246314 0.019275375 -0.014525904 -0.0742872
-0.0066829664 0.028344586 -0.10922884 -0.07560535 -0.08477686 -0.059922967 -0.022748651 -0.083285145
00000000: 8b7d 2fbe 3de9 8fbc d2d0 b8bd 8946 20bd
00000010: ee30 ee3c 4da5 38bc 2527 0fbd d93f 36bc
00000020: 6967 64bd 10aa 27be d342 fabd bcfd ec3c
00000030: d86d fe3c 9e18 8ebc 698d 13be 9f7a 07bd
00000040: 9700 05bd 47c3 d0bd d221 b8bd 2ef8 13bd
00000050: 250a 0bbc 6cad 933c 0820 6dbd c0f7 87bd
00000060: 0247 01be 9cc0 0a3d ef04 333b 4b95 a7bc
00000070: ae3b 97bb 783e 2cbe dd5a 48be 9571 f83c
00000080: 87da 11bd 113a 1dbd 2e5b 33bd 4e00 10be
00000090: 4af2 973c a60a 58bd 7ada 71bc b038 1fbe
000000a0: c791 d3bd 2c22 bf3c 73ae a53c c330 60bd
000000b0: 2d25 b03a fb09 91bd 355e 72bc d2a9 eebd
000000c0: 522c f9bd 385e e0bc 1b75 02bd efcb 94bd
000000d0: 1353 e6bd 64e7 9d3c 0ffe 6dbc e323 98bd
000000e0: c9fc dabb e832 e83c 5fb3 dfbd fad6 9abd
000000f0: 7e9f adbd c971 75bd 615b babc 6791 aabd

ae.encoder.bn02.running_mean f4 [64]
-0.28080752 -0.23897932 0.08969483 -0.92413294 -0.34720352 -0.43729812 -0.4903207 0.21302827
-0.9654175 0.088324815 0.59588563 -0.37226015 0.47476786 1.2829608 -0.07623381 -0.7470348
-0.15214784 -0.25218096 -0.701905 -0.22238359 -0.08834467 -1.1403909 -0.35449708 0.04222185
0.023263521 -1.6207108 -0.69679534 0.074303485 0.41892543 -0.33942097 -0.67993915 -0.027223442
0.8865253 0.48636097 0.71288675 0.3926133 -0.5918432 0.20526904 -0.29533106 0.3740208
-0.6885407 -0.42738762 0.35707 -1.0993723 -0.6953478 -0.580236 0.7052429 -0.014916952
0.06230858 -0.28623453 0.51487464 -0.68423164 -0.80367273 -0.18097341 -1.5076009 0.70200795
0.4544062 0.3949967 -0.2997048 0.29239967 -0.6978572 -0.7550562 -0.8275962 0.04599998
00000000: 01c6 8fbe ffb6 74be ecb1 b73d fa93 6cbf
00000010: a9c4 b1be 8ae5 dfbe 510b fbbe 1524 5a3e
00000020: 9a25 77bf a4e3 b43d f68b 183f e298 bebe
00000030: c614 f33e 0f38 a43f 7920 9cbd ac3d 3fbf
00000040: a5cc 1bbe dd1d 81be 0cb0 33bf 86b8 63be
00000050: 0dee b4bd 54f8 91bf a480 b5be d2f0 2c3d
00000060: 2493 be3c 7473 cfbf 2e61 32bf 6d2c 983d
00000070: 657d d63e 96c8 adbe 7e10 2ebf b203 dfbc
00000080: 52f3 623f 4e04 f93e bf7f 363f 9c04 c93e
00000090: 0983 17bf 0c32 523e a235 97be a87f bf3e
000000a0: 3444 30bf 8dd2 dabe e1d1 b63e 3bb8 8cbf
000000b0: 5002 32bf 598a 14bf cc8a 343f 3b66 74bc
000000c0: 4837 7f3d 558d 92be d3ce 033f ce29 2fbf
000000d0: 7fbd 4dbf 1851 39be 11f9 c0bf cbb6 333f
000000e0: eea7 e83e 023d ca3e e872 99be 69b5 953e
000000f0: c5a6 32bf 5d4b 41bf 58dd 53bf 7a6a 3c3d

ae.encoder.bn02.running_var f4 [64]
0.30994573 3.4244921 2.4668667 4.2058883 4.8582215 1.2743299 1.5208135 0.9570763
3.9917998 0.4303219 1.0681876 0.6542758 3.9432042 2.667435 0.9757932 1.8598114
1.9758494 1.3871311 2.0134625 2.2958226 3.0701108 7.3543677 2.9804974 0.83475125
0.61216336 6.427088 2.6365726 1.7629026 1.823358 1.0269803 0.28586853 4.204379
3.0204372 0.962026 2.7871118 1.3146951 2.6290147 1.3408936 0.35335055 0.79696524
0.68945014 1.0329669 1.9275289 2.6197865 2.1368604 4.4181576 1.6305883 0.46848157
0.63294953 0.41492575 3.7631986 0.8983849 1.5407107 1.9531614 8.046477 2.7580318
1.9355665 0.75947106 2.0162477 0.85633814 1.9703535 1.4750669 4.6662493 0.3536761
00000000: 35b1 9e3e e12a 5b40 25e1 1d40 a396 8640
00000010: 8d76 9b40 3e1d a33f 04aa c23f f402 753f
00000020: a679 7f40 2753 dc3e 5fba 883f 9e7e 273f
00000030: 755d 7c40 41b7 2a40 95cd 793f 4d0e ee3f
00000040: a2e8 fc3f 838d b13f 92dc 0040 c2ee 1240
00000050: b27c 4440 fb56 eb40 78c0 3e40 42b2 553f
00000060: bdb6 1c3f b4aa cd40 9bbd 2840 cba6 e13f
00000070: cc63 e93f 1774 833f 5c5d 923e 468a 8640
00000080: d84e 4140 5647 763f 0a60 3240 ee47 a83f
00000090: c741 2840 67a2 ab3f 5dea b43e ea05 4c3f
000000a0: ce7f 303f 4238 843f 44b9 f63f 95aa 2740
000000b0: 52c2 0840 8c61 8d40 1eb7 d03f d1dc ef3e
000000c0: fb08 223f 2671 d43e 3fd8 7040 8efc 653f
000000d0: 0236 c53f 3101 fa3f 5fbe 0041 9883 3040
000000e0: a5c0 f73f b26c 423f 340a 0140 fa38 5b3f
000000f0: 8b34 fc3f fece bc3f ea51 9540 0915 b53e

ae.encoder.cov03.weight f4 [32, 64, 3, 3]
-0.038346983 -0.08320651 -0.09493378 -0.14316384 -0.0050475267 -0.09127362 -0.043783035 -0.042751368
-0.1248961 -0.052834507 -0.04796608 0.06702518 0.1744156 -0.06878361 0.01680452 0.028950924
0.07944167 -0.04161283 0.10151211 0.050302275 0.012404614 -0.31373438 0.039504778 -0.16223718
0.1226928 -0.123994544 -0.13501687 0.0386416 0.0145016955 0.18444985 -0.069093496 -0.11839888
-0.017167278 -0.075028725 -0.103994064 0.12227731 -0.013226975 -0.033979896 0.18107529 0.07144021
0.03617994 -0.09793997 -0.09967023 0.0012547396 0.1035023 0.0139020905 0.007776328 0.0036742904
0.084231675 0.08306517 -0.27092206 0.015084028 0.056455527 -0.054936446 0.1737827 -0.06486954
0.12671083 0.1292114 -0.19350375 -0.1310732 0.16085911 0.0049668765 0.033369828 0.14105843
0.02706747 0.009706542 0.0412352 0.12546755 -0.19111097 0.0008508649 0.008996771 -0.09491856
-0.07375285 -0.00020250826 -0.12529786 0.11022597 0.05266023 0.070763245 0.06983797 -0.11422347
-0.14760642 -0.123769484 -0.16017096 -0.107747234 0.016022481 0.0711671 -0.06498139 -0.03930557
0.0068301028 -0.07233661 -0.057901084 0.034898188 -0.03740919 0.0059165903 -0.071375154 0.02534411
-0.008509755 -0.034851734 0.12504883 -0.009342132 0.05387802 0.16969047 0.059532028 -0.015757691
0.058961734 0.15933944 0.11195569 0.10968699 0.06132829 -0.111382276 -0.010555482 0.1291855
0.12270325 0.03119258 0.03747916 -0.07223065 0.07614387 -0.0778181 -0.011485587 -0.06651963
0.01765684 0.024015335 -0.09751028 -0.10038264 0.21125941 -0.085528836 0.028517248 -0.09696933
-0.12415379 -0.01030695 -0.13377923 -0.25488946 -0.043467317 0.028338956 -0.009357186 0.045855395
0.2153471 -0.05345981 0.17804447 -0.09588575 -0.040466294 0.114117295 0.03275403 0.06579739
0.20182557 0.07966355 0.097119674 0.10385962 -0.052792676 0.14632995 0.06136168 0.1532463
0.16849421 0.044114985 0.07321395 0.1035546 -0.04207404 -0.040665954 0.029384615 0.14123368
-0.023162846 -0.031116359 0.058311988 0.11238863 -0.13642086 0.01136123 0.004250887 0.04627586
0.006079551 -0.032791875 -0.046713274 0.024753766 -0.079524964 -0.10334219 0.038778357 0.037575375
0.09864725 -0.19431819 -0.033971786 -0.071840465 -0.03276793 -0.111502476 0.0046044565 -0.08164765
-0.016993772 -0.18778017 0.004405354 -0.13990064 -0.043028943 0.076948576 -0.13859585 0.009583345
0.07788385 -0.085206576 -0.03158803 -0.12271388 0.10158242 0.050382357 -0.18161239 0.007467462
-0.023538176 -0.11160993 0.07462759 -0.059604853 -0.07202018 -0.051124148 0.029561467 -0.018065993
0.02369413 0.15282324 0.06942735 0.12102314 0.017865472 0.19452214 0.15882425 0.11220294
-0.10890445 -0.0952338 -0.07294335 0.06472545 0.08499331 0.084201925 0.0070538423 0.01374546
0.010595931 0.0789668 -0.0028545076 -0.020819513 -0.11092216 0.01624254 0.07822235 -0.036789563
0.07525158 0.044233806 -0.086239174 0.1395511 0.034795135 0.042287525 -0.04918216 0.13868763
0.12571876 -0.018760828 -0.07121597 -0.041567046 0.065489285 0.07577507 0.15881352 0.1518055
0.15396829 0.09823072 -0.03955366 0.081102796 0.027376119 0.14559977 -0.04601109 0.058887847
00000000: ba11 1dbd 2d68 aabd a46c c2bd 8b99 12be
00000010: b965 a5bb aaed babd d755 33bd 0f1c 2fbd
00000020: 87c9 ffbd ff68 58bd 1578 44bd 7f44 893d
00000030: 019a 323e 6cde 8cbd a2a9 893c 7d2a ed3c
00000040: 50b2 a23d 3772 2abd 95e5 cf3d c209 4e3d
00000050: b93c 4b3c cba1 a0be c3cf 213d 8121 26be
00000060: 5d46 fb3d daf0 fdbd dd41 0abe a846 1e3d
00000070: 8598 6d3c 6ce0 3c3e e480 8dbd 1d7b f2bd
00000080: 64a2 8cbc a9a8 99bd d7fa d4bd 876c fa3d
00000090: f4b5 58bc 812e 0bbd cd6b 393e 3f4f 923d
000000a0: 6b31 143d c094 c8bd e81f ccbd 1376 a43a
000000b0: 04f9 d33d 98c5 633c 91d0 fe3b 5dcc 703b
000000c0: a881 ac3d 121e aa3d 4cb6 8abe 0023 773c
000000d0: e93d 673d 0a05 61bd 18f4 313e 52da 84bd
000000e0: 7cc0 013e fe4f 043e d925 46be 0e38 06be
000000f0: 40b8 243e 2ec1 a23b cdae 083d 9f71 103e
00000100: 99bc dd3c 3008 1f3c 3ee6 283d 917a 003e
00000110: 98b2 43be 940c 5f3a 3167 133c a964 c2bd
00000120: bc0b 97bd 6658 54b9 154e 00be 27be e13d
00000130: 41b2 573d 52ec 903d 3607 8f3d ffed e9bd
00000140: 2326 17be db7a fdbd db03 24be 95aa dcbd
00000150: 9441 833c 0ec0 913d f714 85bd e1fe 20bd
00000160: 0ecf df3b 3725 94bd b029 6dbd 67f1 0e3d
00000170: 613a 19bd f5df c13b 232d 92bd 739e cf3c
00000180: 806c 0bbc b1c0 0ebd cd0c 003e be0f 19bc
00000190: 33af 5c3d 57c3 2d3e dbd7 733d 4616 81bc
000001a0: dc81 713d e129 233e 0649 e53d 93a3 e03d
000001b0: 5f33 7b3d 641c e4bd e6f0 2cbc 3449 043e
000001c0: d74b fb3d 9587 ff3c bf83 193d aaed 93bd
000001d0: 51f1 9b3d 195f 9fbd 0b2e 3cbc 723b 88bd
000001e0: 14a5 903c cfbb c43c 78b3 c7bd 6a95 cdbd
000001f0: 6354 583e be29 afbd 019d e93c db97 c6bd
00000200: 5844 febd 7bde 28bc 6cfd 08be df80 82be
00000210: c90a 32bd 1927 e83c e24e 19bc ded2 3b3d
00000220: f383 5c3e acf8 5abd 4a51 363e c05f c4bd
00000230: fcbf 25bd 54b6 e93d 1729 063d c8c0 863d
00000240: 5dab 4e3e a526 a33d aee6 c63d 5ab4 d43d
00000250: 223d 58bd 85d7 153e 6356 7b3d 99ec 1c3e
00000260: bf89 2c3e eab1 343d 32f1 953d 6f14 d43d
00000270: d455 2cbd 5891 26bd 01b8 f03c 909f 103e
00000280: 02c0 bdbc bce7 febc 8dd8 6e3d 032c e63d
00000290: e9b1 0bbe 7424 3a3c 064b 8b3b c28b 3d3d
000002a0: f836 c73b c650 06bd 6b56 3fbd 69c8 ca3c
000002b0: fcdd a2bd 12a5 d3bd 0ed6 1e3d a3e8 193d
000002c0: 9207 ca3d 59fb 46be 0026 0bbd 1821 93bd
000002d0: aa37 06bd 695b e4bd fbe0 963b e236 a7bd
000002e0: 8636 8bbc 7249 40be ca5a 903b 1d42 0fbe
000002f0: 1e3f 30bd 3797 9d3d 12ec 0dbe 7603 1d3c
00000300: 9181 9f3d c980 aebd 7362 01bd 6a51 fbbd
00000310: 720a d03d bb5d 4e3d 99f8 39be 9db1 f43b
00000320: 22d3 c0bc bf93 e4bd 5ad6 983d 3824 74bd
00000330: 517f 93bd 8e67 51bd e42a f23c 22ff 93bc
00000340: 311a c23c b27d 1c3e ed2f 8e3d fbda f73d
00000350: 9c5a 923c d030 473e d3a2 223e a8ca e53d
00000360: 4c09 dfbd f009 c3bd 5363 95bd c78e 843d
00000370: f910 ae3d 0f72 ac3d eb23 e73b a334 613c
00000380: 8e9a 2d3c 58b9 a13d b112 3bbb af8d aabc
00000390: 282b e3bd 130f 853c 0a33 a03d a7b0 16bd
000003a0: 801d 9a3d 822e 353d 2a9e b0bd 7ce6 0e3e
000003b0: 5885 0e3d af35 2d3d 3c73 49bd 2104 0e3e
000003c0: 6bbc 003e 4fb0 99bc aed9 91bd 3542 2abd
000003d0: 3f1f 863d f62f 9b3d 03a0 223e e772 1b3e
000003e0: dda9 1d3e 302d c93d 0503 22bd 3919 a63d
000003f0: e243 e03c 1b18 153e 2076 3cbd 6234 713d

ae.encoder.cov03.bias f4 [32]
-0.009715245 -0.002564819 -0.0027325314 -0.020854713 -0.0056933775 -0.0055864276 -0.0027539001 -0.020460885
-0.015708013 -0.0045039016 -0.0028617945 -0.046799857 -0.0073092533 -0.0023662879 -0.041230563 -0.0039865905
-0.0033257173 -0.01060569 -0.002898748 -0.00985799 -0.007982709 -0.007123656 -0.004256093 -0.003821228
-0.0026485682 -0.0049748723 -0.0037505764 -0.002614885 -0.0032172075 -0.001941797 -0.007452423 -0.009756858
00000000: b12c 1fbc 8616 28bb 4514 33bb 81d7 aabc
00000010: 838f babb 5a0e b7bb c77a 34bb 969d a7bc
00000020: 17ae 80bc 7795 93bb f28c 3bbb 35b1 3fbd
00000030: 7682 efbb b913 1bbb 61e1 28bd f2a1 82bb
00000040: 47f4 59bb 7dc3 2dbc ecf8 3dbb 6883 21bc
00000050: e9c9 02bc 8f6d e9bb b276 8bbb 916d 7abb
00000060: 9a93 2dbb 4104 a3bb 3bcc 75bb 7e5e 2bbb
00000070: c9d7 52bb e583 feba 7533 f4bb 3bdb 1fbc

ae.encoder.bn03.weight f4 [32]
1.0493908 0.8717212 0.8840651 0.97055393 0.8368795 1.0000061 0.8195743 1.2011745
1.1497778 1.0395294 0.92485875 0.8094194 0.8028109 0.90912217 1.0170579 0.87313586
1.1271831 1.0779314 0.88088745 1.0898868 1.0071285 1.047901 1.0634613 0.8563352
0.86728203 0.90869564 1.0564209 0.9075756 0.86712515 0.9015178 1.0412185 0.92062455
00000000: 7052 863f 1f29 5f3f 1752 623f 3976 783f
00000010: bc3d 563f 3300 803f 9fcf 513f 16c0 993f
00000020: eb2b 933f 4d0f 853f 8bc3 6c3f 1c36 4f3f
00000030: 0485 4d3f 3bbc 683f f42e 823f d585 5f3f
00000040: 8947 903f a8f9 893f d781 613f 6981 8b3f
00000050: 96e9 803f 9f21 863f 801f 883f c938 5b3f
00000060: 3206 5e3f 47a0 683f cd38 873f e056 683f
00000070: eafb 5d3f dfc9 663f a646 853f 0dae 6b3f

ae.encoder.bn03.bias f4 [32]
-0.18776776 -0.08926883 -0.0872749 -0.22040997 -0.18663083 -0.15232646 -0.16374406 -0.1891839
-0.19946371 -0.17962205 -0.11364735 -0.24883278 -0.2050284 -0.10976488 -0.23050192 -0.113319226
-0.15412761 -0.20753387 -0.13230616 -0.19989176 -0.18785298 -0.22491454 -0.070512585 -0.17251875
-0.09655181 -0.13899758 -0.07681237 -0.118725866 -0.18520643 -0.09315013 -0.19298321 -0.17153518
00000000: 3146 40be 94d2 b6bd 2fbd b2bd 27b3 61be
00000010: 271c 3fbe 78fb 1bbe 86ac 27be 6db9 41be
00000020: 3740 4cbe d8ee 37be f1bf e8bd 05ce 7ebe
00000030: f7f2 51be 69cc e0bd b208 6cbe e913 e8bd
00000040: a1d3 1dbe c283 54be 447b 07be 6db0 4cbe
00000050: 885c 40be ff4f 66be e768 90bd c1a8 30be
00000060: f5bc c5bd 6255 0ebe ce4f 9dbd 8c26 f3bd
00000070: c1a6 3dbe 7fc5 bebd 649d 45be eba6 2fbe

ae.encoder.bn03.running_mean f4 [32]
0.018302966 -0.3559043 -0.6156896 0.36991718 -0.31777567 0.49003732 -0.44660425 0.739145
0.12240446 -0.26455683 -0.8156968 -0.8657585 -0.77467513 0.20060885 0.52447546 -0.051494017
0.37562045 0.022201726 0.40694076 0.05264692 -0.40429777 0.1383718 0.86053246 -0.4335576
-0.42552698 -0.3646486 0.43484735 0.00870133 -0.641628 0.24170187 -0.061694443 -0.2672219
00000000: 1af0 953c 1739 b6be d59d 1dbf c965 bd3e
00000010: 7eb3 a2be 2ce6 fa3e 50a9 e4be 9b38 3d3f
00000020: 31af fa3d fe73 87be 81d1 50bf 59a2 5dbf
00000030: 1c51 46bf 686c 4d3e 0644 063f 64eb 52bd
00000040: 5351 c03e 65e0 b53c 8a5a d03e 4ca4 573d
00000050: 1e00 cfbe 56b1 0d3e db4b 5c3f 43fb ddbe
00000060: acde d9be 39b3 babe 50a4 de3e 0690 0e3c
00000070: bc41 24bf b280 773e 50b3 7cbd 4fd1 88be

ae.encoder.bn03.running_var f4 [32]
3.765798 6.292617 5.1989474 1.0775509 13.037641 4.400611 10.277453 2.4049993
3.1554766 4.10394 5.8047285 3.6904175 22.083395 6.1406965 1.1594701 8.108199
1.8298249 2.218685 3.7717621 4.7392797 5.477971 3.3657928 2.8136342 12.746767
7.552106 4.443802 2.5935767 9.336938 12.503198 7.9601746 5.57658 5.0699635
00000000: d602 7140 1e5d c940 c75d a640 30ed 893f
00000010: 2d9a 5041 ced1 8c40 7370 2441 82eb 1940
00000020: 54f3 4940 7a53 8340 56c0 b940 cd2f 6c40
00000030: cbaa b041 9680 c440 8469 943f 2fbb 0141
00000040: b437 ea3f effe 0d40 8d64 7140 2ea8 9740
00000050: 8a4b af40 2669 5740 9512 3440 c2f2 4b41
00000060: daaa f140 a033 8e40 29fd 2540 1964 1541
00000070: 190d 4841 c0b9 fe40 5873 b240 243d a240

ae.decoder.tr01.weight f4 [32, 64, 3, 3]
-0.019616688 -0.094956554 0.074576944 0.069714405 0.008385741 -0.03832921 0.010936897 0.000251958
-0.056325044 0.09495123 0.14457224 0.00998302 -0.110757604 0.11823222 0.125698 0.09105462
-0.1169071 -0.054227978 0.0325115 -0.030777805 -0.11765352 0.057249982 -0.0482494 -0.032793887
0.022816867 -0.009218538 -0.1329762 0.107574 0.15357408 -0.03582007 0.058025382 0.033159096
0.07925616 -0.03688485 -0.0712396 0.19959658 -0.004877478 -0.07872547 -0.03797303 -0.0036239356
-0.031589057 -0.035866767 0.046429675 -0.027042156 -0.19870031 0.074562095 0.057449773 0.034426276
0.1735141 -0.013794867 -0.043761376 0.08197588 -0.069023974 0.043060333 -0.027783962 0.10147877
0.13500445 0.04377656 -0.01789248 0.18575026 0.12892559 -0.0047863624 0.080802836 -0.007524419
-0.009807567 0.07224559 -0.173507 -0.06388791 0.037454344 -0.13749443 0.07401904 -0.1913271
0.013257034 -0.10884109 -0.014243837 0.09619485 0.020051736 0.016691016 0.1708185 0.042063035
0.04675013 0.07090004 0.015577714 -0.004185485 -0.1020097 -0.05808759 0.06696702 -0.027743574
-0.0069135823 0.034086417 -0.011013499 -0.002766332 0.0375175 -0.05405256 -0.06583716 -0.012360511
0.006925517 0.013302336 -0.020252598 -0.042682465 -0.04430966 0.1588521 -0.13268982 0.017946556
-0.03369682 -0.017161377 -0.05677497 0.016154418 -0.036468733 0.12710883 0.04159682 -0.037153102
-0.05731525 -0.14056735 0.014628416 -0.017884975 -0.082381554 0.11382339 0.013920629 -6.438879e-05
0.0708804 0.1263191 0.0882635 0.0968797 -0.0244092 -0.05788137 0.001890528 -0.21470203
0.0018056056 -0.058351316 -0.02310875 -0.103535555 -0.059418116 -0.029989433 -0.07370022 0.013549517
-0.011632776 -0.10528341 0.17013411 -0.035260282 0.023064466 -0.15028082 0.13110617 -0.15941317
0.044563994 -0.07278815 -0.07794713 0.0014177577 -0.07973861 -0.053745933 0.17285337 -0.12940182
-0.015296307 0.07760003 0.060957603 -0.03886666 0.045998927 0.11550468 -0.044507824 0.1620569
0.06465779 0.03605301 -0.025272889 0.20583752 0.018246332 0.0988327 0.053113412 -0.0063973637
0.14075564 0.015656626 0.0847794 0.034254547 0.09917509 0.03794735 0.08606976 -0.0010635903
0.0011525938 0.1348174 0.0018922887 -0.12673183 0.026314294 -0.049732793 0.018633034 0.002572518
-0.068471916 -0.0470026 -0.00961167 -0.023083355 0.08921827 -0.028049365 0.007981952 -0.066160284
-0.018345699 0.061517883 0.18185978 -0.03420618 -0.022620585 -0.0115396185 -0.040096276 0.01848824
-0.06905943 -0.0077102007 -0.19384265 0.02162474 -0.0047139185 0.05472725 -0.10745591 -0.1182461
0.12676719 -0.0038199546 0.044545986 0.01226088 0.12848231 -0.0020960327 -0.038272105 0.10018533
0.10750322 0.05584218 0.049087808 -0.10186136 -0.016738791 0.015758976 0.10622452 0.11014172
-0.0136821605 0.04933008 0.08701071 -0.033364084 -0.10092173 0.05726603 -0.022626454 0.06801989
-0.056142177 -0.062250987 -0.017214376 0.004637983 0.036228213 0.09085945 0.05138066 -0.079758555
0.06910294 0.17232597 -0.08382614 0.107784204 0.10495696 -0.0846433 0.15632302 0.01310043
-0.034940936 0.104123674 -0.047801115 -0.029991131 -0.058275666 0.024673697 -0.099608414 -0.015470716
00000000: 2db3 a0bc 9578 c2bd ccbb 983d 6dc6 8e3d
00000010: 5964 093c 17ff 1cbd ac30 333c 3b19 8439
00000020: 17b5 66bd ca75 c23d bf0a 143e d28f 233c
00000030: e2d4 e2bd bc23 f23d fab6 003e d87a ba3d
00000040: fd6c efbd 281e 5ebd c72a 053d bc21 fcbc
00000050: 54f4 f0bd f57e 6a3d 2aa1 45bd e252 06bd
00000060: 70ea ba3c 5a09 17bc ea2a 08be c24f dc3d
00000070: 8642 1d3e 11b8 12bd 06ac 6d3d d5d1 073d
00000080: 0e51 a23d 9214 17bd 11e6 91bd 0c63 4c3e
00000090: 40d3 9fbb d23a a1bd 9c89 1bbd 8d7f 6dbb
000000a0: 8763 01bd 08e9 12bd 0b2d 3e3d 8387 ddbc
000000b0: 1878 4bbe 03b4 983d 7450 6b3d 9102 0d3d
000000c0: aead 313e de03 62bc 213f 33bd f8e2 a73d
000000d0: 715c 8dbd 0860 303d 319b e3bc 1ad4 cf3d
000000e0: 9b3e 0a3e 0d4f 333d 4093 92bc 5135 3e3e
000000f0: 1205 043e ebd6 9cbb f57b a53d 678f f6bb
00000100: ebaf 20bc 7ff5 933d d2ab 31be aad7 82bd
00000110: ba69 193d 57cb 0cbe 4b97 973d 40eb 43be
00000120: 0834 593c 14e8 debd fc5e 69bc ce01 c53d
00000130: 8a43 a43c 99bb 883c 0beb 2e3e 4a4a 2c3d
00000140: 107d 3f3d 0a34 913d ab39 7f3c 6526 89bb
00000150: 76ea d0bd 41ed 6dbd 0126 893d 7e46 e3bc
00000160: 558b e2bb 339e 0b3d f771 34bc 594b 35bb
00000170: f3ab 193d 3866 5dbd a2d5 86bd be83 4abc
00000180: 73ef e23b 0bf2 593c c7e8 a5bc cfd3 2ebd
00000190: 0c7e 35bd 20aa 223e d7df 07be a804 933c
000001a0: ad05 0abd 0496 8cbc df8c 68bd 4556 843c
000001b0: 3d60 15bd d128 023e 6d61 2a3d da2d 18bd
000001c0: 65c3 6abd e3f0 0fbe 06ac 6f3c 8383 92bc
000001d0: a9b7 a8bd 3d1c e93d 5a13 643c 7808 87b8
000001e0: be29 913d cb59 013e 7ec3 b43d dd68 c63d
000001f0: cdf5 c7bc 0415 6dbd 98cb f73a d9da 5bbe
00000200: 12aa ec3a ca01 6fbd 904e bdbc 730a d4bd
00000210: 6960 73bd 66ac f5bc 24f0 96bd cbfe 5d3c
00000220: 6697 3ebc d49e d7bd a337 2e3e 166d 10bd
00000230: b1f1 bc3c 37e3 19be b240 063e 353d 23be
00000240: bc88 363d f411 95bd bfa2 9fbd 0ed4 b93a
00000250: ff4d a3bd b224 5cbd 7900 313e e981 04be
00000260: 5d9d 7abc c4ec 9e3d aeae 793d a632 1fbd
00000270: 5f69 3c3d b88d ec3d d64d 36bd 3ef2 253e
00000280: 4e6b 843d 52ac 133d 1709 cfbc 12c7 523e
00000290: 5579 953c cc68 ca3d 738d 593d faa0 d1bb
000002a0: 3f22 103e 5342 803c d2a0 ad3d 7f4e 0c3d
000002b0: 4f1c cb3d ae6e 1b3d 5845 b03d 2b68 8bba
000002c0: a112 973a 930d 0a3e ac06 f83a fdc5 01be
000002d0: 1391 d73c 9db4 4bbd 4ea4 983c b197 283b
000002e0: 013b 8cbd cc85 40bd 447a 1dbc 4e19 bdbc
000002f0: 11b8 b63d c8c7 e5bc bcc6 023c 0b7f 87bd
00000300: b849 96bc 2dfa 7b3d 7339 3a3e c81b 0cbd
00000310: ce4e b9bc ab10 3dbc fe3b 24bd a674 973c
00000320: 086f 8dbd daa5 fcbb b07e 46be 5e26 b13c
00000330: 3777 9abb ae29 603d d811 dcbd 032b f2bd
00000340: 42cf 013e 3458 7abb da75 363d dce1 483c
00000350: de90 033e 985d 09bb 36c3 1cbd f72d cd3d
00000360: a62a dc3d c5ba 643d 4c10 493d b09c d0bd
00000370: ca1f 89bc f818 813c 3e8c d93d fb91 e13d
00000380: 242b 60bc 570e 4a3d ac32 b23d c7a8 08bd
00000390: 0db0 cebd c98f 6a3d 1d5b b9bc 034e 8b3d
000003a0: 57f5 65bd e4fa 7ebd 2a05 8dbc 39fa 973b
000003b0: 0964 143d 8514 ba3d 8774 523d 7458 a3bd
000003c0: d885 8d3d 3876 303e 0aad abbd f7bd dc3d
000003d0: adf3 d63d 7759 adbd 2413 203e 30a3 563c
000003e0: 3a1e 0fbd cb3e d53d 1acb 43bd f6af f5bc
000003f0: 77b2 6ebd 7e20 ca3c 7fff cbbd e378 7dbc

ae.decoder.tr01.bias f4 [64]
-0.0002653134 4.7166763e-05 0.00012391694 2.406362e-05 9.638108e-05 -3.4392408e-06 -6.876662e-05 -7.904641e-06
1.9220957e-05 0.00012973031 -0.000119442135 7.275611e-05 4.648143e-06 0.00023270762 4.286239e-05 6.1927356e-05
4.746505e-05 -5.6550718e-05 2.9821358e-05 -9.788235e-06 9.5273484e-05 0.00014406904 -0.00019827891 0.00015843508
-0.00015083708 0.00012026642 -0.0002466241 1.0052362e-05 7.867707e-05 8.742789e-05 2.1397598e-05 -0.00049423776
0.00010924158 5.108043e-05 2.5769777e-05 -5.0494207e-05 0.00012404379 -0.00019238637 -0.0001470072 -0.00011015998
5.2086285e-05 -1.0958385e-05 0.0002545764 0.00013165952 3.843848e-05 -7.318833e-05 -9.0949776e-05 -0.000104120125
-0.00018785404 5.533952e-05 0.00013842071 0.00036751945 0.0006491177 -0.00034213095 -1.8411021e-05 -6.415653e-05
2.8661525e-06 0.0018368082 -8.86514e-05 0.00011209936 -5.1119423e-05 -0.000115496194 -6.7730825e-06 9.093895e-05
00000000: c319 8bb9 edd4 4538 b3ef 0139 3bdc c937
00000010: 3320 ca38 b5cd 66b6 cc36 90b8 2d9e 04b7
00000020: b13c a137 3708 0839 027d fab8 a494 9838
00000030: 3ff7 9b36 fa02 7439 24c7 3338 ffde 8138
00000040: 3615 4738 df30 6db8 e128 fa37 2638 24b7
00000050: 90cd c738 3d11 1739 17e9 4fb9 9821 2639
00000060: 052a 1eb9 8b37 fc38 544d 81b9 91a6 2837
00000070: 6eff a438 7e59 b738 fe7e b337 bc8f 01ba
00000080: a018 e538 323f 5638 2d2c d837 bec9 53b8
00000090: c011 0239 53bb 49b9 f225 1ab9 b005 e7b8
000000a0: 3977 5a38 e8d9 37b7 aa78 8539 150e 0a39
000000b0: 0139 2138 af7c 99b8 4abc beb8 115b dab8
000000c0: affa 44b9 5b1c 6838 0725 1139 a0af c039
000000d0: 8d29 2a3a 0a60 b3b9 5e71 9ab7 c68b 86b8
000000e0: 2058 4036 0ec1 f03a 5cea b9b8 e316 eb38
000000f0: 1069 56b8 8c36 f2b8 5644 e3b6 7ab6 be38

ae.decoder.rbn1.weight f4 [64]
0.99933296 0.9974786 0.99491876 1.0057459 1.01503 0.97241753 0.98910546 0.9794035
0.9825128 0.99673057 0.9801205 0.99454063 1.023272 0.97118855 0.9525686 1.003866
0.9962209 0.9915849 1.0086939 1.0088482 0.9869685 0.99334496 0.95667493 1.0522164
0.98095834 1.0199238 1.0163903 0.9958156 0.9912574 0.9661476 1.0137559 0.95337933
1.0102544 0.99416316 0.9723269 0.9966889 1.0327973 0.99703413 0.95974725 0.9820089
0.9780313 0.9858991 1.0201304 0.9944863 1.014383 0.9771588 0.97090954 0.9804718
0.99171436 0.98209125 0.9838037 1.083527 1.0635757 1.0912962 0.9938041 0.9789196
0.9563408 1.166741 0.987179 1.0046368 1.0154672 1.0774342 0.9743892 1.037602
00000000: 49d4 7f3f c25a 7f3f ffb2 7e3f 48bc 803f
00000010: 81ec 813f 5bf0 783f 0436 7d3f 30ba 7a3f
00000020: f585 7b3f bc29 7f3f 2de9 7a3f 379a 7e3f
00000030: 94fa 823f d09f 783f 89db 733f ae7e 803f
00000040: 5508 7f3f 82d8 7d3f e21c 813f f021 813f
00000050: f8a9 7c3f db4b 7e3f a6e8 743f 07af 863f
00000060: 1620 7b3f dd8c 823f 1419 823f c5ed 7e3f
00000070: 0cc3 7d3f 7355 773f c1c2 813f ab10 743f
00000080: 0450 813f 7a81 7e3f 6aea 783f 0127 7f3f
00000090: b432 843f a13d 7f3f ffb1 753f ef64 7b3f
000000a0: 4260 7a3f e263 7c3f a293 823f a796 7e3f
000000b0: 4dd7 813f 1427 7a3f 878d 783f 3300 7b3f
000000c0: fee0 7d3f 556a 7b3f 8fda 7b3f 03b1 8a3f
000000d0: 4023 883f 98af 8b3f f269 7e3f 7a9a 7a3f
000000e0: c0d2 743f c557 953f c3b7 7c3f f097 803f
000000f0: d4fa 813f 5de9 893f 9271 793f 24d0 843f

ae.decoder.rbn1.bias f4 [64]
-0.004964794 0.018487306 0.019409578 0.028142357 0.049886383 0.0048671756 -0.016915932 -0.026324999
-0.04072942 0.007744507 0.06417818 0.013752766 0.040171556 0.005477699 -0.006626072 -0.008775363
0.025914736 -0.027573807 0.0055042855 -0.0174244 0.017009478 8.2251565e-05 -0.071057804 0.08495781
-0.016374018 0.03754409 -0.044787865 -0.026709797 -0.013365157 0.011654091 0.010525584 -0.0015885199
0.029260121 0.0094802035 -0.005692933 0.01568122 0.021675343 -0.109493434 -0.051343672 0.01501711
-0.018016772 -0.01221133 -0.011257325 -0.013442513 0.034708343 -0.018235782 -0.018606445 0.0016651804
-0.06997304 0.007870779 -0.007071851 0.05084718 0.021086266 0.030300269 0.00822344 -0.012528837
-0.019813806 0.11443316 0.037290096 0.024093226 -0.0034876876 -0.045875907 -0.0562891 0.011432453
00000000: b6af a2bb b172 973c d600 9f3c cd8a e63c
00000010: aa55 4c3d d47c 9f3b 4893 8abc 86a7 d7bc
00000020: e4d3 26bd a2c5 fd3b da6f 833d 4853 613c
00000030: ee8a 243d 457e b33b 851f d9bb 8ac6 0fbc
00000040: 244b d43c 77e2 e1bc 4b5d b43b 9ebd 8ebc
00000050: 7657 8b3c 797e ac38 c186 91bd 5cfe ad3d
00000060: ce22 86bc d5c7 193d 7b73 37bd 81ce dabc
00000070: 88f9 5abc cdf0 3e3c 8073 2c3c e235 d0ba
00000080: ecb2 ef3c db52 1b3c c98b babb e775 803c
00000090: 7d90 b13c 183e e0bd be4d 52bd 530a 763c
000000a0: e997 93bc 0812 48bc a570 38bc fc3d 5cbc
000000b0: 562a 0e3d 3563 95bc 8b6c 98bc 2f42 da3a
000000c0: 064e 8fbd 71f4 003c fcba e7bb 2245 503d
000000d0: 1bbd ac3c 4538 f83c 9bbb 063c c045 4dbc
000000e0: 9050 a2bc ef5b ea3d 80bd 183d 285f c53c
000000f0: b091 64bb 60e8 3bbd 668f 66bd 2f4f 3b3c
