checkpoint/teacher_checkpoint.pt (torch, 514610 bytes, 32 tensors)

ae.encoder.cov01.weight f4 [64, 103, 1, 1]
000000 43 9a dc bd c4 f8 04 3e 45 94 9b bd 66 6b 25 3d
       -0.107716106 0.12985522 -0.075966395 0.040385626
000010 30 35 46 3e 2c 9a 22 bd ec ee 22 3e 16 2b 80 bc
       0.19356227 -0.03969781 0.15911454 -0.015645545
000020 3b df 96 3d 54 1b 8d 3e 51 a6 73 ba 00 00 1c bb
       0.073667966 0.27559912 -0.00092944974 -0.002380371
000030 1b b3 16 3e a7 b7 14 3e ab 33 10 bc 63 dd 88 3d
       0.14716761 0.14523183 -0.008801381 0.06682851
000040 90 67 32 bd 45 0b aa bb d7 bd 9c 3e 23 05 23 be
       -0.043555796 -0.0051893317 0.30613586 -0.15919928
000050 4b ce a3 bd 11 ed 2a 3e a9 c4 90 be 8f 31 e0 3e
       -0.07998332 0.16691996 -0.2827504 0.4378781
000060 17 14 2a be c8 99 06 be 98 2a b7 bd 9e 45 59 be
       -0.16609226 -0.131446 -0.08943671 -0.21217963
000070 d2 ef cf bc 0d 80 89 be 8b e1 dd bd 84 bb d3 3d
       -0.02538291 -0.26855507 -0.108340345 0.103385
000080 f4 ff a7 be 16 b2 d2 3a e3 fb 6d be b9 a3 99 3e
       -0.32812464 0.0016074802 -0.23240618 0.30007723
000090 ea fd 6f be 6a 85 86 3d fa 33 13 bd 02 ca 89 3d
       -0.23436704 0.065684155 -0.03593824 0.06727983
0000a0 42 96 ca be f2 9b 84 3c ba 56 68 3d ee 60 12 3d
       -0.39567763 0.016187642 0.056723334 0.03573697
0000b0 4c 54 84 3c f4 ab 56 3e b5 82 08 3c 62 f0 f3 3d
       0.016153477 0.20964032 0.008331944 0.11911084
0000c0 40 ed 8d bd ae 0e bd 3e 3e 92 46 3e b4 e0 bd 3c
       -0.069300175 0.36925262 0.19391724 0.023178436
0000d0 bf 5c 2b 3e 92 38 69 bc f1 8f 17 3e 7e c6 a7 bd
       0.16734599 -0.014234679 0.14801003 -0.08192156
0000e0 1a 62 20 bc 9a 7d a2 be 35 ac 9d be 40 82 31 bd
       -0.009789014 -0.3173645 -0.30795446 -0.043337107
0000f0 39 77 89 be 53 c4 07 3e 23 42 57 3c b1 84 5e 3d
       -0.26848772 0.13258485 0.013138327 0.054325763
000100 a1 b3 9e bd 35 8f 97 bc 4a cb 5a be af b8 19 3e
       -0.07749105 -0.018500904 -0.21366611 0.15011857
000110 1f 33 27 bc a6 89 66 bd 88 eb 49 3e 6a c8 4f bf
       -0.010205059 -0.056283616 0.19718754 -0.8116518
000120 95 00 bc 3d 4d a3 09 bf c3 80 51 3d 72 38 90 bd
       0.091797985 -0.537648 0.051148187 -0.07042016
000130 64 7e dc 3d da fd 92 3e 87 02 12 bd 8e a5 c6 3d
       0.107662946 0.28709298 -0.03564694 0.09699546
000140 73 5e cf 3d 38 76 62 bd 21 18 32 bc d9 0a f8 bd
       0.10125437 -0.055288523 -0.010870011 -0.12111444
000150 46 14 f1 3d 81 a0 07 be 87 d0 13 3e d6 0d 5b bd
       0.11771445 -0.13244821 0.14435016 -0.05347999
000160 00 a3 ae 3d 0a 42 1e 3d 7d 4e 80 be db 87 e0 3d
       0.085271835 0.0386372 -0.25059882 0.109634124
000170 2e 3a 73 3d 12 47 71 be 59 92 0d be d6 7c 9b 3d
       0.059381656 -0.23562267 -0.13825358 0.0759217
000180 8a d8 0a 3e cb b6 e3 bb d0 8c 81 be a3 28 8b 3d
       0.13559166 -0.006949281 -0.25302744 0.0679486
000190 33 0c 1e 3e 94 f9 7f bd 3e cc 0f be 36 c6 67 3e
       0.15434341 -0.062493876 -0.14042756 0.22634205
0001a0 a0 7f 36 be d0 ef 93 bd df a5 ad 3c 6a ff 56 bd
       -0.17822123 -0.07223475 0.021197258 -0.052489676
0001b0 86 2a 2c be 25 c7 b6 bb 41 d9 32 bd e1 08 6c be
       -0.16813096 -0.005577939 -0.04366422 -0.23050262
0001c0 3e 6e 74 3e 22 29 95 bd e4 9b 66 3e 0d b7 9d 3d
       0.23870179 -0.07283236 0.22520405 0.0770093
0001d0 a6 06 38 3e 84 2a 37 3e 47 aa d0 3d 85 9c ef 3e
       0.17971286 0.17887312 0.10188728 0.46799102
0001e0 4b 36 a3 be 4f c9 e5 3e 4a 55 e5 be 4c 12 53 bb
       -0.3187736 0.4488015 -0.44791633 -0.003220695
0001f0 ea b5 9f be be e3 c8 3d c7 9c df 3c aa 71 29 3e
       -0.31193477 0.098090634 0.027296437 0.16547266
000200 a3 59 52 bd 34 9f a6 3e df 26 d5 bc da 0f 89 be
       -0.051355015 0.32543337 -0.026019512 -0.26769906
000210 7d 69 b7 bd 97 51 9e 3d 7b 7f 80 3e 5c bc 59 3d
       -0.08955667 0.07730406 0.2509726 0.05315815
000220 54 c0 ab bd ca e0 a0 3e 5e f0 2a bd 28 66 7f be
       -0.08386293 0.314215 -0.04173314 -0.24941313
000230 43 0a f2 bb 0f 1b 29 3e 02 9b e5 3c 8a 0d 33 be
       -0.007386477 0.16514228 0.028028015 -0.17485633
000240 12 3d dd 3d eb ad eb 3e 60 bf 34 3e ce 9f 59 3c
       0.10802664 0.46031126 0.17651129 0.013282729
000250 8b ea 6d 3d 71 7b cf 3d bb 82 0f 3e 25 25 65 3e
       0.058085006 0.101309665 0.14014713 0.22377451
000260 5d 85 c4 bd 62 8e fb 3d 10 46 65 be 58 82 cd bc
       -0.095957495 0.12283017 -0.22390008 -0.025086567
000270 ba d6 f4 bd 64 ca 61 3e 7f f7 b4 bd 60 30 bc 3e
       -0.11955018 0.22049862 -0.08836269 0.36755657
000280 1c aa 58 3e 56 27 3b be cb 77 23 3c 34 32 88 3d
       0.21158642 -0.18276724 0.009977291 0.066502005
000290 6e 54 05 bd cf f0 8f 3d 46 15 dd 3d 33 34 07 3e
       -0.03255122 0.070283525 0.10795073 0.13203506
0002a0 b2 08 35 bd d0 7a 36 3b 84 30 8f 3d 5a e2 11 bc
       -0.044197746 0.0027844198 0.069916755 -0.008904064
0002b0 59 03 0b bd 7a 6d 16 bd c9 f0 27 bd 41 5a 19 bd
       -0.03393874 -0.0367255 -0.041001115 -0.03743959
0002c0 ee 01 34 bd 1f 1a be bc 31 7f ce 3c 7f 2e 8e 3d
       -0.043947153 -0.023205815 0.025207134 0.06942462
0002d0 73 28 38 be 4b b5 32 3d 58 00 b7 be 75 b9 e4 3d
       -0.1798418 0.043629926 -0.3574245 0.111681856
0002e0 ae 2a 05 be d3 2f 7f be 17 9f 87 3b 58 34 82 bd
       -0.13004562 -0.24920587 0.004138838 -0.0635764
0002f0 88 74 01 3e 50 a3 08 3e 1b 28 7d bc 94 62 85 3b
       0.1264211 0.13343549 -0.015451456 0.0040705893
000300 28 78 86 be d8 58 7d 3e e6 7c 48 bd d0 34 e8 bc
       -0.26263547 0.24740922 -0.048947237 -0.028345495
000310 a0 11 a4 bd f8 a2 90 bd 82 da 0f be c4 8a 18 bf
       -0.08011174 -0.07062334 -0.14048198 -0.5958674
000320 a7 1a da bd c1 88 07 bd e1 97 da 3d d4 9e b2 be
       -0.10649615 -0.033089403 0.106735 -0.348868
000330 53 bd 5c be 5c a3 8f bd 46 55 ad 3c 3f d4 a4 3d
       -0.21556596 -0.0701358 0.021158826 0.08048295
000340 1c e9 80 be ef e7 a1 be 73 97 27 be 94 1f ed bd
       -0.25177848 -0.31622264 -0.16366367 -0.11578289
000350 2c d1 5b be 26 0d c2 3d 30 0e e0 3d 63 f6 6f 3d
       -0.21466511 0.09475164 0.10940206 0.058584582
000360 79 6b 9f bd 82 7e f6 3e f4 da 63 be 62 b4 f6 3d
       -0.07784171 0.48143393 -0.22251493 0.12046124
000370 43 72 13 3e fc f4 c4 bc e0 ed 6f 3e 7f 03 2b be
       0.14399056 -0.024042599 0.23430586 -0.16700552
000380 d8 25 17 3d b7 f3 d5 bd c6 c8 11 be f0 d2 4b bd
       0.036901325 -0.104468755 -0.14236745 -0.049761713
000390 1c a9 d9 bb f3 a2 2a 3e c8 75 88 3c 35 f3 64 3d
       -0.006642474 0.16663723 0.016657725 0.055896003
0003a0 e3 68 53 bd a1 57 35 3e 57 f2 eb bd c7 7a 7d 3e
       -0.0516137 0.17709209 -0.11520832 0.24753867
0003b0 e6 2e 77 bc 1d d1 fc bd af 27 18 3e 89 b8 45 3e
       -0.015086865 -0.12344573 0.14858888 0.19308676
0003c0 d3 bd be 3d c6 0e a3 3e 6e d9 0a be d3 57 a8 bd
       0.0931355 0.3184721 -0.13559505 -0.08219876
0003d0 c4 c6 0b 3d c7 d5 b6 ba 8a 6c 46 3c 3a 46 ea bc
       0.034125105 -0.0013949209 0.012110839 -0.02859794
0003e0 c4 79 1d 3e 50 5f 84 3e b8 cb 23 3e c0 c0 05 3e
       0.15378481 0.25853968 0.15995681 0.1306181
0003f0 b8 9f 86 be e5 c1 e4 bd 4c 0e ae bd f8 4b f9 bc
       -0.2629373 -0.11169795 -0.08498821 -0.030431733

ae.encoder.cov01.bias f4 [64]
000000 d7 90 98 3b 5f 68 a3 3b ec 23 b7 b9 a2 6a b6 3b
       0.004655938 0.0049868072 -0.00034931244 0.005566911
000010 93 77 9b bb 00 02 da 3b 0d fb e6 3a d6 dc e2 3b
       -0.004744479 0.0066530704 0.0017622426 0.0069232984
000020 36 86 87 bc da a3 91 bb ab 48 55 bb 01 ce 5d bc
       -0.016543489 -0.0044445815 -0.0032544534 -0.013537885
000030 99 56 0d 3c 3a 37 d5 3a 06 09 50 3b 11 fc 12 b8
       0.0086266035 0.0016267069 0.003174366 -3.5043868e-05
000040 2e 45 42 3c 1b 2f 94 bb bc 91 dd ba a6 f1 bb 3b
       0.011857314 -0.004522217 -0.0016904394 0.005735594
000050 35 5b 29 3b 82 75 4c 3c fc 5a 56 3c a8 8d 8a 3b
       0.0025841717 0.012479188 0.013083216 0.0042283125
000060 8c d4 37 3b 5c 75 15 bc 03 c3 1c 3b 54 e0 de b9
       0.0028050272 -0.009122219 0.0023919947 -0.00042510277
000070 68 4b 2a 3b 1d d0 c2 3a 81 d5 4d 3b b7 06 c1 3a
       0.0025984887 0.0014863048 0.0031407776 0.0014726733
000080 f3 6d 86 bb 70 76 bb 3a 3e 7a 28 bb af e4 75 3b
       -0.0041024624 0.0014302265 -0.0025707628 0.003752034
000090 28 79 ca b9 a6 74 ae 3b a4 59 b7 bc 53 17 bc 39
       -0.0003861871 0.005323964 -0.022381611 0.00035875532
0000a0 ff d5 60 3c bd c3 08 3b 17 4b 8b bc de bc a8 3a
       0.013722896 0.0020868622 -0.017003579 0.001287367
0000b0 14 82 aa 3b 00 05 84 3b 13 c9 2f bc 18 77 b8 3b
       0.005203495 0.0040289164 -0.010729092 0.0056294315
0000c0 8f 2e 17 3c f9 bd f2 3b cf 59 2b 3a 63 22 94 bb
       0.009227409 0.0074079004 0.0006536515 -0.004520701
0000d0 ec 53 6b bc 8d 6f 9e 3b f3 5c 23 ba 4e 1c d2 ba
       -0.01436327 0.0048350752 -0.0006231807 -0.0016030164
0000e0 db 33 58 bb 80 b6 12 bb 4c ff e6 bb 22 96 7b 3b
       -0.0032989893 -0.002238661 -0.0070494767 0.0038389047
0000f0 df 73 2f 3b e7 09 8f 3b dd bb a3 3b 9d c3 13 b9
       0.0026771945 0.004365194 0.0049967603 -0.00014091884

ae.encoder.bn01.weight f4 [64]
000000 d4 11 81 3f d9 44 7f 3f 3f 8a 6f 3f 74 6f 79 3f
       1.0083566 0.9971443 0.9357032 0.9743569
000010 c6 b1 7f 3f 51 86 80 3f 37 05 7a 3f 81 be 84 3f
       0.99880636 1.004099 0.9766421 1.0370637
000020 ee 2d 84 3f 13 a5 76 3f a4 b2 79 3f 69 a5 88 3f
       1.0326517 0.96345633 0.9753821 1.0675479
000030 38 69 7b 3f e2 26 81 3f ae 21 86 3f ed e3 7c 3f
       0.98207426 1.0089991 1.0479028 0.9878529
000040 ed 3a 7f 3f 0b c5 7a 3f 8a b1 7a 3f 70 a2 7d 3f
       0.9969929 0.97956914 0.97927153 0.99075985
000050 6a c1 7f 3f 6e 15 83 3f 8d b7 7c 3f 94 a5 82 3f
       0.999045 1.0240915 0.98717576 1.020678
000060 2d ae 7f 3f e5 9b 81 3f c4 3d 77 3f 3d 9f 7b 3f
       0.99875146 1.01257 0.9657862 0.98289853
000070 39 12 82 3f bb ce 80 3f e8 ac 78 3f 59 58 7e 3f
       1.0161811 1.0063089 0.97138834 0.9935356
000080 40 13 76 3f 0e 98 82 3f 70 c8 76 3f e1 d6 7b 3f
       0.96123123 1.0202653 0.96399593 0.98374754
000090 3e ba 7f 3f 45 7e 83 3f fa ef 80 3f d1 32 73 3f
       0.9989356 1.0272909 1.0073235 0.94999415
0000a0 d8 e1 85 3f 40 18 78 3f 04 32 84 3f 35 7d 82 3f
       1.0459547 0.96912 1.0327764 1.019446
0000b0 00 cd 76 3f b8 81 78 3f e2 92 75 3f b9 8f 83 3f
       0.96406555 0.97072935 0.9592725 1.0278236
0000c0 1f 21 70 3f 3f 26 78 3f bc dc 81 3f dd bf 7d 3f
       0.9380054 0.9693336 1.0145488 0.99120885
0000d0 74 9d 87 3f 58 7b 80 3f 95 b7 79 3f 0d de 74 3f
       1.0594926 1.0037642 0.9754575 0.9565132
0000e0 85 c1 7e 3f 86 17 8b 3f 2c f3 81 3f e5 4a 72 3f
       0.9951404 1.0866554 1.0152335 0.9464553
0000f0 39 08 7d 3f 3d 61 77 3f 35 bb 77 3f c2 40 7b 3f
       0.9884067 0.9663275 0.9677003 0.9814569

ae.encoder.bn01.bias f4 [64]
000000 77 e5 e1 3c 6b 97 3d bd bd 74 0a bd 7f bc 5f be
       0.027575238 -0.04628698 -0.033802737 -0.2184925
000010 6c 83 a5 bd 20 4b 90 bd a5 ac c6 bd b9 bc 81 be
       -0.08081707 -0.07045579 -0.09700898 -0.25339296
000020 b1 03 0d 3e 19 9b 3f 3c d2 df 7a 3c dc 4f 63 3c
       0.1377094 0.011694693 0.015312152 0.01387402
000030 6a ed 2c be 1b d0 40 3d 08 66 d5 bc 1f 23 f5 3b
       -0.16887441 0.047073465 -0.026049629 0.0074809934
000040 27 f3 08 be 8c a0 60 bd e3 a9 95 bd 57 65 4a 3d
       -0.13374005 -0.05484061 -0.07307794 0.04941305
000050 40 13 bb bc 40 0c 7f bd 48 e8 61 3d e6 36 68 3c
       -0.022836328 -0.062267542 0.05515316 0.014173245
000060 5a c1 c5 bc 11 7b 26 3e 8d 8a 1b be 72 a6 4e 3d
       -0.024140049 0.16257884 -0.15189572 0.050451703
000070 08 b3 65 be f1 d8 a5 bc 76 4a b6 bc 56 b8 6a 3d
       -0.22431576 -0.020245047 -0.022252303 0.057304703
000080 72 37 2a bc fb 07 bb 3c 8d b8 cc 3d 0f de 11 3d
       -0.010389196 0.022830954 0.09996138 0.035612162
000090 fb ca c7 bd 2b 30 0d be 42 3b 05 3e f9 ef 17 bc
       -0.09755512 -0.13787906 0.13010886 -0.0092735225
0000a0 ae 60 12 bd ef 63 71 bd f1 39 6c 3d b8 1e 9e bc
       -0.035736732 -0.058933195 0.057672445 -0.019301757
0000b0 10 a1 46 be f0 23 6f bd 4d 31 bc 3d 6e 2b 58 bd
       -0.19397378 -0.058383882 0.09189091 -0.052775793
0000c0 b3 4f 13 3d f5 43 2a 3c 86 30 17 3d c1 c4 96 3c
       0.03596468 0.010392179 0.03691151 0.018404366
0000d0 09 67 17 bd 0f 2a 50 3d 4f 4b 3c 3c 66 c0 07 3e
       -0.036963496 0.05082136 0.011492564 0.13256988
0000e0 a5 01 82 bd 15 46 13 3d a8 67 a3 3c 0b 32 75 3c
       -0.0634797 0.035955507 0.019946888 0.014965544
0000f0 66 65 ba bd 37 ef 46 3b 71 7a 3e 3c 74 9c 84 3d
       -0.091013715 0.0030354986 0.011625872 0.064751536

ae.encoder.bn01.running_mean f4 [64]
000000 da d6 34 3c 40 fa 0d bd f5 39 b2 bb ca c8 ca 3a
       0.011037553 -0.034662485 -0.005439038 0.0015471217
000010 51 23 57 bc 7c b2 9f 3c 94 20 29 bc a8 7a b2 3b
       -0.013130979 0.019494288 -0.010322709 0.0054467507
000020 b8 05 9b bc 63 57 22 3d 4a 8a 1c 3d ba 8e e4 bc
       -0.018923625 0.03963412 0.03821782 -0.027900089
000030 ac 00 5e 3c 86 92 2a 3c fe 80 89 bb 45 87 d5 3c
       0.013549965 0.0104109105 -0.0041962853 0.026065478
000040 17 d0 93 ba a7 1e f2 ba 97 a5 92 3c be 78 9c bc
       -0.0011277226 -0.001847227 0.017901225 -0.019100543
000050 21 99 0e 3d 57 25 60 3b db 5c 86 3c ca 05 c9 bc
       0.034814004 0.0034201944 0.016401699 -0.024538893
000060 d7 58 61 3c b1 6e 90 bc 54 3b 36 3c ee a3 4a bc
       0.013754091 -0.017630907 0.011122543 -0.012368185
000070 e5 2e 1e 3c f7 ef ba bc a5 d3 70 3c 31 ff 46 3a
       0.009654735 -0.022819502 0.0146988975 0.0007591127
000080 f5 76 32 3c fd 41 ff b8 44 58 f8 bc 64 07 34 3a
       0.010892619 -0.00012171639 -0.030315526 0.00068675564
000090 6d 1d b5 3c 7c cd 41 3a 45 d4 e1 bc eb bb fc 3b
       0.022108758 0.0007392985 -0.027567038 0.0077128313
0000a0 48 9a 25 3c fb 7d 6f bc 43 55 3b bc 88 28 83 bc
       0.010107584 -0.014617438 -0.011433902 -0.016010538
0000b0 e0 cc 4d 3c c6 9d 0e bd 98 56 2f 3c 23 e6 99 3c
       0.012561053 -0.034818433 0.010701798 0.018786496
0000c0 e8 4c 32 3c bc 48 1b 3b 02 cf 33 3d 79 54 67 bb
       0.010882594 0.0023694476 0.04389859 -0.0035298152
0000d0 af 5e e1 bc 49 18 86 3c c5 3e b9 bc c7 cd 08 bd
       -0.027510969 0.016369002 -0.022612939 -0.03339937
0000e0 0e 7a a5 bc a6 28 1a bc 45 c7 6f bc 45 40 ae 3b
       -0.020199802 -0.009409105 -0.014634912 0.00531772
0000f0 39 53 5d bc 23 9e 3d 3d 2a 04 14 3b 54 da b1 3b
       -0.013508611 0.04629339 0.002258549 0.005427638

ae.encoder.bn01.running_var f4 [64]
000000 2c d3 c7 3f d7 e4 35 41 36 1b b7 3f 15 f4 d3 3e
       1.561132 11.368369 1.4305179 0.41397157
000010 f9 74 fc 3e 9d 2b b9 3f b9 7a 16 41 e3 f2 63 3e
       0.49307993 1.4466435 9.404962 0.22260623
000020 85 bd 8c 3f 8a b0 77 41 37 5c 62 41 97 3b c6 3f
       1.0995337 15.4806 14.147513 1.5486935
000030 ce b0 5e 40 7f bd 1a 3f db ed 08 3f c3 c5 ac 40
       3.4795413 0.604454 0.5348794 5.399141
000040 21 1a b1 3f da 3a bb 3e 44 0c 4c 40 69 be 9d 40
       1.3836099 0.36568338 3.1882486 4.9294934
000050 49 5f d8 40 3d 33 e9 3f ce 86 6b 3f 2c a1 b1 40
       6.7616315 1.8218762 0.9200257 5.5509243
000060 0a 3c 51 40 2a bd ed 3f fc cf 4a 3f 87 19 d9 3f
       3.2692895 1.8573353 0.7922361 1.6960915
000070 ee 5e 1f 40 94 20 92 40 bf 78 29 40 56 f8 64 40
       2.490169 4.566477 2.6479948 3.5776572
000080 88 66 c8 3f ae 9a 72 3e 32 df 91 40 71 13 2f 40
       1.565629 0.23691818 4.5584955 2.7355616
000090 ae a4 3c 40 c8 76 2e 3f 5f 69 45 3f 3b 81 79 40
       2.9475513 0.68149996 0.7711391 3.8985126
0000a0 a8 c2 4c 3e 6f d2 fb 3f e0 ca 98 3f 7a 4a 18 40
       0.1999613 1.9673594 1.1936913 2.3795457
0000b0 b1 19 d1 3e 4e 7d 0b 41 47 8b d5 40 77 ed 24 40
       0.40839913 8.718092 6.6732516 2.5769937
0000c0 76 ea 90 40 78 f1 42 40 59 9c 51 41 03 5e ac 3f
       4.5286207 3.045988 13.100671 1.346619
0000d0 2f d8 14 40 e0 83 fd 3f 04 cc 45 40 1e a1 04 41
       2.3256948 1.980587 3.0905771 8.289335
0000e0 f1 c4 26 40 ce 00 01 40 8e 5d e7 3e 9a 71 ec 3f
       2.6057703 2.015674 0.45188564 1.8472168
0000f0 9e e7 c4 3f 76 2a 58 41 ce 99 a4 3f 4a 5e 59 3f
       1.5383184 13.510366 1.2859437 0.849095

ae.encoder.cov02.weight f4 [64, 64, 3, 3]
000000 de 3c be 3b bd 2e 44 3c 0a 2a 48 bd c5 53 5d bd
       0.005805596 0.011974034 -0.048868217 -0.054034967
000010 2f 1c ce bb 36 c9 88 bd 8b 78 dd 3b 69 45 30 3d
       -0.006289981 -0.06679003 0.0067587546 0.043034945
000020 4b 95 c5 bd 3a d9 fd bc c6 a5 14 bd b9 80 3f 3d
       -0.09647616 -0.03098737 -0.036290906 0.04675362
000030 b1 ed 9d 3d ac c7 0e 3b 5c a3 ad bb 77 5f 86 3c
       0.07711352 0.0021786494 -0.005299015 0.016402943
000040 0b 95 03 3d de 6b 8f 3d ba 85 c2 3d ff c1 03 3d
       0.03212456 0.07002996 0.094981626 0.03216743
000050 fa af cd 3c bd 1b 89 bb 6e 19 64 bc a6 75 c4 bc
       0.025108326 -0.004184215 -0.013922079 -0.02398188
000060 68 e9 48 bd 6a de 57 bd dc 35 c5 bd bd b8 12 3d
       -0.04905072 -0.052702345 -0.096294135 0.03582071
000070 d0 53 8d 3d 9e 08 41 3d a5 e3 ba 3b c0 11 90 bc
       0.069007516 0.04712736 0.005703407 -0.017586589
000080 fe 03 52 bd d5 29 13 be 7c 83 a5 3c 39 16 40 bd
       -0.05127334 -0.14371426 0.020204298 -0.046896193
000090 ca 25 5a bd f3 ea 1c bd 83 10 11 bd 12 04 29 3d
       -0.053258695 -0.038310003 -0.035416137 0.041263647
0000a0 9b d6 10 bd ad bd bd bd f9 7c ba bd a7 d1 3f bc
       -0.035360914 -0.092646934 -0.09105868 -0.0117077
0000b0 58 3d 95 bc 6e 1e b9 3b 32 3a 91 bb 3b d8 06 bd
       -0.018217728 0.0056493795 -0.0044319862 -0.032921057
0000c0 60 61 f2 3c 41 b9 1d 3e 59 f5 34 3c fa c0 38 3d
       0.029587448 0.154027 0.011044824 0.04510591
0000d0 72 ee ab bb c6 5c dd 3c d6 7f 8d bc f1 53 a9 3d
       -0.0052469308 0.027021777 -0.017272871 0.08267964
0000e0 af 57 26 bc 8d d3 37 bd ac 61 00 bd f3 2f 10 bd
       -0.010152741 -0.044879485 -0.031343147 -0.035201978
0000f0 54 4d c8 bb b6 7d c7 3d 1d 99 f9 bc 0a 53 16 3b
       -0.006112734 0.09740774 -0.030468518 0.0022937679
000100 fc 0c 90 3d f1 e8 5c bd 5c 0c c7 3c 99 97 c6 3d
       0.070337266 -0.053933088 0.024297886 0.09696884
000110 71 ff f9 3c 75 08 0c be 75 7d b9 3d 1e fa 64 bc
       0.030517312 -0.13675101 0.09057132 -0.013975648
000120 7f cf 83 bd da 79 7e bb de c5 1e 3d 91 d9 97 3d
       -0.06436061 -0.0038829953 0.03876292 0.074145444
000130 c0 fc 3a 3d a1 6d af 3d c5 45 37 3d a6 21 2b 3d
       0.045651197 0.08565832 0.04474427 0.041780137
000140 43 2e 93 3d 98 dc ed bc 3c 2f 8b 3d c4 10 d9 3a
       0.07186558 -0.029035851 0.067961186 0.0016560783
000150 9f cd 2f 3d 8f 24 10 3d 44 86 57 bd 9a 13 64 bd
       0.042920705 0.035191115 -0.05261828 -0.055682756
000160 e2 d1 51 bd 59 d2 8e 3d f3 7c 83 bd 33 c1 e1 3b
       -0.05122555 0.069737144 -0.064203165 0.006889486
000170 0e 01 10 bc b6 f2 3b bd 0b fd 98 bc 59 d4 33 bd
       -0.008789314 -0.045885764 -0.018675348 -0.043903682
000180 93 89 f4 3c cd 04 bd 3b c1 aa be bc b1 6a 73 bd
       0.029850757 0.0057683946 -0.023274781 -0.05942792
000190 63 40 04 3d 64 e6 b5 bd 28 d4 a9 bc 06 f8 00 be
       0.032287966 -0.08881834 -0.020731047 -0.12594613
0001a0 4d 3e 9b 3c 5b 79 95 bd 2f a4 5e bd f0 cd 8b 3d
       0.018950606 -0.07298537 -0.054355796 0.06826389
0001b0 fd 50 2a bd 81 12 d5 39 49 b7 a8 3d 76 c1 39 39
       -0.041581143 0.00040640312 0.08238084 0.00017715045
0001c0 80 61 49 bd 3c e1 82 bd 2d e3 00 3c d9 d2 8b 3d
       -0.04916525 -0.06390616 0.007866663 0.068273254
0001d0 93 8b 01 bd 13 06 bf bc e4 70 9a 3d e3 d4 eb bb
       -0.03162725 -0.023318326 0.075410634 -0.007197009
0001e0 2e 80 a2 bd dd f3 e4 bc 57 ba 9b 3d 1c 19 9b bc
       -0.079346046 -0.027948314 0.07603901 -0.018932872
0001f0 25 5c c0 3d 13 4e 09 be b6 6d f5 bc 52 e2 40 bd
       0.09392575 -0.13408689 -0.02995954 -0.047090836
000200 9e 2e 5d 3d a4 19 05 bd 12 10 16 3d f4 6a 35 bd
       0.053999536 -0.032495156 0.03663642 -0.04429145
000210 b7 1e d6 39 46 d3 7c bc d1 01 ea bd d6 67 be 3d
       0.00040840145 -0.015431231 -0.11426128 0.09297149
000220 98 56 7e bc f7 3d 73 3c 57 1d 34 3d 74 9a 65 3c
       -0.015523575 0.014846317 0.043973293 0.014013875
000230 30 dc b7 bd 06 1c 15 bc 40 e6 10 3d 8f ff 8b 3d
       -0.08977544 -0.00910092 0.035375834 0.06835853
000240 e0 5e a2 bd 03 ac 0c 3d d8 73 3d bd c0 8f 13 3c
       -0.07928252 0.03434373 -0.046253055 0.009006441
000250 1b df 9c ba 31 31 99 bc 40 78 13 3e aa 8b 46 bc
       -0.0011968346 -0.018700214 0.1440134 -0.012118259
000260 4e 29 eb 3c 78 05 8d b9 2a 05 8e bc 0e 3a 6c bd
       0.028706219 -0.0002689769 -0.017336447 -0.057672553
000270 42 30 45 bd c1 e7 fc 3c 9c e3 a6 3c 31 6f 9d 3c
       -0.048141725 0.030872228 0.020372204 0.01921806
000280 df 92 fd bd 0f 4f 89 bc b1 06 9a 3d bf 03 3c 3d
       -0.12381529 -0.01676133 0.075208075 0.04590201
000290 83 21 73 bc 01 66 22 3d eb 5c f1 3b e9 83 10 3c
       -0.014839533 0.03964806 0.007365813 0.008820512
0002a0 39 b5 f1 3d af ec 77 3c 94 c4 89 3d 21 f8 fa bc
       0.118021436 0.015132113 0.067269474 -0.030635895
0002b0 29 00 11 3c 2e 0f c6 bb 58 a4 00 3c 2d db 5d 3d
       0.008850136 -0.00604429 0.007851683 0.0541641
0002c0 3a 58 cb 3d 37 1d c2 3d f8 e0 f4 bd fd 31 12 3d
       0.09928937 0.094782285 -0.11956972 0.035692204
0002d0 fc a4 33 3e 45 e4 69 3c 5c 28 0b bd 59 2d a6 3d
       0.17543405 0.014275615 -0.033974037 0.08114118
0002e0 55 1c 22 bc 48 72 21 bd 52 56 06 bd a9 76 34 bc
       -0.00989445 -0.039415628 -0.032797165 -0.011014619
0002f0 4a 56 fa 3d 6a 41 c2 bc f7 f4 e5 3c 15 5d fc bc
       0.122234896 -0.023712832 0.02807091 -0.030806104
000300 3e 1a f9 3c e0 8a fd 3d f5 4c 82 3d 23 4e e4 bd
       0.030408021 0.12380004 0.06362335 -0.11147716
000310 fb ca 9f 3d 3a d7 23 3c ed a1 25 3d 2c 08 2e bd
       0.07802387 0.0100000445 0.040437628 -0.042488262
000320 f6 39 5f 3d cb 75 54 3d ef 10 85 bd f7 9a fd 3b
       0.054498635 0.05187015 -0.064973705 0.0077394205
000330 1b 02 28 3d 15 38 4d 3d 45 4a 81 3d a4 c2 a2 3d
       0.041017633 0.050102312 0.06312994 0.07947281
000340 b6 21 81 3d 29 d2 e4 3d fd a1 c0 3c 7b 86 58 3d
       0.06305258 0.11172897 0.023514742 0.052862626
000350 44 c7 10 bd e0 bf 15 bd 61 76 37 3e 46 59 02 3d
       -0.035346285 -0.03655994 0.17916252 0.03182342
000360 7b 2c 5a bc ae db da bc 19 6b 24 3c bb 02 06 bd
       -0.013316269 -0.02671608 0.0100353 -0.032717448
000370 ab ff 57 bd 2d b4 9c 3d a9 02 32 be 2a 43 b7 3d
       -0.05273406 0.07651553 -0.17383827 0.089483574
000380 4b c3 bb bc ae 49 8c bd 70 c4 1b bd 43 ae 9d bd
       -0.022920271 -0.06849991 -0.038029134 -0.076992534
000390 7b 86 5f bc a9 59 82 bc ee 5c 0d 3d 23 7d 53 3c
       -0.0136429025 -0.015911894 0.034512453 0.012908253
0003a0 22 cd 80 bd 35 cb 30 bd 57 62 94 3c 8a 10 f8 3c
       -0.06289126 -0.043162543 0.018113298 0.030281324
0003b0 50 73 96 3d 01 69 b2 bd 55 45 81 bc bd 11 13 bd
       0.07346213 -0.08711434 -0.01578013 -0.03590559
0003c0 ac b7 98 bd 25 a8 7c bd 90 68 e8 bc ec 7c 86 bd
       -0.07456908 -0.061683793 -0.028370172 -0.06566796
0003d0 e5 03 b5 3b 71 8c cb 3c 62 cf e2 3d be 94 f8 3d
       0.005524146 0.024847241 0.110747114 0.12137745
0003e0 5f e1 a7 3d a6 9e 8d 3d b9 12 8a 3c 0d 31 9c 3d
       0.08197283 0.069150254 0.01685463 0.07626543
0003f0 6f e7 b3 3c 9c db c2 3d b6 9a 24 3d a1 6b 0c bd
       0.021960942 0.095145434 0.040186606 -0.03428233

ae.encoder.cov02.bias f4 [64]
000000 c2 f7 11 3b 45 f0 98 3b 3a d8 fc 3b f4 45 f8 ba
       0.002227292 0.0046673142 0.007716206 -0.0018941746
000010 dc a6 0a 3c 35 9e 12 ba 20 f2 07 ba cd 69 85 3a
       0.008462634 -0.00055930327 -0.0005185921 0.0010178626
000020 fe da ac ba 31 d1 9c 3c 33 8b 79 ba 9b 0f 4f 3b
       -0.0013187823 0.019142719 -0.00095193385 0.0031594995
000030 af 16 4c 3c ea c0 55 3b 18 56 38 3a e6 b3 0c 3c
       0.01245658 0.0032616206 0.0007031872 0.008587813
000040 15 bf 44 38 46 80 d0 3b b4 e7 0f 3c 85 77 e3 bb
       4.6908e-05 0.0063629476 0.00878327 -0.006941738
000050 89 bf c5 3b 54 fb 12 bc 52 2c ed 3a 48 d7 42 3c
       0.0060347957 -0.008971054 0.0018094874 0.011892147
000060 b3 52 b3 3b c2 5e 0d bc b9 d6 4f 3b 7b 4a bb 3b
       0.005472505 -0.008628549 0.0031713678 0.005715666
000070 88 6f cc bb b9 41 2c bc c5 9a ae 3c 88 46 c2 3b
       -0.0062388815 -0.010513716 0.021314034 0.005928818
000080 08 05 34 ba 15 a8 17 3c 0a e9 b2 3b ce 96 51 bb
       -0.0006867205 0.0092563825 0.0054599093 -0.0031980756
000090 fd fd 26 3b 2d e8 9d 3b 6c 13 3c 3b 59 af 3d 3b
       0.0025480979 0.0048189373 0.00286981 0.0028943627
0000a0 f2 6e 73 3b 95 c8 63 bb e1 d1 00 3c 8a 35 80 bb
       0.0037144986 -0.0034757007 0.007862539 -0.0039126324
0000b0 ea ae b9 3b 97 51 b2 bb 2f 6b 9d bb bf c2 23 3c
       0.0056666033 -0.005441855 -0.004804037 0.009995162
0000c0 af c8 87 3b 53 cf 96 3b a1 0b 07 ba f4 fa 36 3b
       0.0041437964 0.0046023517 -0.0005151574 0.0027920576
0000d0 d0 a2 d2 3b fd 50 f2 3a 5d 86 ce 3b c1 ae ce 3a
       0.0064281 0.0018487271 0.0063026384 0.0015768633
0000e0 c0 ff ad 3b d8 f0 7f 3c 2c 35 69 bb 85 b2 79 3b
       0.005310029 0.0156213865 -0.0035584671 0.003810079
0000f0 21 e1 cf 3b e5 1e 8d bb d5 e3 ba 3b 1f c8 a9 3b
       0.006343976 -0.0043066614 0.005703429 0.005181327

ae.encoder.bn02.weight f4 [64]
000000 68 4e 85 3f 7c 93 76 3f ce 78 83 3f 61 ac 6f 3f
       1.0414553 0.96318793 1.0271242 0.93622404
000010 0c 2f 8f 3f a2 6e 81 3f 32 2c 6f 3f 0c d8 87 3f
       1.1186233 1.0111887 0.9342681 1.0612807
000020 36 53 79 3f f9 7d 68 3f 11 a7 6e 3f 6c b5 70 3f
       0.97392595 0.9081722 0.93223673 0.9402683
000030 f0 2d 78 3f 5b 74 75 3f 1c 22 6b 3f bb a1 88 3f
       0.96945095 0.9588067 0.9184892 1.0674356
000040 15 95 7a 3f e2 96 7e 3f a6 d6 74 3f 3c cb 71 3f
       0.9788373 0.9944898 0.9564003 0.94450736
000050 c5 11 93 3f f8 7f 7a 3f e3 a4 77 3f cb b4 81 3f
       1.1489798 0.97851515 0.9673597 1.0133299
000060 19 e7 80 3f 2f 10 82 3f a9 89 70 3f 78 2a 7f 3f
       1.0070525 1.0161189 0.9396005 0.9967418
000070 ff 1a 87 3f 6d 94 78 3f e1 5d 82 3f 54 be 6f 3f
       1.0555114 0.9710148 1.01849 0.9364979
000080 4f 3a 73 3f 22 0b 7b 3f 58 0c 76 3f 7b b8 81 3f
       0.95010847 0.9806386 0.96112585 1.0134424
000090 ff aa 77 3f af dc 77 3f 11 74 73 3f 12 b5 6f 3f
       0.96745294 0.9682111 0.9509898 0.93635666
0000a0 4c c7 7c 3f f3 98 83 3f cf 89 77 3f 86 d7 7b 3f
       0.987416 1.0281051 0.96694654 0.9837574
0000b0 06 d7 80 3f 78 f0 7b 3f d1 a1 7f 3f e4 8e 78 3f
       1.006562 0.984138 0.9985629 0.97093034
0000c0 dc 2b 69 3f 90 12 6a 3f 21 8c 73 3f 40 47 66 3f
       0.9108255 0.91434574 0.95135695 0.8995247
0000d0 69 68 7a 3f 8f e0 80 3f cb 32 78 3f ac 49 84 3f
       0.9781557 1.006853 0.96952504 1.0334983
0000e0 db bd 81 3f 71 f2 a4 3f 97 8e 72 3f 9a f8 80 3f
       1.0136064 1.2886487 0.94748825 1.0075867
0000f0 0f 6b 7b 3f 06 08 78 3f 25 a9 91 3f d0 95 81 3f
       0.98210233 0.9688724 1.1379744 1.0123844

ae.encoder.bn02.bias f4 [64]
000000 49 1f bf bd 2b b6 81 ba 65 53 50 bd b2 9c 91 be
       -0.09332139 -0.0009896209 -0.05086078 -0.28439862
000010 22 83 cd bd c9 9f a0 bb fc d5 0a 39 b3 0f 23 be
       -0.10034777 -0.0049018604 0.00013240421 -0.15923958
000020 82 a7 2e 3d 8c 6d a4 bd 8b 4b 4a bd 67 92 00 be
       0.042640217 -0.08028707 -0.04938845 -0.12555848
000030 a1 36 9a be 83 47 4d be de bd 37 be 58 82 23 be
       -0.30119804 -0.20046811 -0.17943522 -0.15967691
000040 f1 0c 9c bd f0 d1 19 3d cc 70 c0 bd 5c a2 4a bc
       -0.07619656 0.037553728 -0.09396514 -0.012367811
000050 a9 fc 4d be 45 3e b1 3b b5 49 a2 bd 1d 57 1b be
       -0.20115913 0.0054090344 -0.07924215 -0.1516995
000060 a5 d2 7e bd 50 22 3d be 4f 65 49 be 16 14 6e 3d
       -0.062212605 -0.1847012 -0.19667552 0.058124624
000070 a6 97 cd bc 91 7c 1b be dd a8 4f be eb e0 bc 3c
       -0.025096726 -0.15184237 -0.2027926 0.023056468
000080 17 f4 f4 bd e5 c3 26 be 7a 5a 6a bd 44 e9 8b bd
       -0.11960619 -0.16285665 -0.05721519 -0.06831601
000090 e9 ce 0b bd fd ec 3b be d5 3b aa bd 26 25 b8 bd
       -0.03413287 -0.18352123 -0.08312193 -0.089914605
0000a0 39 a4 2c be c6 6a 55 3c 94 cb 50 be b0 81 98 bc
       -0.16859521 0.013025945 -0.20390159 -0.018616527
0000b0 7a 89 05 be c3 38 ed bc 30 64 69 3c 0d 6e 49 be
       -0.13040724 -0.02895773 0.014245078 -0.19670887
0000c0 23 fb 36 3c cb 00 20 be 22 54 8b bd 78 69 2f be
       0.011168274 -0.15625302 -0.068031564 -0.17130077
0000d0 e8 b3 47 be 92 b9 55 3c 4a b2 f8 bc dd 43 59 bc
       -0.19502223 0.013044732 -0.030358452 -0.013260809
0000e0 75 36 f6 3c c7 b5 83 be ec bf 21 bd 43 cd 80 bd
       0.030055264 -0.25724623 -0.03948967 -0.062891506
0000f0 df 77 78 bd 56 be 35 bd b8 ae 12 bd 46 95 2d be
       -0.060661193 -0.04437097 -0.035811156 -0.16951475

ae.encoder.bn02.running_mean f4 [64]
000000 38 e5 a8 3c f8 05 24 bf e2 8b 76 3e e0 21 41 3e
       0.020617113 -0.6407161 0.24076799 0.18860579
000010 32 6a 89 3e 53 5d 62 be 05 b6 0a bf e9 09 85 be
       0.26838833 -0.22105913 -0.5418399 -0.25984123
000020 1b ab 9c bf 73 78 fa be 41 8c 68 bf b0 28 e6 be
       -1.2239717 -0.4892002 -0.9083901 -0.44952917
000030 1d 08 db bc 3f 64 28 3f 97 04 9e 3f e0 77 e6 3e
       -0.026737267 0.65777963 1.2345151 0.45013332
000040 23 77 c4 3e 66 42 3d bf a7 6e 8e 3f fd cd d0 bf
       0.38372144 -0.7392944 1.1127518 -1.6312863
000050 b8 3a 2e 3e ee 90 b2 bf 97 57 5c 3f b2 c7 28 3e
       0.17014587 -1.3950479 0.8607115 0.16482428
000060 67 0c 28 3e b8 92 85 bb 14 ef 4d bf c6 91 07 c0
       0.16410981 -0.004076328 -0.8044293 -2.1182723
000070 dc e5 65 bb 69 36 c7 3e 5f 5d 71 3f 50 3f 39 3f
       -0.0035079634 0.389087 0.942831 0.7236223
000080 18 70 2c 3e f3 45 2c bf 9f cd 8d be 7f 51 36 3f
       0.16839635 -0.67294234 -0.2769594 0.71218103
000090 9b 75 a1 bf af ca 5e be 35 d4 0f bf 76 17 f5 3e
       -1.2614015 -0.21757005 -0.5618318 0.47869462
0000a0 25 ae 7c 3f ce 38 fa be ce 0b c2 3e 2f de 3a bf
       0.98703223 -0.48871464 0.3789963 -0.72995275
0000b0 3c 6d 4e 3f 6d 81 c3 bf db 80 7b bf 82 87 cf 3e
       0.8063543 -1.5273873 -0.9824349 0.40533072
0000c0 62 b7 f4 be e5 96 5d 3f f9 76 11 3f 21 09 2a 3e
       -0.4779616 0.8655837 0.5682216 0.16605045
0000d0 47 2a 89 bd 3e c3 09 c0 6b 14 79 be 5e 1e 00 3f
       -0.06697517 -2.1525416 -0.24324195 0.50046337
0000e0 19 c8 09 c0 c0 7a 8b be b8 3c 55 3f ff 97 36 3e
       -2.152838 -0.27242088 0.83295774 0.1783142
0000f0 35 52 5e bf c9 37 70 3f 0e cd 17 bf 06 c9 88 3f
       -0.8684419 0.9383512 -0.59297264 1.0686347

ae.encoder.bn02.running_var f4 [64]
000000 eb e5 45 3f b6 57 7b 40 16 a8 41 3f 80 86 55 3f
       0.7730395 3.9272285 0.75647104 0.83408356
000010 ef 89 6b 3f 46 da 1c 40 37 4b 92 3f 13 f2 7c 3f
       0.92007345 2.4508224 1.1429204 0.98806876
000020 d9 8b 3b 40 c2 b1 9d 3f 91 74 82 3f 8b ad f8 3f
       2.9304106 1.2319872 1.0191823 1.9427961
000030 3b a1 5b 3e 1b 1c 44 3f 1f 13 29 40 da 3f db 3f
       0.21448223 0.76605386 2.641792 1.7128861
000040 cd b2 ed 3f 96 4b 59 40 b1 50 05 40 0c f1 9d 40
       1.8570191 3.3952384 2.08305 4.9356747
000050 68 f2 20 3f 3a 56 8b 40 87 90 a8 3f f5 72 1b 3f
       0.6286988 4.3542757 1.3169106 0.60722286
000060 f4 19 2a 3f fc e4 3f 3f db 60 bf 3f fa 1d ef 40
       0.6644585 0.7495878 1.4951433 7.4724092
000070 3d dc 7d 3f 0d 87 05 3f ca 1c ab 3f 1a e4 d7 3f
       0.9916418 0.52159196 1.3368161 1.6866486
000080 28 56 a3 3f 55 85 1e 3f 4c c3 f7 3f 27 ab 48 3f
       1.2760668 0.619222 1.9356475 0.7838616
000090 09 f4 b9 3f 83 0f b7 3e fc 91 58 3f 50 53 ac 3f
       1.4527599 0.35754022 0.84597754 1.3462925
0000a0 c5 be 7d 3f c4 10 94 3f 63 f4 cc 3e 53 ea 10 40
       0.99119216 1.1567616 0.40030202 2.264302
0000b0 1a f4 92 3f cc 9e 55 40 e5 40 af 40 53 0c d9 3e
       1.1480744 3.3378172 5.4766717 0.42392215
0000c0 8e f9 8f 3f c5 bd b2 3f c3 5e 22 40 ff df f2 3e
       1.1248033 1.3964163 2.5370338 0.4743652
0000d0 5d 6f bf 3e 8a dc 73 40 44 89 be 3f a9 e8 32 40
       0.3738965 3.8103356 1.488564 2.7954504
0000e0 c6 83 aa 40 da 5c fc 3f 0f 42 52 3f cc aa 2c 3f
       5.3285856 1.9715836 0.8213205 0.67448115
0000f0 9d 94 82 3f 9f ac 0a 40 5e 90 fd 3f bf da b9 3f
       1.0201603 2.166786 1.9809682 1.4519881

ae.encoder.cov03.weight f4 [32, 64, 3, 3]
000000 ea 24 c0 bd 73 ad 37 3e f8 5b ba bc 58 ef ee bc
       -0.09382041 0.1793726 -0.022748932 -0.029166862
000010 3d eb 11 bc fc 02 d6 3d 18 76 2d 3d 6c 7e 51 3e
       -0.008906183 0.10449788 0.04234895 0.20458382
000020 bb e1 f5 3c 6d d2 f1 3d 3e da a2 3d ba 3c 0b bc
       0.030014863 0.11807714 0.07951783 -0.008498365
000030 4f 9c bf bd e5 f3 0a 3c 95 48 e0 3c b4 9d 1d bc
       -0.093559854 0.008481001 0.02737836 -0.009620119
000040 6c f7 09 bd 1e 77 04 bd d0 bb 2a bd 68 3c 56 3d
       -0.033683226 -0.03234016 -0.04168302 0.0523037
000050 b2 19 ed bd fd b5 2d be 99 c9 c6 3d 90 1a 1f 3e
       -0.115771666 -0.16963954 0.097064205 0.15537477
000060 ce 21 3c 3d b8 9b bd 3d 17 86 4e bb 37 05 15 bd
       0.045930676 0.092582166 -0.003151303 -0.036381926
000070 14 04 02 3e b6 a5 98 bb f9 6e 06 bb 1f b3 fc 3d
       0.12696868 -0.004658426 -0.0020512922 0.12338852
000080 75 75 92 3d 07 5d b9 3d 17 88 a4 bd 78 00 04 3e
       0.071513094 0.09050947 -0.080337696 0.12890804
000090 ae 27 4e be 29 7c 9e bd 3c b4 9b bd 8f 4d f1 bd
       -0.20132324 -0.077385254 -0.07602736 -0.11782371
0000a0 1f 74 3f ba 0e 01 b2 bc b7 8e 90 be ba 9d aa be
       -0.0007303375 -0.021729019 -0.28233883 -0.3332346
0000b0 32 39 56 be d3 23 63 bd 05 35 32 3d 2e 77 64 bd
       -0.20920256 -0.055454087 0.043507595 -0.05577772
0000c0 6f 65 8d 3b 3c 68 af 3d 45 b2 48 be 1e 26 15 3e
       0.0043150703 0.08564803 -0.19599254 0.14565322
0000d0 67 aa 52 be 04 54 0c be 69 d6 66 bd 55 68 bb bc
       -0.20572816 -0.13703924 -0.05635682 -0.022876898
0000e0 4a a6 10 bd 66 e5 88 3c 4f c9 9f bd f8 66 1b bd
       -0.035314836 0.016710948 -0.078020684 -0.037939996
0000f0 1a 66 c8 3d 58 c9 6c 3d 69 7a ec 3b be c9 1d bd
       0.09785099 0.057809204 0.007216741 -0.038522474
000100 9b 7e 25 be 7a 83 f1 bd 95 19 df bd 7e 78 72 be
       -0.16161577 -0.11792655 -0.10893551 -0.23678777
000110 a0 48 da bd de 55 8c bd fe a2 03 be cb b0 2d bd
       -0.10658383 -0.06852315 -0.12855145 -0.04240493
000120 1b c8 de 3d 1d 64 03 3e 93 59 79 3d e7 94 92 3d
       0.10878011 0.12831159 0.06087644 0.07157307
000130 70 b4 39 3e 3e 01 46 bd 86 fc 17 3c b1 42 cf bd
       0.18135238 -0.04834103 0.009276515 -0.10120142
000140 4a 5e 02 3e ce 84 36 bd 8d b2 6c 3d ec 68 ae bd
       0.12731281 -0.044560246 0.057787467 -0.08516106
000150 2a d8 5d 3d 8f 40 0b 3e fb 1a 1b 3a 92 5d ec bd
       0.05416123 0.13598846 0.0005916801 -0.115412846
000160 35 12 2c bd 03 7b c1 bc 22 1f 54 3d b3 99 3b bd
       -0.04200955 -0.023618227 0.051787503 -0.045800876
000170 91 88 a0 3c 44 5b 3f bd 28 21 00 3d 9d c7 a8 bc
       0.01959637 -0.046717897 0.03128162 -0.020602996
000180 89 4d 4c 3c bf 95 b3 bb 62 30 94 3d 1e 6b c2 3d
       0.012469658 -0.0054804976 0.07235791 0.09493087
000190 94 5c b5 bb 72 39 03 bd 48 23 93 bd 6f 53 c6 3d
       -0.005534718 -0.032037206 -0.07184464 0.096838824
0001a0 31 8e 5b 3d ad 95 b1 3c ac 2b a9 3b db 5a 3b 3d
       0.0536024 0.021677816 0.005162677 0.045740943
0001b0 a9 23 fd 3d 33 6d 19 3d a8 2b a9 3c e3 ea 9e bd
       0.12360317 0.037457656 0.0206507 -0.07759645
0001c0 c9 84 40 b9 0e 53 8d 3d a7 93 a1 bd fb 71 04 3e
       -0.00018360013 0.06900607 -0.078894906 0.12934105
0001d0 c4 ba 84 bd 4d f2 f0 ba 89 11 9d 3d 8f a2 09 3e
       -0.06480935 -0.0018382758 0.0766936 0.13440917
0001e0 7a 1e a5 3d 63 e9 7f bd 54 ed 5a bd 15 da 9e 3d
       0.080624536 -0.062478434 -0.05344899 0.077564396
0001f0 64 41 b9 bd 5e 74 27 3e 93 06 fb 3c 26 37 c7 bd
       -0.090456754 0.16352984 0.030642783 -0.097273156
000200 37 8a 84 3b 75 ee f1 bc ec b7 14 3e c5 39 e2 bd
       0.004044797 -0.02953265 0.14523286 -0.11046175
000210 4b 16 ce 3d d3 10 36 bd 8b 98 10 3d e8 3f 2e 3b
       0.10062846 -0.04444964 0.035301726 0.0026588384
000220 a5 04 7e bc 03 62 88 bd a9 84 73 bd 70 26 71 be
       -0.015504037 -0.06659319 -0.059452686 -0.23549819
000230 97 9d 4e be 52 05 47 be 26 f3 66 be 3d 95 27 be
       -0.20177303 -0.19435623 -0.22553691 -0.16365524
000240 63 72 d4 3c a0 3e 16 3c 42 b1 0a be 17 55 e6 3c
       0.02593345 0.009170204 -0.13544181 0.028116746
000250 de 3f be bd 68 d4 87 be 13 f3 d3 bc 9c 5f 7b bd
       -0.092895254 -0.2652924 -0.025872743 -0.061370477
000260 36 cd b4 bd 46 aa be bc 28 45 89 bd 04 28 a6 bc
       -0.088282034 -0.023274552 -0.06702644 -0.020282753
000270 cb 2f 2b 3e 5c 3e c2 3d 7a 12 5a 3d bd 2a c6 bd
       0.1671745 0.0948455 0.053240277 -0.096761204
000280 44 83 3d bd 10 79 f2 bd 0f 89 bd bd 0d d0 e7 bc
       -0.046267763 -0.11839497 -0.092546575 -0.028297449
000290 c6 df 22 bd de 96 44 bd d6 a0 ec 3c e0 58 b5 3d
       -0.03976419 -0.04799544 0.028885286 0.08854842
0002a0 82 fc ae 3d c7 a0 5b bd e7 5f 48 b8 9e 6d 5f bd
       0.08544256 -0.053620126 -4.7773032e-05 -0.0545479
0002b0 14 fe 02 bd 1a 2c 12 bd d7 00 74 bd 0e 82 8a 3c
       -0.03198059 -0.03568659 -0.059571113 0.016907718
0002c0 00 2a 97 bc fb 2b 85 3d af ec c2 bd 59 1c fd bc
       -0.018452644 0.06502529 -0.095178 -0.030897306
0002d0 c8 10 4b bd 0a 09 28 3c 2c b8 df bd 71 57 e4 bd
       -0.04957655 0.010256061 -0.109238 -0.111494906
0002e0 5a cb 33 3c cf 7a 23 be 88 ba 1d be 20 4f 1a 3b
       0.010973776 -0.15964817 -0.15403187 0.0023545697
0002f0 9b cd 54 be 5d 4c d1 bc e0 4e 01 be 51 09 24 bd
       -0.20781557 -0.025549108 -0.12627745 -0.040047947
000300 27 08 18 be e5 d8 21 bd 23 e1 1b bd 71 57 97 3d
       -0.1484686 -0.039513487 -0.038056504 0.07389725
000310 e3 c8 85 bd d4 93 a7 bd 1e 11 33 3d 05 e4 94 3d
       -0.06532457 -0.08182493 0.043717496 0.07270054
000320 85 1c 76 3c ae 5d 0b bd c7 b8 3e bd ab 3d e7 bc
       0.015021448 -0.034024887 -0.046562936 -0.028227648
000330 4f d0 1e 3d 21 f6 b7 ba d3 61 32 bc 63 ab bd bd
       0.038772877 -0.0014035144 -0.010887581 -0.09261205
000340 db 36 d8 bd 2f cf 18 bc 3a 12 6d bd 48 5f f5 bd
       -0.10557338 -0.00932674 -0.05787871 -0.11981064
000350 c0 ec 62 bd 3c 89 c8 bd 07 14 18 be d4 0b c9 bd
       -0.055401564 -0.097918004 -0.1485139 -0.09816709
000360 23 ee 75 bd 34 77 cf bd 9c 22 ce bd 88 20 52 3c
       -0.060041558 -0.10130158 -0.10065195 0.012825139
000370 e4 08 fe 3c a4 87 5e bd 97 da 33 3c 29 3d 09 bd
       0.031010099 -0.054328576 0.010977409 -0.033505592
000380 b7 2a 82 3d f4 12 a2 bc 44 a8 ab bd 4c 11 91 bd
       0.063558035 -0.019784428 -0.083817035 -0.07083377
000390 11 34 3e be f3 40 80 39 72 c2 16 be d5 3f 44 bd
       -0.1857455 0.00024462453 -0.14722613 -0.047912437
0003a0 bc 8a 8d bd 8f ea db bb 9d 03 c5 3d 54 0d 65 3c
       -0.06911227 -0.006711311 0.0961983 0.013980228
0003b0 e3 67 a9 3c d8 79 78 bd 05 48 56 bd 0d 8d 8c 3d
       0.02067942 -0.060663074 -0.052314777 0.06862841
0003c0 17 ae ed 3b fd c0 cc bd 38 9a 7e 3c 9c 98 4c 3d
       0.007253419 -0.09997747 0.015539698 0.049950227
0003d0 43 7e 02 3d 70 f7 36 bd ac 9c 0f 3e 57 fe e7 3c
       0.031858694 -0.04466957 0.1402461 0.02831952
0003e0 05 9c d5 bd 26 a6 ee 3c 62 d3 72 bd 33 04 59 bd
       -0.10430149 0.02913196 -0.05928362 -0.05298252
0003f0 aa a3 31 3b d6 e7 8f be 99 7f 0a be ab 3d b5 bd
       0.0027105608 -0.28106564 -0.13525237 -0.08849653

ae.encoder.cov03.bias f4 [32]
000000 82 5a a6 3b 8d 70 9b 39 a7 b9 d9 3a 50 4d 8b 3b
       0.0050767073 0.0002964776 0.0016611115 0.0042511597
000010 0e c7 8f 3c 76 f1 d7 3a 44 f2 8f 3d 2f fc d0 36
       0.017550971 0.0016475159 0.070286304 6.228241e-06
000020 87 db 2a 3b 6f a5 75 3b 04 d0 2f 3c 27 31 d5 3b
       0.002607079 0.003748264 0.010730747 0.0065061036
000030 2e b9 3e 3a ca 69 dc 3c c6 23 74 3b 6b 33 34 3c
       0.0007275519 0.026905913 0.0037252768 0.010998587
000040 ea f1 9b 3b 16 56 13 3b d5 10 0f 3c af 98 ed 3b
       0.004759063 0.002248173 0.00873204 0.0072508673
000050 e0 22 dd 3c 1b 05 56 3b 04 46 a8 3b d0 34 73 bb
       0.026994169 0.0032656852 0.0051352996 -0.0037110336
000060 80 82 af 3b 91 63 ed 3c ef b1 84 3b 79 03 bd 3d
       0.005356133 0.028978141 0.0040495316 0.09229178
000070 ce d2 d6 3b ef e8 e2 3c 08 67 7a 3d f6 6f 96 3d
       0.0065558916 0.027698962 0.061133415 0.073455736

ae.encoder.bn03.weight f4 [32]
000000 11 e1 2f 3f 8a 50 32 3f fc f9 5d 3f f1 9f 52 3f
       0.687028 0.6965414 0.8670957 0.822753
000010 44 ad 52 3f c4 2c 6e 3f 07 d3 80 3f 21 d1 2a 3f
       0.8229563 0.93037057 1.00644 0.66725355
000020 f5 5b 4e 3f 73 61 47 3f c3 aa 55 3f 6a 32 4d 3f
       0.80609065 0.7788307 0.83463687 0.8015505
000030 29 69 84 3f 09 7e 4a 3f 41 59 31 3f 17 b9 35 3f
       1.0344592 0.79098564 0.69276816 0.7098555
000040 30 a8 42 3f f0 3f 47 3f 2d 08 52 3f 4e 1d 47 3f
       0.76037884 0.77831936 0.82043725 0.7777909
000050 82 28 5b 3f 9a c7 36 3f fc 56 5a 3f 8b 7c 49 3f
       0.85608685 0.7139832 0.8528898 0.7870566
000060 ee 55 4b 3f d8 54 46 3f a8 66 56 3f 9d 80 46 3f
       0.79427993 0.7747321 0.8375039 0.7754
000070 78 9a 4f 3f 9e 03 41 3f a8 45 76 3f 6e 79 5b 3f
       0.81095076 0.75396144 0.96200037 0.8573216

ae.encoder.bn03.bias f4 [32]
000000 86 e3 27 be 26 1f 77 bc ae e8 84 bc 43 6d 8e be
       -0.16395387 -0.01508311 -0.016224232 -0.27817735
000010 54 fb 83 be 9c 1f f7 ba 59 27 3b bf 47 43 2a be
       -0.25777686 -0.0018854025 -0.73106915 -0.16627227
000020 83 a1 c9 be 77 9c af bb 21 00 81 be 63 1f ca be
       -0.39381036 -0.0053592282 -0.2519541 -0.3947707
000030 7c 09 88 bc b8 9b e8 be 02 84 0d be e9 09 51 be
       -0.016606085 -0.45431304 -0.13819888 -0.20413937
000040 59 81 c1 be 17 80 78 be a3 2d 78 be a0 4b 93 be
       -0.37793997 -0.24267612 -0.24236159 -0.28768635
000050 8b f5 b4 be bd 1e 3b be 8d 43 cb be fc 0f 1d be
       -0.35343584 -0.18273444 -0.39699975 -0.15338129
000060 47 c3 a8 be d6 76 f4 be 76 a7 87 be 03 c9 2e bf
       -0.32961485 -0.47746915 -0.2649495 -0.6827547
000070 fe e6 6f be a5 ee d8 be 1c cb 1b bf 47 b2 23 bf
       -0.2342796 -0.4236957 -0.60856795 -0.63943905

ae.encoder.bn03.running_mean f4 [32]
000000 be ff 02 c0 c1 b9 83 be 7a fb 2d 3d 7f 65 bd be
       -2.0468593 -0.25727656 0.042476155 -0.36991498
000010 65 46 aa 3c e0 2b 77 3e 85 e0 18 3f f2 56 03 c0
       0.02078552 0.2413783 0.5971759 -2.0521817
000020 0a 61 82 bf bf a1 f9 3d 0c 8f ad bf 5f 1a 95 bf
       -1.0185864 0.12189054 -1.355928 -1.1648673
000030 91 c5 b6 3e 41 f6 71 3e 3a 23 83 bf 4e 3a 1c c0
       0.35697606 0.23629095 -1.0245125 -2.4410586
000040 9e 4a dd bf ca bc d6 bd 87 fb 31 c0 9b ce 29 c0
       -1.7288396 -0.104852274 -2.780977 -2.6532352
000050 7b a3 34 bf 65 51 12 c0 bb 05 18 bf 01 6a a9 bf
       -0.7056195 -2.286218 -0.59383744 -1.3235475
000060 8f b7 57 bf cf 84 66 be e5 2e 78 be 7b 6e 18 bc
       -0.84264463 -0.225116 -0.24236639 -0.009303684
000070 5b 91 0b c0 0c 43 11 bf cf 63 02 be d3 79 90 bd
       -2.1807468 -0.5674293 -0.12733386 -0.07054486

ae.encoder.bn03.running_var f4 [32]
000000 a7 59 de 42 15 36 9a 41 f3 fc c5 41 cd 20 8e 41
       111.1751 19.276407 24.74851 17.766016
000010 7c f1 be 40 53 a6 18 42 59 9a 0a 3f a8 a5 c4 42
       5.966978 38.162426 0.54141766 98.32355
000020 04 f0 a8 40 23 87 fb 41 3e cf d3 41 bf 9b 93 41
       5.279299 31.440985 26.476192 18.451048
000030 15 ce 10 42 e9 2d b5 3f 40 1c 0f 42 ed eb 5f 42
       36.201252 1.4154636 35.777588 55.980396
000040 6d 92 b5 41 2c 4a ca 41 17 e2 1e 43 f9 f6 46 42
       22.696497 25.286217 158.88316 49.741184
000050 a7 79 e5 40 43 99 93 42 79 be 41 41 c1 a3 62 42
       7.1711 73.79934 12.109002 56.659916
000060 c7 a8 5b 41 e7 f4 a6 3f 64 6b 8e 41 4d 46 84 3e
       13.728705 1.3043488 17.802437 0.25834885
000070 d4 78 37 42 7c 89 08 40 55 d4 3c 3f 2f 50 51 3f
       45.867996 2.1333914 0.7376149 0.81762975

ae.decoder.tr04.weight f4 [32, 64, 3, 3]
000000 87 e0 25 bd 4f a1 6d 3e 16 bc 4d 3e 56 34 08 3e
       -0.04049733 0.23206066 0.2009128 0.13301215
000010 2d 06 a6 3e 21 51 97 3e ee 80 81 bd 10 18 d2 bd
       0.32426587 0.29554084 -0.063234195 -0.10258496
000020 f2 d1 7c 3b 33 6d 3c 3e f1 02 98 3e a0 f2 9c bb
       0.0038577286 0.18401031 0.29689744 -0.0047896653
000030 cf 17 84 3d 6a 17 89 3e 0c ba 3d 3e 0f 13 f8 bc
       0.06449854 0.26775676 0.18528003 -0.030282525
000040 7f 17 4d bb 0f f7 5d bd f6 ea de bd c7 41 f4 bd
       -0.0031294522 -0.05419069 -0.10884659 -0.119266085
000050 80 b7 fe 3c b2 81 bc bd d4 29 aa 3d b3 35 02 be
       0.031093359 -0.09204425 0.08308759 -0.12715797
000060 e4 4e 11 3e 37 7e 22 3d ea c4 4d bc 29 aa eb bc
       0.1419025 0.03967115 -0.012559155 -0.028767662
000070 ed 3b de bd cc 6b b5 3d 39 38 95 bd c0 be f9 bc
       -0.10851274 0.08858451 -0.07286114 -0.030486465
000080 f0 8a 13 be 45 6c 8c 3d 92 85 e1 3d 9a d8 05 3e
       -0.14408469 0.06856588 0.11011805 0.13070908
000090 47 1e 0e be c4 30 8a be d3 e1 7c bd c8 00 bf bd
       -0.13878737 -0.2699033 -0.0617388 -0.09326321
0000a0 bf ea 8d be 9f b2 2a be eb bc 2e 3d 86 64 b1 3d
       -0.2771816 -0.16669701 0.042660635 0.086617514
0000b0 e4 b6 b9 3c 1b e9 97 3c 52 6c fc 3b 34 ff 36 be
       0.022670217 0.01854377 0.0077033425 -0.1787079
0000c0 49 7f 7a 3d e9 28 76 3e b6 34 c9 3d 56 bc 14 bd
       0.061156545 0.24039043 0.09824507 -0.036312424
0000d0 ce 67 8c 3d d4 7b 1e 3d 43 e8 10 bd a7 7d c3 bd
       0.06855737 0.03869231 -0.035377752 -0.09545451
0000e0 44 3c d2 bd 58 6d 09 3e 71 bc f7 3c d0 b6 fa bd
       -0.10265401 0.13420618 0.030241223 -0.122419
0000f0 61 8b 2f 3e 89 ae 71 3b 53 49 58 bc d0 94 a4 3d
       0.17143013 0.0036877713 -0.013201076 0.08036196
000100 cc 23 8e 3d 97 9c 46 3d dc 4a 87 3d bf 81 a0 bd
       0.069404215 0.04848918 0.06606075 -0.07837247
000110 64 31 2b bd da 7d 97 3c db 1a 7d 3d eb 3a f1 bd
       -0.04179515 0.018492628 0.06179319 -0.11778816
000120 55 86 26 be 8b 42 3a be fc 5e e6 3c 54 54 b3 be
       -0.16262181 -0.18189447 0.028121464 -0.35025275
000130 3d 08 59 be fe d7 29 be 94 d7 a0 bb e0 a7 ec 3d
       -0.21194549 -0.165863 -0.0049085114 0.11555457
000140 7f b8 4b 3e 58 4a 35 bd a8 31 5c 3c ff 20 cc bc
       0.19894598 -0.044260353 0.013439573 -0.024918078
000150 7f 3f 51 3d a8 c3 db 3c 29 7d e7 b9 d7 8a 1e bc
       0.051085945 0.026826695 -0.00044153005 -0.009676657
000160 d9 a6 7f be 46 16 24 3d cb 89 07 3e 9a 18 67 3d
       -0.24965991 0.040060304 0.13236158 0.056419946
000170 98 ed 43 be 25 8a ce bc d9 74 a0 3d 05 32 c0 bd
       -0.19133604 -0.025212357 0.07834787 -0.093845405
000180 a3 f5 d4 bd 67 a1 31 bd 32 1b 81 be 0b ec 64 be
       -0.10398414 -0.043366816 -0.2521606 -0.22355668
000190 f6 67 11 be 84 61 15 bb 00 8a 8e bd 45 08 ad bd
       -0.14199814 -0.002279372 -0.06959915 -0.08448843
0001a0 e3 45 8e 3d 62 38 96 bd 12 67 0d bd ce dc b7 bb
       0.069469236 -0.07334973 -0.034522124 -0.0056110388
0001b0 62 b9 f2 3d b4 73 70 3e 63 59 a6 bd 39 a4 bb 3e
       0.11851765 0.23481637 -0.08122518 0.3664873
0001c0 88 0b c0 3e d1 a5 d3 ba 38 69 21 bd 73 43 db 3d
       0.37508798 -0.001614744 -0.039406985 0.10706224
0001d0 d7 c5 5b 3d 94 3a 1e be 6c bb 56 bd 19 11 b7 bd
       0.05365547 -0.15452033 -0.052424833 -0.08938808
0001e0 2e 3e 0d bf e9 ef 5e be d8 87 b7 bd c2 94 bc be
       -0.55173004 -0.21771206 -0.08961457 -0.36832243
0001f0 88 c2 01 ba 9f 88 2d be 94 0f 74 3d ef 0a 08 3e
       -0.0004949947 -0.16946648 0.05958517 0.13285421
000200 3b ce f5 bd 60 32 cd 3e 8b 25 ff 3d 15 93 ee 3d
       -0.12002226 0.40077496 0.12458333 0.116491474
000210 a0 89 39 bd a1 94 5f bd 5d 5e 93 bc 48 5f dd 3d
       -0.045297265 -0.054585103 -0.017989332 0.10809189
000220 fc ce 06 3d 76 37 b8 3b 0c d7 2b 3e dc 29 5c 3c
       0.03291224 0.005621846 0.16781253 0.013437714
000230 80 c4 a5 3c 88 cc 6e 3b 91 8f 39 be 62 50 63 3c
       0.0202353 0.0036437828 -0.18121172 0.013874145
000240 c3 60 fb bd 0d 4e 81 bb 2d fb dc be 1f a9 83 be
       -0.12274315 -0.003946072 -0.43160382 -0.25714967
000250 c8 3f 1e be 6e 64 07 bf bd 8a 6b be 30 93 91 bb
       -0.15454018 -0.5288762 -0.23002143 -0.004442595
000260 60 39 8e be 56 9d d0 3d a1 8a 18 3e 5d 40 3f 3d
       -0.2777815 0.101862594 0.14896633 0.04669224
000270 49 5d e9 3d 54 76 72 bb 21 d6 75 bc e3 af 25 3e
       0.11394746 -0.0036996799 -0.015004666 0.16180377
000280 6e d3 8f bd a1 ee d5 bc 1f 0d 4e be 25 ea 8a 3d
       -0.07022749 -0.026114764 -0.20122193 0.06782941
000290 13 ed 42 be 72 04 1f 3d 06 df 15 3c 7e f2 9c bd
       -0.19035749 0.0388226 0.009147411 -0.07663439
0002a0 51 1e 48 bd 7b 88 74 bd f0 9b aa 3d b2 37 aa 3b
       -0.048857037 -0.05970047 0.08330524 0.0051946277
0002b0 75 24 a6 3d 0e 3a 06 3e 69 8e 09 3e 30 eb 9c 3d
       0.081124224 0.13108084 0.13433231 0.07662046
0002c0 82 30 7c bd 10 c6 09 3e 6f 87 13 be e7 7c 57 be
       -0.0615697 0.13454461 -0.14407133 -0.2104374
0002d0 a1 c6 0b 3e cf d3 19 3d 02 ed 04 3e b7 e5 36 3d
       0.1364999 0.037555512 0.12981036 0.044652667
0002e0 56 c5 db 3d b5 7f 63 3d 18 67 1f 3e ae 71 b0 bc
       0.10730998 0.055541713 0.15566671 -0.021538582
0002f0 d0 b9 c3 bb 9e b0 34 bc 5e 8b 97 bd e1 2e 87 be
       -0.0059730783 -0.011028437 -0.07399629 -0.26402953
000300 0e 28 1a 3c b3 a4 93 3d 3f 1d 44 3c 42 2e 5f 3b
       0.009408964 0.07209148 0.011969863 0.0034054671
000310 ca 36 0c 3e e9 c5 36 bd ce e8 99 3d 01 f1 3f bd
       0.13692775 -0.044622336 0.07515107 -0.0468607
000320 05 11 99 bd 27 e5 81 bc 53 09 cd bc a7 d3 ed 3c
       -0.07473949 -0.015856339 -0.02502886 0.029031588
000330 39 6e 00 3e e5 f2 87 3d 29 48 6b bd 42 40 dc 3d
       0.12542047 0.06638125 -0.057441864 0.10754444
000340 43 61 16 3d 1d 40 a0 3d 31 b5 fc 3c b7 cc 23 bd
       0.03671385 0.07824729 0.030848118 -0.039990153
000350 f7 8b a2 3d 54 92 83 be 7d 51 e7 3c fd 50 d1 3c
       0.079368524 -0.25697577 0.028237099 0.025551314
000360 d0 e4 c5 3d 83 42 72 3d e9 21 e5 3d 58 ce 9c 3e
       0.09662783 0.05914546 0.111881085 0.30626178
000370 e3 65 6a 3d 3c 2b 56 3d 4c e3 03 3e 1e f5 ed bc
       0.057226073 0.052287325 0.12879676 -0.029047545
000380 5e ad 6e 3c ab 8e 5b 3d 5c 1d 7d 3d b3 5d 0d 3e
       0.014567701 0.053602856 0.061795577 0.13805275
000390 91 7d a6 be 4f 1f bc 3b 60 da 56 3e ef 0d 37 3e
       -0.32517675 0.005741037 0.20981741 0.17876409
0003a0 d6 cd be 3e 3f dd 12 3f e2 58 86 3d b1 dc 2a 3e
       0.37266415 0.57368845 0.06559922 0.1668575
0003b0 97 85 0f 3d 1d 45 0b 3e 24 e2 b5 3e 43 37 25 3e
       0.03503951 0.13600583 0.35524094 0.16134362
0003c0 3c a8 1e 3e 8e 8f 90 3e a1 42 2c bc 30 21 e0 bd
       0.15493864 0.28234524 -0.010513932 -0.1094383
0003d0 8c 2e b2 bc 65 7b 5a be ed 44 e2 bd 6b 94 0c be
       -0.02175071 -0.21336134 -0.11048303 -0.13728492
0003e0 c9 67 c2 bd 1a 7a d2 be 34 73 6e be 6a 91 22 be
       -0.09492452 -0.4110878 -0.23286134 -0.15875784
0003f0 34 d1 0f 3d d4 68 6d 3d 08 b7 42 bd 97 ac 1b bd
       0.03511162 0.0579613 -0.047537833 -0.03800639
